Models/M4/wo_sa/wo_sa_generator.pt (torch, 148841 bytes, 70 tensors)

bias f4 [32]
00000000: 1a29 fabd 0eed 83be 4660 803e 565a 5f3d
00000010: 03d0 733e 8c0e 0a3e 2915 143e bf41 3ebe
00000020: 8061 6fbe a0e6 50be 604b cd3d 47ba 473e
00000030: c74e 3e3e 3792 a03d 4cba 7b3d 0292 d93d
00000040: 85b9 2cbe c83e 2bbe 9b67 81bd 5083 a3bd
00000050: 6d60 51be 8357 4bbd ffce 0cbe 9b58 f8bd
00000060: a73c 64be d3ae 713e a1c9 7a3e a239 933e
00000070: d967 783e ea02 4dbe 467f 67be 58d5 293e
-0.12214871 -0.25766796 0.2507345 0.05452951 0.23809819 0.13482112 0.14461197 -0.18579768
-0.23377037 -0.20400476 0.10024142 0.19504653 0.18584739 0.07840388 0.061456963 0.10623552
-0.16867645 -0.16723168 -0.06318589 -0.0798403 -0.2044694 -0.049644005 -0.13750838 -0.12126275
-0.22288762 0.23601846 0.24490978 0.28754908 0.24258365 -0.20020643 -0.22607145 0.1658529

weight_orig f4 [32, 12, 1]
00000000: adfd 01be 0c46 5dbe ca6f 853e 1547 abba
00000010: 30ae 73be 1a35 29bd 2d62 f83d 5ac0 0bbe
00000020: 5029 ac3d 7087 ae3d 3865 2c3d ea7e 13be
00000030: 67f5 2e3d 4c0b 7b3c b26e 06be 9736 833e
00000040: f5f9 8ebe 7a86 5ebc 14be 483e 14fe 14bd
00000050: c3d7 353e cead 933e bd6b 1fbe 73f1 7cbe
00000060: 1169 7c3e 526f a3bd 5e9b efbd 9b0c 62be
00000070: ff15 bcbd 7399 72bd d979 683d c08d e93d
00000080: 6e52 85bd fea1 f73d 56a5 56be 1d9f bbbd
00000090: 6bd5 75be 5b5c a7bd bfe9 9c3e 6b5c c73d
000000a0: 3947 48be 3a96 97bd 378f 8c3e 1a1f 3a3e
000000b0: ba01 573d d750 603e 5be3 b3bc 797b d73d
000000c0: 0119 953e e784 f13d 272e 853d ce70 3fbe
000000d0: f7d4 5d3e 1430 5dbd 7427 65bd 6876 103e
000000e0: df7b 883e 1a0c 17be 5c1d 573e fa58 89be
000000f0: 6345 73be 32a2 d7bd 88ed 2fbd b1fc 83bd
00000100: de85 7cbe 2b44 773e 2f27 863e dff8 67bc
00000110: f663 103e 4a8c 7c3e a01b 323e 1abe 36be
00000120: b0ca 4d3d 1047 6a3e 082e c53d 34fd 39be
00000130: 9b5b a83b b008 7cbd c540 abbd 9e50 71bd
00000140: 52e1 8abe 21b0 a6bd bb46 8c3e 5343 053e
00000150: 3d12 9bbd 5347 a83d 5350 323e 9f0a 8abd
00000160: 3400 7a3e 0985 963d 08d9 54be 7b4e 5e3e
00000170: fc6d c43d f37e 753e 9204 5f3e 5f8a 8fbe
00000180: 69ca 8a3e 565e cb3d 7915 383e 03e2 db3d
00000190: 9474 6ebe 022b fa3a 3bdd a6bd 49d7 0e3e
000001a0: 94d9 94be 2ac5 953d b26b 2ebd 8444 9fbd
000001b0: f15c 62be a740 94be 3c33 17be b19d fdbd
000001c0: 3cc7 9f3d c81d 593e 769e 1e3e 5033 753e
000001d0: 6bb8 283e 7572 41be 9f4f 7e3d 911a 363e
000001e0: 532c 333e caf0 aa3d df20 17bd a6fd 8dbe
000001f0: a59d 84bd 7d00 f83d 4c25 b1bd a1ca 2ebe
00000200: 8ece e8bd e87b e73c 5bec 42be 6608 cbbd
00000210: a2a5 93bd 5067 5abe ce2c 43be a5e0 07be
00000220: 2f19 48be b6ad 83be 253f aabd 0517 8b3e
00000230: 3f28 87be ef62 bfbd e0e9 3abe 77a7 083e
00000240: ce3f 823e a4c7 b93d fd57 80be 78ce 6c3e
00000250: 7fc2 8d3c cca5 8abe 4a49 243b d6f8 3cbe
00000260: 7ddf 8d3e 4c2f 68bd 168a 17be 465a 203c
00000270: 7ebf 4dbe 23f0 91be 4335 a33d 401b db3d
00000280: 14d4 223e a8d2 3fbe 4866 74be 0527 ca3d
00000290: fcd3 183e 7061 c13d 28fd 63be 2ae4 2d3e
000002a0: bb97 7f3e 9eb3 5abe f13e 213e e337 cdbd
000002b0: 966e bbbd 25fa 9abd eca9 a13d 1bd7 063d
000002c0: a15b 78be 46be 023e fb03 543e 15a8 bdbd
000002d0: d76b 0e3e 1099 12be ee72 a7bc df5c 73be
000002e0: 5ef2 88be e1d5 403e 3684 7b3e dd3c 1cbe
000002f0: 37bc c5bd 9fb6 5fbe ec0e 75be fa00 113e
00000300: 3672 0d3e 463e 7cbe 8ea8 b6bd a8fb 863d
00000310: 3e12 9dbc 8b08 2b3e 97e0 c43d 497c b4bc
00000320: 4001 8abd 49a6 65be 3045 753e 5d96 90be
00000330: 534c 903e d511 61be 32af 8bbd 2001 2f3e
00000340: 84e1 843e 2399 46be 4e1d 1c3e eae6 72be
00000350: 6328 8abd 1ccf 8fbe 10d9 12bd 10db a9bd
00000360: d91c 4cbe ab88 61be 48b5 b13d 5759 1abe
00000370: 8cd6 933d efb1 523e 75a1 52be 64b6 06be
00000380: 7c94 88be 7c63 393e b7fb cc3d dea2 4a3b
00000390: f722 b1bb cea4 8dbd dce1 7fbe 81d7 9dbd
000003a0: 6c1b d5bd 7fee b6bd c685 b2bd 0057 4b3e
000003b0: 0df9 333e cdf4 82be 5e44 43be b1f3 3bbe
000003c0: 0e40 6a3d 6905 1d3e 03d3 3cbe 02d1 04be
000003d0: 7777 15be b7e2 5ebe 94d5 1d3e 7ca2 893e
000003e0: b601 4fbe 380b 533c 0cab 82be 9089 83be
000003f0: 00a1 e9bd 6c6b 7b3e 8284 21be 61af 4bbe
-0.12694426 -0.21608752 0.2606185 -0.0013067449 -0.23796916 -0.041310407 0.121281005 -0.13647595
0.08406317 0.085219264 0.042088717 -0.14403883 0.042714503 0.015322518 -0.13128164 0.25627586
-0.27925077 -0.013581866 0.19603759 -0.03637512 0.17758088 0.2884354 -0.15568443 -0.2470148
0.24649455 -0.07980217 -0.11699556 -0.22075121 -0.09183883 -0.05922837 0.056756828 0.1140399
-0.06509863 0.120914444 -0.20961508 -0.09161208 -0.24007194 -0.08171912 0.30647084 0.09734424
-0.1955842 -0.074017 0.27453014 0.18175927 0.05249188 0.21905838 -0.021958997 0.105215974
0.2912064 0.11792927 0.065029435 -0.18695375 0.21663271 -0.05400093 -0.05594583 0.14107668
0.26657006 -0.1475071 0.21007293 -0.26825696 -0.23756938 -0.10528983 -0.042951137 -0.064446814
-0.24660441 0.24147098 0.2620177 -0.014158457 0.14100632 0.24662891 0.1739335 -0.17845955
0.050242126 0.2287867 0.096279204 -0.18162996 0.0051378733 -0.061531723 -0.08361963 -0.058914773
-0.2712503 -0.08139063 0.27397713 0.13013963 -0.07571838 0.08216729 0.17413454 -0.06740307
0.2441414 0.07349593 -0.20785916 0.21709625 0.0959129 0.23974209 0.21779087 -0.28035256
0.27107552 0.099301025 0.17976941 0.10736468 -0.23286659 0.0019086304 -0.08147665 0.13949312
-0.2907225 0.07312997 -0.042583175 -0.0777674 -0.22105767 -0.28955576 -0.14765638 -0.12383593
0.07801673 0.21202767 0.15490136 0.23945355 0.164766 -0.18891318 0.06208765 0.17783572
0.17497377 0.08346708 -0.036896583 -0.2773258 -0.06475381 0.12109468 -0.08649692 -0.17069484
-0.11367522 0.028257325 -0.19035475 -0.09913711 -0.07209326 -0.21328473 -0.1906006 -0.13269289
-0.19540857 -0.25718468 -0.08312825 0.27166 -0.26397893 -0.09345042 -0.18253279 0.13345133
0.25439304 0.090712816 -0.2506713 0.23125637 0.017304657 -0.27079618 0.0025068098 -0.18454298
0.2770957 -0.05668573 -0.1479877 0.009787148 -0.2009258 -0.28503522 0.07969143 0.10698557
0.15901214 -0.18732703 -0.23867142 0.09870724 0.14924616 0.09442413 -0.2226454 0.16981569
0.24960224 -0.21357581 0.15746666 -0.10020425 -0.09151952 -0.075672425 0.07893738 0.032919984
-0.24253704 0.12767896 0.20704643 -0.09260575 0.13908325 -0.14316201 -0.020440545 -0.23765896
-0.2674741 0.18831588 0.24562153 -0.15257592 -0.0965504 -0.21847008 -0.23931473 0.14160529
0.138131 -0.2463313 -0.08918868 0.06590968 -0.019173738 0.16702478 0.096131496 -0.02203192
-0.0673852 -0.22426714 0.23952174 -0.28239718 0.2818323 -0.21979459 -0.06820525 0.17090273
0.25953305 -0.19394355 0.15245554 -0.23720899 -0.067459844 -0.280877 -0.03585154 -0.08293736
-0.1993288 -0.22024791 0.08677155 -0.15073143 0.07218656 0.20575689 -0.20569403 -0.13155514
-0.26675785 0.18104357 0.10008948 0.003091983 -0.0054057795 -0.069161996 -0.24988502 -0.0770712
-0.10405621 -0.08932208 -0.087169215 0.19857407 0.17575474 -0.25577393 -0.19069049 -0.1835468
0.057189994 0.15334095 -0.1843987 -0.12970355 -0.14596353 -0.21766172 0.15413505 0.26881778
-0.20215496 0.012881093 -0.25521123 -0.2569089 -0.114076614 0.24552697 -0.15773204 -0.1989112

weight_u f4 [32]
00000000: 4e18 9abe d6d1 95be 3b53 b23b 15b5 d5be
00000010: 84dd 9c3e 0200 a6be 8f26 243e c717 8a3d
00000020: 9abe 3ebd 029d cbba 26d3 723d 1e17 1cbc
00000030: d5d7 f83d 9d0b 93bd 21e5 97bc 07f9 c9bd
00000040: e35a f13d 44fd 6f3e dc16 49bd 3e58 c93d
00000050: 179a a5bc 5e42 29bd b666 373e 6ba5 36be
00000060: 672d 2f3e a686 5abe 9a8d 41be 92d8 923d
00000070: a141 5abe fd38 48be 0543 3ebe cb42 7cbd
-0.30096668 -0.29261655 0.0054420508 -0.41739717 0.30637753 -0.3242188 0.16030334 0.067428164
-0.04656849 -0.0015534463 0.059283398 -0.009526996 0.12150542 -0.071799494 -0.018541874 -0.09861951
0.117849134 0.23436457 -0.049094066 0.09831284 -0.020215077 -0.04132306 0.17910275 -0.1783654
0.17107163 -0.21340427 -0.18901673 0.07170214 -0.21314098 -0.1955299 -0.18580253 -0.061587136

weight_v f4 [12]
00000000: 176a d43e 88b0 173e 39e6 a9be ada8 18be
00000010: da8e 0c3f c777 76bd bcc6 b0be 1d1e 1e3d
00000020: 5d1f adbd 0846 debe 6960 693e afce 84bc
0.4148719 0.14813435 -0.33183458 -0.14908095 0.54905474 -0.060172822 -0.34526622 0.038602937
-0.08453248 -0.43412805 0.22790684 -0.016211836

weight f4 [32, 12, 1]
00000000: 50c0 cebd f6f7 2fbe 633b 543e b65f 88ba
00000010: 18ca 41be a492 06bd de87 c53d 5e46 debd
00000020: 5be9 883d c3cb 8a3d 6d1a 093d c497 eabd
00000030: 0425 0b3d f3a2 473c 6bd1 d5bd 0bb2 503e
00000040: 2c68 63be f1f8 30bc 5fa4 1f3e bafb ecbc
00000050: 859c 103e a0e2 6a3e b98e fdbd de27 49be
00000060: d5ba 483e d4f8 81bd 928c bebd 17c4 33be
00000070: 9f94 95bd 2eed 40bd 70e0 383d 19bc b93d
00000080: 720d 54bd 3fed c43d c8b2 2abe b735 95bd
00000090: f67f 43be 1918 85bd 6e92 793e 858b 9e3d
000000a0: 9f45 1fbe 9817 71bd 148f 5f3e a503 143e
000000b0: d8f9 2a3d 4262 323e 8b0d 8fbc 655d ab3d
000000c0: 3624 6d3e 6b11 c03d efd4 533d 4f3e 18be
000000d0: 8d69 303e bee5 2fbd d43c 36bd 2bc5 e53d
000000e0: 4b14 593e d53d f0bd da11 2b3e 8673 5abe
000000f0: 3676 41be 2a7c abbd 99e8 0bbd dded 51bd
00000100: 8bd1 48be 1fa4 443e 6d5f 553e 7c7c 38bc
00000110: 03a7 e53d dfd6 483e 67a4 0d3e 2e54 11be
00000120: e4a8 233d 9e4f 3a3e b4ce 9c3d 11e8 13be
00000130: 8ab8 853b 026e 48bd 1f30 88bd 4ce4 3fbd
00000140: 23e4 5cbe fa8e 84bd df1b 5f3e e2f6 d33d
00000150: a4a3 76bd 0ad3 853d 4cce 0d3e 488e 5bbd
00000160: 28d0 463e 3665 6f3d 9b44 29be 24ca 303e
00000170: 4c36 9c3d 733b 433e fc5a 313e 9d4d 64be
00000180: edbe 5c3e f5bb a13d a265 123e 2cdd ae3d
00000190: bea1 3dbe 608d c73a 48b4 84bd db2f e33d
000001a0: ecc0 6cbe b432 6e3d 52b3 0abd 0357 7dbd
000001b0: fd03 34be 20cc 6bbe 0a7c f0bd e0b0 c9bd
000001c0: b621 7e3d b7a9 2c3e 3f48 fc3d e8fe 423e
000001d0: ef2b 063e cbd6 19be 323d 4a3d dad1 103e
000001e0: 567c 0e3e a4f1 873d 6960 f0bc 71d7 61be
000001f0: 8aee 52bd e739 c53d bae0 8cbd 5701 0bbe
00000200: 2425 b9bd 2c10 b83c 1a03 1bbe 5f77 a1bd
00000210: cdd3 6abd 19b0 2dbe ac36 1bbe 2e1e d8bd
00000220: fa20 1fbe b66f 51be a262 87bd 7a39 5d3e
00000230: 56f8 56be b433 98bd d0a4 14be 505b d93d
00000240: f829 4f3e 76be 933d 8121 4cbe d251 3c3e
00000250: c46d 613c bb85 5cbe 36a9 023b b947 16be
00000260: eba6 613e 13a5 38bd 5206 f1bd 3001 ff3b
00000270: 5d9f 23be ba1d 68be f5ca 813d ea3e ae3d
00000280: be7d 013e 6e8c 18be 145c 42be 54c3 a03d
00000290: 0913 f33d ffc8 993d 1e4f 35be 9a49 0a3e
000002a0: 0043 4b3e f4ec 2dbe 223a 003e e436 a3bd
000002b0: 780d 95bd 217e 76bd a291 803d 0577 d63c
000002c0: 2381 45be 00f4 cf3d 109b 283e 8ed2 96bd
000002d0: 3885 e23d 632b e9bd e22a 85bc 7a89 41be
000002e0: e2d0 59be 655a 193e 1d05 483e 097f f8bd
000002f0: 853d 9dbd 86e8 31be 65e2 42be cfa0 e63d
00000300: e0f8 e03d 2499 48be ba40 91bd 0eb4 563d
00000310: 4fc4 79bc 1105 083e 5090 9c3d be8b 8fbc
00000320: 9582 5bbd 51a0 36be 7b0d 433e aef8 65be
00000330: 1882 653e 22fd 32be 8229 5ebd 562c 0b3e
00000340: fc58 533e f1ee 1dbe 8d4d f83d f22b 41be
00000350: b6ba 5bbd f2ba 64be 4b92 e9bc 8c14 87bd
00000360: 8052 22be 545b 33be 8152 8d3d e67e f5bd
00000370: bc21 6b3d b18e 273e ed81 27be 2f41 d6bd
00000380: a63b 59be 7f6d 133e d703 a33d 861c 213b
00000390: 9dd7 8cbb 6e4a 61bd 7a7e 4bbe f411 7bbd
000003a0: 477a a9bd 6d79 91bd 90f7 8dbd 99b5 213e
000003b0: 1f20 0f3e 8b49 50be a549 1bbe 4d78 15be
000003c0: a04b 3a3d ccbe f93d 9529 16be 6b3e d3bd
000003d0: 24ba edbd 9d40 31be 4309 fb3d a3e8 5a3e
000003e0: da9f 24be c1db 273c 1cd4 4fbe a536 51be
000003f0: 6dcb b9bd f6f0 473e ef72 00be 32fb 21be
-0.100952744 -0.17184433 0.20725779 -0.0010404501 -0.18924749 -0.03285469 0.09645055 -0.10853265
0.06685134 0.06777146 0.033472467 -0.11454728 0.033970848 0.012184846 -0.10440334 0.20380418
-0.22207707 -0.01080154 0.15590046 -0.028928626 0.14122207 0.22938013 -0.12380738 -0.19644114
0.19602521 -0.06346288 -0.093041554 -0.17555271 -0.07303738 -0.047101192 0.045135915 0.0906908
-0.051770635 0.096155636 -0.16669762 -0.07285636 -0.19091782 -0.06498737 0.24372265 0.07741455
-0.15553902 -0.05886039 0.21831924 0.14454515 0.041742176 0.17420295 -0.017462512 0.08367423
0.23158345 0.09378322 0.05171674 -0.14867519 0.17227764 -0.04294371 -0.044491604 0.112192474
0.21199147 -0.117305435 0.16706029 -0.21333131 -0.1889275 -0.08373292 -0.03415737 -0.051252235
-0.19611184 0.19203232 0.20837183 -0.011260148 0.112134956 0.19613217 0.13832246 -0.14192268
0.03995599 0.18194434 0.07656613 -0.14443995 0.0040808367 -0.048933037 -0.06649803 -0.04684858
-0.21571402 -0.06472583 0.21787976 0.103498235 -0.060214654 0.06534393 0.13848227 -0.053602487
0.19415343 0.05844613 -0.16530077 0.1726461 0.07627544 0.19065647 0.17319864 -0.22295232
0.21557207 0.07897178 0.14296582 0.08538279 -0.18518731 0.0015224628 -0.064796984 0.11093112
-0.23120469 0.058153823 -0.03386242 -0.06185056 -0.17579646 -0.23027086 -0.117424086 -0.09848189
0.062043868 0.16861616 0.12318467 0.19042552 0.13102697 -0.15023343 0.049374767 0.14142552
0.13914618 0.06637886 -0.029342847 -0.2205484 -0.05149702 0.096301846 -0.06878801 -0.1357473
-0.09040287 0.022468649 -0.15137902 -0.07884096 -0.057330895 -0.16961707 -0.15157574 -0.10552631
-0.15539923 -0.2045277 -0.066106096 0.21603957 -0.2099317 -0.074317366 -0.14515996 0.106131196
0.20230854 0.07214062 -0.19934656 0.18390587 0.01375908 -0.21535389 0.0019937283 -0.14675798
0.2203633 -0.045079302 -0.11768784 0.007782124 -0.15978761 -0.2266759 0.06337539 0.08508094
0.12645623 -0.1489732 -0.18980438 0.07849756 0.11868865 0.0750904 -0.17705962 0.1350464
0.19849777 -0.16984922 0.12522176 -0.07969454 -0.072779596 -0.06017888 0.06277777 0.0261798
-0.19287543 0.10153961 0.16465402 -0.07364379 0.11060566 -0.113852285 -0.0162558 -0.189001
-0.21271089 0.14975889 0.195332 -0.12133605 -0.076777495 -0.17373857 -0.19031675 0.112611406
0.10984969 -0.19589669 -0.07092424 0.052417807 -0.0152445575 0.13283183 0.07644713 -0.017522689
-0.05359133 -0.17834593 0.19048111 -0.22458145 0.22412908 -0.17479375 -0.054238804 0.13591132
0.20639414 -0.1542318 0.12124167 -0.1886442 -0.05364486 -0.22336939 -0.02851214 -0.06595716
-0.15851784 -0.17515308 0.06900502 -0.119870946 0.05740522 0.16363026 -0.16358157 -0.104616515
-0.2121416 0.14397238 0.07959717 0.0024583652 -0.004298164 -0.055002622 -0.19872466 -0.06129642
-0.08275276 -0.07103238 -0.069319844 0.1579193 0.13977097 -0.20340554 -0.15164812 -0.14596672
0.045482278 0.12194595 -0.146643 -0.1031464 -0.11607769 -0.17309804 0.12257626 0.21377806
-0.16076604 0.0102452645 -0.20295757 -0.20431001 -0.090720035 0.19525513 -0.12543844 -0.1581848

weight f4 [1, 32, 1]
00000000: d8b6 093d 62c0 bcbd d2c3 ff3d 1c9f 943d
00000010: 21a7 d5bd 00ee 44ba 38b1 8bbc c481 51bd
00000020: 7415 323d b6b7 9c3d 845d 0bbe 1683 f93d
00000030: b10f 243e 3652 d53d 2e0f 20be 22de 1abe
00000040: f5f0 31be 14e5 2cbd d044 2dbd 0360 1cbe
00000050: 7539 cfbd 9cff 843d c0e7 513b fc48 583d
00000060: 06de cd3d aaab d33d ccba 1abd 68c7 0fbe
00000070: 3e9d ec3d 6cd9 443d d090 0ebe d975 1b3e
0.03362164 -0.092163816 0.12488522 0.0725691 -0.10432268 -0.00075122714 -0.017052278 -0.051149145
0.04347749 0.076522276 -0.13609892 0.12183206 0.16021611 0.10416071 -0.1563079 -0.151238
-0.17377074 -0.042210653 -0.042301953 -0.15271 -0.10118381 0.06494066 0.0032029003 0.05280398
0.10052113 0.10335477 -0.0377758 -0.14040911 0.11553429 0.048058912 -0.13922429 0.15181674

weight f4 [1, 32, 1]
00000000: 633d 193e a03c 7dbc f466 95bd 1062 cfbc
00000010: fc9b 45bd a611 75bd 408a 6abb e8fb e63c
00000020: 4da8 0cbe 0d54 133e a01c 983c cfb4 253e
00000030: 40d0 3bbc 682f 8fbc cdd6 203e 2ebd fa3d
00000040: 3aa3 ae3d 95a4 313e 8884 11be a55b 083e
00000050: 90e7 653d bc9e d2bd 900c 11be b61c 24be
00000060: 6de9 e9bd 0064 d2bb 3b62 103e 5c39 5d3d
00000070: 291f 0e3e e82d 29bd 4428 733d c3dc 283e
0.14964823 -0.015456349 -0.072950274 -0.025315315 -0.04824446 -0.059831284 -0.003578797 0.02819629
-0.13736077 0.14387532 0.018568337 0.16182254 -0.011463225 -0.01747866 0.1570694 0.122431144
0.08527227 0.1734794 -0.14210713 0.1331621 0.05612904 -0.102841824 -0.14164948 -0.16026577
-0.114214756 -0.0064206123 0.14099972 0.05400978 0.13879074 -0.041303545 0.059364572 0.16490464

weight f4 [1, 32, 1]
00000000: 2c88 3f3d 18a8 a13c 8167 0ebe c290 9a3d
00000010: 0e9f 833d e07c ccbc f7ad 1fbe 0eae f33d
00000020: 0610 77bd 847e ddbd 5a5c 87bd 0bfb d9bd
00000030: 3a06 bf3d 9473 8b3d 7466 4f3d 400c 89bc
00000040: 3236 1cbe 5adb b03d c3dd 2b3e d173 a3bd
00000050: 88e0 9abc c0e3 4b3d 4e36 933d b7ef 113e
00000060: ee35 fabd 10b5 8dbd ba64 cc3d 3bf4 0a3e
00000070: 4ef9 df3d b678 a23d 9254 b53d 5958 d4bd
0.046760723 0.019733474 -0.13906671 0.075471416 0.06426822 -0.024961889 -0.15593706 0.11898433
-0.060318016 -0.108151466 -0.066094115 -0.10643586 0.093273595 0.06809154 0.050634816 -0.016729474
-0.15255049 0.08635588 0.16783814 -0.079810746 -0.018905893 0.049777746 0.07188092 0.142516
-0.122173175 -0.069193006 0.099801496 0.13569729 0.10936223 0.0793318 0.08854021 -0.103684135

bias f4 [32]
00000000: f2f1 803d 8aa8 03be 6bbe a8bd c578 0b3e
00000010: 0256 ff3d 6ed0 31bd 9c30 06be 42d9 12bd
00000020: c493 013d 90af c73d 2122 69ba 9340 07be
00000030: 93ef f03d a342 a23d d6da ba3b b5a1 033e
00000040: 1b21 ae3d 2d2f f3bd 4818 d8bd 8975 b13d
00000050: 3827 12be 0eff 293c 1527 0c3e 6725 d93d
00000060: 5d01 e6bd 8e0f b5bd 66fd 10be 3918 133e
00000070: 4401 f6bd cd00 ae3d ce75 0bbe 0606 983c
0.062961474 -0.12857261 -0.08239444 0.13620289 0.124675766 -0.043411665 -0.1310448 -0.035851724
0.03163506 0.09750283 -0.000889333 -0.13208227 0.11764445 0.07922866 0.005702357 0.12854655
0.08502408 -0.118742324 -0.10551506 0.08664996 -0.14272773 0.010375751 0.13686784 0.10602837
-0.11230729 -0.088408574 -0.14159164 0.14364709 -0.1201196 0.084962465 -0.13619158 0.01855756

weight_orig f4 [32, 43, 1]
00000000: 20fb afbd 4eb0 b2bc b264 8f3c d693 52bd
00000010: 6a5b cc3d 86d4 7bbd 724a 22bd 3260 44bd
00000020: 9596 08be ffc5 0a3d 6873 c8bc ba48 edbc
00000030: 2798 ca3c 162f fcbd 212b 153e b5a6 d9bd
00000040: 72c6 abbd 82ec 213d 7fe9 6dbd 20de 263d
00000050: e453 003e a35a 043d f3ce deba b88f 9e3d
00000060: 1c0c 023e 918e 01be 7e13 e33d 1f59 a6bd
00000070: 8574 f33b 0e91 d0bc 1b7b cd3d cbb3 2ebd
00000080: 4375 96bd c9d2 09be 3ea0 f3bb 3282 21bc
00000090: e3d6 d93d 887b 033e 2673 933c bd8a 1a3d
000000a0: a1f0 19be 6f3b 4c3c 6070 3c3c c279 f83c
000000b0: 79e6 bfbd e94f 103e 09ba 983b 39df 833d
000000c0: 00d9 9bbd cf9e 18be 8ee7 d13d 8827 913d
000000d0: 2b42 f0bd b290 0d3e 81a7 e8bd cf56 07be
000000e0: 5720 96bd 6233 543d fd29 f2bd de6a 0e3d
000000f0: 7114 12bd 076e 92bd e46b 30bd 78c9 bb3d
00000100: b3d5 00be 59e2 fdbd c3fe cf3c aab1 a43d
00000110: 0069 03bb 8510 0c3e 905b 14be 6b79 90bd
00000120: c315 a8bd d32a a0bd 53f1 bbbc 442c 493c
00000130: 4f89 fd3c 4221 e2bd 495a 5bbd 3b43 db3b
00000140: b1a7 d83d 0189 16be e1cc efba a271 49bd
00000150: b2df cb3c 5c72 4c3d d0dc 4dbd 8650 e8bd
00000160: 5657 20bd b5a0 d83d a167 e33c 678b 39bd
00000170: 095e 47bc a06f 41bd 4c60 b2bd ac20 c2bd
00000180: dddc 3ebd d48e 1b3d 9570 583d 35a8 89bd
00000190: 5878 c4bd d4f3 efbd 1bff aa3d 6b58 863d
000001a0: c5da fa3c e0ca 16be e93c 1f3e 9877 8d3d
000001b0: 9dd8 173e ea9e 06be 16bc c73d db63 18bc
000001c0: 625e b33d 56bb d03d c004 51bd c3ef e6bc
000001d0: 815a 07bd 65a3 d33d 1e13 323d e6fc a53d
000001e0: 2efb d73d 6c66 883d 0c6e c03d 9bbb b6bb
000001f0: 4027 07be f916 99bc 10b7 0c3e 2364 7ebd
00000200: 7299 b9bc 5497 5f3d d935 49bd 82db bf3d
00000210: a4dc c23d 63a9 023e 3546 26bc b464 1a3e
00000220: f1a3 0fbc 87b4 953a fcaa 0abe d507 a1bd
00000230: f939 ac3c 62f2 11be cce3 8abd 0e14 03be
00000240: 0a7b 0abe f6b9 8dbd 9e39 693d d3e0 f8bd
00000250: a9ab 3dbd 30d0 00be da06 b93d a05b b63c
00000260: 3f58 953d 5cc9 f4bd 9e5e c3bd 1e0a e33d
00000270: 24c4 e53b fe3d 003e 10d0 b2bd c0da e03d
00000280: c18c 933d 81af 923d d955 0c3d 49bc ccbd
00000290: af75 de3d 5bfe 3cbd 6513 11be 597a 2c3d
000002a0: b143 7b3d b55b 8eb8 c9e2 babd 5589 0dbe
000002b0: 282b a43c fe4c e13d acc0 ec3d 6247 063e
000002c0: fe42 8f3d f450 e63d ef8a e63d b506 bfba
000002d0: a4fe 8c3d 6943 aebd f2dd ee3d db1c 02be
000002e0: 723b 103e c5f6 8f3d c85a 88bd 83d3 e3bd
000002f0: 93f5 073e b850 bfbc bde5 093e 0619 34bd
00000300: e607 4f3d 3239 49ba 3cae 7ebd 1565 9abd
00000310: f556 89bb dad3 0fbe 9085 1e3e b32f d8bd
00000320: e573 a2bd 58c4 d5bc 68d2 983d fbfe 0f3e
00000330: 6507 0cbe 905b ed3c 6dee 98bd 2b75 193d
00000340: 5fdb 543d 8b46 693d 93fa 0b3e 72bf b4bd
00000350: 7e4c e4bd 3ed8 193e b8cf 063e ead5 6d3d
00000360: dd7e 083d bf25 c6bd 37fb cabc 3c80 cf3d
00000370: 57e8 09be 1c05 b7bd 3ad2 f6bd 9966 a2bd
00000380: 6591 c8bc c2b2 023e 216d 053e e690 0ebd
00000390: 3522 01bd e529 8abd f9ae 7cbd 0b1e 94bd
000003a0: 1a16 ed3c e5be 403d 3b92 b13d 8d02 16be
000003b0: 8d4d 9d3d bd56 dc3d dcea 10bd 49a7 023e
000003c0: 9dd2 073e 8c92 0ebe 03d8 8c3d 779c e0bd
000003d0: 14ae 11be 28f5 f6bb 7334 0dbd e8bd 1b3e
000003e0: 0073 2fbd 065e e23d a413 babd d6a2 d13c
000003f0: a961 69bd 42b9 a0b6 190c bdb9 995c a3bc
-0.0859282 -0.021812584 0.01750407 -0.05141052 0.09978373 -0.061481975 -0.039621778 -0.0479433
-0.13338692 0.03388023 -0.024469092 -0.028965343 0.024730755 -0.123136684 0.14567234 -0.106275
-0.0838746 0.039532192 -0.058084007 0.04073918 0.12532002 0.032313 -0.0016998932 0.07742256
0.12699932 -0.12652041 0.11087702 -0.08122467 0.0074296617 -0.025459792 0.10033246 -0.042651933
-0.07346585 -0.13459314 -0.007434874 -0.009857701 0.106366895 0.12840092 0.017999243 0.037729967
-0.15033199 0.012465342 0.011501402 0.030331496 -0.09370131 0.14092983 0.004660849 0.06439061
-0.07609749 -0.1490433 0.10249244 0.07087618 -0.117313705 0.13824728 -0.11360074 -0.13216709
-0.07330387 0.051806815 -0.11824415 0.034769885 -0.035664026 -0.07149892 -0.043071643 0.091692865
-0.1258152 -0.12396688 0.025390035 0.08041699 -0.0020051599 0.13678177 -0.14488053 -0.07054409
-0.08207276 -0.07820668 -0.02294222 0.01227862 0.030949263 -0.110415 -0.0535529 0.006691364
0.105788596 -0.147007 -0.0018295312 -0.049180634 0.02488694 0.04991375 -0.05025941 -0.113434836
-0.03914579 0.105775274 0.027759375 -0.04529896 -0.012168416 -0.047225595 -0.087097734 -0.09478888
-0.04659735 0.03797801 0.05284174 -0.06721536 -0.09593266 -0.117164284 0.08349439 0.06559833
0.030621896 -0.14725828 0.15550579 0.06907576 0.14828725 -0.13146558 0.097526714 -0.009301151
0.087582365 0.101919815 -0.05102992 -0.0281905 -0.033045296 0.103338994 0.043475263 0.08104877
0.105459556 0.066601604 0.0939599 -0.0055765635 -0.13198566 -0.018687712 0.13741708 -0.062107217
-0.022656176 0.054587677 -0.04912362 0.0936804 0.0951474 0.12759928 -0.010148575 0.15077478
-0.008767114 0.0011421599 -0.13541788 -0.07862822 0.021023737 -0.14252618 -0.0678173 -0.12800619
-0.13523498 -0.06920235 0.056939714 -0.12152257 -0.046306286 -0.12579417 0.0903451 0.022260487
0.07292222 -0.11952469 -0.09539531 0.11085914 0.007011907 0.12523648 -0.08731091 0.10979223
0.07204581 0.07162381 0.03426156 -0.0999685 0.1086229 -0.04614101 -0.14167555 0.042108867
0.061343852 -6.7881694e-05 -0.09125287 -0.1382192 0.02004011 0.11001013 0.11560187 0.13113168
0.069951996 0.11245909 0.11256968 -0.0014574142 0.06884506 -0.08508951 0.116634265 -0.1270632
0.14085177 0.070294894 -0.0665794 -0.11124327 0.13277273 -0.02335392 0.13466544 -0.043969177
0.050544642 -0.0007676064 -0.06217788 -0.07538811 -0.0041912743 -0.14045659 0.15480638 -0.10555973
-0.079322614 -0.0260946 0.07462007 0.14062111 -0.13674696 0.028974324 -0.07467351 0.037465256
0.05196702 0.05695204 0.13669805 -0.08825578 -0.11147402 0.15023896 0.13165176 0.058065332
0.03332411 -0.09675168 -0.024777992 0.10131881 -0.13467537 -0.089365214 -0.12051816 -0.07929725
-0.024483392 0.12763503 0.1302991 -0.034806155 -0.031526763 -0.06746272 -0.061690304 -0.07232293
0.028941203 0.04705705 0.086704694 -0.1464941 0.07680807 0.107587315 -0.03538023 0.12759127
0.13263936 -0.1392309 0.068771385 -0.10967343 -0.14226562 -0.007536549 -0.034473848 0.15209162
-0.042834282 0.1105309 -0.090857774 0.025590342 -0.0569779 -4.7899384e-06 -0.00036057903 -0.019941615

weight_u f4 [32]
00000000: 81e9 e1bd e08a 8bbe a3b7 0f3c e955 ccbd
00000010: b98b a0be 9260 b23e a01a 983e 2af7 d13e
00000020: 633e 5bbd 34a5 213e baa2 0a3e 182f 3abe
00000030: 54f8 79be 943c 3d3e 469a 2d3d 7831 163e
00000040: dc44 67be a048 2f3e de11 423d 3f40 1d3d
00000050: cbe8 9a3b 47cc f93c bf48 df3d 0ae7 30bb
00000060: 1a58 f139 bc9c 92bd 4422 053e 7dbf 3bbb
00000070: e8d8 88be 3557 64bd 776f f83d 6f48 1bbe
-0.110308655 -0.2725439 0.00877181 -0.099773236 -0.313566 0.34839302 0.29707813 0.41008884
-0.053526293 0.15785676 0.13538638 -0.18182027 -0.24411136 0.1848014 0.042383455 0.14667308
-0.22584862 0.17117548 0.04738032 0.038391348 0.004727458 0.030492915 0.10902547 -0.0026993179
0.00046032743 -0.07158801 0.13001353 -0.0028648071 -0.26727986 -0.05574723 0.12130635 -0.1516435

weight_v f4 [43]
00000000: fe1b d2bc e790 9ebc f912 58bd a77d af3d
00000010: 042c 5d3c da33 14bd 8cf9 81bd 6223 48be
00000020: b2f4 573d 7c64 203e 9a60 b53c 0896 143e
00000030: 3ee5 ae3c e9b3 28bc f964 8dbd dc89 bb3d
00000040: 1ff1 a9be bcca 4cbc c6f3 473e 3d33 803e
00000050: 3bb9 63be e4cc bb3d c1f9 673e 4ea8 793c
00000060: cc8f 373e a8d6 ad3e 71ef adbe 8afa a63e
00000070: 8808 56bd 3858 323e 3ee4 08bc 0777 7a3d
00000080: 7d60 1cbd 276e 60bd c2ba 763e 92bb b8bd
00000090: b895 8cbd c507 8cbd 0a94 d7bd 7246 c73d
000000a0: 3901 40bc 56ae 5ebe 2e35 b6bd
-0.025648113 -0.019356204 -0.05275247 0.08568888 0.013499264 -0.036182262 -0.063464254 -0.19544747
0.052723594 0.15663332 0.02214079 0.14510357 0.021349546 -0.0102968 -0.06904025 0.09157154
-0.33191773 -0.0124995075 0.19526586 0.25039092 -0.22238629 0.09169939 0.22653867 0.015237881
0.17925948 0.33952832 -0.33971742 0.3261302 -0.05225423 0.17416465 -0.008355198 0.06114867
-0.038177956 -0.05479255 0.2409468 -0.09020151 -0.06864494 -0.068374194 -0.10526283 0.09730233
-0.0117190415 -0.21746191 -0.08896862

weight f4 [32, 43, 1]
00000000: 48b5 b1bd a96e b4bc b5cd 903c faa4 54bd
00000010: 195d ce3d 324d 7ebd 2de5 23bd 574f 46bd
00000020: 63ee 09be 4022 0c3d 996d cabc c6a5 efbc
00000030: 6093 cc3c fda9 febd 98a2 163e cfc9 dbbd
00000040: cd76 adbd 7783 233d 8541 70bd 8e7e 283d
00000050: 2396 013e a8a6 053d 8c4d e1ba 8d1e a03d
00000060: 4953 033e 81d4 02be 1c4d e53d 01fd a7bd
00000070: 82d1 f53b 489a d2bc 9d7f cf3d 386a 30bd
00000080: 99ee 97bd a42d 0bbe 02f8 f5bb a41e 23bc
00000090: e6fa db3d ffc5 043e 53f1 943c 1d0e 1c3d
000000a0: e772 1bbe 0b4c 4e3c d642 3e3c 7bef fa3c
000000b0: 9cc9 c1bd e9ba 113e 5a5a 9a3b 7c2a 853d
000000c0: ce5e 9dbd 491e 1abe 64f7 d33d 4696 923d
000000d0: 679d f2bd f2f4 0e3e 92ef eabd dbaa 08be
000000e0: 4799 97bd 294c 563d 628a f4bd d7cd 0f3d
000000f0: 4380 13bd f5dc 93bd f924 32bd 2ba1 bd3d
00000100: 5d19 02be 4e30 00be 540b d23c b251 a63d
00000110: 9a6e 04bb 1f71 0d3e 1dd0 15be 57e5 91bd
00000120: 8cba a9bd 8fbc a1bd c9c7 bdbc d222 4b3c
00000130: 7703 003d a758 e4bd 6d81 5dbd 7365 dd3b
00000140: fac7 da3d ce03 18be 10a9 f2ba 0070 4bbd
00000150: c2e5 cd3c bd73 4e3d bee2 4fbd 9d97 eabd
00000160: 43eb 21bd 0fc2 da3d efa3 e53c 2f5b 3bbd
00000170: d75d 49bc 0f55 43bd 9721 b4bd 1608 c4bd
00000180: 5cc1 40bd f61c 1d3d ff91 5a3d fdff 8abd
00000190: 4466 c6bd 694f f2bd 39ae ac3d d7aa 873d
000001a0: 4652 fd3c 2d44 18be 80cd 203e 25d9 8e3d
000001b0: 8557 193e fdf0 07be 50b3 c93d 40cd 19bc
000001c0: 8e22 b53d 37c9 d23d cb10 53bd b53e e9bc
000001d0: 41ad 08bd 14b7 d53d cdce 333d 4c9c a73d
000001e0: 381a da3d d2be 893d 7750 c23d 2b97 b8bb
000001f0: 247c 08be e68f 9abc fa19 0e3e f273 80bd
00000200: 0068 bbbc 94ca 613d 0d30 4bbd 00bf c13d
00000210: 6ac7 c43d 88f1 033e d0e1 27bc 72e8 1b3e
00000220: c310 11bc c160 973a 5107 0cbe 589d a2bd
00000230: b1f1 ad3c 9961 13be 4640 8cbd 5c5d 04be
00000240: d7d6 0bbe 411e 8fbd b383 6b3d 3e52 fbbd
00000250: 5f87 3fbd d013 02be 95d7 ba3d 7c23 b83c
00000260: b6d0 963d e930 f7bd f948 c5bd 1545 e53d
00000270: a605 e83b a980 013e 2591 b4bd 1110 e33d
00000280: 95ff 943d 8520 943d 9db2 0d3d f1bf cebd
00000290: e5a5 e03d b9de 3ebd cd7f 12be 1430 2e3d
000002a0: c4bc 7d3d 00d1 91b8 64b8 bcbd 70ed 0ebe
000002b0: 4dcc a53c c084 e33d 5914 ef3d 9699 073e
000002c0: ecab 903d 4495 e83d 2dd0 e83d 2212 c1ba
000002d0: c564 8e3d 28f8 afbd 2837 f13d 6a63 03be
000002e0: 7ca7 113e 4362 913d 70b1 89bd bf0f e6bd
000002f0: f14b 093e 0129 c1bc f940 0b3e a9d9 35bd
00000300: b10f 513d 5cee 4aba 5898 80bd a7e9 9bbd
00000310: fd8d 8abb 303c 11be eb14 203e 5b4d dabd
00000320: 7a09 a4bd 9ad2 d7bc 1053 9a3d 8969 113e
00000330: ef66 0dbe aead ef3c 6b6e 9abd 36f9 1a3d
00000340: 44f1 563d 3492 6b3d 5d5a 0d3e b886 b6bd
00000350: 9d8b e6bd 585a 1b3e 2323 083e c92c 703d
00000360: 31d8 093d df15 c8bd 86f4 ccbc 8a8a d13d
00000370: b441 0bbe 5bd2 b8bd 183e f9bd dfff a3bd
00000380: c781 cabc 8efb 033e 9dbd 063e 13f7 0fbd
00000390: b966 02bd 1084 8bbd ab26 7fbd 1d91 95bd
000003a0: 496a ef3c e1a0 423d 7752 b33d 767a 17be
000003b0: 34d8 9e3d 6480 de3d 974f 12bd fdef 033e
000003c0: 2328 093e 49f9 0fbe 7a39 8e3d 1fd0 e2bd
000003d0: 4b1d 13be 4c6d f9bb f097 0ebd f345 1d3e
000003e0: d230 31bd 8694 e43d e2e9 bbbd 71a2 d33c
000003f0: e0ab 6bbd ec0c 1a36 b0f3 bcb9 64f4 a4bc
-0.08677155 -0.022025423 0.017676214 -0.051915146 0.10076351 -0.062085338 -0.04001348 -0.048415508
-0.13469844 0.03421235 -0.024710463 -0.029253852 0.024972618 -0.124347664 0.14710462 -0.10731851
-0.08469925 0.039920297 -0.058656234 0.041136317 0.12654929 0.03262964 -0.0017189248 0.07818327
0.1282474 -0.12776376 0.11196348 -0.082025535 0.007501782 -0.025708333 0.10131762 -0.043070048
-0.07418556 -0.1359163 -0.0075063715 -0.009956036 0.107412145 0.12966155 0.018181479 0.038099397
-0.1518055 0.012591372 0.011612615 0.030631771 -0.09462282 0.14231457 0.004710478 0.06502244
-0.07684098 -0.15050615 0.103499204 0.07157569 -0.11846428 0.13960627 -0.11471476 -0.13346426
-0.07402282 0.052318726 -0.11940457 0.035108414 -0.03601099 -0.072198786 -0.04349229 0.09259256
-0.12704988 -0.12518427 0.025640167 0.08121051 -0.0020207525 0.13812684 -0.1463017 -0.07123821
-0.08287534 -0.07897293 -0.023166554 0.0123984385 0.031253304 -0.111497216 -0.05407851 0.0067564785
0.10682674 -0.14845201 -0.0018513519 -0.04966736 0.025133971 0.050403345 -0.050753348 -0.11454699
-0.039531004 0.10681545 0.028032271 -0.045741256 -0.01229044 -0.04768854 -0.08795469 -0.09571855
-0.047059402 0.038357697 0.05336189 -0.06787107 -0.09687474 -0.118315525 0.08431668 0.06624382
0.03092302 -0.14869757 0.15703392 0.06975011 0.14974792 -0.13275523 0.09848654 -0.009387314
0.088444814 0.10292285 -0.051529687 -0.028472284 -0.033368353 0.1043531 0.043898392 0.08184108
0.10649532 0.06725849 0.09488004 -0.005633255 -0.13328606 -0.018867444 0.13877097 -0.06272115
-0.02287674 0.055124834 -0.04960637 0.094602585 0.09608348 0.12885106 -0.010246709 0.1522539
-0.008854094 0.0011549221 -0.13674666 -0.07940167 0.021233412 -0.143927 -0.06848197 -0.12926239
-0.13656174 -0.06988192 0.057498645 -0.12271546 -0.04675996 -0.1270287 0.0912315 0.022477858
0.07364027 -0.12069876 -0.09633059 0.11194817 0.0070807515 0.12646736 -0.088167466 0.11087049
0.07275311 0.07232765 0.034594167 -0.10095204 0.10969142 -0.046599124 -0.14306565 0.04252632
0.0619476 -6.953068e-05 -0.09214857 -0.13957763 0.02023902 0.111093044 0.11673803 0.13242182
0.070640415 0.11356595 0.113678314 -0.0014730135 0.06952814 -0.08592254 0.11778098 -0.12830892
0.14224046 0.0709882 -0.06723297 -0.11233472 0.13407876 -0.023579122 0.13599004 -0.04439703
0.051040355 -0.0007741207 -0.06279057 -0.07612925 -0.004228352 -0.14183116 0.1563298 -0.10659286
-0.0800962 -0.02634554 0.07535374 0.14200415 -0.13808797 0.029257622 -0.07540592 0.037835322
0.052476183 0.057512477 0.13804002 -0.08912414 -0.11257098 0.15171182 0.13294654 0.05863646
0.03365344 -0.097697966 -0.025018942 0.10231502 -0.13599283 -0.09024497 -0.121700466 -0.08007788
-0.024720086 0.12888929 0.13158269 -0.035147738 -0.031836245 -0.06812298 -0.062292736 -0.07303069
0.029225485 0.047516707 0.08755963 -0.14792809 0.07756081 0.10864332 -0.035720434 0.12884517
0.13394217 -0.14059938 0.069445565 -0.11074852 -0.14366643 -0.007611906 -0.034812868 0.15358715
-0.04325945 0.11161141 -0.09175469 0.025834294 -0.05753696 2.295531e-06 -0.00036039716 -0.020136066

weight f4 [1, 32, 1]
00000000: 4424 17be ad77 193e 5ba8 043e 9c81 0dbd
00000010: b0d5 b1bc d62c 8fbd 3044 633d 7b40 1a3e
00000020: bc3a 7dbd 593d 1fbe 1845 bb3c 6f01 323e
00000030: 97a0 0b3e 2ec5 ea3d 23f0 343e 7ff9 243e
00000040: ff22 073e f123 0bbe abaa 02be 7c75 3ebd
00000050: 78d6 e4bc 08e1 293d 086e 2ebd 1d67 05be
00000060: 727f 9f3d e8aa cbbd 0089 5d3a 00ea 9439
00000070: 2015 9abc 01e7 02be b483 823d 9c80 463d
-0.14759928 0.14987059 0.12954848 -0.034547433 -0.02170834 -0.06990974 0.05548495 0.1506366
-0.06182359 -0.15550746 0.022860095 0.1738336 0.13635479 0.1146339 0.1766973 0.161108
0.13196944 -0.1358793 -0.12760417 -0.04649876 -0.027934298 0.041474372 -0.042585403 -0.13027616
0.0778798 -0.09944707 0.00084508955 0.00028403103 -0.018808901 -0.12783433 0.06372777 0.048462495

weight f4 [1, 32, 1]
00000000: 9231 ecbd 7206 a03d 304b bfbd f8bd 803d
00000010: 4298 e6bd 811e 083e 4bce dcbd 40df 24bd
00000020: c3da 1fbe 0466 0bbd 7687 dd3d 6786 103e
00000030: 781d 2ebe 121b 21be f63d 57bd fd88 113e
00000040: c0f5 78bb a0fa 493d d094 823d ef93 1abe
00000050: 4a53 9dbd 9ec0 993d f00e 17bd dc8b 6bbd
00000060: c23e e1bd f613 87bd 5a7f bcbd 1d41 19be
00000070: d8c6 4b3d fcb3 03be e591 2a3e 80f0 c2bc
-0.11532892 0.07813729 -0.09340513 0.06286234 -0.112595096 0.13292886 -0.10781535 -0.04025197
-0.15610795 -0.034032837 0.10816853 0.1411377 -0.17003429 -0.15732983 -0.052549325 0.14212413
-0.0037988275 0.04931128 0.0637604 -0.15095495 -0.07681902 0.07507442 -0.03687948 -0.057506427
-0.10998298 -0.06595604 -0.09203978 -0.14966245 0.04975018 -0.12861627 0.16657217 -0.02379632

weight f4 [1, 32, 1]
00000000: 80be 33bc 7aed 1bbe 5355 243e 73dc 05be
00000010: 6754 1dbe 00ae e53b 7076 a7bc 85a6 18be
00000020: c1ae 34be 3a52 6fbd 084d 3a3d 9b23 153e
00000030: d0de aa3c 55b3 ebbd 0096 4ebc 3592 023e
00000040: 1b44 203e 22f7 973d 10dd d8bd feb3 d03d
00000050: 002a cdbd 0dcb 80bd 60dc 213d 41da 093e
00000060: 508d 183d d318 f0bd c56d 333e 145f c5bd
00000070: d05a c03c 7724 343e 30b8 e3bc 50d1 e8bd
-0.010970712 -0.15227309 0.16048174 -0.13072376 -0.15364228 0.007009268 -0.020442218 -0.14907272
-0.17644788 -0.058428027 0.04548362 0.14564364 0.020858198 -0.11508814 -0.012609005 0.12751086
0.1565098 0.07420184 -0.10589039 0.10190581 -0.100177765 -0.06288729 0.039516807 0.13462164
0.03724414 -0.11723485 0.17522343 -0.09637275 0.023480803 0.17592035 -0.027797788 -0.11368048

bias f4 [32]
00000000: d5f4 e83d 1288 be3d e400 19be fae3 253e
00000010: aac6 963d d1a7 3d3d 18e5 6fbd 89cc c53d
00000020: be1c 113d c6db db3b 96ab c73c 0fe1 a7bd
00000030: 803c b33b 1e48 b5bd e429 1f3e 5b55 8c3d
00000040: 1392 903d c26b 5a3d 0803 efbd 6a7d 273e
00000050: c058 b1bd 63ad 963d 158f 0a3e 0f14 533d
00000060: 4ff6 3e3c a7e3 883c da5f 153e aba8 f4bd
00000070: f486 8cbd 4ae4 043d 4612 813d dee6 093e
0.11374823 0.09303297 -0.14941746 0.16200247 0.07362111 0.04630262 -0.05856809 0.096581526
0.0354278 0.0067095486 0.02437381 -0.081972234 0.0054698586 -0.08851646 0.15543324 0.06852218
0.070591114 0.053325422 -0.116705 0.16356435 -0.08659506 0.0735729 0.13531144 0.0515328
0.011655404 0.016710116 0.14587346 -0.11946233 -0.06861678 0.032444276 0.063023135 0.13466975

weight_orig f4 [32, 43, 1]
00000000: 7594 c9bb 4433 793b 9626 013e 905c 18be
00000010: 0dbe c13d ea1b 843d be80 bd3d 609c b73d
00000020: 5c57 ea3d e4bb 0cbe 3749 833d c300 b63d
00000030: 93f8 60bc 912a 04be 2c62 83bd d8b3 10be
00000040: 2119 e93d 469f af3d dd3d febd 7be6 043e
00000050: f822 013e ef9d 45bd f138 093e 37d3 b2bd
00000060: 1de4 883d 46ba c6bd 7c32 d73d 72d7 c63d
00000070: cd95 44bd 7372 d2bd 45fc 08be 6db2 da3d
00000080: 6f0b cf3d 549a f53d 9bc5 d63d 0c80 4f3c
00000090: 8241 dcbd e862 c1bd 6f3c c13d 196c 02be
000000a0: 6326 f2bd 2345 50bd 1b42 a1bd d63a 863d
000000b0: 1f63 d7bd 556f 033e 9be0 2a3c 5231 78bc
000000c0: 1a34 ddbd 8fef 01be b80d a63d 86b7 09be
000000d0: 3046 cabd 1782 2e3d c6f3 ec3c 3126 0fbe
000000e0: e1d3 143c 9948 debc 3d02 00be c250 d3bd
000000f0: cfeb 603d ec8f f73d b441 8ebd 4c47 c63d
00000100: 2053 0e3e 7add 8a3d 0653 b03d 9804 e33c
00000110: ba0a 2fbd 09a2 02be 26e8 043e df76 8dbd
00000120: 3c9a 843d 28ed d2bd 0a48 f6bd cf7c fcbc
00000130: 890f 1b3d 3d6a 863d e4b1 00bd 0198 1e3d
00000140: 4cfa 00be 0737 d6bd b920 da3d 7ef1 3e3d
00000150: fad7 d3bd 1556 5bbd 0f3d eabd a5ef af3d
00000160: 3df5 cb3d 38a2 d03d 30ec c13d 2997 663d
00000170: 68bd 02be bd6a a03d 208e b0bc a698 e83d
00000180: 3756 8f3a 0175 7fbc dec9 05be f736 ec3d
00000190: 591d 983d 5ec8 133e 02cd a8bd 2b2c 0e3e
000001a0: 7d60 933c acf0 20bd 8d67 7bbc a412 6e3d
000001b0: 6e2a 243d 6680 a53d 9deb b83d 511b 0bbe
000001c0: 6129 99bd 2318 493d 8a40 803a a69b 603c
000001d0: 0707 bdbd 231e f8bd 20b2 b03d 7f30 ba3c
000001e0: 436b 6a3d 6ec9 923d 06f5 5ebd 6e16 11be
000001f0: abb6 98bd 8044 fc3d db32 f83c 2b79 bdbd
00000200: 6ac6 aa3d bb18 6dbd 4960 e83c 2fb2 9b3d
00000210: c9b5 07be a7a1 393c 2d85 f4bd bb3d 79bd
00000220: 41cc b63d 5b72 09be 9b87 873c cbf6 a23d
00000230: 52c7 6c3d 1d33 e2bd 9747 69bb c477 81bd
00000240: 653e a3bd eba4 0cbe da72 e8bd 160c 403c
00000250: d5ab ae3d 70d9 bebd cb61 5f3d c4b0 eb3d
00000260: 79e9 3dbd df46 5fbd 321c 21bc d901 0dbc
00000270: 7bdd dd3a 0c0b e03d 2333 8d3d 8439 c33d
00000280: 2710 d03d 51ea 113e f757 bebd aa12 413d
00000290: f6a2 033e 4aed e8bd c4a0 1dbe c61a 003e
000002a0: 717a c6bc 6826 e1bd 6a06 2e3d 0b99 443d
000002b0: c965 1fbe 1efd b93b 64e8 6dbd b9d0 babd
000002c0: a16b 11be 2af1 893c e0e7 83bc a007 08bb
000002d0: 4c38 f2bd 310d 183b 1760 13be 85b6 b43d
000002e0: 41c1 90bd 6c8d 223d b3df e9bc 8129 fe3d
000002f0: 2c57 553c 9613 e33d 5504 9cbb edc9 3cbc
00000300: 0529 ccbd bb29 0c3e f52e c7bd a15f 053e
00000310: 62b2 76bd 7e16 e53d 05cb c63d 6d2c d1bd
00000320: 1d12 803d 3d38 a6bd 0337 043e 88f2 b3bd
00000330: 86c0 c7bc c266 a2bd 43a9 5f3d fd0d fbbd
00000340: 97e9 1cbe c017 7dbd e2d6 423d 65cc 92bd
00000350: 75b7 403d a18b cdbc 1707 1dbd c8b9 053e
00000360: b86f 513c 3a8d e7bd 1056 133d abd7 10be
00000370: be87 ae3d 8e9b 05be bc79 e6bd cb9a ef3d
00000380: 2eb4 033e 0944 0ebe 4f72 5bbd 5b9b 54bb
00000390: f07c 7c3d c93a 93bd 5b01 1c3c 1815 04be
000003a0: 00e1 16bc 5597 d03d 4fb8 a03d 6cc7 9c3d
000003b0: 59ec 9cbd 893d 593c d823 463d 334d 9fbd
000003c0: 5353 f13b 5359 fbbd d4e0 5a3d 2c7a 88bc
000003d0: 9bec 163e 2096 103e 4ac2 423d f043 c13d
000003e0: fb02 fe3d d7eb 2bbd c783 183c 084a 5fbd
000003f0: 5f02 103e 4b62 c13d 4f04 f13d bd34 653a
-0.0061517307 0.0038024941 0.12612376 -0.1487906 0.094600774 0.06450637 0.09253071 0.08965373
0.11442444 -0.1374355 0.06410449 0.08886864 -0.01373114 -0.12906863 -0.06415209 -0.14131105
0.11381746 0.08575301 -0.12414143 0.12978546 0.12610996 -0.04824632 0.13400628 -0.08731692
0.06684134 -0.097034976 0.10507676 0.09709062 -0.047994424 -0.10275736 -0.13377483 0.10678563
0.10109603 0.119923264 0.10486909 0.012664806 -0.10754682 -0.09442693 0.09435355 -0.12736548
-0.11823728 -0.050847184 -0.07873937 0.06554191 -0.10516953 0.12835439 0.010429527 -0.015148478
-0.10800953 -0.1268904 0.081080854 -0.13448915 -0.098766685 0.042604532 0.028924834 -0.13979413
0.009083719 -0.027134227 -0.12500854 -0.10318138 0.054912385 0.12087998 -0.069461256 0.096815675
0.13898897 0.067805246 0.086095855 0.027712151 -0.04273484 -0.12757124 0.12979183 -0.069074385
0.0647473 -0.1029914 -0.12025459 -0.030821232 0.037856612 0.06563232 -0.03141965 0.03871918
-0.1259548 -0.104597144 0.106507726 0.046617024 -0.10343929 -0.05354889 -0.11437427 0.085906304
0.09958885 0.10187191 0.09468877 0.0562965 -0.12767565 0.07832859 -0.021552145 0.113572404
0.0010935728 -0.015591861 -0.13065287 0.11533921 0.074274726 0.14431903 -0.08242227 0.13884036
0.017990345 -0.039292023 -0.015344513 0.058123246 0.040079527 0.08081131 0.09029315 -0.13584639
-0.074785955 0.049095284 0.0009784859 0.0137089845 -0.09229856 -0.12115123 0.08627725 0.022728203
0.0572312 0.07167326 -0.05443289 -0.14168712 -0.07456716 0.12317753 0.030297687 -0.092516266
0.08338626 -0.057884913 0.028366225 0.07602345 -0.1325294 0.011330045 -0.11939464 -0.060849886
0.08925677 -0.1342253 0.016544154 0.07957228 0.057807274 -0.11044905 -0.003559565 -0.063216716
-0.07970885 -0.13734786 -0.11350031 0.0117216315 0.08528868 -0.09318817 0.054536622 0.11508325
-0.046365235 -0.054510947 -0.009833382 -0.008606398 0.0016926968 0.10939607 0.06894519 0.095324546
0.10159331 0.14249541 -0.09294122 0.04713694 0.12855133 -0.11373384 -0.15393358 0.12510213
-0.024228306 -0.109936535 0.042486586 0.047997516 -0.15566172 0.005675926 -0.058082953 -0.09121842
-0.14201213 0.016838629 -0.016101778 -0.0020756498 -0.11827144 0.0023201222 -0.14392124 0.08823875
-0.0706811 0.03968565 -0.02854905 0.1241026 0.013021272 0.1108772 -0.0047612586 -0.011522752
-0.09968761 0.13687794 -0.09725753 0.13024761 -0.060228713 0.11185931 0.09706692 -0.10213552
0.06253455 -0.08116195 0.1291161 -0.087864935 -0.024383795 -0.07929756 0.05460478 -0.122585274
-0.15323482 -0.061790228 0.04756821 -0.071678914 0.04704996 -0.025090994 -0.03833684 0.13059151
0.0127829835 -0.11306234 0.035970747 -0.14144771 0.085219845 -0.1304762 -0.11253688 0.11699446
0.12861702 -0.13893141 -0.05357581 -0.0032441232 0.061642587 -0.07188947 0.009521808 -0.12898672
-0.009208918 0.10185114 0.07847654 0.07655224 -0.07662267 0.0132593 0.048374027 -0.077783965
0.0073646693 -0.122728966 0.05343707 -0.016659819 0.14738695 0.14119768 0.04754857 0.09436786
0.12402912 -0.04197296 0.009308762 -0.05451396 0.14063405 0.09442576 0.117684 0.00087435154

weight_u f4 [32]
00000000: b6d8 ae3d 7a2a 8ebe fec9 cbbe 85f8 b0bd
00000010: 8798 ca3d a172 a4bd 246e 9fbd c403 14bc
00000020: 3577 debd 5daa a9be 308e eb3d 19a1 0a3e
00000030: 15b9 5b3e 9d3a 92be ef4f 76bc 8569 e8bd
00000040: eae4 87be 331e bdbd f90f 813d 261d 69bd
00000050: 69f5 613e 61aa 1a3e f4e6 b6be 002c 503d
00000060: e6a2 32be 3008 82be af34 47be 1655 5b3c
00000070: a4e4 863c 1cba b1bd f716 853d 2eae c73c
0.08537428 -0.27766782 -0.39802545 -0.08641151 0.098923735 -0.08029676 -0.077846795 -0.009034101
-0.10862581 -0.3313779 0.115017295 0.13538016 0.21457322 -0.28560343 -0.015033706 -0.11348251
-0.26541835 -0.09234276 0.06301875 -0.056912564 0.22066273 0.15104057 -0.35723078 0.05082321
-0.17444953 -0.25396872 -0.19453691 0.013386985 0.016466446 -0.08678076 0.06498521 0.024375048

weight_v f4 [43]
00000000: 4a05 aebd c0b2 c8bd 93cc 61be ac9d 86bd
00000010: 5fca 9fbd c0ae 433e d8d4 5a3e 891f 26be
00000020: 4ee6 8bbc 1393 28be 7afb 2abe 3bb5 e5bd
00000030: 6537 a03e 356f 1abe 1773 aebd e864 99be
00000040: da20 9a3e 1917 72be f4c6 01be 7fa9 593d
00000050: b741 d9bd f78b c83d 3f32 cabd 0ef0 a0bd
00000060: 23c2 ba3c 902c 603d 25cf 923d 3e67 4cbe
00000070: a8d4 26bd e34c 3bbd cc3e 253e 330c 3e3e
00000080: 3da2 39bd e357 d7bd 5308 aabd f6c5 5abe
00000090: 5b7d 95bd 0c0d f33d 1fd6 933d ec0a a8be
000000a0: eb1b a8bc 7500 d8bc 8aee 01be
-0.084971026 -0.09799719 -0.22050695 -0.06573042 -0.07802271 0.1910963 0.21370256 -0.16222967
-0.017077591 -0.16462354 -0.16697493 -0.112162076 0.31292263 -0.15081485 -0.085180454 -0.29959798
0.3010319 -0.23641624 -0.12673551 0.05314016 -0.10608237 0.09792321 -0.09872865 -0.07858287
0.02279765 0.054729998 0.07168416 -0.19961259 -0.04073015 -0.04572762 0.16137236 0.18559341
-0.045320738 -0.1051481 -0.08302369 -0.21364579 -0.072993 0.11867723 0.07218575 -0.32820833
-0.020521125 -0.026367405 -0.12688652

weight f4 [32, 43, 1]
00000000: cf9c c5bb 9a61 743b 0f45 fd3d a864 15be
00000010: 26f8 bd3d 038a 813d 16cf b93d 8108 b43d
00000020: 44c7 e53d 92fd 09be 96ba 803d d574 b23d
00000030: 849a 5cbc 2397 01be 63d3 80bd 44e2 0dbe
00000040: 0e8f e43d c935 ac3d 8d4a f9bd c14f 023e
00000050: 3a3f fd3d 5dc5 41bd 8e8c 063e 4858 afbd
00000060: c13a 863d 07db c2bd fe03 d33d 02f8 c23d
00000070: e2c0 40bd 8c58 cebd 0f51 06be 606e d63d
00000080: 1003 cb3d c1d1 f03d d196 d23d 6c79 4b3c
00000090: 64f4 d7bd 439f bdbd 0478 bd3d a1c3 ffbd
000000a0: f471 edbd 2d37 4cbd d91d 9ebd 349d 833d
000000b0: 8a32 d3bd bedf 003e 168d 273c b058 73bc
000000c0: 9be4 d8bd e2ce febd 43d1 a23d 8808 07be
000000d0: 1c55 c6bd 3719 2b3d b64c e83c 1e5c 0cbe
000000e0: 73ec 113c 76f5 d9bc a808 fbbd 3132 cfbd
000000f0: 2c89 5c3d 5abb f23d 5f7c 8bbd b769 c23d
00000100: 5a8d 0b3e b328 883d f0e3 ac3d 4d9b de3c
00000110: ff9f 2bbd 4a16 00be 0351 023e c8b5 8abd
00000120: 3704 823d cad0 cebd 657b f1bd bc9a f7bc
00000130: eb08 183d 79cc 833d 7a5c fcbc 5683 1b3d
00000140: 71ee fcbd 940a d2bd 50e0 d53d f637 3b3d
00000150: deb7 cfbd 1b13 57bd 1ead e5bd 7781 ac3d
00000160: 05fc c73d 0e92 cc3d 8225 be3d 761b 623d
00000170: ca2f 00be 234b 9d3d b51c adbc 1211 e43d
00000180: 0871 8c3a 6f7d 7abc d52d 03be 3e9d e73d
00000190: 1227 953d 76e7 103e 2a81 a5bd ce66 0b3e
000001a0: ca82 903c 7ccd 1dbd 8289 76bc 5e72 693d
000001b0: 29f9 203d e347 a23d 6052 b53d bd64 08be
000001c0: 4b2d 96bd 232d 453d 2f93 7b3a c73b 5c3c
000001d0: 5457 b9bd 2747 f3bd 3b40 ad3d ac8a b63c
000001e0: c4d9 653d 7aed 8f3d 149f 5abd e342 0ebe
000001f0: 25bd 95bd 5b5b f73d f95e f33c 31c8 b9bd
00000200: 9572 a73d 1d7d 68bd a0d5 e33c c4aa 983d
00000210: 1010 05be 4b01 363c 6ac1 efbd 1a60 74bd
00000220: b33c b33d 97c4 06be baed 843c 6dc9 9f3d
00000230: 0e27 683d f2ca ddbd d772 64bb 4ce1 7dbd
00000240: 3210 a0bd 13e7 09be 82ea e3bd 4e3a 3c3c
00000250: 6b44 ab3d d621 bbbd a406 5b3d 4319 e73d
00000260: 0834 3abd 60eb 5abd 2af7 1dbc 8b31 0abc
00000270: fd9c d93a 61ad db3d 2e73 8a3d f66a bf3d
00000280: 6e04 cc3d 9412 0f3e 86a1 babd ab51 3d3d
00000290: b914 013e 1765 e4bd 878f 1abe 7835 fb3d
000002a0: f99a c2bc 03c4 dcbd 28a2 2a3d 8dc3 403d
000002b0: ba4a 1cbe 3661 b63b d044 69bd 362d b7bd
000002c0: 6a96 0ebe e341 873c 8756 81bc 215f 05bb
000002d0: 8180 edbd 051a 153b 0d81 10be c130 b13d
000002e0: b5ef 8dbd fc62 1f3d 2051 e5bc 1f36 f93d
000002f0: ba2b 513c 95a7 de3d 9ffa 98bb fb1c 39bc
00000300: 9a2e c8bd b06e 093e 464d c3bd 78c6 023e
00000310: fde4 71bd 00a0 e03d a2ec c23d 0c19 cdbd
00000320: 8628 7b3d 3efb a2bd c6a3 013e 4671 b0bd
00000330: 05df c3bc a13c 9fbd 8c4f 5b3d 152b f6bd
00000340: c8da 19be 6729 78bd f90a 3f3d 9bf0 8fbd
00000350: e8f5 3c3d fa88 c9bc d5f7 19bd 3920 033e
00000360: 075d 4d3c d80a e3bd e175 103d fc04 0ebe
00000370: 3f22 ab3d 5b01 03be bbfc e1bd 1bee ea3d
00000380: de22 013e 2a7f 0bbe 932e 57bd 554f 50bb
00000390: af91 773d f65c 90bd bbf1 183c d182 01be
000003a0: cf06 14bc 7d87 cc3d 8096 9d3d dcb9 993d
000003b0: dadd 99bd d109 553c c446 423d b532 9cbd
000003c0: f3a6 ec3b 4d73 f6bd 1c9f 563d e3cb 85bc
000003d0: 67fc 133e 24c6 0d3e f9f6 3e3d 427f bd3d
000003e0: cf10 f93d d995 28bd 226f 153c dded 5abd
000003f0: ae34 0d3e af9d bd3d 3d52 ec3d e2f0 5f3a
-0.006030656 0.003728962 0.123666875 -0.14589179 0.09275846 0.06325152 0.09072702 0.087906845
0.112196475 -0.13475636 0.062855884 0.0871369 -0.013464574 -0.1265531 -0.06290319 -0.13855845
0.11160098 0.08408696 -0.121724226 0.12725736 0.12365575 -0.04730736 0.13139555 -0.0856176
0.06554175 -0.095144324 0.10303496 0.0951996 -0.047058947 -0.10075483 -0.13116859 0.10470271
0.099126935 0.117587574 0.10282672 0.012419086 -0.10544661 -0.092588924 0.09251407 -0.12488485
-0.115940005 -0.049857307 -0.07720537 0.064264685 -0.10312374 0.12585351 0.010226509 -0.014852688
-0.10590478 -0.124418035 0.0795007 -0.13186848 -0.09684202 0.041772094 0.028356891 -0.13707015
0.008906472 -0.026606303 -0.122575104 -0.10116995 0.053841755 0.11852141 -0.06810831 0.0949282
0.1362814 0.06648388 0.08441913 0.027173663 -0.04190063 -0.12508503 0.12726216 -0.06772953
0.0634846 -0.10098417 -0.11791114 -0.03022515 0.03711788 0.064354844 -0.030805815 0.03796705
-0.123501666 -0.10255924 0.10443175 0.045707665 -0.10142492 -0.052508455 -0.1121466 0.08423131
0.09764866 0.09988795 0.09284498 0.05520197 -0.1251823 0.07680347 -0.021131853 0.111360684
0.0010714838 -0.015288695 -0.12810452 0.113092884 0.07282843 0.14150795 -0.08081277 0.13613436
0.01764049 -0.038526043 -0.015047433 0.056993835 0.039300118 0.079238676 0.088536024 -0.13319679
-0.07332858 0.04813875 0.0009596822 0.013441986 -0.0904986 -0.118788056 0.084595166 0.02228292
0.05611588 0.07027717 -0.053374365 -0.13892703 -0.07311467 0.120779715 0.029708372 -0.090713866
0.08176152 -0.056759942 0.027811825 0.07454446 -0.12994409 0.011108707 -0.11706813 -0.059661962
0.08751812 -0.1316093 0.016226638 0.07802091 0.05667787 -0.10829724 -0.003485849 -0.061982438
-0.07815589 -0.13467054 -0.11128713 0.01148851 0.08362659 -0.09137313 0.05347313 0.11284115
-0.045459777 -0.053447127 -0.009641448 -0.0084346635 0.0016602572 0.10726429 0.0676025 0.09346573
0.099617824 0.1397193 -0.091128394 0.046220463 0.12605561 -0.11152094 -0.15093814 0.12266058
-0.023755537 -0.10779574 0.04165855 0.04706149 -0.15262881 0.0055657877 -0.05695039 -0.0894417
-0.13924566 0.01651091 -0.01578833 -0.002035089 -0.11596776 0.0022751105 -0.14111729 0.08651877
-0.06930486 0.03891276 -0.027992785 0.12168526 0.012766773 0.108718075 -0.0046685482 -0.011298413
-0.097745135 0.1342113 -0.09536223 0.12771022 -0.05905627 0.109680176 0.095177904 -0.10014543
0.061317943 -0.07958077 0.12660131 -0.08615355 -0.023910055 -0.07775236 0.05354266 -0.12019936
-0.15024865 -0.06058636 0.046641324 -0.07028314 0.046132952 -0.024601448 -0.037589867 0.1280526
0.0125343865 -0.11086053 0.035268668 -0.13869089 0.08356141 -0.12793486 -0.11034533 0.11471196
0.12610957 -0.13622728 -0.05253465 -0.0031785567 0.06044167 -0.07048981 0.009334977 -0.12647559
-0.009034826 0.0998678 0.07694721 0.07506153 -0.07513018 0.013002829 0.04743077 -0.07626859
0.0072220503 -0.12033711 0.052397832 -0.016332572 0.14451753 0.13845116 0.04662225 0.09252788
0.12161409 -0.04115853 0.009120734 -0.0534495 0.13789627 0.092585914 0.11539123 0.0008542669

weight f4 [1, 32, 1]
00000000: 6072 6f3d ca2b a53d 18f4 2fbd 213f 163e
00000010: 37f5 273e 6b20 2bbe 7041 cebc 0028 d3ba
00000020: ee95 34be cc6c 2abd fbca 193e c835 763d
00000030: e9d8 223e 9563 02be c099 e53c 800f f7bb
00000040: 960f 973d 00b9 abbb c919 19be d6c1 e83d
00000050: 809d eb3c 06b5 fcbd 6105 0cbe bdec a4bd
00000060: 9eb7 873d 2ea6 bd3d 3c0f b5bd 020b a53d
00000070: a86a 0abe 207c 9f3c 2098 e63b 3f94 323e
0.058458686 0.08064993 -0.042957395 0.1467252 0.16402136 -0.16711585 -0.025177687 -0.0016109943
-0.17635319 -0.041607663 0.15018837 0.060109884 0.15903057 -0.127333 0.028027415 -0.0075396895
0.0737602 -0.0052405596 -0.14951243 0.11365096 0.028761625 -0.12339215 -0.13673927 -0.08052967
0.06626819 0.09260212 -0.08840796 0.0805874 -0.13517249 0.019468367 0.0070371777 0.17439364
