Models/M4/wo_sa/wo_sa_discriminator.pt (torch, 119233 bytes, 68 tensors)

weight f4 [121, 10]
0	0xbfab1000	-1.3364258
1	0xc0023a94	-2.0348253
2	0x3e8aa266	0.27077025
3	0x3f24be67	0.6435303
4	0xbdee155b	-0.11625167
5	0xbf26632b	-0.6499507
6	0xbf652410	-0.8950815
7	0xbe3d4d65	-0.18486555
8	0x3ea97f8f	0.33105132
9	0xbfd713a5	-1.680287
10	0xbd9012d4	-0.07034841
11	0x3f0e59f0	0.55605984
12	0x3f82b6f8	1.0212088
13	0x3e9ef96d	0.31049672
14	0x3f7eab96	0.9948057
15	0xbfe46df5	-1.7846056
16	0x3f635328	0.8879876
17	0xbf6c84f2	-0.9239036
18	0x3ef9a379	0.48757532
19	0xbf0114c1	-0.5042229
20	0x3f18fe01	0.5976258
21	0xbf33f1b8	-0.7029071
22	0x3ea2a06f	0.31763026
23	0x3b0e1740	0.0021681339
24	0xbc8801f5	-0.016602496
25	0xbf348462	-0.705145
26	0x3f245582	0.64192975
27	0xbfb5976e	-1.4186838
28	0xbf498f2a	-0.78734076
29	0xbde29c16	-0.11064927
30	0xbe8b9fc9	-0.27270344
31	0x3f9d6a27	1.229802
32	0xbecac8cd	-0.39606324
33	0xbf8740c2	-1.0566638
34	0x3f3965ff	0.7242126
35	0x3f3f6d9c	0.74776626
36	0xbf63399c	-0.8875978
37	0xbe4acd84	-0.1980496
38	0x3f03b742	0.51451504
39	0xbf17019a	-0.5898682
40	0xbf03e504	-0.51521325
41	0x3fb72736	1.4308841
42	0x3fb202d0	1.3907108
43	0x3f269120	0.65065193
44	0xbf346c6f	-0.70477957
45	0x3f27e4de	0.655836
46	0x3ff23a17	1.8923978
47	0xbe4b5717	-0.19857441
48	0x3ee6da52	0.4508844
49	0x3f9c0466	1.2188842
50	0x3ec45e37	0.3835313
51	0x3fa2d5ff	1.2721556
52	0xbe478d4b	-0.19487493
53	0x3f9f8305	1.2461859
54	0xbf11483e	-0.5675086
55	0x3fa2c031	1.2714902
56	0x3f52e641	0.8238259
57	0xbf9cd80c	-1.2253432
58	0xbfa0983c	-1.2546458
59	0x3ea0b12f	0.3138518
60	0x3fc40998	1.5315428
61	0x3f80b690	1.0055714
62	0xbf88c5c8	-1.0685358
63	0xbf9c7cf6	-1.2225635
64	0xbd9f154e	-0.077677354
65	0xbc65ebba	-0.014033252
66	0x3d674d84	0.05647041
67	0x3f21d9a1	0.632227
68	0x3f739c47	0.95160335
69	0x3f7034b9	0.9383045
70	0x3f9f6087	1.2451333
71	0xbf166e9d	-0.5876253
72	0x3fb1913f	1.387245
73	0x3f9a7768	1.206769
74	0x3f285424	0.6575339
75	0x3f40fce1	0.7538586
76	0x400f3954	2.237874
77	0x3f35130e	0.707322
78	0xc006079d	-2.0942147
79	0x4003c3a2	2.0588155
80	0x400808fb	2.1255481
81	0xbf8459cf	-1.0339907
82	0xbf3a8998	-0.728662
83	0x3ea03b97	0.31295463
84	0xc02002fa	-2.5001817
85	0xbecc3a35	-0.39888158
86	0xbfcc98a1	-1.5984079
87	0xbfdd2ebf	-1.7279891
88	0xbec8301f	-0.39099213
89	0xbec51523	-0.3849269
90	0xbd919fbb	-0.07110544
91	0xbf896cbd	-1.0736309
92	0x3d34614a	0.044038095
93	0xbedc1eb3	-0.42992172
94	0xbf9ac429	-1.2091113
95	0xc00c5344	-2.1925821
96	0xbfaa96c3	-1.3327259
97	0xbf4ffdc6	-0.812466
98	0x3ee7b3ba	0.45254308
99	0x3ec3885d	0.38189974
100	0xbfda20c4	-1.7041249
101	0xbfc0012a	-1.5000355
102	0xbd164331	-0.036685172
103	0x3eaaec16	0.33383244
104	0xbf270d52	-0.652547
105	0xbed8fc92	-0.42380196
106	0xbf9f2ca8	-1.2435503
107	0xbf2523fe	-0.64508045
108	0x3f3b187f	0.73084253
109	0x3f9ffbf0	1.249876
110	0xbf5aa018	-0.85400534
111	0xbf930a35	-1.148749
112	0xbebb5786	-0.36590213
113	0xbfcd56e4	-1.6042142
114	0xbe7f8ede	-0.24956843
115	0x3dfae4f5	0.12250701
116	0x3fc7a3ff	1.5596923
117	0xbf398827	-0.72473377
118	0xbf2085e9	-0.6270433
119	0x3f26251b	0.6490037
120	0x3e0ec9b6	0.13944134
121	0x3d02feda	0.031981327
122	0xbf412889	-0.75452477
123	0x3d08140d	0.033222247
124	0x3f86fd9e	1.0546148
125	0xbed5bdc5	-0.41746345
126	0x3f2fa32a	0.68608344
127	0x3d5030c2	0.05082775
128	0x3db45280	0.08804798
129	0x3f3fc697	0.749124
130	0x3f121ce4	0.57075334
131	0x3f2f030d	0.6836403
132	0xbf189a37	-0.59610313
133	0xbf0356a3	-0.5130407
134	0x3fb4c751	1.4123327
135	0x3f44bb3f	0.76848215
136	0x3f9376fb	1.1520685
137	0xbe4696b2	-0.19393423
138	0xbfd10c21	-1.6331826
139	0x3fc68242	1.5508502
140	0xc003cc8e	-2.05936
141	0xbf4c7356	-0.7986349
142	0x3f986564	1.1905942
143	0x3ff19bda	1.8875687
144	0xbf98505a	-1.1899521
145	0x3fd9abce	1.7005556
146	0x3f819cd7	1.0125989
147	0xbfdc1247	-1.7193078
148	0x3f8fc523	1.1232036
149	0x3f7158f9	0.94276386
150	0x4002a7a6	2.0414824
151	0x3fa997e7	1.3249482
152	0x3ef35fd8	0.4753406
153	0x3d975f4d	0.07391224
154	0xbf6b1dfe	-0.9184264
155	0x3f9de89c	1.2336612
156	0xbe67114a	-0.22565189
157	0xbf8633cd	-1.0484558
158	0x3ddc0bdb	0.10744449
159	0xbf8b0142	-1.0859759
160	0xbf90222c	-1.1260428
161	0x3ed08cee	0.4073252
162	0xbf606e5c	-0.87668395
163	0x3fa6c4d0	1.3028812
164	0x3fc595e3	1.5436367
165	0x3d93cc46	0.072166964
166	0xc02f658b	-2.7405727
167	0xbf822d5d	-1.0170094
168	0xbf4c629c	-0.79837966
169	0xbff851ad	-1.9399925
170	0xbeafbcb2	-0.3432365
171	0xbfbbcb8a	-1.467149
172	0x3fbeeab9	1.4915382
173	0x3f5afac1	0.8553887
174	0x3eeeb929	0.4662564
175	0x3df9ae7b	0.12191483
176	0x3ee03e13	0.4379736
177	0xbf32230c	-0.6958473
178	0x3d4efe54	0.050535515
179	0x3fa13ef0	1.2597332
180	0x3ecc2df0	0.39878798
181	0xbeefb2a0	-0.46815968
182	0xbf9643f6	-1.173949
183	0x3f21004f	0.62891096
184	0x3ea76bc5	0.3269941
185	0x3fa7a69a	1.3097718
186	0xbec9341f	-0.39297578
187	0xbfa7c0b6	-1.3105686
188	0x3f449fba	0.76806223
189	0x3d0ca607	0.034338024
190	0xbf64a679	-0.8931652
191	0x3fca7aef	1.5818766
192	0xbd35088f	-0.044197615
193	0x3f97af06	1.1850288
194	0x3e96bcb5	0.29440847
195	0x3f40fe91	0.7538844
196	0xbea4e65a	-0.32206994
197	0x3f57a689	0.8423849
198	0xbf131bdf	-0.574644
199	0xbea951b9	-0.33070162
200	0x3fd6a0fa	1.6767876
201	0xbf6a790e	-0.91590965
202	0x3e03e078	0.12878597
203	0x3efb0ec4	0.49034703
204	0x3f6f8b18	0.93571615
205	0x3f8bd2b3	1.0923675
206	0xbf150c88	-0.58222246
207	0x3fba96b4	1.4577241
208	0x400397af	2.056133
209	0xbec093d4	-0.37612784
210	0xbf79f6dc	-0.976423
211	0xbfb9730d	-1.4488236
212	0x3fb55a52	1.4168189
213	0x3f296dbc	0.66183066
214	0x3eee5e67	0.46556398
215	0xbfb75122	-1.4321635
216	0x3fe943d0	1.822382
217	0x3d6caec0	0.057783842
218	0xbf891666	-1.070996
219	0x3fbf0d28	1.492589
220	0x3e7b817a	0.2456111
221	0xbf197db0	-0.5995741
222	0x3e0c8b32	0.13724974
223	0x3eefd613	0.46843013
224	0x40144034	2.3164186
225	0x3f1e0bec	0.6173694
226	0xbf5aa965	-0.85414726
227	0xbfd4efe7	-1.6635712
228	0x3e626091	0.2210715
229	0x3ddb76bc	0.10716006
230	0x3fa408c3	1.2815174
231	0x3fdf7748	1.7458277
232	0x3e7a7995	0.24460442
233	0xbeb9904f	-0.3624291
234	0xbf785c7e	-0.9701613
235	0xbf31bbbc	-0.69427085
236	0xbefb388a	-0.49066573
237	0xbf86f6eb	-1.0544103
238	0xbe9bd11d	-0.30432978
239	0xbe8c20ef	-0.27368876
240	0x3f5219f3	0.82070845
241	0x3fb1796e	1.3865182
242	0x3eafca0a	0.3433383
243	0x3d641edf	0.055693503
244	0x3f5b3631	0.85629565
245	0x3e405632	0.18782881
246	0x3ed3f9c0	0.41401482
247	0xbe66a775	-0.22524817
248	0x3fc3ff32	1.5312254
249	0xbf9ed616	-1.2409084
250	0x3de56ca8	0.11202365
251	0xbf70e591	-0.9410029
252	0x3fd8027b	1.6875757
253	0xbde735e1	-0.112895735
254	0x3f12a898	0.57288504
255	0xbf2d6fba	-0.67748606

bias f4 [32]
0	0xbe534d79	-0.20635022
1	0x3d0af219	0.03392229
2	0xbddbf7f4	-0.10740653
3	0x3e82d377	0.2555196
4	0x3b823b0a	0.003974323
5	0xbe32c49b	-0.17457812
6	0x3e3e9fe2	0.18615678
7	0xbe834d94	-0.25645125
8	0x3c90b8c3	0.017666226
9	0xbdd98b5d	-0.106222846
10	0xbe83e12e	-0.25757736
11	0x3e0a75de	0.13521525
12	0xbe1f8e1c	-0.15581554
13	0x3d9682e4	0.07349184
14	0x3d1f9dfa	0.038969018
15	0x3e23ee05	0.16008766
16	0xbddf1dad	-0.10894332
17	0x3d1ad28e	0.037798457
18	0xbe6fb9ad	-0.23410673
19	0xbe6150c4	-0.22003466
20	0xbcb007d4	-0.021488108
21	0x3e8da9b5	0.2766854
22	0xbe383457	-0.17988716
23	0xbd2e8ab8	-0.04261276
24	0x3d85d14b	0.0653406
25	0x3e49bfbf	0.19702052
26	0x3d14c5d6	0.036321484
27	0x3e7d8ef8	0.2476157
28	0x3e6ac01a	0.22924843
29	0x3e79809f	0.24365471
30	0x3e354795	0.17703088
31	0x3c18802b	0.009307901

weight_orig f4 [32, 12, 1]
0	0xbe47dee2	-0.19518617
1	0x3da36e7f	0.0798006
2	0xbe5917c7	-0.21200477
3	0x3cc00faf	0.023444979
4	0xbdec0972	-0.11525239
5	0xbdfef235	-0.12448541
6	0xbe450dd8	-0.19243562
7	0xbd552515	-0.052037317
8	0xbddecd20	-0.10878968
9	0x3e27431d	0.16334195
10	0x3d228f3a	0.039687373
11	0xbe5c9fb3	-0.21545295
12	0xbe6dc80e	-0.23220846
13	0x3d2bc577	0.041936364
14	0xbdcd3609	-0.10020072
15	0xbe25a621	-0.16176654
16	0xbe2201aa	-0.15820947
17	0xbe12f4f6	-0.14351258
18	0x3d495a3e	0.049158327
19	0x3e4eba19	0.20188178
20	0x3dc63b44	0.09679273
21	0xbd26c59f	-0.04071581
22	0xbd3895cd	-0.045064736
23	0x3e2d2403	0.16908269
24	0xbe3c1af1	-0.18369652
25	0xbe26882f	-0.16262887
26	0xbe541872	-0.2071245
27	0x3e854ab2	0.2603355
28	0x3e0ee58f	0.13954757
29	0x3cafd8c3	0.021465665
30	0x3e30708b	0.17230432
31	0x3d257710	0.04039675
32	0xbd3a9b33	-0.045558166
33	0x3e57600d	0.21032734
34	0xbba51c55	-0.005038778
35	0x3e627483	0.22114758
36	0xbd1d51be	-0.038408034
37	0xbdf1fee3	-0.11816194
38	0xbe8a8f21	-0.27062324
39	0xbe161421	-0.14656116
40	0x3e047ce9	0.12938274
41	0xbbd99436	-0.0066399826
42	0xbe1e9896	-0.15487894
43	0xbd052b95	-0.032512266
44	0xbd6b9403	-0.0575142
45	0xbe4da96b	-0.20084159
46	0xbd8b02b4	-0.06787625
47	0xbd28dbad	-0.041225124
48	0x3e14dd75	0.14537604
49	0xbd4dc004	-0.05023195
50	0x3e7ac51b	0.24489252
51	0xbe68e511	-0.22743632
52	0xbe532a4b	-0.20621602
53	0x3c4fb065	0.012676333
54	0xbd936e7b	-0.07198807
55	0x3c67a4a8	0.014138378
56	0xbe8b5808	-0.272156
57	0xbe64cd75	-0.22344
58	0xbe330166	-0.17481002
59	0xbdeb82f3	-0.11499586
60	0xbe66ec9b	-0.22551195
61	0xbe950130	-0.29102468
62	0x3cd5696a	0.026051242
63	0xbe4af213	-0.19818906
64	0x3e65cd9c	0.22441715
65	0x3d0b4fda	0.0340117
66	0x3de956e3	0.113935255
67	0xbdae524b	-0.0851179
68	0xbe357605	-0.17720802
69	0x3e3475bd	0.17623039
70	0xbda630f8	-0.08114809
71	0x3d713328	0.058886677
72	0x3e7c36fd	0.24630351
73	0x3d679b99	0.056544874
74	0x3e7f7f18	0.24950826
75	0x3bd94018	0.006629955
76	0x3e458f8d	0.19293042
77	0x3da3415e	0.07971452
78	0x3dd685b0	0.104747176
79	0x3e4a70f2	0.19769648
80	0xbe571a3f	-0.21006106
81	0x3e2266c9	0.15859522
82	0x3dd7dcfa	0.10540195
83	0x3d82869f	0.06373333
84	0xbd1fd9a0	-0.039025903
85	0x3df9ba81	0.12193776
86	0x3d7fa034	0.06240864
87	0x3e814b41	0.25252727
88	0x3db6f2c8	0.089330256
89	0xbe3ac5c0	-0.18239498
90	0x3e64fdf2	0.22362497
91	0x3e2cbdd8	0.16869295
92	0xbe8bdae1	-0.2731543
93	0x3dc6462c	0.09681353
94	0x3d86243e	0.065498814
95	0xbe7a57ca	-0.24447551
96	0x3d8caf2b	0.06869348
97	0x3e1152a6	0.14191684
98	0xbc2c3d1c	-0.0105126165
99	0xbe387679	-0.18013944
100	0x3e7525c2	0.23940185
101	0x3dd256fb	0.102704965
102	0xbe4f0b5a	-0.20219174
103	0xbcd60e13	-0.026129758
104	0x3dab51e3	0.08365228
105	0xbe723baf	-0.2365558
106	0xbdf303d3	-0.11865964
107	0x3d1d4001	0.038391117
108	0xbdc668d0	-0.0968796
109	0x3e2452b4	0.16047174
110	0x3decaab7	0.11555999
111	0xbe59a658	-0.21254861
112	0x3e460bc9	0.19340433
113	0xbe79b63a	-0.2438592
114	0x3e886820	0.2664194
115	0x3d0d9d54	0.034573868
116	0xbd99fea0	-0.07519269
117	0x3d793ed2	0.060850926
118	0xbd8e2350	-0.06940329
119	0x3e7bf720	0.2460599
120	0x3e3b3382	0.18281367
121	0x3d2ea559	0.042638157
122	0xbd92ff67	-0.071776204
123	0xbe155e05	-0.14586647
124	0xbe25eaa1	-0.16202785
125	0xbd349d1f	-0.044095155
126	0xbe4d88ea	-0.2007176
127	0xbe1163f8	-0.14198291
128	0xbe5a04a2	-0.2129083
129	0x3e92b3a4	0.2865268
130	0x3c056415	0.008141537
131	0xbe1ae9e7	-0.15128289
132	0x3e0a8825	0.13528498
133	0xbd23ad84	-0.0399604
134	0xbe37c454	-0.17945987
135	0x3e152210	0.14563775
136	0xbe0788d9	-0.13235797
137	0x3c8ba23b	0.017045131
138	0x3d71ca24	0.059030667
139	0xbe061efc	-0.13097757
140	0x3e76ae66	0.24089965
141	0xbd37a6dd	-0.044836868
142	0x3e0f3a78	0.13987148
143	0x3ed5bb26	0.41744345
144	0x3e639049	0.22223009
145	0xbe65cff4	-0.22442609
146	0xbe2d922c	-0.16950291
147	0xbe75ca82	-0.24003032
148	0x3e34c506	0.17653283
149	0x3e31587e	0.17318913
150	0x3e3f8087	0.18701373
151	0xbeb29a06	-0.34883136
152	0x3dc0fa32	0.09422721
153	0xbc20e21e	-0.009819536
154	0x3bc72eae	0.0060785627
155	0x3e8a7f21	0.27050117
156	0x3e2d5792	0.16927937
157	0xbdcf11df	-0.101108305
158	0xbe250d07	-0.16118251
159	0xbdc11735	-0.094282545
160	0xbd4a31af	-0.04936379
161	0x3d5dff07	0.05419829
162	0x3e5d37f9	0.21603383
163	0x3e6f74eb	0.23384444
164	0xbcd5e104	-0.026108272
165	0xbdb1fe7b	-0.086911164
166	0xbbd62514	-0.006535182
167	0x3e0cde72	0.13756731
168	0xbcc0060a	-0.02344038
169	0x3c95e8a9	0.018299418
170	0xbe5992fc	-0.21247476
171	0xbe81be51	-0.25340512
172	0x3c8a457f	0.016878841
173	0xbe9a6365	-0.30153957
174	0xbb99201f	-0.0046730186
175	0xbc9b0f51	-0.018928202
176	0xbcf3bbb3	-0.029752588
177	0x3e2fd41b	0.17170756
178	0xbda1659b	-0.07880708
179	0x3eb0d68d	0.3453869
180	0xbe81f285	-0.2538034
181	0xbd9a6370	-0.075384974
182	0x3e6863e3	0.22694354
183	0x3e32b5f1	0.17452218
184	0x3d75b32f	0.059985336
185	0xbdb2f3ee	-0.08737932
186	0xbd95d071	-0.07315148
187	0xbe7089b6	-0.23490033
188	0x3c9a0d8b	0.018805286
189	0x3d9b9b0c	0.07597932
190	0x3dafd8e7	0.08586293
191	0xbd4aba55	-0.049494106
192	0x3d1d6753	0.038428616
193	0x3d398eab	0.045302074
194	0x3e8db677	0.27678272
195	0x3e062e12	0.13103512
196	0xbe34c515	-0.17653306
197	0xbe4e9382	-0.20173457
198	0xbe024c72	-0.12724474
199	0x3d32b098	0.043625444
200	0xbd9cc2db	-0.07654353
201	0xbe13cf26	-0.1443449
202	0xbd59c7d5	-0.05316909
203	0x3e94796c	0.28998888
204	0x3dc3ac73	0.095543765
205	0xbe625da6	-0.22106037
206	0x3d02411d	0.031800378
207	0x3dd4b20d	0.10385523
208	0x3d8055d3	0.0626637
209	0x3d3ae7c1	0.045631174
210	0x3e72a1d6	0.23694548
211	0xbe71e5b8	-0.23622787
212	0x3e818548	0.25296998
213	0x3e86fded	0.26365605
214	0x3d921414	0.07132736
215	0xbed9d129	-0.4254239
216	0x3e496bf6	0.1967009
217	0x3d97e3ef	0.07416522
218	0x3d282442	0.041050203
219	0xbb8d89dd	-0.004319413
220	0xbd9079d9	-0.070544906
221	0xbe1650d7	-0.14679275
222	0xbd902d81	-0.07039929
223	0xbe40a089	-0.1881124
224	0xbe4ff76d	-0.20309229
225	0x3e8b855a	0.27250177
226	0x3e01fb8b	0.12693612
227	0x3eb999ff	0.36250302
228	0xbd4496f5	-0.047995526
229	0xbcb5d365	-0.022195527
230	0x3d830d9d	0.06399081
231	0x3e744a5e	0.23856494
232	0x3e3599a2	0.17734388
233	0x3de8e5dd	0.11371968
234	0x3e465393	0.19367819
235	0x3c50b295	0.01273789
236	0x3df9652d	0.12177501
237	0xbcb97dbb	-0.02264296
238	0xbe1bf518	-0.15230215
239	0x3de859ab	0.11345228
240	0xbe0ddd5a	-0.1385397
241	0x3dc001d3	0.09375348
242	0x3dd894ba	0.10575242
243	0x3e533510	0.2062571
244	0x3dad05a4	0.084483415
245	0xbd25b32d	-0.04045408
246	0x3e44144e	0.1914837
247	0x3df4d1f0	0.11954105
248	0x3e2fe0c7	0.1717559
249	0x3e8af116	0.2713706
250	0xbb03b425	-0.0020096388
251	0x3e926764	0.28594506
252	0xbd18b3a7	-0.037280705
253	0x3d8ada81	0.067799576
254	0xbe81b73d	-0.25335112
255	0xbd5359b0	-0.051599205

weight_u f4 [32]
0	0xbe120716	-0.14260516
1	0x3e068a2d	0.13138647
2	0x3e4bb6c9	0.19893946
3	0xbcd4a5d7	-0.025957985
4	0xbdb9ca82	-0.090718284
5	0x3dcef15e	0.10104631
6	0x3d8a0d8f	0.06740867
7	0xbe261c62	-0.16221765
8	0x3c1e8533	0.009675312
9	0x3e5fc795	0.21853478
10	0xbdac979a	-0.08427353
11	0x3e93382e	0.287538
12	0x3e616258	0.22010171
13	0x3ddff0ec	0.10934624
14	0x3e98cf3b	0.29845604
15	0xbd1faca1	-0.03898299
16	0x3e456d17	0.19279896
17	0xbea1c6a9	-0.31596878
18	0x3e992638	0.2991197
19	0x3d9e7010	0.07736218
20	0x3e65cb15	0.22440751
21	0xbe9923af	-0.29910037
22	0x3e6caa94	0.23111945
23	0xbe2d440b	-0.16920488
24	0x3df6382a	0.12022431
25	0xbe0b6681	-0.13613321
26	0xbd200689	-0.039068732
27	0xbd9bcd0b	-0.07607468
28	0xbe3dd533	-0.1853836
29	0xbe2d0b53	-0.16898851
30	0x3d8a2cbe	0.06746815
31	0x3e1848c5	0.1487151

weight_v f4 [12]
0	0xbd0b2ff5	-0.033981282
1	0xbcc637b6	-0.024196487
2	0xbd110bf2	-0.035411783
3	0xbd6018b3	-0.054711055
4	0x3d17c5fe	0.037054054
5	0xbc370e60	-0.011172861
6	0x3d1bfb81	0.03808165
7	0xbb010401	-0.0019686224
8	0xbdbf9cf6	-0.0935611
9	0x3dd22218	0.10260409
10	0xbc9ee387	-0.019395603
11	0x3f7c5024	0.98559785

weight f4 [32, 12, 1]
0	0xbe19c4ab	-0.15016429
1	0x3d7b77f5	0.061393697
2	0xbe27049a	-0.16310349
3	0x3c93c29b	0.018037131
4	0xbdb597a4	-0.08866814
5	0xbdc423d3	-0.095771454
6	0xbe1799f2	-0.14804819
7	0xbd23fb09	-0.040034328
8	0xbdab68e0	-0.08369613
9	0x3e00ae68	0.1256653
10	0x3cfa206b	0.030533036
11	0xbe29bc06	-0.16575631
12	0xbe36ef3c	-0.17864698
13	0x3d04267e	0.03226327
14	0xbd9de079	-0.077088304
15	0xbdfee15c	-0.12445328
16	0xbdf94699	-0.121716686
17	0xbde21e88	-0.110409796
18	0x3d1ae886	0.037819408
19	0x3e1f0b06	0.15531549
20	0x3d9881d7	0.0744664
21	0xbd004ddc	-0.031324252
22	0xbd0e022f	-0.03467005
23	0x3e05342f	0.13008188
24	0xbe10b777	-0.14132486
25	0xbe001e98	-0.1251167
26	0xbe232c5d	-0.15934892
27	0x3e4d17d4	0.20028621
28	0x3ddbdf3a	0.107359365
29	0x3c874924	0.016514368
30	0x3e07bdea	0.1325604
31	0x3cfe98f1	0.031078788
32	0xbd0f903d	-0.035049666
33	0x3e25b24e	0.16181299
34	0xbb7e0d56	-0.0038765273
35	0x3e2e3881	0.17013742
36	0xbcf2104e	-0.02954879
37	0xbdba2d39	-0.09090657
38	0xbe5532a2	-0.20820096
39	0xbde6ec31	-0.11275519
40	0x3dcbdb31	0.09953917
41	0xbba76455	-0.005108396
42	0xbdf40736	-0.11915438
43	0xbccce7f4	-0.025012948
44	0xbd353d4b	-0.044247907
45	0xbe1e393e	-0.15451524
46	0xbd55e477	-0.052219834
47	0xbd01e8ba	-0.031716086
48	0x3de50e2b	0.11184343
49	0xbd1e4aa0	-0.038645387
50	0x3e40ed53	0.18840532
51	0xbe332ccd	-0.17497559
52	0xbe227525	-0.15865
53	0x3c1fc882	0.009752395
54	0xbd62d982	-0.055383213
55	0x3c32364c	0.010877203
56	0xbe5667c2	-0.20938018
57	0xbe3006d5	-0.17190106
58	0xbe09b742	-0.13448814
59	0xbdb5302b	-0.08847078
60	0xbe31a8b3	-0.1734951
61	0xbe654525	-0.22389658
62	0x3ca42f9b	0.020042231
63	0xbe1c2249	-0.15247454
64	0x3e30cbe7	0.17265283
65	0x3cd65b2c	0.026166521
66	0x3db3845e	0.087654814
67	0xbd861cbd	-0.0654845
68	0xbe0b9ae1	-0.136333
69	0x3e0ad5b6	0.13558087
70	0xbd7fb6fe	-0.062430374
71	0x3d39907c	0.045303807
72	0x3e4209e4	0.18949085
73	0x3d322f54	0.043502167
74	0x3e449037	0.19195639
75	0x3ba7239f	0.005100682
76	0x3e17fdbc	0.14842886
77	0x3d7b3285	0.061327476
78	0x3da50a4f	0.08058607
79	0x3e1bbef1	0.15209557
80	0xbe257c9a	-0.16160813
81	0x3df9e231	0.12201346
82	0x3da6126a	0.08108981
83	0x3d48d654	0.049032524
84	0xbcf5f530	-0.030024141
85	0x3dc02038	0.09381145
86	0x3d44a9b0	0.04801339
87	0x3e46f115	0.19427903
88	0x3d8cbfd1	0.068725236
89	0xbe0fb0f9	-0.14032353
90	0x3e302c23	0.17204337
91	0x3e04e595	0.12978204
92	0xbe573117	-0.2101482
93	0x3d988a3b	0.0744824
94	0x3d4e6690	0.05039078
95	0xbe409939	-0.1880845
96	0x3d5877bc	0.052848563
97	0x3ddf9ae2	0.109182134
98	0xbc04828a	-0.008087764
99	0xbe0dea15	-0.13858826
100	0x3e3c99fa	0.18418112
101	0x3da1d292	0.07901491
102	0xbe1f4989	-0.15555395
103	0xbca4ae49	-0.020102637
104	0x3d83cd93	0.064356945
105	0xbe3a5bff	-0.18199156
106	0xbdbaf5f8	-0.09128946
107	0x3cf1f503	0.029535776
108	0xbd98a4e2	-0.07453324
109	0x3dfcd718	0.123457134
110	0x3db613b6	0.08890478
111	0xbe277249	-0.1635219
112	0x3e185d50	0.14879346
113	0xbe401ced	-0.18761034
114	0x3e51e2d1	0.2049668
115	0x3cd9e62f	0.026599018
116	0xbd6cf2b6	-0.057848655
117	0x3d3fc110	0.046814978
118	0xbd5ab458	-0.053394645
119	0x3e41d8c2	0.18930343
120	0x3e10056a	0.14064565
121	0x3d065ca3	0.03280319
122	0xbd622e99	-0.05522022
123	0xbde5d3fc	-0.112220734
124	0xbdff4ac3	-0.124654315
125	0xbd0af403	-0.033924114
126	0xbe1e203c	-0.15441984
127	0xbddfb588	-0.10923296
128	0xbe27bad3	-0.16379862
129	0x3e61ba06	0.22043619
130	0x3bcd3ee4	0.0062636007
131	0xbdee5cba	-0.1163878
132	0x3dd527e3	0.104079984
133	0xbcfbd8ed	-0.030743087
134	0xbe0d6107	-0.13806544
135	0x3de577bb	0.112044774
136	0xbdd08b43	-0.10182812
137	0x3c56d9ed	0.013113481
138	0x3d3a04a4	0.045414582
139	0xbdce5e79	-0.10076613
140	0x3e3dc80d	0.18533345
141	0xbd0d4a5c	-0.034494743
142	0x3ddc61e0	0.10760856
143	0x3ea46e7d	0.32115546
144	0x3e2f12d2	0.17097023
145	0xbe30cdb4	-0.1726597
146	0xbe0588ef	-0.13040517
147	0xbe3d18ba	-0.18466464
148	0x3e0b12b6	0.13581356
149	0x3e08705c	0.13324112
150	0x3e135479	0.14387693
151	0xbe8967ba	-0.2683695
152	0x3d947707	0.07249265
153	0xbbf78c28	-0.0075545497
154	0x3b993d1c	0.0046764743
155	0x3e551a03	0.20810704
156	0x3e055bd9	0.13023318
157	0xbd9f4e8d	-0.07778654
158	0xbdfdf5ca	-0.12400396
159	0xbd948d59	-0.072535224
160	0xbd1b8e46	-0.03797748
161	0x3d2aca51	0.04169685
162	0x3e2a312d	0.16620322
163	0x3e38392d	0.17990561
164	0xbca48b9f	-0.020086108
165	0xbd88f010	-0.06686413
166	0xbba4bffc	-0.005027769
167	0x3dd8c07a	0.10583587
168	0xbc93bb30	-0.018033594
169	0x3c66a94f	0.014078452
170	0xbe276364	-0.16346508
171	0xbe47a220	-0.1949544
172	0x3c54c156	0.012985548
173	0xbe6d8dc3	-0.23198609
174	0xbb6b9c59	-0.0035951345
175	0xbc6e964b	-0.0145622
176	0xbcbb836f	-0.02288982
177	0x3e07458f	0.13210128
178	0xbd785679	-0.06062934
179	0x3e880c64	0.26571953
180	0xbe47f273	-0.19526081
181	0xbd6d8dd4	-0.057996586
182	0x3e32c96b	0.17459647
183	0x3e097d35	0.13426669
184	0x3d3d06c8	0.046149045
185	0xbd89ace5	-0.0672243
186	0xbd66840b	-0.05627827
187	0xbe390e1f	-0.18071793
188	0x3c6d09aa	0.014467636
189	0x3d6f6d4b	0.05845384
190	0x3d874940	0.06605768
191	0xbd1bf767	-0.038077738
192	0x3cf23183	0.029564625
193	0x3d0ec1a5	0.034852643
194	0x3e5a0cdd	0.2129397
195	0x3dce75af	0.1008104
196	0xbe0b12c1	-0.13581373
197	0xbe1eed56	-0.15520224
198	0xbdc87cd1	-0.09789432
199	0x3d097917	0.033562746
200	0xbd713473	-0.05888791
201	0xbde36e40	-0.11105013
202	0xbd278c0c	-0.040905043
203	0x3e64743f	0.2230997
204	0x3d968a11	0.07350553
205	0xbe2e26ea	-0.17007032
206	0x3cc86b61	0.024465265
207	0x3da3a289	0.079899855
208	0x3d457772	0.048209615
209	0x3d0fcb22	0.035105832
210	0x3e3aaa96	0.18229136
211	0xbe3a19dc	-0.18173927
212	0x3e474a5e	0.19461963
213	0x3e4fb582	0.20284083
214	0x3d60c482	0.054874904
215	0xbea79339	-0.3272951
216	0x3e1af628	0.15132964
217	0x3d69b5d7	0.05705818
218	0x3d015b9e	0.031581514
219	0xbb59c83c	-0.0033230921
220	0xbd5e4d4c	-0.054272935
221	0xbde7499b	-0.11293336
222	0xbd5dd7d4	-0.054160908
223	0xbe14320c	-0.14472216
224	0xbe1fff28	-0.15624678
225	0x3e56ad7d	0.20964618
226	0x3dc80055	0.09765688
227	0x3e8eca5c	0.27888763
228	0xbd173e7b	-0.03692482
229	0xbc8be2b8	-0.017075881
230	0x3d49a60a	0.049230613
231	0x3e3bf131	0.18353726
232	0x3e0bb647	0.13643752
233	0x3db32d6a	0.087488964
234	0x3e18948b	0.14900415
235	0x3c208f25	0.009799753
236	0x3dbfde92	0.09368624
237	0xbc8eb49d	-0.017420107
238	0xbdeff7d9	-0.11717195
239	0x3db2c18e	0.08728324
240	0xbdda48b2	-0.10658397
241	0x3d93b7f2	0.07212819
242	0x3da69fc8	0.081359446
243	0x3e227d6e	0.1586816
244	0x3d851cd1	0.06499637
245	0xbcfef570	-0.031122893
246	0x3e16d9f7	0.14731584
247	0x3dbc597e	0.09196757
248	0x3e074f4f	0.13213848
249	0x3e55c95b	0.20877592
250	0xbacaa647	-0.0015460931
251	0x3e6144b3	0.21998863
252	0xbceaf573	-0.028681492
253	0x3d55a69c	0.052160844
254	0xbe47973c	-0.19491285
255	0xbd22999b	-0.03969727

bias f4 [32]
0	0x3e0b5083	0.13604932
1	0xbdc514b8	-0.096230924
2	0xbdafcfac	-0.08584532
3	0xbc7097d9	-0.014684641
4	0xbe21842e	-0.15773079
5	0xbd7132cc	-0.058886334
6	0xbd7569e7	-0.05991545
7	0x3e2b9215	0.16754945
8	0xbdfdcb88	-0.12392336
9	0xbb5e63a3	-0.00339339
10	0x3e2e6667	0.17031251
11	0xbd30d025	-0.043167252
12	0x3dd01010	0.10159314
13	0x3d9114ec	0.07084069
14	0xbdb34a57	-0.087544136
15	0xbe229f50	-0.15881085
16	0xbce4265c	-0.027850322
17	0x3d6ce776	0.057837926
18	0x3daaa43d	0.08332107
19	0xbe26def5	-0.16295989
20	0x3df3b7af	0.11900269
21	0x3e12ead9	0.143474
22	0xbe047509	-0.1293527
23	0xbe25e271	-0.16199662
24	0xbd4fc11b	-0.05072127
25	0xbe034fc8	-0.12823403
26	0xbdcf3acc	-0.101186365
27	0xbc3e04d0	-0.011597827
28	0xbcd714d9	-0.026255058
29	0x3e0fac46	0.14030561
30	0x3d88d169	0.06680567
31	0x3c7b26ee	0.015329106

weight_orig f4 [32, 32, 1]
0	0xbc69c5ce	-0.014268352
1	0x3d83e23f	0.064396374
2	0xbda52fff	-0.08065795
3	0x3c5fcf4f	0.013660266
4	0x3cd786ea	0.02630945
5	0xbd932458	-0.071846664
6	0x3cefe2c7	0.02928294
7	0xbd77dae5	-0.06051149
8	0xbe0a4bdf	-0.13505505
9	0x3b990a04	0.0046703834
10	0xbe178178	-0.14795482
11	0x3e4d5e72	0.2005556
12	0x3d16408c	0.03668265
13	0xbbdff282	-0.006834329
14	0xbe1b7165	-0.15179975
15	0x3dae6091	0.08514512
16	0x3db8ea94	0.09029117
17	0xbe28aa1f	-0.16471146
18	0x3cf38bf2	0.029729817
19	0xbd1761a5	-0.036958355
20	0xbdc262c1	-0.09491492
21	0xbdf99b79	-0.12187857
22	0x3d9f60b4	0.077821165
23	0xbdbec6d5	-0.09315268
24	0xbdee2def	-0.11629855
25	0xbdd74e93	-0.10513034
26	0xbcc63b4d	-0.024198199
27	0x3de5b83a	0.11216779
28	0xbcca699d	-0.024708563
29	0x3e281aa6	0.16416416
30	0x3e154506	0.14577112
31	0x3e0ec8b8	0.13943756
32	0xbd54bdc8	-0.051938802
33	0x3a843b25	0.0010088427
34	0x3e1e7903	0.1547585
35	0x3e31439b	0.17310946
36	0x3e23e079	0.16003598
37	0xbdf6b740	-0.12046671
38	0xbe0623ce	-0.13099596
39	0x3e356129	0.17712845
40	0xbdcd311a	-0.10019131
41	0x3dd464c0	0.10370779
42	0xbc5f621c	-0.013634231
43	0x3da296f7	0.079389505
44	0xbd89d51a	-0.06730099
45	0xbc1c1888	-0.009527333
46	0xbb9226e4	-0.0044602025
47	0x3d31cc81	0.04340792
48	0x3d464a57	0.04841074
49	0xbe33c35d	-0.17554994
50	0xbe2cc643	-0.16872506
51	0x3d9e037f	0.077155106
52	0x3e2c2415	0.16810639
53	0x3d0ff5cc	0.03514652
54	0x3dbdc0a8	0.09265262
55	0xbd49f74c	-0.049308106
56	0x3e1c51ab	0.15265529
57	0x3e153ac4	0.14573199
58	0x3dd91289	0.105992384
59	0x3d799b0f	0.06093889
60	0x3d936878	0.0719766
61	0x3ceaf080	0.028679132
62	0xbd240ab6	-0.040049277
63	0x3dc44e63	0.095852636
64	0xbe0e1afc	-0.13877481
65	0xbd6d1b91	-0.057887617
66	0xbdbedea3	-0.09319808
67	0x3e22d045	0.15899761
68	0xbc7c456d	-0.015397412
69	0x3d60a25d	0.05484234
70	0xbd8c6dec	-0.068569034
71	0x3e1fe4f8	0.15614688
72	0x3ccb2c65	0.024801442
73	0xbdabd850	-0.08390868
74	0x3e1aac14	0.15104705
75	0xbdefd705	-0.117109336
76	0x3d80198b	0.06254872
77	0x3d85b419	0.065284915
78	0x3de7acd8	0.11312264
79	0x3d8bb546	0.068216845
80	0xbdb1727f	-0.086644165
81	0x3e02af88	0.12762272
82	0xbd3f3298	-0.04667911
83	0x3da3fca9	0.080071755
84	0x3d1919b4	0.037378028
85	0xbdeee4a7	-0.11664706
86	0xbdc9cde5	-0.098537244
87	0xbe065d64	-0.13121563
88	0x3e0e22b2	0.13880423
89	0xbdad893f	-0.08473443
90	0xbd8fca6a	-0.07021029
91	0x3d82e530	0.0639137
92	0xbd925cf4	-0.07146636
93	0xbd849126	-0.06472997
94	0xbd004c18	-0.03132257
95	0x3b1a75d0	0.0023568757
96	0x3e3d66ad	0.18496199
97	0xbdbb1533	-0.09134903
98	0xbe502248	-0.20325577
99	0x3db4ef5c	0.08834717
100	0xbb8f6a44	-0.0043766815
101	0x3d1ad2b3	0.037798595
102	0xbd8b1532	-0.06791152
103	0x3c02c64d	0.007981849
104	0xbd93f701	-0.07224847
105	0xbcd547a5	-0.02603514
106	0x3df6cec4	0.12051156
107	0x3d92fd42	0.07177211
108	0xbe1de5cc	-0.15419692
109	0xbc3ffe9f	-0.011718421
110	0x3db380ed	0.08764825
111	0x3e123666	0.14278564
112	0xbe0470b6	-0.12933621
113	0x3d7d5cf0	0.06185621
114	0xbdb18f2d	-0.08669887
115	0xbdf1e90b	-0.118120275
116	0xbd917e76	-0.07104199
117	0xbe131196	-0.14362177
118	0xbe3e5481	-0.18586923
119	0xbcfcd580	-0.030863523
120	0xbd30508a	-0.043045558
121	0x3e385ebc	0.18004888
122	0x3de397ca	0.11112936
123	0x3c3ca9c8	0.011515088
124	0xbc1f0659	-0.009706103
125	0x3e338419	0.1753086
126	0x3dca49a5	0.09877328
127	0x3b93bd00	0.0045086145
128	0xbd894c85	-0.06704048
129	0x3d3e6df2	0.04649157
130	0x3d5c9f27	0.053862717
131	0x3d1f70b0	0.038925827
132	0x3db3470c	0.087537855
133	0xbcde6b23	-0.027150696
134	0xbe263f89	-0.16235174
135	0xbb457049	-0.0030126742
136	0xbddd321f	-0.108005755
137	0x3e025bae	0.12730286
138	0x3e117474	0.1420458
139	0xbe2b2b55	-0.16715749
140	0x3c506343	0.012718978
141	0xbd2d1231	-0.042253677
142	0xbdf50ebd	-0.11965702
143	0x3e25da6d	0.16196604
144	0x3d741b50	0.05959636
145	0x3e45d48e	0.19319364
146	0xbd822a3d	-0.063557126
147	0xbd59013e	-0.0529797
148	0x3d836f95	0.06417767
149	0x3c3fffc4	0.011718694
150	0xbdf09623	-0.11747386
151	0x3e0b205d	0.13586564
152	0xbd811999	-0.063037105
153	0x3d4bf40d	0.04979329
154	0xbdbb4119	-0.09143276
155	0x3e1dcd7c	0.15410417
156	0x3c1124da	0.008858884
157	0xbd4bda1f	-0.049768563
158	0x3e03901a	0.12847939
159	0xbe21ed83	-0.1581326
160	0x3df1e6e6	0.118116185
161	0xbc9cea7d	-0.019154781
162	0xbd995853	-0.0748755
163	0x3dbe63e0	0.092963934
164	0x3c8a9729	0.016917782
165	0xbcc335a1	-0.023829283
166	0x3e192107	0.14954005
167	0xbde2ac90	-0.1106807
168	0x3c277c00	0.010222435
169	0x3e2f6818	0.17129552
170	0xbb4a1a9a	-0.003083861
171	0xbd06cb81	-0.03290892
172	0xbd3b686c	-0.04575388
173	0xbddcdf3a	-0.107847646
174	0x3e25c7ef	0.1618955
175	0x3d9bcfff	0.076080315
176	0xbda3a4f2	-0.07990445
177	0xbdef0ff5	-0.116729654
178	0xbe03debc	-0.12877935
179	0x3e401735	0.18758853
180	0xbd5d3c2d	-0.054012466
181	0xbd7cf5b8	-0.061757773
182	0x3deb83b7	0.11499732
183	0xbd3d0bc7	-0.04615381
184	0x3e24b07b	0.16082947
185	0xbc04465d	-0.008073417
186	0xbd33f40e	-0.04393392
187	0xbdfb8b9b	-0.12282487
188	0xbc3cd2ea	-0.011524895
189	0xbcf6621f	-0.030076085
190	0xbd83fcde	-0.06444715
191	0x3d1ac779	0.03778789
192	0xbd0bb5d6	-0.03410896
193	0xbd07269e	-0.032995813
194	0x3d602cb2	0.054730125
195	0xbd9673f4	-0.07346335
196	0xbd0efad0	-0.034907162
197	0xbcfbb478	-0.030725703
198	0x3d4a223b	0.04934905
199	0xbe166d72	-0.14690188
200	0xbde3b0dc	-0.111177176
201	0xbe3d1766	-0.18465957
202	0x3c7d1823	0.015447649
203	0x3bec299c	0.0072071087
204	0x3d4a2139	0.04934809
205	0xbbbd8461	-0.005783603
206	0xbe200770	-0.15627837
207	0xbdf732f2	-0.12070264
208	0xbe087e54	-0.1332944
209	0x3d6ebac3	0.05828358
210	0xbdc06cdf	-0.093957655
211	0x3d370eb6	0.044691764
212	0x3d530d63	0.05152644
213	0xbdeefa31	-0.11668814
214	0x3d96ea7c	0.07368943
215	0x3d0ab8e7	0.033867743
216	0xbc9c8ec0	-0.019111037
217	0x3d2b8332	0.041873164
218	0x3d51d26b	0.05122606
219	0xbda3212b	-0.07965311
220	0xbde4eb74	-0.111777216
221	0xbdab2f65	-0.08358649
222	0x3d8b9de1	0.068172224
223	0xbe36ff0e	-0.17870733
224	0xbc8fd3bd	-0.01755702
225	0xbce6be54	-0.028166927
226	0xbe268ed4	-0.16265422
227	0x3d60d338	0.054888934
228	0xbe25773d	-0.16158767
229	0x3c812bf9	0.015768038
230	0x3d5292cd	0.05140953
231	0x3e430b4d	0.1904728
232	0xbde4113a	-0.11136098
233	0x3b8df7c2	0.0043325135
234	0xbd3c1d74	-0.045926526
235	0xbdb715b6	-0.08939688
236	0xbd7a1180	-0.061051846
237	0xbe2582ad	-0.1616313
238	0xbdb48a60	-0.088154554
239	0xbbc92340	-0.0061382353
240	0x3daee457	0.08539646
241	0xbd29eec6	-0.041487478
242	0x3dc62f43	0.09676983
243	0x3e1e5617	0.15462528
244	0xbc8971e4	-0.01677794
245	0x3e2ef2cd	0.17084809
246	0x3d5c89bb	0.053842288
247	0xbc8e3ffe	-0.017364498
248	0xbe1829ac	-0.14859647
249	0xbd33c336	-0.04388734
250	0xbd350c86	-0.044201396
251	0xbdcba27f	-0.09943103
252	0xbda5ab10	-0.08089268
253	0xbcbd5efa	-0.023116577
254	0x3b49deb6	0.0030802912
255	0xbe3bf676	-0.18355736

weight_u f4 [32]
0	0x3e355576	0.17708382
1	0xbe05cdf0	-0.1306684
2	0xbc44babc	-0.012007412
3	0xbde8c144	-0.113649875
4	0xbe8735f3	-0.26408347
5	0x3e443668	0.1916138
6	0xbad735d4	-0.001641924
7	0xbcd49297	-0.025948806
8	0xbddae5d3	-0.10688367
9	0x3dec910b	0.11551102
10	0x3da7d845	0.08195547
11	0x3e36592f	0.17807458
12	0x3d64fa9e	0.05590307
13	0xbdf37e06	-0.118892714
14	0x3d952469	0.07282335
15	0xbe7f78ea	-0.24948469
16	0xbeafc3d5	-0.34329095
17	0xbf035ca7	-0.5131325
18	0x3e4b36ea	0.19845167
19	0xbb474198	-0.0030404087
20	0xbe98d5ea	-0.29850703
21	0x3da23896	0.07920949
22	0x3e3af270	0.18256545
23	0x3c2b4b7b	0.010455008
24	0x3d546426	0.05185332
25	0x3d2d84a6	0.04236283
26	0x3cd77ca6	0.026304554
27	0x3e353b32	0.17698362
28	0x3d8eb8dd	0.069688536
29	0xbe81dace	-0.25362247
30	0xbd51a45c	-0.051182136
31	0x3e24303e	0.16034028

weight_v f4 [32]
0	0x3d9af97d	0.07567117
1	0xbd097d3a	-0.03356669
2	0xbd740cae	-0.059582405
3	0x3d9298d9	0.071580596
4	0xbe3af539	-0.18257608
5	0x3dbc8d37	0.09206622
6	0x3dbb58d9	0.09147806
7	0xbe4dcbe0	-0.20097303
8	0xbdb98b9e	-0.09059833
9	0x3e6df941	0.23239614
10	0xbe0d545e	-0.13801715
11	0x3e6066c1	0.21914198
12	0x3e1a1e42	0.15050605
13	0x3e138d71	0.14409424
14	0x3e88ee2e	0.26744217
15	0xbdc573ce	-0.096412286
16	0x3d92ff78	0.07177633
17	0xbe24c89b	-0.1609215
18	0x3ea6a8f9	0.3255079
19	0x3d4add88	0.049527675
20	0xbdf6367f	-0.12022113
21	0xbe9c5e6e	-0.30540794
22	0x3e8257d0	0.2545762
23	0xbda5ae9b	-0.08089944
24	0x3d0fc2e5	0.035097975
25	0xbdf8ccee	-0.12148462
26	0xbd927f18	-0.071531475
27	0xbdc17db6	-0.094478056
28	0xbeb7ee86	-0.35924166
29	0xbea1196e	-0.31464714
30	0x3dc9ed76	0.09859745
31	0x3e6e06d6	0.23244795

weight f4 [32, 32, 1]
0	0xbc8157b2	-0.015788887
1	0x3d91f030	0.0712589
2	0xbdb6ca81	-0.08925343
3	0x3c77a919	0.015116
4	0x3cee7ebe	0.02911317
5	0xbda2d28c	-0.07950315
6	0x3d04b992	0.032403536
7	0xbd892255	-0.066960014
8	0xbe1908c2	-0.14944747
9	0x3ba9591a	0.0051680924
10	0xbe27a6b9	-0.16372193
11	0x3e634126	0.22192821
12	0x3d264399	0.04059181
13	0xbbf7d00d	-0.0075626434
14	0xbe2c020f	-0.1679766
15	0x3dc0f5c7	0.09421878
16	0x3dcc9f4f	0.09991323
17	0xbe3aa37c	-0.18226427
18	0x3d06c017	0.032898035
19	0xbd278381	-0.040896896
20	0xbdd719d3	-0.105029725
21	0xbe0a1a86	-0.1348668
22	0x3db05cb6	0.08611433
23	0xbdd31b71	-0.103079684
24	0xbe03c7df	-0.12869214
25	0xbdee4066	-0.11633377
26	0xbcdb5b4a	-0.026776928
27	0x3dfe333f	0.12412118
28	0xbcdffbaa	-0.027341682
29	0x3e3a04b9	0.18165864
30	0x3e252d46	0.16130552
31	0x3e1e0009	0.15429701
32	0xbd6b699d	-0.057473768
33	0x3a92528f	0.001116352
34	0x3e2f5c55	0.17125066
35	0x3e442793	0.19155721
36	0x3e355739	0.17709054
37	0xbe0880f9	-0.13330449
38	0xbe146f4c	-0.14495581
39	0x3e48b567	0.1960045
40	0xbde30ef9	-0.1108684
41	0x3deb0718	0.114759624
42	0xbc773043	-0.01508719
43	0x3db3ea9a	0.08784981
44	0xbd988554	-0.07447305
45	0xbc2cbb02	-0.010542633
46	0xbba1ba16	-0.0049355133
47	0x3d44bf10	0.048033774
48	0x3d5b6bee	0.053569727
49	0xbe46eb83	-0.19425778
50	0xbe3f2fc0	-0.18670559
51	0x3daeda4b	0.0853773
52	0x3e3e7c49	0.18602099
53	0x3d1f4d32	0.03889198
54	0x3dd1f953	0.10252633
55	0xbd5f7d2a	-0.054562725
56	0x3e2cfa3b	0.1689233
57	0x3e2521ec	0.16126221
58	0x3df03486	0.11728768
59	0x3d8a1a4c	0.06743297
60	0x3da31def	0.07964694
61	0x3d01fcf6	0.031735383
62	0xbd3585f6	-0.04431721
63	0x3dd939d9	0.10606737
64	0xbe1d3fc9	-0.15356363
65	0xbd833012	-0.06405653
66	0xbdd335c8	-0.10312992
67	0x3e342a03	0.17594151
68	0xbc8b93d7	-0.017038269
69	0x3d7892a5	0.060686726
70	0xbd9b6500	-0.075876236
71	0x3e30ef13	0.172787
72	0x3ce0d333	0.027444458
73	0xbdbe2871	-0.09285057
74	0x3e2b27b7	0.16714369
75	0xbe04b311	-0.12958933
76	0x3d8dc041	0.06921435
77	0x3d93f3af	0.07224213
78	0x3e002e9b	0.12517779
79	0x3d9a98ac	0.07548651
80	0xbdc45b76	-0.09587757
81	0x3e109cca	0.1412231
82	0xbd5392b0	-0.051653564
83	0x3db5766a	0.08860476
84	0x3d296a76	0.041361295
85	0xbe042cf8	-0.12907779
86	0xbddf4f59	-0.10903806
87	0xbe14af05	-0.1451989
88	0x3e1d4851	0.15359618
89	0xbdc00783	-0.09376433
90	0xbd9f1d31	-0.0776924
91	0x3d90d829	0.07072479
92	0xbda1f5e8	-0.07908231
93	0xbd92b1bb	-0.07162806
94	0xbd0df831	-0.034660522
95	0x3b2aebaa	0.0026080408
96	0x3e5195c2	0.20467284
97	0xbdcf0509	-0.10108382
98	0xbe66506a	-0.22491613
99	0x3dc8377a	0.09776206
100	0xbb9eb2cc	-0.0048430916
101	0x3d2b5274	0.04182668
102	0xbd99e789	-0.07514865
103	0x3c10b5fc	0.008832451
104	0xbda3bba8	-0.07994777
105	0xbcec022b	-0.028809628
106	0x3e088dfc	0.13335413
107	0x3da2a74c	0.079420656
108	0xbe2eb96d	-0.17062922
109	0xbc547475	-0.012967219
110	0x3dc6a1fe	0.09698866
111	0x3e21cb3f	0.15800188
112	0xbe128dd6	-0.14311919
113	0x3d8c2e7d	0.068448044
114	0xbdc47b33	-0.09593811
115	0xbe05d852	-0.13070801
116	0xbda0ffb5	-0.07861272
117	0xbe22bdca	-0.15892711
118	0xbe529cee	-0.20567676
119	0xbd0be38d	-0.034152556
120	0xbd431a9b	-0.047632795
121	0x3e4c0490	0.19923615
122	0x3dfbd8ca	0.122972086
123	0x3c50c4bb	0.012742217
124	0xbc2ff8ba	-0.010740453
125	0x3e46a581	0.19399072
126	0x3ddfd849	0.10929925
127	0x3ba37b79	0.0049890843
128	0xbd97ee31	-0.07418478
129	0x3d52b915	0.05144604
130	0x3d7421f8	0.059602708
131	0x3d306e67	0.043074038
132	0x3dc661f2	0.0968665
133	0xbcf61ef9	-0.030044066
134	0xbe37f6fa	-0.17965308
135	0xbb5a7aa4	-0.003333726
136	0xbdf4c499	-0.119515605
137	0x3e104000	0.14086914
138	0x3e20f4a2	0.1571832
139	0xbe3d6907	-0.18497096
140	0x3c669852	0.014074402
141	0xbd3f83c5	-0.046756525
142	0xbe079619	-0.13240851
143	0x3e378718	0.17922628
144	0x3d870f6a	0.06594737
145	0x3e5ae998	0.21378171
146	0xbd90094a	-0.07033022
147	0xbd702163	-0.05862559
148	0x3d91714e	0.07101689
149	0x3c5475b9	0.01296752
150	0xbe051ccf	-0.12999271
151	0x3e19f3e5	0.15034445
152	0xbd8edb98	-0.06975478
153	0x3d61b022	0.055099614
154	0xbdcf359d	-0.10117648
155	0x3e2e9e86	0.1705266
156	0x3c209c8c	0.009802949
157	0xbd619371	-0.05507225
158	0x3e11954a	0.14217106
159	0xbe332f17	-0.17498432
160	0x3e05d722	0.13070348
161	0xbcada356	-0.021196049
162	0xbda9afc1	-0.082854755
163	0x3dd2adf0	0.10287082
164	0x3c995c12	0.01872066
165	0xbcd8032c	-0.0263687
166	0x3e297290	0.16547608
167	0xbdfad47e	-0.12247561
168	0x3c39552b	0.0113118095
169	0x3e421964	0.18954998
170	0xbb5fa43b	-0.0034124989
171	0xbd1528de	-0.036415927
172	0xbd4f6120	-0.050629735
173	0xbdf468df	-0.11934065
174	0x3e3772a2	0.17914823
175	0x3dac6abe	0.08418797
176	0xbdb5155a	-0.08841963
177	0xbe0444ed	-0.12916918
178	0xbe11ec4d	-0.14250298
179	0x3e548faa	0.20757928
180	0xbd74cfba	-0.059768416
181	0xbd8bf561	-0.06833912
182	0x3e024e69	0.12725224
183	0xbd51312c	-0.051072285
184	0x3e363d66	0.17796859
185	0xbc125efa	-0.008933777
186	0xbd472164	-0.04861583
187	0xbe0b2d07	-0.13591395
188	0xbc50f240	-0.012753069
189	0xbd0851df	-0.033281203
190	0xbd920da5	-0.07131509
191	0x3d2b4607	0.04181483
192	0xbd1a994b	-0.037743848
193	0xbd158db0	-0.036512077
194	0x3d781070	0.06056255
195	0xbda67c7c	-0.08129212
196	0xbd1e3777	-0.038627114
197	0xbd0b43a3	-0.03400005
198	0x3d5facac	0.054608032
199	0xbe267548	-0.16255677
200	0xbdfbf488	-0.123025
201	0xbe513e08	-0.2043382
202	0x3c8c086c	0.01709386
203	0x3c02aa33	0.007975149
204	0x3d5fab8f	0.05460697
205	0xbbd1b6a0	-0.0063999444
206	0xbe311537	-0.17293249
207	0xbe08c569	-0.13356556
208	0xbe170a07	-0.14749919
209	0x3d8415ca	0.064494684
210	0xbdd4ee75	-0.103970446
211	0x3d4a90bb	0.049454432
212	0x3d698b23	0.057017457
213	0xbe0438e2	-0.12912324
214	0x3da6ffa6	0.0815423
215	0x3d198168	0.037476927
216	0xbcad3dd3	-0.021147644
217	0x3d3dca41	0.046335462
218	0x3d682e9b	0.05668507
219	0xbdb48388	-0.0881415
220	0xbdfd50a6	-0.12368898
221	0xbdbd6d86	-0.092494056
222	0x3d9a7ec9	0.075437136
223	0xbe4a7f68	-0.19775164
224	0xbc9f2782	-0.019428018
225	0xbcff5547	-0.031168593
226	0xbe384eb9	-0.1799878
227	0x3d78c8b5	0.060738284
228	0xbe371956	-0.17880759
229	0x3c8eefee	0.017448392
230	0x3d69037d	0.056888092
231	0x3e57d455	0.21077092
232	0xbdfc5f2b	-0.12322839
233	0x3b9d18ce	0.0047942167
234	0xbd502973	-0.05082078
235	0xbdca987a	-0.09892364
236	0xbd8a5bd4	-0.06755796
237	0xbe3725fe	-0.17885587
238	0xbdc7c7bb	-0.097548924
239	0xbbde9285	-0.006792369
240	0x3dc18798	0.094496906
241	0xbd3c0abc	-0.045908675
242	0x3ddb4df8	0.10708231
243	0x3e2f35b0	0.17110324
244	0xbc98178c	-0.018565916
245	0x3e419799	0.18905486
246	0x3d740a43	0.0595801
247	0xbc9d68bc	-0.01921498
248	0xbe2860d9	-0.16443194
249	0xbd46eb57	-0.04856428
250	0xbd4857bf	-0.048911806
251	0xbde155e3	-0.1100271
252	0xbdb752af	-0.089513175
253	0xbcd18d3d	-0.025580043
254	0x3b5f61f5	0.0034085487
255	0xbe4ffe4d	-0.20311852

weight f4 [1, 32, 1]
0	0xbd9688c1	-0.073503025
1	0xbe1cc650	-0.15310025
2	0xbd8d139c	-0.06888506
3	0xbe08ef40	-0.13372517
4	0x3e00fc01	0.12596132
5	0xbd505e84	-0.050871387
6	0xbd80dd86	-0.06292252
7	0xbd6f6262	-0.058443435
8	0xbd882b83	-0.06648924
9	0xbe331780	-0.17489433
10	0xbe0baf36	-0.13641056
11	0xbcb75158	-0.022377655
12	0xbc75d060	-0.015003294
13	0xbdcaa653	-0.09895005
14	0x3cdd1000	0.026985168
15	0xbde1c050	-0.11023009
16	0x3e0e357f	0.13887595
17	0x3c746400	0.01491642
18	0xbe030d73	-0.12798099
19	0x3b868a40	0.004105836
20	0x3e15e7e5	0.14639242
21	0xbab26a00	-0.0013611913
22	0x3debf1ee	0.11520754
23	0x3cf4f478	0.029901728
24	0xbe2a1478	-0.1660937
25	0x3d9b2d66	0.075770184
26	0xbdaa456e	-0.08314024
27	0x3dc120c6	0.09430079
28	0xbd7e1cce	-0.06203919
29	0xbe1a9e3c	-0.15099424
30	0x3e098389	0.13429083
31	0xbca8f578	-0.020624861

weight f4 [1, 32, 1]
0	0xbda7e119	-0.08197231
1	0x3bdcdc20	0.006740108
2	0xbda011f7	-0.078159265
3	0xbdb64f9f	-0.08901905
4	0x3e081661	0.13289787
5	0x3e124175	0.14282782
6	0x3e058879	0.13040341
7	0x3e0ff7a7	0.14059316
8	0x3d8896f0	0.06669414
9	0xbdc9abe6	-0.0984724
10	0xbd7e54c8	-0.062092572
11	0xbc03dc20	-0.008048087
12	0xbb655940	-0.0034995824
13	0xbc5190a0	-0.012790829
14	0x3e2b8fa3	0.16754012
15	0xbceb9f08	-0.028762355
16	0xbdc88049	-0.097900935
17	0xbbbf62e0	-0.0058406442
18	0x3d96d59e	0.07364963
19	0xbe1aa05f	-0.15100239
20	0x3d9c61be	0.0763583
21	0xbe02f2c6	-0.12787923
22	0xbce71b50	-0.028211266
23	0xbcb3a118	-0.021927401
24	0x3e1b3403	0.1515656
25	0xbb182580	-0.002321571
26	0x3e28f9ef	0.16501592
27	0x3e1fc2fb	0.15601723
28	0x3e14cbe9	0.1453091
29	0xbd8d41fe	-0.06897353
30	0xbddcd8b0	-0.10783517
31	0x3d51a248	0.051180154

weight f4 [1, 32, 1]
0	0x3dfd3fde	0.12365697
1	0x3dba912a	0.09109719
2	0xbc921028	-0.01782997
3	0x3d801a00	0.06254959
4	0x3dce8b6e	0.10085188
5	0x3d3adc14	0.04562004
6	0x3e074323	0.13209204
7	0x3e224ee5	0.15850408
8	0xbdff54f6	-0.12467377
9	0xbb655b00	-0.0034996867
10	0xbda484f5	-0.08033172
11	0xbdfc4f8d	-0.123198606
12	0x3d14f5d4	0.036367252
13	0x3e1a9adf	0.15098141
14	0xbded1228	-0.11575729
15	0xbda8510e	-0.08218585
16	0x3e0d0109	0.13769926
17	0xbe15cfd0	-0.14630055
18	0x3d06c498	0.03290233
19	0xbc7b2320	-0.015328199
20	0xbdd6fc84	-0.10497382
21	0xbe100d66	-0.14067611
22	0x3d7b1cc8	0.061306745
23	0xbdf06274	-0.117375284
24	0xbdb052d0	-0.08609545
25	0x3e0a4e2b	0.13506381
26	0xbe05cea4	-0.13067108
27	0xbdbfaaab	-0.09358724
28	0xbc4db0d0	-0.012554362
29	0xbdede0c4	-0.11615136
30	0xbd8c4369	-0.06848795
31	0xbdb93862	-0.09043957

bias f4 [32]
0	0xbde23d72	-0.11046876
1	0x3d68bd95	0.056821425
2	0xbe2f0135	-0.17090304
3	0x3dfe181c	0.12406942
4	0x3c6ba765	0.014383172
5	0x3d1ae0e0	0.037812114
6	0xbe107291	-0.14106204
7	0xbe1ffaa8	-0.15622962
8	0xbce55a3e	-0.027997132
9	0xbcca9be3	-0.024732536
10	0x3e1cde61	0.15319206
11	0xbe1a90bf	-0.15094279
12	0x3a10908d	0.0005514704
13	0x3e247638	0.16060722
14	0x3e02872f	0.12746881
15	0xbddf0dba	-0.1089129
16	0x3da3f77d	0.08006189
17	0xbdfadd07	-0.12249189
18	0x3c1f7a58	0.009733759
19	0x3e324b18	0.17411458
20	0x3e2cf39a	0.16889802
21	0xbb83a2b2	-0.0040171975
22	0xbe08b299	-0.1334938
23	0xbde23f02	-0.11047174
24	0x3dddfe58	0.10839528
25	0x3d51c3fe	0.051212303
26	0xbd9fa3a7	-0.07794886
27	0x3e04abb8	0.1295613
28	0xbe05def6	-0.13073334
29	0x3de6bbe5	0.11266307
30	0x3e12e45f	0.14344929
31	0x3dd1b6d4	0.1023995

weight_orig f4 [32, 32, 1]
0	0xbe0cc466	-0.13746795
1	0xbc8e105c	-0.017341785
2	0xbd02b62a	-0.031912006
3	0x3d1c1c6c	0.038113043
4	0x3ccf45f0	0.025301903
5	0xbdc5a8e5	-0.09651355
6	0xbc511e57	-0.012763581
7	0xbe163e71	-0.14672257
8	0x3d028795	0.031867582
9	0x3c9f31c0	0.019432902
10	0x3d0545c0	0.032537222
11	0xbde49b71	-0.111624606
12	0xbd271cea	-0.04079906
13	0xbacaa240	-0.0015459731
14	0xbe08a331	-0.13343503
15	0x3e0f450a	0.1399118
16	0xbe18b4e6	-0.14912757
17	0x3dd825ae	0.10554062
18	0x3daef96f	0.085436694
19	0x3d5ee2d8	0.054415554
20	0xbbbcd405	-0.0057625794
21	0x3db23a93	0.087025784
22	0x3e3ce856	0.18448004
23	0x3dca0000	0.09863281
24	0x3d05b115	0.03263958
25	0x3da5dd60	0.080988646
26	0x3cc9a4b1	0.024614664
27	0xbbdf9eef	-0.0068243663
28	0x3e35d822	0.1775823
29	0xbe299e04	-0.16564184
30	0x3c59abde	0.013285605
31	0xbdf2deb6	-0.11858885
32	0x3d958e6b	0.07302555
33	0x3e157584	0.1459561
34	0x3d8e6d7d	0.06954477
35	0xbe0b4d5d	-0.1360373
36	0x3d74fed0	0.05981332
37	0xbc75e3c0	-0.015007913
38	0x3dfbb6e2	0.122907415
39	0xbd30b688	-0.043142825
40	0xbd9d2cec	-0.07674584
41	0x3d729677	0.059225526
42	0x3e07e7a3	0.13271956
43	0x3c57e1ce	0.013176395
44	0xbdbdb349	-0.092627116
45	0x3d9214e7	0.07132893
46	0xbc40a222	-0.0117574055
47	0xbd83bc85	-0.064324416
48	0x3e128ebb	0.1431226
49	0xbe18d57a	-0.14925185
50	0xbd35fc20	-0.0444299
51	0xbcce3965	-0.025173852
52	0xbe12786e	-0.14303753
53	0x3d0b643f	0.03403115
54	0x3e2a6176	0.16638741
55	0xbd8f189f	-0.06987118
56	0x3cd643a7	0.026155306
57	0xbd718150	-0.058961213
58	0xbddcaea9	-0.10775501
59	0xbdf96670	-0.121777415
60	0xbdb0b46b	-0.08628162
61	0x3d0e9ccc	0.034817502
62	0xbd9da50e	-0.07697497
63	0xbd9dc54d	-0.07703648
64	0x3d5c7034	0.053817943
65	0xbd898993	-0.06715693
66	0xbdb047eb	-0.08607467
67	0x3c27598e	0.010214223
68	0xbd06fb4e	-0.032954507
69	0x3d8e12b1	0.06937159
70	0x3e09ef88	0.1347028
71	0xbda0ad1e	-0.078455195
72	0xbdaa8c45	-0.083275355
73	0x3dd4534d	0.10367451
74	0xbda6d26b	-0.08145603
75	0x3df9b359	0.12192411
76	0xbcb042a8	-0.02151616
77	0x3de7b1a5	0.1131318
78	0xbe144a20	-0.14481401
79	0xbc8202fc	-0.015870564
80	0x3d140167	0.03613415
81	0x3d87c031	0.066284545
82	0x3d06aade	0.032877795
83	0xbdbbe0b6	-0.091737196
84	0xbc371eea	-0.011176804
85	0x3d2d019f	0.042237874
86	0xbc05b413	-0.008160609
87	0x3e1a0e03	0.15044408
88	0xbdcace4a	-0.09902628
89	0x3c1147cc	0.008867215
90	0x3d215fcd	0.039398003
91	0xbc860779	-0.016360985
92	0x3d5ebb47	0.05437782
93	0x3c8eb3f1	0.017419787
94	0xba48f6dc	-0.00076661794
95	0xbd28f076	-0.041244946
96	0xbe1e3794	-0.15450889
97	0x3ce015fa	0.02735423
98	0xbd9b0dc6	-0.075709864
99	0x3d862ea4	0.06551865
100	0xbcf6cdab	-0.030127367
101	0xbd8dd5f3	-0.06925573
102	0x3d8af129	0.06784279
103	0xbda3c9a3	-0.079974435
104	0x3ceae61d	0.02867418
105	0x3c0cc330	0.008591458
106	0xbd87d3cb	-0.06632193
107	0x3da157c1	0.07878066
108	0x3df976ed	0.121808864
109	0x3d826abf	0.063680165
110	0x3dbe9217	0.09305208
111	0xbc6633f1	-0.01405047
112	0xbe11e944	-0.1424914
113	0xbd11ed73	-0.03562684
114	0xbd9bd4d1	-0.07608951
115	0xbdc3487c	-0.0953531
116	0x3e46207c	0.1934833
117	0x3c7d6d2e	0.015467925
118	0x3e1e35c4	0.15450197
119	0xbe3e8012	-0.18603542
120	0xbcfdeab9	-0.030995714
121	0xbdf48747	-0.119398646
122	0xbd6b9ff5	-0.057525594
123	0x3d843838	0.064560354
124	0xbe1f8dfc	-0.15581506
125	0xbe2ebae1	-0.17063476
126	0xbd9fd0e3	-0.07803514
127	0xbc1afb76	-0.009459367
128	0x3dcb6745	0.099318065
129	0x3da9e76c	0.08296093
130	0x3e2d5a9e	0.16929099
131	0xbc937db7	-0.018004281
132	0xbe031b4f	-0.12803386
133	0x3c87dc9a	0.016584683
134	0x3dbbcd6c	0.091700405
135	0xbd6673be	-0.056262724
136	0xbd6fed0c	-0.058575675
137	0xbe148d3d	-0.14507003
138	0x3d8a66fb	0.06757923
139	0xbcc83b40	-0.024442315
140	0xbd7674a6	-0.06016984
141	0xbdcff050	-0.10153258
142	0x3b64d4a6	0.0034916787
143	0xbcaf0277	-0.02136348
144	0x3c8f9bad	0.017530287
145	0xbde1f86a	-0.11033709
146	0x3d3b4442	0.045719393
147	0xbd92dbab	-0.071708046
148	0xbe3767ef	-0.17910741
149	0x3d9e4500	0.077280045
150	0x3d2b725b	0.041857105
151	0xbb496669	-0.0030731207
152	0x3e03d599	0.1287445
153	0x3e0fb905	0.14035423
154	0xbe16658e	-0.14687178
155	0xbe017fa6	-0.1264635
156	0x3e03c6db	0.12868826
157	0x3d93de71	0.07220162
158	0xbe1253d2	-0.14289787
159	0x3ce10284	0.02746702
160	0xbd820c5f	-0.06350016
161	0x3c5b083c	0.013368662
162	0xbdd1eef9	-0.102506585
163	0xbdfbe4f8	-0.12299532
164	0xbd9f7598	-0.07786101
165	0xbe189958	-0.14902246
166	0xbdd4ec45	-0.10396627
167	0x3d6929e0	0.0569247
168	0x3d80b378	0.06284231
169	0xbc2e28de	-0.010629861
170	0x3df05d21	0.11736513
171	0x3e4a50be	0.19757363
172	0xbdc9bdd0	-0.09850657
173	0x3c5ef9de	0.013609378
174	0xbe2e1953	-0.17001848
175	0x3dc0b871	0.094101794
176	0x3e1bc3bb	0.15211384
177	0xbe2363ee	-0.15956089
178	0xbe30032c	-0.1718871
179	0xbdf6cfbd	-0.12051342
180	0x3df7dc02	0.1210251
181	0x3b9c0c50	0.00476221
182	0xbcee0c8a	-0.029058713
183	0x3da5e782	0.08100797
184	0x3d43c839	0.04779837
185	0xbc1de651	-0.009637431
186	0xbe00dfc0	-0.12585354
187	0x3d30d97b	0.043176156
188	0xbdd28cfc	-0.10280797
189	0xbe2b0aef	-0.1670339
190	0x3e1b3910	0.15158486
191	0xbe1cf7a2	-0.1532884
192	0x3d7779fc	0.060419068
193	0xbc2b5eec	-0.010459643
194	0x3e1b91f4	0.15192395
195	0x3e07d1b2	0.13263586
196	0x3db992aa	0.09061177
197	0xbe00b422	-0.12568715
198	0xbdec0094	-0.11523548
199	0x3df1e4d4	0.118112236
200	0x3b3098fa	0.002694665
201	0x3e05fdf2	0.13085154
202	0xbd5ac416	-0.05340966
203	0xbab9b9f0	-0.0014169794
204	0xbe0c6eef	-0.13714193
205	0xbdb3fa75	-0.08788005
206	0x3de6c9e1	0.11268974
207	0x3d0f88e4	0.03504266
208	0xbe1f845a	-0.15577832
209	0xbd4fd9b7	-0.05074474
210	0xbd789fe6	-0.060699366
211	0x3d95581c	0.07292196
212	0x3cc40ec2	0.023932818
213	0x3d25bea6	0.04046502
214	0x3de7142f	0.112831466
215	0x3dd7b6cb	0.10532912
216	0xbbfac917	-0.0076533663
217	0xbb935952	-0.004496732
218	0x3dfba43a	0.12287183
219	0xbe168924	-0.14700752
220	0xbde22c9f	-0.11043667
221	0xbd38b74a	-0.045096673
222	0xbd9d9687	-0.076947264
223	0xbdfffc41	-0.124992855
224	0xbe1f8909	-0.15579619
225	0x3ddb6a51	0.107136376
226	0x3e17c8c7	0.14822684
227	0xbca9eb18	-0.020741984
228	0x3da17f48	0.07885605
229	0x3e2bdf15	0.16784318
230	0xbdaa6e1d	-0.08321784
231	0xbd6944c6	-0.056950353
232	0xbdd09884	-0.1018534
233	0xbd587fea	-0.052856363
234	0x3dc16d9e	0.09444736
235	0x3df67f5a	0.12036009
236	0x3dea1e0b	0.114315115
237	0xbdab9f87	-0.08380037
238	0x3de5cb5e	0.1122043
239	0xbb45aa8c	-0.0030161468
240	0x3dda30bc	0.106538266
241	0xbc4aad31	-0.012370394
242	0x3d2a12b0	0.041521728
243	0x3c4652eb	0.01210473
244	0x3dd53505	0.10410503
245	0x3cd170d7	0.025566502
246	0x3d3de5cd	0.046361733
247	0xbb967e1a	-0.004592669
248	0x3d30fc89	0.043209586
249	0xbdcca3ff	-0.09992217
250	0x3de12876	0.109940454
251	0x3dad96b0	0.08476007
252	0x3dda1a69	0.106495686
253	0xbc0aab85	-0.008463745
254	0x3da12ecc	0.07870254
255	0x3d80f476	0.06296627

weight_u f4 [32]
0	0x3dd94d6a	0.10610469
1	0x3dada90d	0.084795095
2	0xbca81688	-0.020518556
3	0x3e314fa4	0.17315537
4	0xbe04e391	-0.12977435
5	0x3e7eb8e6	0.2487522
6	0x3c036eeb	0.00802205
7	0x3dc6b345	0.09702162
8	0xbe502ae7	-0.20328866
9	0x3df111fb	0.117710076
10	0xbe3beefe	-0.18352887
11	0x3d976d33	0.07393875
12	0xb8141453	-3.5304878e-05
13	0x3d240135	0.040040214
14	0x3e087d85	0.13329132
15	0x3db229c0	0.086993694
16	0xbe1c7dac	-0.15282315
17	0x3dd70fea	0.10501082
18	0x3e40c041	0.18823339
19	0xbe39030e	-0.18067572
20	0xbdccdd96	-0.10003202
21	0x3dbfd73d	0.09367225
22	0x3def2120	0.1167624
23	0x3e4482ad	0.19190474
24	0xbe8d087b	-0.27545533
25	0xbd67be6b	-0.05657808
26	0xbdcfd812	-0.10148634
27	0x3e7cb67a	0.24678984
28	0x3daad5c6	0.08341555
29	0xbf1ab872	-0.6043769
30	0xbe5e97bf	-0.21737574
31	0xbc72872e	-0.014802737

weight_v f4 [32]
0	0xbea46a1a	-0.321122
1	0x3e9b10f0	0.3028636
2	0x3ddcf344	0.10788587
3	0x3c5a7327	0.0133331185
4	0xbcb35a69	-0.021893697
5	0xbe75e2ca	-0.24012294
6	0xbc6700bd	-0.014099297
7	0xbe847b3c	-0.2587527
8	0x3e4d65ec	0.20058411
9	0xbd13ebc9	-0.036113534
10	0x3b90b472	0.004416042
11	0x3da2b6b9	0.07945008
12	0xbca0cfd3	-0.019630348
13	0x3e809bb3	0.2511879
14	0xbd04374f	-0.03227931
15	0x3e84f46f	0.25967738
16	0x3e97140e	0.29507488
17	0x3cb2ab00	0.021810055
18	0xbe2ea103	-0.17053609
19	0x3e5e6fcf	0.21722339
20	0x3ece91bc	0.40345562
21	0xbd84982d	-0.06474338
22	0x3e02143b	0.1270303
23	0x3dfa8806	0.12232976
24	0xbe23f9d3	-0.16013269
25	0xbe2d54f3	-0.16926937
26	0xbe1a3979	-0.15060987
27	0xbe5a7632	-0.2133415
28	0xbcdb6fef	-0.026786773
29	0x3d244c01	0.040111545
30	0x3cf0af52	0.029380474
31	0xbcd1fab7	-0.025632245
