Models/M4/few_epoch/few_epoch_generator_model.pt (torch, 159805 bytes, 70 tensors)

bias f4 [32]
00000000: 905f 283e 6c83 463a 96d3 6d3e 1838 5dbe
00000010: 77fc d93d 3ebf 3a3e 0e87 84bd 14ac c5bd
00000020: 7d06 67be e8b1 693e 4944 3b3e 1d9a 583e
00000030: 5845 853e 6c89 f8bd 9077 d73c ed4b 2c3e
00000040: aa3a e2bd 4029 aabd 0033 45be 5a44 84ba
00000050: 2205 923d 3021 a13c 4d1c 323d aaaf ba3c
00000060: 9515 483d 6a13 92be 013d 3c3e 1b2e 9cbd
00000070: 6ab3 24be 5be7 a2bc 9b1f 623e 37aa 8a3e
0.16442704 0.0007572684 0.23225245 -0.2160343 0.10643857 0.18237016 -0.06471072 -0.09651962
-0.22561069 0.22821772 0.18287767 0.2115254 0.26029468 -0.12135586 0.026302129 0.16825838
-0.110463455 -0.08308649 -0.19257736 -0.0010091171 0.07129885 0.019669145 0.04348402 0.022788841
0.048848707 -0.28530437 0.18382646 -0.076259814 -0.16084066 -0.01988571 0.22082369 0.2708299

weight_orig f4 [32, 12, 1]
00000000: 7a2b 86bd b2fe c43c c5df c63d 7a84 c13d
00000010: 004a 90be be04 fcbc 0dfa 0e3e 6b38 d43d
00000020: 8a2e 3e3e ea25 0e3e ddde 4d3e aa46 2f3e
00000030: 280e 83be f35d 873c 5d7d 413e 53a9 573e
00000040: 9106 fb3d 250e 733e 1d17 4b3e 0986 fbb9
00000050: ac79 94bd e147 74bd e0e5 8ebe 514f e9bd
00000060: 63c1 623e e531 903e 6a39 c53d 96c4 863d
00000070: 8be5 673e 2375 63bd 016d b53d 1fe5 4d3e
00000080: e69c fc3d 36cf 373e 47ca babc 06ea 46be
00000090: 0f54 983d f94d 89bd 2a09 52be 2333 473e
000000a0: 62f4 883e efa2 e03d 536e 51bd efed 4dbe
000000b0: 7c6a aa3d 652b 003e e2c7 d03d 4f5d 843c
000000c0: 28f4 14bb dd65 53be 1f50 543e f4aa 5e3e
000000d0: 0697 833d 8b17 8cbe d5e9 b53d 2583 cabd
000000e0: 449e 333e f4d5 92bd c841 8dbd 8e53 8abd
000000f0: 9d94 213e 01b0 01be 67a6 e73d 28aa 833d
00000100: 316f 6e3e d99d 4d3e 4da5 46bd beaa 7cbe
00000110: f923 7fbe 7a50 31bc 9b41 59be f202 3bbd
00000120: e937 86be f733 19be 42f2 173e 5e38 9fbd
00000130: ebab 963e db02 903e 581b 47be 41db 49be
00000140: f642 5f3d 70e4 cabd acf0 9d3d 7d41 6abe
00000150: 3d91 a2bd 553b 773e 1fe5 f3bc f0ac 233e
00000160: 51a5 82bd 3faa 4bbe 2aba 413e d41f 573e
00000170: 9810 693e b75b 04be 9df2 2f3d 9031 01be
00000180: db5b d23d e27f 94be 6007 54be 9d44 11bd
00000190: 2cb7 643e 766b 3b3e 2262 993c 2064 123d
000001a0: 6042 0cbd ad1c 6c3e 7f3d c13c 883c 39be
000001b0: eda8 b03d bccb 2e3e 3865 3dbd 5e82 5d3e
000001c0: 4606 4d3e 370a a13d a3bd 70be cd1f 68be
000001d0: ebf7 1cbe 6a62 f7bc 8a95 2bbe dfec 283e
000001e0: 9ed8 02bd be8a 30be d509 01be e22b 8f3d
000001f0: 54c9 e73d d6f4 26be d923 41be 8e59 ca3a
00000200: fcf6 7dbe 3334 743e 3d79 30be 2408 263e
00000210: 5497 5ebd 4520 93bd a83e 92be 0613 823e
00000220: 7aef f9bc 9f07 2dbe e30d 89be 5de2 013d
00000230: 051d 573d c0ac 223e 6c92 263d 3cdc 8ebe
00000240: 66d6 fbbd 3cad 7d3d 69c7 05be 93cf 86bd
00000250: be0f 813e 80b8 e8bd 6af6 27be 2352 b73c
00000260: 2c6b 95be 66d8 523e b658 5abe 94f2 b9bd
00000270: 2627 223e 16df 51be 8afd 3b3d ec4a 3cbe
00000280: af10 d83d ce9f 2cbe f3a8 c2bc 92c0 5fbe
00000290: 19d2 f1bd 1fe9 92bd a39f 903e c26a 0c3e
000002a0: e894 a93d 2420 0bbe 1a42 2c3e 8e02 39bd
000002b0: 67bb 62be 5798 0bbe 0e6a e1bd 59a6 22be
000002c0: 1aa5 023e 3780 ddbd 574d 81be 628b 19bd
000002d0: c503 8b3e 8d6b 9f3d 8e45 06be 0c6d 5fbe
000002e0: 4028 cbbd 3065 26be b8f9 78be cc61 8f3d
000002f0: f58b 723d 0ba5 6b3e 3237 8e3e 7ea8 02bd
00000300: 232b 0dbd a6d9 5fbe 0790 c8bd ecd5 30bd
00000310: faf1 0a3c fdab 053e feb2 5e3e 54d2 393e
00000320: fe60 86bd d17e a73c f05f 51be 290b 21bd
00000330: da32 da3d aea2 cebd 0eeb 54be 4d11 fe3c
00000340: 6a85 003e 640b 723e 42aa 0ebe 8d90 6ebe
00000350: 308b 88be 8575 f53d 47db 65be ca9d c53c
00000360: 34da 0ebd 4fa1 e33d 1f08 ef3d a10f 45bd
00000370: b2a7 4dbd b198 d7bd ff6c 15be 8212 4ebe
00000380: cbcd 933e b8dc 5b3e 6ae4 593e fe65 5d3b
00000390: 05b5 c7bd b413 ccbd b68b 36bc 7fb8 1d3d
000003a0: 0147 9d3d d52e 253e 2f20 79bd 4dc9 513e
000003b0: c534 f43d cc96 0b3e 86c9 763c 4112 c7bd
000003c0: 6c90 5fbe 92a9 393e 9916 953e 3f70 213d
000003d0: b77b 61bd 908b 553d 3eed 05be 832b 8c3e
000003e0: a4aa 6dbd e2f4 70be 4fbd 773d b061 b53d
000003f0: 95a1 8f3e 8958 663e ad57 16be 5423 ff3d
-0.06551261 0.02404723 0.097106494 0.09449096 -0.28181458 -0.03076398 0.13962574 0.103623234
0.1857244 0.1388165 0.20104547 0.171168 -0.25596738 0.01652429 0.18895479 0.21060686
0.12257112 0.23735864 0.19833036 -0.00047974315 -0.072497696 -0.05963886 -0.27909756 -0.113920815
0.22144084 0.28163067 0.096300915 0.065804645 0.22646157 -0.055531632 0.088586815 0.20106934
0.123346135 0.17950138 -0.022801531 -0.1942521 0.07437908 -0.06704325 -0.20511308 0.19453101
0.2674895 0.10968577 -0.051130604 -0.20110296 0.083210915 0.12516554 0.101943746 0.016157774
-0.0022728536 -0.20644327 0.20733689 0.21744901 0.0642529 -0.27361712 0.088824905 -0.09888295
0.17540842 -0.071697146 -0.068973124 -0.06754218 0.15779348 -0.12664796 0.113110356 0.06428939
0.23284604 0.20079745 -0.048497487 -0.24674508 -0.24916066 -0.01082241 -0.21216433 -0.045657106
-0.2621453 -0.1496123 0.14838508 -0.07774423 0.29428038 0.2812718 -0.19444025 -0.19712545
0.05450722 -0.09906852 0.0771192 -0.22876544 -0.07937858 0.24143727 -0.02977234 0.15983939
-0.06379188 -0.19889162 0.18918672 0.21008235 0.22760236 -0.12925611 0.042955983 -0.12616563
0.10271426 -0.29003817 -0.20705938 -0.035465825 0.223355 0.18302712 0.018723551 0.035740018
-0.034242988 0.23057814 0.023588894 -0.18089497 0.0862597 0.17069906 -0.046239108 0.21631762
0.20021924 0.078632765 -0.2350984 -0.22668381 -0.15328948 -0.030198295 -0.16756263 0.16496609
-0.031944863 -0.17240426 -0.12601407 0.06990792 0.11317697 -0.16304335 -0.18861331 0.0015438066
-0.24801248 0.23848037 -0.17233749 0.16214043 -0.054343536 -0.07183889 -0.28563428 0.2540514
-0.0305097 -0.16897438 -0.26768407 0.031710017 0.05251791 0.15886211 0.040666983 -0.279024
-0.12296753 0.061932787 -0.1306435 -0.065825604 0.25207323 -0.113633156 -0.16402593 0.022378033
-0.29183328 0.20590362 -0.21322903 -0.09079471 0.15835246 -0.20495257 0.04589609 -0.18387955
0.10550057 -0.16857836 -0.023762202 -0.21850803 -0.11807651 -0.071733706 0.28246793 0.137126
0.08280355 -0.1358648 0.1682209 -0.045168452 -0.22141801 -0.13632332 -0.110065565 -0.15883769
0.12758294 -0.10815471 -0.25254318 -0.03748644 0.27151313 0.077841856 -0.1311247 -0.21818942
-0.099197865 -0.16249537 -0.2431401 0.07001075 0.059215505 0.23012178 0.27776486 -0.031898968
-0.034464967 -0.2186037 -0.09793096 -0.04317276 0.008480543 0.1305389 0.21747968 0.1814664
-0.065614685 0.020446213 -0.20446754 -0.039317284 0.106542304 -0.100896224 -0.20792791 0.031014109
0.12550893 0.23637158 -0.13932136 -0.23297329 -0.26668692 0.11985306 -0.22446929 0.024123091
-0.034876063 0.111147515 0.11671471 -0.048110608 -0.050208755 -0.105271704 -0.1459236 -0.20124248
0.28867945 0.21470916 0.2127854 0.0033782716 -0.097513236 -0.099646956 -0.011141708 0.038506027
0.076795585 0.16131146 -0.06082171 0.20486946 0.119241275 0.13631743 0.015062695 -0.097202785
-0.21832436 0.18131092 0.29118803 0.039413687 -0.055049624 0.05213505 -0.13078782 0.27376947
-0.058024064 -0.23530915 0.060483273 0.08856523 0.28052965 0.22494711 -0.14681883 0.1245791

weight_u f4 [32]
00000000: c476 603e 3d8d 3e3d e46a 07bd fcb9 74be
00000010: 16d6 bb3d 0c88 6fbe 8d8e 34bd 4a6a 513e
00000020: 787d 55be 2b99 96be 194b 83be 29ca 4dbe
00000030: 010e 83be e67e ccbb 93a5 3d3d 9b18 b2bd
00000040: 52a2 5a3c cb38 b9be 5dc8 1b3d 781b 66bc
00000050: fc3c 583e f69d 25be fe8c 3abe 776b 6cbd
00000060: 3d85 d53d 5621 5ebe 4aaf 0a3e 64d8 66bd
00000070: c7a6 113e 0ad9 a9be c537 9f3d e7ad 07be
0.21920305 0.046521414 -0.033060923 -0.23899072 0.09171693 -0.23391742 -0.04408126 0.20450702
-0.20848644 -0.29413733 -0.25643232 -0.20096649 -0.25596622 -0.0062407134 0.046300482 -0.08696099
0.013344364 -0.36176142 0.03803288 -0.014044635 0.21117014 -0.16173539 -0.18217847 -0.057719674
0.10425804 -0.21692404 0.1354343 -0.05635871 0.14223777 -0.331734 0.07774309 -0.13249932

weight_v f4 [12]
00000000: 5005 9abe 0721 9c3c 8e01 ea3e 1553 46be
00000010: 926c b8be 471a 04be 7dd6 ed3e 5309 813e
00000020: 9c62 853e 2cf1 a0be 7a9e 873e adaa 6e3c
-0.30082178 0.019058717 0.4570431 -0.19367631 -0.36020333 -0.12900649 0.46452704 0.25202426
0.26051795 -0.31434 0.26488096 0.014567059

weight f4 [32, 12, 1]
00000000: 13dd 41bd 5795 8e3c 8cd8 8f3d 80c5 8b3d
00000010: 9dae 50be c5ff b5bc 60ad ce3d 6e6e 993d
00000020: a26f 093e ad83 cd3d 34d0 143e ab66 fd3d
00000030: 2e7f 3dbe 9e6a 433c 84d7 0b3e bfde 1b3e
00000040: 6c7d b53d 02be 2f3e a7ce 123e dc1c c6b9
00000050: 02d9 56bd 93db 30bd c2aa 4ebe 14a0 a8bd
00000060: 1d00 243e 178b 503e 8381 8e3d dab6 423d
00000070: d09f 273e 49b9 24bd 7039 833d 2ee2 143e
00000080: 87a2 b63d 81e3 043e 2e9b 87bc 1ac3 0fbe
00000090: f6a2 5c3d a457 46bd 2bd8 17be a40d 103e
000000a0: 0212 463e aa84 a23d 60bb 17bd 68de 14be
000000b0: 4c83 763d 0d7e b93d a205 973d c02f 413c
000000c0: 32cd d0ba 78d1 18be 2994 193e 080d 213e
000000d0: a376 3e3d cc81 4abe ba75 833d 0139 92bd
000000e0: f1ec 013e a6ee 53bd 8b1a 4cbd edec 47bd
000000f0: 5b99 e93d 5f89 bbbd ab5c a73d aa3b 3e3d
00000100: 1e5b 2c3e e39a 143e d8a7 0fbd 0dbc 36be
00000110: 1e7e 38be 0de0 ffbb be16 1dbe fa4b 07bd
00000120: 0c28 42be e17a ddbd 31d7 db3d 2ff0 65bd
00000130: 43eb 593e 8254 503e 5f00 10be 6df9 11be
00000140: 4ea1 213d cba0 92bd 24aa 643d ed79 29be
00000150: 7fdd 6abd c7cc 323e 17f0 b0bc a39b ec3d
00000160: 8511 3dbd f552 13be 3a22 0c3e 7a84 1b3e
00000170: 1e83 283e 2967 bfbd 535e fe3c f7eb babd
00000180: ea26 983d 5fbd 56be 9767 19be 3061 d2bc
00000190: 016b 253e 098d 073e 837b 5e3c fe15 d43c
000001a0: 38aa cabc 82a9 2a3e affe 8b3c e5ff 05be
000001b0: 8264 7f3d 53c3 fc3d acd6 08bd fa3d 203e
000001c0: 8d44 143e 3b38 693d ab19 2ebe d2dc 27be
000001d0: dee6 e2bd 0e51 b2bc a209 f8bd 1757 f43d
000001e0: 1521 bdbc 6139 ffbd 1ba7 babd 18fd 4e3d
000001f0: 8d68 a73d 5377 f1bd 57b7 0bbe e01e 8c3a
00000200: 309c 37be 159b 303e 7f23 ffbd 1341 f03d
00000210: a795 20bd dea9 54bd a76b 53be b217 3c3e
00000220: ae77 b4bc df1d fabd 7741 46be ab07 bc3c
00000230: f1b8 1b3d ab60 eb3d a8f3 f03c 2d90 4ebe
00000240: 3f14 b6bd 30a2 373d 0e5d c1bd c3a7 42bd
00000250: 629b 3a3e 2924 a8bd 1bbf f2bd 1859 843c
00000260: ad07 58be 3180 183e 95eb 1dbe a567 86bd
00000270: d07a ea3d 15a9 17be 5007 083d 061d 08be
00000280: 1a2b 9c3d 588e f9bd 5159 8cbc fcca 21be
00000290: 76c2 aebd b0ae 54bd ec1a 513e 903a cb3d
000002a0: 525d 753d 5140 c9bd e71c f93d 0fe1 05bd
000002b0: 1ed1 23be def4 c9bd 5d11 a3bd ca1e ebbd
000002c0: f0d2 bc3d a539 a0bd 3401 3bbe b3cb ddbc
000002d0: e7fe 483e 0e89 663d d226 c2bd 888d 21be
000002e0: d7bd 92bd 7ea1 f0bd bef5 33be a68e 4f3d
000002f0: 2123 2f3d aa5f 2a3e 5f98 4d3e 7a13 bdbc
00000300: b807 ccbc a9cf 21be 29e5 90bd 706e ffbc
00000310: e63f ca3b b136 c13d 9dfc 203e 2d69 063e
00000320: 9541 42bd 320f 713c 1a65 17be 1a15 e9bc
00000330: 2fcd 9d3d a886 95bd 73f8 19be 5fd5 b73c
00000340: 35c8 b93d 48f3 2e3e 003a cebd 2871 2cbe
00000350: 5468 45be bf69 b13d 7432 26be 9903 8f3c
00000360: 0c0b cfbc 8898 a43d f6d4 ac3d 0b33 0ebd
00000370: f104 15bd 04cd 9bbd 8816 d8bd 4609 15be
00000380: 2bcc 553e a703 1f3e 3796 1d3e a31e 213b
00000390: 726a 90bd 5587 93bd 1e24 05bc 36dd e33c
000003a0: e454 633d bfe6 ee3d 5120 34bd 94ba 173e
000003b0: 909f b03d 24fe c93d cf64 333c f5be 8fbd
000003c0: 87a2 21be 7630 063e 3e9f 573e 09d1 e93c
000003d0: 1aef 22bd ab5c 1a3d bdba c1bd a6c8 4a3e
000003e0: 24d8 2bbd 7929 2ebe 9c0a 333d f928 833d
000003f0: fba4 4f3e 148e 263e 804b d9bd cd99 b83d
-0.047329973 0.017405195 0.07023725 0.068247795 -0.2037911 -0.022216687 0.100916624 0.07491766
0.13421491 0.10034881 0.14532548 0.12373098 -0.18505546 0.011927275 0.13656431 0.1522169
0.08861813 0.17162326 0.14336644 -0.00037787005 -0.05245305 -0.043178152 -0.20182326 -0.082336575
0.16015668 0.20365559 0.06958296 0.047537662 0.16369557 -0.040215764 0.0640744 0.14539406
0.089177184 0.12977411 -0.016553488 -0.14039269 0.05386635 -0.048423424 -0.14828555 0.14067703
0.19342807 0.0793546 -0.03704393 -0.14537966 0.06018381 0.090572454 0.07374121 0.01179117
-0.0015930294 -0.14923656 0.14997925 0.15727627 0.04649986 -0.19776076 0.06418939 -0.07139779
0.12688042 -0.051741265 -0.04983 -0.048809934 0.11406203 -0.09157061 0.08171972 0.04644362
0.16831633 0.1451221 -0.035072178 -0.17845173 -0.1801686 -0.0078086914 -0.15340707 -0.03303144
-0.18960589 -0.10814453 0.10734404 -0.05613726 0.21281151 0.20344737 -0.14062642 -0.14255305
0.039460473 -0.07159575 0.05582632 -0.16550417 -0.05734014 0.17460929 -0.021598859 0.11553123
-0.046159286 -0.14387114 0.13684931 0.15187255 0.16456267 -0.09345848 0.031050837 -0.09127038
0.07429297 -0.20970677 -0.14980923 -0.025681108 0.161541 0.13237394 0.013579252 0.025889393
-0.02473937 0.16666225 0.017089216 -0.13085897 0.06235171 0.12341943 -0.033407852 0.15648642
0.14479275 0.05693839 -0.17001979 -0.1639283 -0.11079191 -0.021767166 -0.12111212 0.119306736
-0.023087064 -0.12462116 -0.09113904 0.050534338 0.08174238 -0.117903374 -0.13644157 0.0010690354
-0.17930675 0.17246659 -0.12457942 0.11731162 -0.03920522 -0.05191981 -0.20646535 0.18368414
-0.022029724 -0.12212729 -0.1936091 0.022952875 0.03801817 0.11493047 0.02941306 -0.20172186
-0.088905804 0.04483241 -0.09441577 -0.04752327 0.18223336 -0.08210022 -0.11852857 0.016155764
-0.21096678 0.14892651 -0.15421899 -0.065627374 0.11449206 -0.14810593 0.0332101 -0.13292322
0.076254085 -0.12185353 -0.017132433 -0.15800089 -0.08533184 -0.051924407 0.20420426 0.09923279
0.05990345 -0.098267205 0.12163716 -0.032685336 -0.1599774 -0.09861158 -0.07962296 -0.11480482
0.09219921 -0.07823495 -0.18262178 -0.02707467 0.19628488 0.05628305 -0.09480061 -0.15776646
-0.07165115 -0.11749552 -0.17574212 0.05067315 0.04275811 0.16638055 0.20077656 -0.023080576
-0.024906024 -0.15801872 -0.07074959 -0.03118059 0.006172168 0.0943426 0.15721364 0.13126059
-0.047425825 0.0147130955 -0.14784661 -0.028452445 0.07705151 -0.07301074 -0.15036182 0.02244061
0.090713896 0.17084992 -0.10069656 -0.1684004 -0.1927808 0.086627476 -0.16230184 0.01745777
-0.025273822 0.080369055 0.084390566 -0.034716647 -0.036381666 -0.07607463 -0.105511725 -0.14554319
0.20878665 0.15528737 0.15389334 0.0024584911 -0.07051553 -0.07203547 -0.008126287 0.027815443
0.05550088 0.11665105 -0.04397613 0.14817268 0.08624184 0.098629266 0.010949328 -0.07018844
-0.15784656 0.13104424 0.2105684 0.028542059 -0.039778806 0.03768603 -0.094594456 0.19803104
-0.041954175 -0.17008008 0.04371129 0.06404299 0.20277779 0.16265136 -0.106101036 0.0901371

weight f4 [1, 32, 1]
00000000: e479 403d 9871 acbd 18e0 14be 59c3 cabd
00000010: f1cb 1d3e 2f3a 0e3e 36a1 ca3d e144 103e
00000020: 5bc8 323e 2e1b 29be 4ef7 cfbd 0fc4 323e
00000030: bef3 58bd 8f74 303e 73de 183e e259 8a3d
00000040: 57d4 0d3e fe10 ddbd f8ee ea3c 466b d6bd
00000050: 00fb 32be 3a5c d03d 02fb e13d 3c46 09be
00000060: 3fa2 05be 8fef 153e e412 353d deed ad3d
00000070: 3614 e03d 7ef6 d33d 59c1 083e 30a9 a03c
0.046991244 -0.08420104 -0.1453861 -0.09900541 0.15409829 0.13889383 0.0989403 0.14088775
0.17459242 -0.16514274 -0.101545915 0.17457603 -0.052966826 0.17231964 0.14928608 0.06755425
0.13850532 -0.10794257 0.028678402 -0.104696795 -0.17478561 0.10173841 0.11034204 -0.13405699
-0.13050173 0.14642166 0.04420747 0.08492635 0.10941355 0.10349749 0.13355006 0.019611925

weight f4 [1, 32, 1]
00000000: 20db 1dbe ad5c 2d3e f94a babd ab19 1e3e
00000010: 702c bfbd 5edf da3d b433 683d 4e94 a63d
00000020: fcb5 07be abf1 dabd 5cfb 1ebd f02a 773c
00000030: 3418 153d 727d 833d 60f2 efbc 47a6 203e
00000040: 6df8 293e 2c7b aebd 00ca 19be e08c 093d
00000050: d89f ca3c 16d0 ab3d 283b 353d 0615 e03d
00000060: 3e54 92bd b00e c03c 3b59 d8bd 5e9f 9a3d
00000070: 98a0 05bd 81cb bdbd cd92 093e 61ad 0dbe
-0.15415621 0.16929884 -0.09096331 0.15439479 -0.09334648 0.10687135 0.056689933 0.081337556
-0.13253015 -0.10690626 -0.038813934 0.015085921 0.036400035 0.06420411 -0.029290378 0.1568843
0.16598673 -0.08519587 -0.15018463 0.033581614 0.024734423 0.083892986 0.04424587 0.1094151
-0.07144974 0.023444504 -0.10563894 0.07549928 -0.032623857 -0.09267331 0.13434906 -0.1383567

weight f4 [1, 32, 1]
00000000: 858e 2cbe 8cf0 3e3d 409b 9abd b65c 04be
00000010: b0e9 f6bc 0069 6dbd 3ea7 b7bd d71f 123e
00000020: 3cf2 28be f0c9 07bd 9239 c93d 86e8 a1bd
00000030: 384d 823d 624e c23d b949 f5bd 3c6c 1dbe
00000040: 5b8f 043e b207 fa3d 5848 49bd b0ad 69bc
00000050: 0647 d73d 4e4c d53d 4242 1ebe 8290 31be
00000060: 30e2 023d 8023 6abd 68e6 b13c 6778 f9bd
00000070: 8a5d 5bbd 95c1 053e 00b2 493a 56bd bb3d
-0.16851242 0.046616122 -0.07549143 -0.12925991 -0.030140728 -0.057961464 -0.08967446 0.14269958
-0.16498655 -0.033151567 0.09825434 -0.079056785 0.063623846 0.094876066 -0.11976952 -0.1537332
0.12945311 0.12208499 -0.049141258 -0.014262602 0.105115935 0.104149446 -0.15454963 -0.17340282
0.03195399 -0.05716276 0.021716312 -0.12181168 -0.053556003 0.13062127 0.00076940656 0.09166972

bias f4 [32]
00000000: 64d3 14bd 9eab 123e d06a db3d 7392 053e
00000010: 4173 1b3e 2933 963d c301 f8bd 93b4 8abd
00000020: 9ed9 e23c 2453 d03c ad01 9d3c 68f3 fbba
00000030: 10df c73d 40f2 b8bb 28e7 013e 716f 0bbe
00000040: aa59 5d3d 6901 223e 721b adbd 5aae d43c
00000050: 4696 1e3d bc96 003e d8df 0a3e 9da8 ec3d
00000060: 2f23 203d 89a9 eabd da61 573d 1312 ecbd
00000070: 512a 113e ace7 933c f19c 8fbd 68ed 11be
-0.03633441 0.1432328 0.10713732 0.13044147 0.15180685 0.07333977 -0.12109711 -0.06772723
0.027691659 0.02543027 0.019165838 -0.0019222321 0.09759343 -0.005644113 0.12685835 -0.1361673
0.05404059 0.1582085 -0.084525004 0.025962044 0.03871753 0.125575 0.13561952 0.11555598
0.039096054 -0.114581175 0.052583553 -0.11526885 0.14176299 0.018054806 -0.07012356 -0.1425072

weight_orig f4 [32, 43, 1]
00000000: 4348 08be d9af 1abe e8af d4bc 6e32 ddbb
00000010: ec91 943d 35c9 943d 3e83 d1bd f7fd 1dbe
00000020: 7143 9f3c 395b c8bc 4a98 e0bd 4a87 6d3d
00000030: 771c b1bd 962f 673d 5f6a 5dbd 9607 053e
00000040: a30b dcbd b8e7 ae3d ac8e 363d 28ef ab3c
00000050: 0a06 443d 8cd4 6ebc 0fec 003c 3d9a 843d
00000060: 196a dbbb 32f6 12be 36f1 eabd c218 053e
00000070: 23ee c03c 0411 cbbd f324 6e3d bc31 75bd
00000080: 1bb7 053e 0963 b33d 4054 c63c 5115 2c3d
00000090: 0c57 fdbd 61b8 003e 4601 9cba 98e5 96bd
000000a0: 9d2e 5cbd 9aee d83d 9855 c03a a94b d0bd
000000b0: 043c 12be 6147 b3bd ea12 6b3d 61ad 543d
000000c0: 71fc e23b b44a 093e b969 063e 1d93 e03c
000000d0: 5ba5 bebc 748b 9a3d ff24 c93d 60e0 c83c
000000e0: 6f35 a3bd 0894 0abe eaf7 91bd 4ca2 823d
000000f0: 6180 79bc abdc c73d d935 c73d 31bd 09be
00000100: 6596 e2bd eccc 8cbd cfe2 c2bd 28b8 dc3d
00000110: bc3f 1bbe 9173 723c 4153 e2bc b2ab f4bd
00000120: 9d70 a5bd 463d afbd ef7a 21be 2ce5 743d
00000130: be2f 02be 4abd ff3d 126a e13d ee9c ebbc
00000140: f87c ab3d 7ae6 d2bc a06e e83c 2193 193e
00000150: 5b2e 24bd 41df ecbd d359 10be 2734 afbd
00000160: b0f1 b53d 1378 0bbe 1450 8dbc 2b22 463d
00000170: 4f60 bbbb 3d37 16be b366 c5bd dd04 3dbd
00000180: c83c 013e fbea b0bd 442e f63d 7676 763d
00000190: 00d6 a63d 0071 82bd 5ae4 1b3e 6fb3 e33c
000001a0: c784 cabd 9ffe 14be 18a3 003e e461 01be
000001b0: b2ca ea3d 6755 99bd 41ae b03d 72c6 b4bd
000001c0: 51e6 af3d 377d 13bd c8b7 353d a3db cd3d
000001d0: 67d5 99bd 6cc5 f83d 5436 99bd 0c2e 11be
000001e0: 8ccf edbd b425 6cbc b3f8 91bd 5ce8 cab8
000001f0: de53 fbbd b450 033e 5e33 023e c7b8 60bd
00000200: 22bd 82bc b880 febd 3341 a3bd b682 ed3d
00000210: a55f 9e3d 85f5 083d d1fb bebb d0a6 4dbd
00000220: 1f9c ddba 2877 e83d b30b f5bd 618d 893c
00000230: b73e 7e3d 6bf6 01bd 0d9a e3bc b18c 6cbd
00000240: 02d6 c13b 3651 0e3e 79a4 e13d fcfe 0b3e
00000250: 7c1f 863d 1202 dbbd 666e 14bd 89cc 163e
00000260: df32 de3d a3fa c73c 548c 0bbe 4cd6 fcbd
00000270: a003 0ebe ed5b 6f3c d608 6a3d 8a73 f9bd
00000280: 9957 09bd 505f 763d 4390 d13b 7083 95bc
00000290: 3c95 ab3d 5b4c 43bd 9e3f 7ebb f119 12be
000002a0: b764 0ebe 6e02 c13c 0320 22be 0f94 803d
000002b0: d32a a6bd d363 07be f338 d5bd 4255 033e
000002c0: 4e56 71bd b2e8 dcbd f7e2 5cbd d100 37bd
000002d0: 82e9 e5bc f689 2a3d 425a f8bd 6b2e e03d
000002e0: 761c 043e df3a 9e3c 28a9 553c 960c 02bd
000002f0: 1472 103e 11c5 783d 69a9 0c3e 563f 973c
00000300: eca8 1d3e 5dd8 f13a 00c5 463b 0278 7d3d
00000310: 3ade 03bd 65b7 95bd d9c9 0cbd 9068 8c3d
00000320: 6411 8e3d 96d6 67bd 66c3 c2bd b2aa 2e3e
00000330: c62a bf3d e346 ec3d 377b 11bd 17b8 8abd
00000340: 221c 4e3d 410b 42bd faa5 49ba 365d b53d
00000350: 6a10 90bd ab3b fe3d 6a2d 2a3d 9190 d93d
00000360: fbaa 993d 3556 cb3c 5bf2 ab3d 99ec 553d
00000370: a435 c63d 7e1e f6bd 89f6 a0bd 7d2e 0dbe
00000380: b6ee 06be 988c afbb 04a7 883d 46c2 02bd
00000390: 8fe3 263d 86fb 073e 6617 9abd 914f a93c
000003a0: 9a6d c53d 92a8 43bd 25e4 bbbd 71d8 8e3d
000003b0: 7ff0 a23d 55fd 3cbd 96cc 07be f181 bd3d
000003c0: 1cdd bdbd f39e 6a3d 4c3b b7bc f147 0cbe
000003d0: 848f ef3d 8006 1f3e fe20 8b3c 04e3 afbc
000003e0: b528 f9bd 0ba7 a03b 25c0 043e 5c92 9c3d
000003f0: c02b e4bd 1e1a 13be dc90 cb3d 47f8 fb3d
-0.13308816 -0.15106143 -0.025962785 -0.0067503965 0.07254395 0.0726494 -0.102301106 -0.15428911
0.019441338 -0.02445756 -0.10966547 0.05799035 -0.08648007 0.056441866 -0.05405652 0.12991175
-0.10744407 0.085402906 0.044569656 0.020988062 0.04785732 -0.014577042 0.007868781 0.06474731
-0.0066959974 -0.14351729 -0.114717886 0.12997726 0.023551052 -0.09915355 0.058140706 -0.059861884
0.1305813 0.08759124 0.024210095 0.042012516 -0.123701185 0.12570335 -0.0011902235 -0.0736801
-0.05375539 0.10592385 0.0014673946 -0.10170681 -0.14280707 -0.08753849 0.057391085 0.05192316
0.006927066 0.13407403 0.13126267 0.0274139 -0.023272207 0.0754613 0.098215096 0.024521053
-0.07969176 -0.13533032 -0.07127364 0.06378612 -0.015228362 0.09758886 0.097270675 -0.13451077
-0.11063842 -0.06875023 -0.095159166 0.107773125 -0.15161031 0.014798061 -0.02762759 -0.11946811
-0.0807812 -0.08556609 -0.15769552 0.059788868 -0.12713525 0.12487276 0.110065594 -0.028761353
0.08373445 -0.025744665 0.028373063 0.14997531 -0.04008327 -0.1156602 -0.14096765 -0.08554869
0.08883989 -0.13620023 -0.017250098 0.04837243 -0.005718268 -0.14669509 -0.09638729 -0.046147216
0.12620842 -0.08638569 0.12020543 0.060171567 0.08146286 -0.06369209 0.15223828 0.027795522
-0.098886065 -0.14550255 0.12562215 -0.12634999 0.11464442 -0.07486992 0.08626986 -0.08826913
0.08588851 -0.036008086 0.04436472 0.10051658 -0.075114064 0.1214703 -0.074810654 -0.14177722
-0.11611852 -0.014413286 -0.07127514 -9.675391e-05 -0.12271856 0.12823755 0.12714908 -0.054863717
-0.015959326 -0.12426895 -0.0797142 0.11597197 0.077330865 0.03343727 -0.0058283587 -0.050207913
-0.001690749 0.11350852 -0.11965122 0.016791048 0.06207153 -0.031729143 -0.027783418 -0.05775136
0.0059154043 0.13898167 0.11017699 0.13671488 0.06548974 -0.10693754 -0.036238097 0.14726461
0.10849547 0.024411505 -0.1362775 -0.123455614 -0.1386857 0.014609319 0.057137333 -0.121802405
-0.033530805 0.06014949 0.006395371 -0.01825115 0.083780736 -0.04768024 -0.0038795243 -0.14267708
-0.13905607 0.023560729 -0.15832524 0.0627824 -0.08113637 -0.13221674 -0.10411253 0.12825492
-0.058920197 -0.107865706 -0.053927388 -0.044678513 -0.028065447 0.041635476 -0.1212659 0.109463535
0.12901482 0.019315181 0.013040818 -0.031750284 0.14106017 0.060734812 0.137365 0.018462818
0.1539647 0.0018451322 0.0030329823 0.061882026 -0.032194354 -0.0731037 -0.034372184 0.06855881
0.06936911 -0.05660113 -0.095099255 0.17057303 0.0933433 0.11536958 -0.035517897 -0.067733936
0.0503198 -0.047374014 -0.0007692274 0.08855669 -0.07034381 0.124137245 0.041547216 0.10623277
0.07503315 0.02482138 0.08395835 0.05222759 0.096782 -0.12017535 -0.07859523 -0.13787265
-0.13176998 -0.0053573363 0.06672481 -0.031923555 0.04074436 0.13279542 -0.07523994 0.020667823
0.096400455 -0.047768183 -0.091743745 0.06974877 0.07956027 -0.046140034 -0.13261637 0.092533
-0.09270689 0.057280492 -0.022367142 -0.13699318 0.11697295 0.15529823 0.016983505 -0.021470554
-0.121659674 0.0049027256 0.12963922 0.07645103 -0.11141157 -0.14365432 0.09939739 0.123032145

weight_u f4 [32]
00000000: 14dc 043e 044f 3ebe 0061 d2bd 794f 3fbe
00000010: 2673 993e 44dd 47be ffdd 273e c9bc 433d
00000020: ddb9 5ebd ab7e 2bbe 321a b23e 5ab5 1d3e
00000030: af9e 1b3d ae72 233e d9e8 c7bd 642e 7cbd
00000040: 2924 3ebe e369 8a3e fc52 5dbd fc65 3d3d
00000050: 22c8 db3c 48f7 323e 054f a03e 5e91 a53e
00000060: c42d cabc f67e a13d 8ce3 243e 690e 9a3d
00000070: d387 78be 81b8 21be cf44 c43d 7fee 69be
0.12974578 -0.1858483 -0.102724075 -0.1868266 0.29970664 -0.19518 0.16393279 0.04778746
-0.05437647 -0.16747539 0.3478561 0.15401211 0.03799313 0.15961716 -0.09761209 -0.06156768
-0.18568482 0.2703391 -0.05403422 0.046239838 0.02682883 0.17477143 0.31310287 0.3233747
-0.024680026 0.07885544 0.16102427 0.0752228 -0.24270563 -0.15793039 0.09583437 -0.22844885

weight_v f4 [43]
00000000: d2de 703d 65af 19bc 35c4 3cbe 7533 c73d
00000010: 0957 633c 707b 69be 0b3b 1f3e d3ed 0abe
00000020: b720 0bbe 218c a23e b6ae 62be 8372 aebd
00000030: 8fdd 073e 9b41 ed3d f29f 8d3d 63cb b93b
00000040: 153b b5bc fb50 09be b7f3 733e 584f bfbd
00000050: 1efa 853e 8506 643e e539 babd 61e9 1f3e
00000060: b4dc 90bd 8025 1e3d c7a0 a4bd 052a 893e
00000070: 292a 3f3e 226c 96bd 1f64 b3bd 1bf4 6f3e
00000080: 7894 f63c 4627 613e c069 9a3d 953c 8dbd
00000090: 16d2 28be b267 603e a58d b73c b9f1 393d
000000a0: b113 2bbe 00b4 6c3e 6cdb 9c3d
0.058806248 -0.009380196 -0.18434222 0.097266115 0.013875731 -0.22800994 0.15549867 -0.13567285
-0.13586698 0.31747535 -0.2213696 -0.08517935 0.13268112 0.11584779 0.06915273 0.0056699975
-0.0221229 -0.13409798 0.23823439 -0.093413055 0.26167387 0.22268112 -0.09093074 0.1561637
-0.07073346 0.03860998 -0.08038478 0.2678987 0.18668427 -0.073448434 -0.08759331 0.23432963
0.030100092 0.21987638 0.075397015 -0.06896321 -0.16486391 0.21914557 0.022406409 0.04539654
-0.1670673 0.2311554 0.07659039

weight f4 [32, 43, 1]
00000000: 5820 00be 3954 11be 051e c8bc 4cf4 d0bb
00000010: 7a91 8b3d 3fbc 8b3d 640a c5bd 388a 14be
00000020: 9c9d 953c 6abf bcbc a113 d3bd 21f5 5e3d
00000030: 2384 a6bd 69fd 583d a560 50bd 04da f93d
00000040: 26b7 cebd 903c a43d 8a47 2b3d c7cf a13c
00000050: eff8 373d ba49 61bc 0a51 ef3b 10d9 783d
00000060: 68d7 d0bb 251b 0abe 07ec dcbd 2804 fa3d
00000070: 39bd b43c ebe7 bebd f290 5f3d a39a 66bd
00000080: 2129 fb3d 525d a83d b669 bb3c 9007 223d
00000090: 39c7 edbd 63bd f13d 38ae 91ba d39c 8dbd
000000a0: f8f4 4ebd d0d4 cb3d a676 a73a fc73 c3bd
000000b0: 064a 09be c536 a8bd 8351 5d3d 3747 483d
000000c0: 10be d83b 8215 013e 95d4 fc3d 537c d33c
000000d0: ca43 b2bc 6466 913d 7139 bd3d a18d bd3c
000000e0: 301d 99bd 9e19 02be 10f5 88bd b9e0 753d
000000f0: 3519 69bc fffa bb3d 7065 bb3d 8652 01be
00000100: aaa9 d4bd bc0c 84bd 3eea b6bd 5d9d cf3d
00000110: c6c8 11be b6ef 653c 51cb d3bc 1eaa e5bd
00000120: 5034 9bbd b55d a4bd c4a1 17be b336 663d
00000130: 5b9f f4bd 766f f03d 3a08 d43d 6b38 ddbc
00000140: 6e58 a13d 38ef c5bc 549d d93c 2968 103e
00000150: 36f2 19bd 9e4b debd fabb 07be 2979 a4bd
00000160: b2c7 aa3d bb09 03be 5799 84bc 50bd 393d
00000170: e511 aebb 1d26 0dbe 27b5 b9bd 1d9c 31bd
00000180: 0cb1 f23d f94c a6bd 6c32 e73d 5274 673d
00000190: 8aa2 9c3d 528b 75bd 116a 123e f711 d53c
000001a0: bf56 bebd 9b0c 0cbe d9d8 f13d 113e f3bd
000001b0: 5283 dc3d 024f 90bd f9d1 a53d 2be0 a9bd
000001c0: 5f30 a53d 5a6b 0abd 1eca 2a3d 0a54 c13d
000001d0: 0cc7 90bd a2a6 e93d c314 90bd 265e 08be
000001e0: 5f57 dfbd 6a8d 5cbc 7302 89bd 3bb3 e6b8
000001f0: 8026 ecbd 41d5 f63d 2b95 f43d fd70 53bd
00000200: a7c5 76bc a227 efbd 4b75 99bd 4e27 df3d
00000210: 3bf4 943d b28e 003d 774c b3bb 254b 41bd
00000220: e46e d1ba 4b7f da3d 3b28 e6bd 4346 813c
00000230: d8f4 6e3d c00f f4bc 2b42 d6bc 046b 5ebd
00000240: 3729 b53b 9dab 053e ab26 d43d 3595 033e
00000250: 1a14 7c3d e6cd cdbd f619 0bbd 1eb2 0d3e
00000260: c3dc d03d b2af bb3c 6315 03be d390 edbd
00000270: 9362 05be e389 613c 530c 5c3d 3e72 eabd
00000280: faf8 00bd 439b 673d 62d7 c53b 0b69 8cbc
00000290: 2261 a13d 3a69 37bd 6504 6abb 364d 09be
000002a0: 67c8 05be 354a b53c 753d 18be 8d9e 713d
000002b0: 6f1e 9cbd 1176 febd d43a c8bd 8699 f63d
000002c0: 59b4 62bd 629a cfbd 29d4 4fbd 06bc 2bbd
000002d0: ef77 d7bc a6ee 1f3d c64a e9bd d5ac d23d
000002e0: 1327 f83d 223d 943c 5756 483c e37e f4bc
000002f0: c0c0 073e a858 693d 7918 043e ded0 8e3c
00000300: b613 143e 7652 e73a 5fa4 333b dee5 6d3d
00000310: d861 f8bc 93a1 8cbd ca44 04bd b2b3 833d
00000320: db52 853d dee9 59bd da03 b7bd b828 243e
00000330: 98b9 b33d 2fdd dd3d d26e 08bd be39 82bd
00000340: afc4 413d c08f 36bd af65 3aba 019f aa3d
00000350: 8658 87bd b6d7 ee3d d287 1f3d 0355 cc3d
00000360: ef38 903d f2de be3c d09a a13d b5ed 483d
00000370: d33a ba3d f059 e7bd 7864 97bd 41aa 04be
00000380: 579a fdbd e313 a6bb b04e 803d 9e10 f6bc
00000390: 9bd6 1c3d a17e ff3d a6d2 90bd 139c 9e3c
000003a0: d27c b93d 18c6 37bd 6f8a b0bd 6b1d 863d
000003b0: a52d 993d fec6 31bd e42d ffbd 30f2 b13d
000003c0: 2065 b2bd ff51 5c3d 7abd abbc f6c6 03be
000003d0: 3718 e13d 8a5e 153e 6bba 823c ecc3 a4bc
000003e0: 1e21 eabd 89e0 983b 8f8c f93d be13 933d
000003f0: 7f51 d6bd ea3a 0abe 463c bf3d 45c0 ec3d
-0.12512338 -0.14192285 -0.024428377 -0.0063767787 0.06814857 0.068230145 -0.096211225 -0.14505851
0.01826363 -0.023040492 -0.10306478 0.054432992 -0.08130672 0.052976046 -0.050873417 0.12199786
-0.100935265 0.08019364 0.04181627 0.019752396 0.044915136 -0.013750488 0.007303362 0.060753882
-0.0063733347 -0.13486917 -0.10787206 0.12207824 0.022062885 -0.093215786 0.05458159 -0.056299817
0.12263704 0.082209244 0.022877555 0.039557993 -0.11610264 0.11803701 -0.0011114543 -0.069146775
-0.05052659 0.099527 0.0012776449 -0.09543607 -0.13407144 -0.082135715 0.054032814 0.04889604
0.006614454 0.12605861 0.12345234 0.025816118 -0.02176084 0.070996076 0.09239472 0.023138823
-0.0747627 -0.12705085 -0.06687367 0.060028765 -0.014227201 0.09178733 0.09150207 -0.12629136
-0.10383923 -0.064477414 -0.08931397 0.101374365 -0.14236745 0.014034202 -0.025853785 -0.11214088
-0.07578337 -0.08025686 -0.14807802 0.05620451 -0.11944457 0.117400095 0.103531316 -0.027004441
0.07878195 -0.02416192 0.026564278 0.14102234 -0.037584506 -0.108542666 -0.13255301 -0.08030922
0.0833887 -0.1279668 -0.0161864 0.045346558 -0.005312192 -0.1378407 -0.09067755 -0.04336177
0.11850175 -0.0812015 0.11288914 0.056507416 0.07648189 -0.05994732 0.14298274 0.026009543
-0.09293889 -0.13676684 0.118089385 -0.118770726 0.10767235 -0.070463195 0.0809669 -0.0829471
0.08065867 -0.033793785 0.04169666 0.09439857 -0.07069215 0.11408736 -0.0703521 -0.13317165
-0.109053366 -0.01346145 -0.0668992 -0.00011000639 -0.11530781 0.12052394 0.11942514 -0.051621426
-0.015061772 -0.11677481 -0.07493075 0.10896169 0.07273146 0.031386085 -0.005471762 -0.047190804
-0.0015978483 0.106688105 -0.11238142 0.015780574 0.05833897 -0.029792666 -0.026154598 -0.054301277
0.005528595 0.13053747 0.10358938 0.12849887 0.061542608 -0.10049038 -0.033960305 0.13837478
0.10198357 0.022910926 -0.12801127 -0.11599889 -0.13025884 0.013765785 0.05372269 -0.11447571
-0.031487443 0.056544553 0.0060376385 -0.017139932 0.07879855 -0.044778086 -0.0035708186 -0.1340836
-0.13064729 0.022130111 -0.14867194 0.058989096 -0.07622992 -0.12424863 -0.097768456 0.12041001
-0.055347774 -0.10136868 -0.05073944 -0.04192736 -0.026302306 0.039045952 -0.11391215 0.10286871
0.12116828 0.018095557 0.012227616 -0.02984566 0.13257122 0.056969315 0.1289996 0.01743358
0.14460644 0.0017648477 0.0027411205 0.058080547 -0.030320093 -0.06866755 -0.032292165 0.064307585
0.06509944 -0.05320155 -0.089362815 0.16031158 0.087756336 0.10833203 -0.03330881 -0.0635867
0.047306713 -0.044570684 -0.0007110489 0.08331109 -0.066086814 0.11662237 0.038947888 0.09977152
0.07042109 0.023299668 0.07890856 0.04905482 0.09093251 -0.11296451 -0.0739221 -0.12955572
-0.123829536 -0.0050682887 0.062650084 -0.03003722 0.0382906 0.124753244 -0.07071428 0.019361531
0.09057011 -0.04486665 -0.08620154 0.0654858 0.07479409 -0.043402664 -0.12459925 0.08688772
-0.08710694 0.053789135 -0.020964373 -0.12868866 0.10990947 0.14586845 0.015958032 -0.020112954
-0.11432098 0.0046654386 0.121850125 0.071815 -0.10464763 -0.13499036 0.09337668 0.1156011

weight f4 [1, 32, 1]
00000000: 7079 723c 0080 e238 881b c2bc e4d8 eabd
00000010: 61c3 13be 1417 6abd 0089 32bd 9729 d4bd
00000020: 5c52 3d3d a62d 813d a6b5 b73d c026 c2bb
00000030: a971 013e 14ea 5fbd 32d3 983d 6462 30be
00000040: 002e cdbb 46e0 ac3d 9876 02bd 561f 31be
00000050: 8fad 2ebe 71ff 183e b285 72bd 64c4 1d3d
00000060: 9d78 a3bd 5f6a 0f3e 233a e1bd e246 d43d
00000070: daa7 ebbd d8d4 63bd 1853 04bd 1825 743d
0.014799461 0.000108003616 -0.023694769 -0.1146715 -0.1443 -0.057150915 -0.043587685 -0.10359495
0.046221122 0.06307535 0.089701936 -0.0059250295 0.12641014 -0.054666594 0.07462157 -0.17225033
-0.006261587 0.08441214 -0.03185138 -0.1729711 -0.17058395 0.14941193 -0.059209533 0.03851737
-0.079819895 0.14005421 -0.10997417 0.10365082 -0.115066245 -0.055622905 -0.032305807 0.059605688

weight f4 [1, 32, 1]
00000000: 7c89 1abe 6b77 b6bd 3ea5 f6bd 98aa a2bc
00000010: bb52 2c3e 20a8 bd3b fa44 f23d e4bb 273d
00000020: 001d baba d001 823d 40e8 f9bc 6f46 e3bd
00000030: cf8a e6bd 9b50 313e b07f 0cbc 24e9 29be
00000040: ecb7 2abd 529f f93d 6c9d fabd f492 37bd
00000050: b904 34be 510a 173e 9e8c e83d f070 bebc
00000060: 78c4 863d 6849 8e3c da53 9f3d 0594 283e
00000070: 0095 083b 0814 613d b528 e0bd 65f0 b9bd
-0.15091509 -0.08909496 -0.12043236 -0.019856736 0.16828434 0.0057878643 0.118295625 0.04095067
-0.0014199317 0.06348002 -0.030506253 -0.110974185 -0.112569444 0.17315905 -0.008575365 -0.16592842
-0.041679308 0.12188591 -0.12237057 -0.04481788 -0.17579927 0.14750029 0.113549456 -0.023247212
0.06580442 0.017368987 0.07779665 0.16462715 0.0020840764 0.054950744 -0.10945264 -0.09079055

weight f4 [1, 32, 1]
00000000: c0e2 4c3b c6f0 82bd e87a 0fbd 0296 983d
00000010: b035 b13c e04f 443d 80db cb3c 3860 16bd
00000020: aabd b6bd 005f 9f3b 00ca 20be 8d57 06be
00000030: 26e0 adbd 280d f43c 02bf 57bd 2167 27be
00000040: a0cc 3cbc 26ea c23d 58a7 a9bc f0d4 d7bd
00000050: 3b5a 81bd cebe e53d 8983 15be 6b3e 0bbe
00000060: 8625 84bd 5d01 cbbd 041f 273d 28e8 7bbd
00000070: 92b2 bf3d 5083 09be 75d1 c6bd 8510 213e
0.0031263083 -0.0639358 -0.035029322 0.07450487 0.021632046 0.047927737 0.02488494 -0.036712855
-0.08922894 0.00486362 -0.15702057 -0.13119335 -0.084900185 0.02979143 -0.052672394 -0.16347934
-0.011523396 0.095173165 -0.020709679 -0.105386615 -0.06316038 0.11218034 -0.14600958 -0.1359803
-0.064524695 -0.099123694 0.040801063 -0.0615007 0.093602315 -0.13428998 -0.097079195 0.15728958

bias f4 [32]
00000000: e4d4 3abc a2d0 adba 12c2 69bd 2673 d23d
00000010: 71d7 1e3e 71d8 af39 df93 ca3d 5aa5 5cbd
00000020: e9dd f13d d0e6 1dbe 5db3 89bd c191 8ebc
00000030: 7a37 ee3d a869 353d b087 593c 0f23 b8bd
00000040: e3ea 9d3d bee5 e4bd 4af0 13be a044 0e3e
00000050: 01dc 12be 77d6 b6bc 8f4d ab3d 228f 9a3d
00000060: 7784 dbbd 655f 1bbe d368 343c c776 403d
00000070: aa87 5abd baa5 20be aee2 0e3e dd1b fbbb
-0.011403296 -0.001326103 -0.057069845 0.10275869 0.15511872 0.00033539862 0.098914854 -0.05386863
0.11809904 -0.15420079 -0.06723664 -0.017403485 0.11631675 0.044290215 0.013276979 -0.08991062
0.07710817 -0.11176632 -0.14447132 0.13893366 -0.14341737 -0.022319062 0.083644025 0.07546832
-0.10718625 -0.15173109 0.01101132 0.046988275 -0.053352036 -0.1568822 0.13953659 -0.0076632337

weight_orig f4 [32, 43, 1]
00000000: e082 87bd 4413 3ebc 0061 a7bd 6172 12be
00000010: 4155 efbc 6df0 0e3e 1e5a dabc a5d2 c53d
00000020: 12d9 1bbd 190b f8bb 53f0 423b af19 81bd
00000030: 5dfa b23d 30b2 86bd 968a d3bd 9b82 b43d
00000040: 08a7 2e3c 522f 393b 8cb5 263d 4c2c 03be
00000050: 3f7f ff3d 7409 fb3d 9b71 08be 8a18 b53d
00000060: a25f 0d3c 844f c7bc 7b5c fd3d 7461 aa3c
00000070: 8784 993d 26cc 13be 114a a53d e8e4 53bd
00000080: d99a be3d 5b9f d63c e339 23be 88ee 67bd
00000090: 3f7f aa3d a1c0 c13b aef2 09be 3f38 003e
000000a0: 98fd 84bd 3ee3 00be 9638 70bd 4460 3b3d
000000b0: f86a d83d d483 ecbd f46b 22bd 4273 fcbd
000000c0: 93ae 433d 27cf 6d3d 676f bd3d d36c f83d
000000d0: e5af e8bd cdc9 29be dc36 9a3c f8b6 463b
000000e0: 914a 8bbd a191 0fbe 2a8b dabd b758 a3bd
000000f0: 6ea4 1cbe a506 1f3e 1946 babd df2b e23d
00000100: c7dd 3c3d b0f0 a33b fb01 cfbd 007b e6bd
00000110: 817e 02bd 9ab1 063e dea7 be3c bfba 0e3e
00000120: 84ef bebd 9c78 3c3d 082d ff3d b5d6 b23d
00000130: 1a4b 123e d5de 8e3d d365 15be 2b3d d03d
00000140: f444 cf3d 3909 0fbe bd00 893d a712 06ba
00000150: 04f6 683c e156 0e3e f36c 15be 7409 e4bb
00000160: da5d 05be 6e1f 043e b000 8ebd f08c a1bd
00000170: 1504 3dbd 8fd0 9e3c dfc0 193e 3581 563d
00000180: 793c b3bd 7a20 9bbd 5668 803d bf66 703d
00000190: a224 95bd fa7f 2b3d 235d 5f3d 6d0c d73d
000001a0: c22b c2bb 1cfe b53a ab3d 09be c936 9d3d
000001b0: a8ee d9bd 25fe 33bd e421 3abc 636f 923d
000001c0: 8ef6 993d 5e51 8e3d 5cc9 cd3c 2ee7 0d3c
000001d0: 62b5 09bd c054 e6bd 64e9 0c3d ea5b 13be
000001e0: 1ba2 ff3d 8109 e33d 0249 773c f0d0 3abc
000001f0: 2495 153e c398 9bbd 6644 623d d067 46bd
00000200: 6bc9 04be 2759 ebbd e301 ef3d 7aed 6a3d
00000210: e77e 01bc 4180 bbbd 2c08 933c 5064 49bd
00000220: 84a2 d53d 182e 6c3d 79d1 7d3c 8c88 ad3d
00000230: a5c5 0c3e 6f6f 50bd b81f f6bd 5f3e f8bd
00000240: 0ba8 253d abe0 a03d f4c0 cd3d a75f 1f3d
00000250: 9034 cfbd fab8 ecbd 95d2 58bd b4a5 003e
00000260: c58c c83c 524e aebc 6206 f9bd accc 093d
00000270: 7593 f7bd 75bd 2b3b 331a 16be a369 e43d
00000280: eb80 8c3d ec2e 84bd cb1e db3c ac93 e33d
00000290: afec cdbd 68e0 94bd 4882 a8bd 7623 ff3c
000002a0: 2059 f5bd e6ba aa3d addb d03d 3be2 01be
000002b0: d6c0 58bd 18b2 96bd 6a7c 6e3d f3f1 afbd
000002c0: 0e5d 883d 3499 f13d 7875 f9bc a61c f6bc
000002d0: da13 fd3d f138 b13d 8f1b 533b 8edc f13b
000002e0: 4914 17be c5d8 40bd c045 13be 4163 1e3c
000002f0: 5fdf 2fbd de1f ae3d 5a8f d2bd fa6f 96bd
00000300: 2d8a 7c3d 5a42 18be 9f33 eb3d b02c 05be
00000310: c042 a93b 6cdc 02be bbe9 82bc 454c 17be
00000320: 11de a1bd b39e f33d 0c26 d6bd 9a8b 83bd
00000330: 41f4 393d 11b6 15be a367 06be 428f fe3d
00000340: 23a2 823d 3fda debd dd01 13be f7bd 8d3d
00000350: 6e5d d5bd 74c0 6f3d c1c8 13be 5325 a7ba
00000360: 2efd 103d c605 8e3d 7948 1cbe 975d 3cbd
00000370: 2c09 a9bd fca0 e23d 4486 30bd dc7b 58bd
00000380: c153 0d3e 7f93 e63d 01f1 aabd bee7 cbbd
00000390: 754a b63d a68d 043e 3405 07be f956 24bd
000003a0: de02 e3bd dfea 1bbe c270 e13d d79e 11be
000003b0: c0df 503d d1bd dcbd 5f9c 3dbd 61aa 253d
000003c0: ce54 13be cb10 08be 3d59 06bd 90e4 45bc
000003d0: 8698 09be 25b0 44bd 56e5 953c 8477 a7bd
000003e0: 0ab3 09be 1ecb 13be aeb0 d13d 2a0a 0c3e
000003f0: 7934 493d 50bc e33d ae9f 4cbd 6bdc c73d
-0.06616759 -0.011601273 -0.08172798 -0.14301445 -0.029215457 0.13958903 -0.0266543 0.09659318
-0.03804881 -0.0075696823 0.0029745295 -0.06303727 0.08739159 -0.06576955 -0.103291675 0.088139735
0.010659941 0.0028256965 0.04070048 -0.12809867 0.12475442 0.122576624 -0.13324587 0.08842571
0.008628758 -0.024329908 0.12371155 0.020798422 0.07495981 -0.14433345 0.08070768 -0.051731974
0.093068786 0.026199033 -0.15940051 -0.056623966 0.083250515 0.0059128557 -0.13471481 0.12521456
-0.06493682 -0.12586686 -0.058647715 0.045746103 0.10567278 -0.11548582 -0.039653733 -0.12326671
0.04777391 0.058058884 0.09249764 0.121301316 -0.11361674 -0.16580887 0.018824987 0.003032146
-0.06801332 -0.14020397 -0.10671075 -0.079759054 -0.152971 0.15529878 -0.09095401 0.11043524
0.04610994 0.0050030574 -0.101077996 -0.11253929 -0.031858925 0.13153687 0.023273405 0.13938425
-0.09323028 0.04601346 0.12459761 0.08732358 0.14286461 0.069760956 -0.14589624 0.10167917
0.10120574 -0.13968362 0.06689594 -0.0005114474 0.014218811 0.13900329 -0.14592342 -0.0069591347
-0.13024083 0.12902614 -0.06933725 -0.0788821 -0.04614647 0.019386558 0.1501498 0.052369315
-0.087517686 -0.07574554 0.062699005 0.058691736 -0.07282378 0.041870095 0.05453218 0.10500417
-0.0059256265 0.0013884935 -0.1340243 0.07676465 -0.10641223 -0.043943543 -0.011360619 0.071501516
0.0751773 0.06949113 0.02512043 0.008661075 -0.033620246 -0.112466335 0.034402266 -0.14390531
0.12482091 0.11085797 0.01509309 -0.011402354 0.14607674 -0.07597496 0.05524101 -0.048438847
-0.1296746 -0.11491614 0.11670282 0.05735538 -0.007903791 -0.09155322 0.017948233 -0.04916793
0.10431388 0.057661146 0.015491837 0.0847331 0.1374727 -0.05088752 -0.120177686 -0.12121271
0.04044346 0.07855352 0.100465685 0.03890958 -0.101174474 -0.11558719 -0.0529352 0.1256321
0.024481187 -0.02127758 -0.121594205 0.033642456 -0.12088672 0.0026205454 -0.14658432 0.11152961
0.06860527 -0.06454262 0.026748082 0.111121505 -0.100549094 -0.072693646 -0.08227974 0.031144839
-0.1197989 0.08336429 0.1019815 -0.12683956 -0.052918278 -0.073581874 0.05822412 -0.0859107
0.06658374 0.11796799 -0.030451521 -0.030042958 0.12357302 0.08653439 0.003221247 0.0073810285
-0.14753832 -0.047081728 -0.14382076 0.009667219 -0.042937633 0.08502172 -0.102812484 -0.073455766
0.061655212 -0.14869061 0.11484455 -0.13005328 0.005165428 -0.12779397 -0.015980592 -0.14775188
-0.07903684 0.11895504 -0.104564756 -0.06423111 0.045398954 -0.14620234 -0.13125472 0.12429668
0.063785814 -0.10881471 -0.1435618 0.069209985 -0.10418211 0.058533147 -0.1443205 -0.0012752212
0.0353977 0.06934695 -0.15262021 -0.04598769 -0.082537025 0.110658616 -0.043096796 -0.052852497
0.13801481 0.112586014 -0.08346749 -0.09956311 0.0890092 0.1294466 -0.13185579 -0.040122006
-0.11084531 -0.15226315 0.11007835 -0.14220749 0.050994635 -0.10778392 -0.046291705 0.04044569
-0.14387819 -0.13287656 -0.032799948 -0.012078419 -0.1343709 -0.048019547 0.018297832 -0.08177093
-0.13447204 -0.14432952 0.10238777 0.13675752 0.049122307 0.11119902 -0.04995697 0.09758838

weight_u f4 [32]
00000000: a726 93be 3dfd afbe 24f7 a6bc 55d3 a1bd
00000010: 1063 cfbc 6faa be3e a56d 91be f73f 7d3c
00000020: 354b b6be 489e c0bc 4e2a 3dbd 2b0a 16bd
00000030: 9510 c83d ff82 26be 7f68 093e 46b8 903e
00000040: 7512 0d3e d9cf 13be fc35 633c 2fed 40bc
00000050: f7c3 983d 414f 50bd aaa9 803e 0dfb f13d
00000060: ac36 97bc 6377 813c 8e1e 833e 3143 673d
00000070: c72d 523e dde8 143e 4439 5e3e a445 4e3d
-0.28740427 -0.34372893 -0.020381518 -0.079016365 -0.025315791 0.37239406 -0.28403965 0.015457145
-0.35604253 -0.023512974 -0.046182923 -0.03663079 0.09768788 -0.16260909 0.13418768 0.2826559
0.13776572 -0.14434756 0.013867851 -0.011775299 0.07459252 -0.050856832 0.25129443 0.11815462
-0.018458687 0.015803998 0.2560925 0.056460563 0.20525275 0.14541955 0.21701533 0.050359383

weight_v f4 [43]
00000000: d1b3 953d 617f ca3d 1883 5f3e 3752 babd
00000010: f6cc a73d 24e3 abbe 0efd 7e3d 3410 c7bd
00000020: f6e4 c8bd 1231 b63b e631 4c3e 1d06 a3bd
00000030: ade7 aebd 1ed0 4c3e 5426 7f3e be65 c7bd
00000040: 626b a93b 6607 29be 7422 6dbe d9a3 083e
00000050: ad77 7dbe 7e24 b6bd 5687 14be 3ebe ca3d
00000060: a36c 143e c0ef bbbd 1c31 55be ee3b 5abe
00000070: c7ee 57be 46c3 933d 59c2 02be 1432 c3bd
00000080: 5be3 9cbd 2d6b debd ddaa 64bc f80f 993e
00000090: 646e 36be 434f 5a3d fbc1 4c3e 6ed6 efbd
000000a0: da6a 7c3d d93b fb3d 9807 fd3d
0.07309688 0.09887577 0.21827352 -0.090977125 0.0819339 -0.33571732 0.06225305 -0.097198874
-0.09809296 0.005560049 0.1994091 -0.079601504 -0.085402824 0.20001265 0.24916965 -0.09736203
0.0051702717 -0.16506729 -0.23157674 0.13343753 -0.24752684 -0.08893679 -0.14504752 0.09899567
0.14494567 -0.09176588 -0.20819515 -0.21311924 -0.2108718 0.0721498 -0.1276945 -0.09531036
-0.07660552 -0.10860286 -0.013956753 0.29894996 -0.17815548 0.053298246 0.19995873 -0.11710821
0.06162534 0.122672744 0.12354964

weight f4 [32, 43, 1]
00000000: c41e 71bd abed 29bc d813 95bd 766b 02be
00000010: ac76 d5bc 9349 fe3d eb71 c2bc 76f6 af3d
00000020: f4de 0abd f273 debb 9ea6 313b e012 66bd
00000030: cc2e 9f3d 5151 6fbd 3e49 bcbd ad93 a03d
00000040: b791 1a3c 39d4 203b d71a 143d ca9e e9bd
00000050: 3e46 e33d 8354 df3d 7403 f3bd 3d17 a13d
00000060: 881f fe3b b809 b2bc 1765 e13d 02ca 963c
00000070: 2985 883d fe78 03be 31fb 923d 8af9 3cbd
00000080: b3a7 a93d 04e0 be3c 3336 11be d04a 4ebd
00000090: 84a6 973d 3d1f ae3b 2072 f5bd 0a32 e43d
000000a0: 5ad6 6cbd 0570 e5bd 7ef0 55bd 8316 273d
000000b0: 63c6 c03d de67 d2bd 4853 10bd 8c90 e0bd
000000c0: 8e23 2e3d 7aeb 533d 32ad a83d c440 dd3d
000000d0: 6106 cfbd 8203 17be 4e7b 893c 7d3a 373b
000000e0: 5b8d 77bd 866f ffbd 0273 c2bd 5f3d 91bd
000000f0: b558 0bbe 8d8a 0d3e 3aa5 a5bd 0f3b c93d
00000100: 5b61 283d 5f1e 943b 9810 b8bd 8bf1 ccbd
00000110: 9723 e8bc 73e4 ef3d 9594 a93c ae31 fe3d
00000120: ddd1 a9bd 33fb 273d 84f0 e23d 0748 9f3d
00000130: 7b44 023e 8595 7e3d 8d02 05be a36c b93d
00000140: e0c2 b83d 8293 febd e7b3 733d ed80 d1b9
00000150: 0195 4e3c 3f8b fd3d 2ff1 04be 0e44 ccbb
00000160: 4a66 edbd d662 eb3d e15f 7cbd b4dd 8fbd
00000170: d03a 28bd 17e1 8c3c a6db 083e ec33 3f3d
00000180: 1763 9fbd d2de 89bd 84c1 643d 7c25 563d
00000190: aa9f 84bd 57c0 183d 447b 463d 8398 bf3d
000001a0: a268 aabb 5be6 9b3a 8b2b f4bd c10d 8c3d
000001b0: 8eee c1bd afed 1fbd 7b36 24bc ca6d 823d
000001c0: 6621 893d 9162 7d3d 029e b73c 1c13 ff3b
000001d0: f2c0 f4bc c5e4 ccbd 2549 fb3c 0f16 03be
000001e0: 0b6f e33d 3514 ca3d d7cc 593c b34a 26bc
000001f0: 9432 053e cfc2 8abd 5e83 493d d571 30bd
00000200: 0a3a ecbd 4454 d1bd b1ef d43d 5d69 513d
00000210: aa2e e3bb c1bb a6bd 87ae 833c 6ef0 32bd
00000220: 4846 be3d d38d 523d 640a 633c 09b1 9a3d
00000230: a5cc fa3d 6f17 39bd a1d6 dabd 3cdd dcbd
00000240: 00a8 133d 7e64 8f3d 4350 b73d 51fc 0d3d
00000250: d935 b8bd 2f9a d2bd 10bc 40bd a935 e53d
00000260: 0e58 b33c b82b 9abc d281 ddbd 8cd0 f53c
00000270: b747 dcbd b2af 1e3b fb9d 05be a573 cb3d
00000280: f90c 7a3d bd5f 6bbd 1381 c33c cab0 ca3d
00000290: cdf6 b6bd b16e 84bd 4bc8 95bd 350f e33c
000002a0: 138c dabd 9a29 983d 3912 ba3d fdf7 e6bd
000002b0: 04c3 40bd 42f5 85bd 9182 543d a46e 9cbd
000002c0: a216 733d 9138 d73d 94a3 ddbc ad47 dabc
000002d0: 2269 e13d a8e2 9d3d dad5 423b 91cb da3b
000002e0: 1359 06be f2a5 2bbd 3802 03be ba00 0e3c
000002f0: 4b30 1cbd c025 9b3d 0e4f bbbd 40b9 85bd
00000300: ef14 613d d46d 07be d981 d13d 2203 edbd
00000310: 66aa 993b e8cc e8bd 1be3 67bc d4a0 06be
00000320: 54eb 8fbd 99be d83d 6b8b bebd 1b74 6abd
00000330: 34a8 253d db45 05be 1814 efbd 6aba e23d
00000340: cabb 683d a15e c6bd 30ea 02be a516 7c3d
00000350: bbbf bdbd 4cbf 553d 9372 03be 7e7a 97ba
00000360: 69f9 003d fbc2 7c3d 0000 0bbe 29b8 27bd
00000370: aa4c 96bd b69b c93d 1cb6 1cbd a571 40bd
00000380: 7aaf fb3d c308 cd3d 24f3 97bd ef42 b5bd
00000390: 3009 a23d a2e2 eb3d 9637 f0bd 6f14 12bd
000003a0: 36d5 c9bd c0ac 0abe d8a5 c83d ea85 01be
000003b0: 9d19 3a3d fd58 c4bd 0268 28bd 9812 133d
000003c0: 4103 03be 3a08 f2bd e61c eebc 7bc9 2ebc
000003d0: bfce f4bd 58a9 2ebd c46a 863c 3148 95bd
000003e0: d51e f5bd dc9d 03be 4296 ba3d d73a f93d
000003f0: 37ef 323d 6403 cb3d 0b96 36bd f9f7 b13d
-0.05886723 -0.010371606 -0.072791755 -0.12736306 -0.026057564 0.12416377 -0.023735961 0.085919306
-0.03390403 -0.006788724 0.0027107368 -0.056170344 0.07772598 -0.05842716 -0.09193657 0.07840667
0.009434155 0.0024540557 0.03615841 -0.1140724 0.11097382 0.10904791 -0.11865893 0.078657605
0.0077552237 -0.02173315 0.110056095 0.018406872 0.06666023 -0.12839124 0.07176817 -0.046136416
0.08283939 0.023300178 -0.14180832 -0.050364316 0.07404807 0.0053137825 -0.11984658 0.11142357
-0.05782161 -0.11203007 -0.052231304 0.040792953 0.09412839 -0.10273717 -0.035235673 -0.1096507
0.042514376 0.05173824 0.082361594 0.10803369 -0.101086386 -0.14747432 0.01678243 0.0027958446
-0.06043754 -0.12472443 -0.09494592 -0.07091784 -0.13608058 0.13822384 -0.08088155 0.09825718
0.04110847 0.004520222 -0.0898754 -0.10007008 -0.028337283 0.11713495 0.020700732 0.124118194
-0.08291981 0.041011047 0.11081031 0.0777741 0.12721436 0.06215431 -0.12989254 0.09053924
0.090215445 -0.12430479 0.05949774 -0.00039959644 0.0126087675 0.12380075 -0.12982629 -0.0062336987
-0.11591776 0.11493461 -0.061614875 -0.070247084 -0.041071713 0.017197175 0.13365039 0.046680376
-0.07782572 -0.06731953 0.055848613 0.05228184 -0.06475766 0.037292805 0.0484574 0.09355261
-0.0052004615 0.0011894213 -0.11922368 0.06838561 -0.09469329 -0.039045032 -0.010022755 0.06368597
0.06695823 0.06186158 0.022414211 0.0077842604 -0.02987716 -0.10004572 0.030674526 -0.12801383
0.11105164 0.098671354 0.0132934665 -0.010149646 0.13007575 -0.06775438 0.049197547 -0.04307731
-0.115345076 -0.102211505 0.1039728 0.051125873 -0.006933053 -0.0814128 0.016074432 -0.043686323
0.09290749 0.051404785 0.013857458 0.07553298 0.12246064 -0.045188364 -0.106854685 -0.107843846
0.03604889 0.07001589 0.089508556 0.034664456 -0.089946456 -0.102833144 -0.04705435 0.111918755
0.021892574 -0.018819675 -0.10815777 0.03000667 -0.10755866 0.002421361 -0.13048546 0.09934167
0.061047528 -0.05746435 0.023865258 0.09897001 -0.08933792 -0.06466425 -0.073135935 0.027717212
-0.10671248 0.0742981 0.09085507 -0.11277769 -0.04706098 -0.0654092 0.05188233 -0.076382905
0.059347756 0.10508836 -0.02705554 -0.026645506 0.110063806 0.07709247 0.0029729516 0.006677099
-0.13119917 -0.041906305 -0.12793815 0.008667165 -0.038131993 0.075755596 -0.09145938 -0.06529474
0.054951604 -0.1322549 0.102298446 -0.11572863 0.0046895025 -0.11367208 -0.014153267 -0.13147289
-0.07027307 0.105832286 -0.093039356 -0.057239633 0.040443614 -0.13014929 -0.116737545 0.11070712
0.056819715 -0.09686018 -0.12784648 0.061545033 -0.09265085 0.052184388 -0.12836675 -0.0011556891
0.031487856 0.061709385 -0.13574219 -0.040947113 -0.07338841 0.09844153 -0.03825961 -0.04698338
0.12289329 0.10011437 -0.07419422 -0.08850657 0.079119086 0.11517836 -0.11729352 -0.03566402
-0.0985512 -0.13542461 0.09797257 -0.1264874 0.045434583 -0.09587286 -0.041114815 0.035906404
-0.1279421 -0.11817975 -0.029066514 -0.010668154 -0.11953496 -0.042641968 0.016408332 -0.0728916
-0.11968771 -0.12853187 0.09110691 0.12169426 0.043685164 0.09912756 -0.044576686 0.08689875

weight f4 [1, 32, 1]
00000000: bcb6 4dbd 6698 29be 9012 12be 2895 d43c
00000010: e71c 053e 61ca 06be 2ab8 aa3d 98ab 8b3d
00000020: a59d dabd 9dd4 163e 58ae bcbc af2b 063e
00000030: 91e5 0fbe 5ec6 fa3d e14b 053e e592 0dbe
00000040: 1a85 b7bd 606f 4cbd cca5 2cbd 6535 313e
00000050: b6b8 da3d 6c4c 12bd 5299 8bbd 7b63 23be
00000060: 0051 0dbd b001 afbd 8e7c c43d d23b 0fbe
00000070: 4812 8dbc 3c54 78bd b53c 083e 377d 193e
-0.050223097 -0.16562042 -0.14264894 0.02595003 0.12999307 -0.13163139 0.08335908 0.06819838
-0.106745996 0.14729543 -0.023032352 0.13102601 -0.14052416 0.12244867 0.13017227 -0.13825567
-0.08960934 -0.049910903 -0.042150304 0.17305525 0.10679762 -0.035717413 -0.06816353 -0.15955918
-0.034501076 -0.08545244 0.095940694 -0.13987663 -0.017220631 -0.060627207 0.13304408 0.14989172
