Models/M4/few_epoch/few_epoch_discriminator_model.pt (torch, 129813 bytes, 68 tensors)

weight f4 [347, 10]
00000000: 8c12 cc3f 6d10 753f 2dcc a7bf 1414 e03e
00000010: 2b3c 403f d2b6 3c3f 557c 9fbe b9e6 8d3e
00000020: c1d6 c0bf 40c3 833f cbcc a4bf 9c96 6fbf
00000030: dd76 c0bf 2878 82bf 43b5 513d fbe2 edbf
00000040: 9fc3 c13e 5228 c7bf ad0b 0a3f 6da6 7b3d
00000050: 33ad 0b40 4ac9 a1bf ca4f 3b3e 57cc a3be
00000060: ca27 debe d3f2 d5bf dabd ac3e d456 3ebf
00000070: b269 f2bd 7d87 1640 2bce f53d 09eb 1f3f
00000080: bd9f 3fbf 2351 533f f48c 123e 8018 4f3e
00000090: 7f35 a5bd d631 24bf 4084 56be b4fe 5dbf
000000a0: f8b2 9f3d 62f8 8b3f 1347 76be 4d85 f5be
000000b0: 6e30 423f 870d b03f 7d13 b4be 6752 473f
000000c0: 37e1 773f 5ee0 993f 1b60 9e3f 4cae 733e
000000d0: b3a7 2e3e 2cd9 493f 1208 8bbf 28a6 9abf
000000e0: 647e 8d3f 8522 d23e c8d9 bebe d28a d83f
000000f0: 0d36 213f c9fe 5bbf a79f 17bf bb26 61be
00000100: 75b1 b9bf 0b4b 9a3f 303e f33f d876 74bf
00000110: 27d3 9cbe 84e1 59bf 50c8 f3be 25b3 ffbc
00000120: b1d8 9dbe 31a6 f03e f518 ea3f 0031 b73f
00000130: 3b30 18be 717a a53f 0fea febd a2b5 5bbe
00000140: 088b 2ebf 7b0b cd3e 2363 ba3f 35b1 a4bf
00000150: 8e5b f73e 2eee 63bf af67 55bf 10f3 da3f
00000160: 0228 13bf 667e e53c a90b 293e e40e 973e
00000170: 0413 b0bf 095b 3bbd 2a4c 72bf 9d73 873e
00000180: 7ff3 e93e 8c9c 0a3f 693a 823f 4d4d 48bf
00000190: 2d14 ccbf f44e 533f d6d8 293f 1d49 f63f
000001a0: 234a d5be 7d77 0dbe 3731 fcbe 3789 56bd
000001b0: e04a 16bf 5d89 9cbd 1fca 8ebf 374f b0be
000001c0: e994 19bf 560b 4ebf b699 35c0 dc01 4bbf
000001d0: fb54 62bf 23b9 c93f 1f3c eabf 1436 f13e
000001e0: 74c3 493f 8759 1ebf 70ba b1be df75 1340
000001f0: 5bf0 96bf 3ea8 c0be 3631 abbf dde3 5cbf
00000200: 92ee 06bf 06e7 ffbe c4b8 923f e648 a0bb
00000210: a1bf 6fbf 3997 1c40 5a95 d93e 694d 78bf
00000220: d380 723f 60ce 653f e75e dcbf 35fd 86bf
00000230: db04 57bf a543 d93f 893d eb3e de0f 0cbf
00000240: 9aba edbe fb6a 43bf 7c4e c7be c0f8 ec3d
00000250: 4c7b a3bf dee5 1fbf 2a5b 5b3f 06c2 e5be
00000260: 5e9f acbf 1008 a53d d5b7 b9bd 775b 123f
00000270: 2c3b 3bbf 7a99 9c3e 0a0c 79bf 948c 393e
00000280: dec3 573f ff25 01bf 560c 653f c2a7 463f
00000290: 1075 dbbe 7ea4 73bf ea9b 763f 5170 efbf
000002a0: e091 d53e 0c1f 71bf 339d 863f c757 3d3f
000002b0: 118c abbd 1b6e 9a3e 5597 9dbf 73c9 263e
000002c0: 9dfc 9abf 9d62 26bf 1122 cdbe 7756 23bf
000002d0: 463b a43e a400 5cbf 9961 53be a719 963d
000002e0: ad7d 033f da58 133f 5fb0 58bf 9c4a c73d
000002f0: e147 41bf 68ba 9e3e 2f70 84bf cc05 863f
00000300: 8b1d 173f 88a3 d63e cf6a 02bf 0ee3 373d
00000310: 89ec 933f f5c4 873f bd8c 0bbf a9fd 573e
00000320: e6d5 553e 1089 6f3f d14b f0be 0751 f63e
00000330: 9c10 d2be 1c6e 1840 a1b5 373f 6d34 9f3c
00000340: 5f44 7fbf b23c a73f d148 43bf 5e9d 41bf
00000350: 561c 77bf 364f 753f eb8e 263c 1448 323f
00000360: 36f7 5bbe 1cd5 6abf 8287 69be 0f0b 683e
00000370: 954a 94bc be97 9fbd 9c00 0a3f 1650 b8be
00000380: 9d75 e73e 4e51 ee3f 77de 533f f8b8 c83e
00000390: 2278 243f 53ff debd bc7d 5dbf 44a8 58bf
000003a0: 212a 523c 1022 9dbf dffa cbbc 338c 84bf
000003b0: d8a6 933f 8706 2f39 9984 a4be 8617 143e
000003c0: daad cfbd fe6f 3f3e f17f 0dbe e023 af3c
000003d0: 840f 4fbf 8d4f c2bf cfe1 e5bf 707e 0940
000003e0: f8b9 c63f 8d8b a63e 8606 263f 9ad5 c4be
000003f0: 08ad 2f3f a181 3c3f 905b a23f 727d 0f3f
1.594316 0.9572819 -1.3109185 0.43765318 0.7509181 0.7371646 -0.31149545 0.2771509
-1.5065538 1.029396 -1.2874998 -0.93589187 -1.5036274 -1.0192919 0.051198255 -1.8584894
0.3784456 -1.555918 0.53924066 0.061438013 2.1824462 -1.2639554 0.18292156 -0.31991836
-0.43389732 -1.6714729 0.33738595 -0.7435124 -0.11836566 2.3520195 0.12002214 0.6246801
-0.74853116 0.8254568 0.14311582 0.2022419 -0.08066844 -0.64138544 -0.20948887 -0.8671677
0.077978075 1.0935175 -0.2405055 -0.47953263 0.7585515 1.3754128 -0.35171118 0.7786011
0.96828026 1.2021596 1.2373079 0.23796958 0.1705616 0.78847003 -1.0861838 -1.2081957
1.1054196 0.4104196 -0.3727553 1.6917365 0.629731 -0.85935646 -0.59227985 -0.21987431
-1.450728 1.2054151 1.9003353 -0.9549384 -0.30629846 -0.85109735 -0.47613764 -0.031213352
-0.30829385 0.47001794 1.8288866 1.4311829 -0.14862148 1.2927991 -0.12446987 -0.21456006
-0.68180895 0.4004782 1.4561504 -1.2866579 0.48312038 -0.8903531 -0.83361334 1.7105427
-0.5748292 0.028014373 0.16508354 0.29503548 -1.3755803 -0.045741115 -0.9464747 0.26455393
0.45693585 0.5414512 1.0174075 -0.7824295 -1.5943657 0.8254235 0.6634649 1.9241062
-0.41658124 -0.13815112 -0.49256298 -0.052376952 -0.58708 -0.076433875 -1.1155432 -0.34435436
-0.59992844 -0.8048605 -2.8375068 -0.7929971 -0.8841092 1.5759624 -1.8299598 0.4711157
0.7881386 -0.6185536 -0.34712553 2.3040693 -1.1792101 -0.3762836 -1.3374393 -0.8628519
-0.5270778 -0.49980944 1.1462636 -0.0048915027 -0.9365178 2.44673 0.4249676 -0.9699312
0.9472782 0.8976803 -1.7216462 -1.0546023 -0.83991784 1.6973768 0.45945385 -0.5471171
-0.46431428 -0.76335114 -0.38927066 0.11570883 -1.2772002 -0.62460124 0.8568598 -0.4487459
-1.3486135 0.080581784 -0.09068266 0.57170814 -0.73137164 0.30585843 -0.97283995 0.18120033
0.84283245 -0.504486 0.8947195 0.7759973 -0.4286275 -0.9517287 0.96331656 -1.8706151
0.41712856 -0.94188 1.0516723 0.7396206 -0.08376325 0.3016213 -1.2311808 0.16287784
-1.2108341 -0.6499422 -0.40065053 -0.6380381 0.32076472 -0.8593848 -0.206427 0.073291115
0.5136364 0.5755745 -0.8464412 0.097310275 -0.75500304 0.31001592 -1.0346736 1.0470519
0.59029454 0.4192164 -0.50944227 0.04489427 1.155656 1.0606982 -0.54511625 0.21092857
0.20882377 0.93568516 -0.46932843 0.48108694 -0.41028297 2.3817205 0.7176152 0.019434178
-0.997137 1.3065398 -0.76282984 -0.7563075 -0.9652761 0.9582399 0.01016591 0.6964123
-0.21481022 -0.9173143 -0.22805598 0.22660469 -0.01810197 -0.077926144 0.5390718 -0.359986
0.4520692 1.8618562 0.8276133 0.3920362 0.6424581 -0.10888543 -0.8651998 -0.8463175
0.012827427 -1.227602 -0.024899898 -1.0355285 1.1535292 0.00016691732 -0.32132414 0.14462098
-0.101405814 0.18695065 -0.13818337 0.021379411 -0.8088305 -1.5180527 -1.7959536 2.1483421
1.5525503 0.32528344 0.64853704 -0.38444215 0.686234 0.736353 1.2684193 0.5605079

bias f4 [32]
00000000: 5a15 0fbe 6274 583e 7d0c 8b3d 8452 763e
00000010: afde d43d 1c6a 3dbe 879c 163e a05d 903d
00000020: 4ce6 a03d 2c30 783d bfb7 21be d2b7 493d
00000030: 676f 67bb a10b e53d 3146 883e 4b84 2abc
00000040: 4b2d fc3d cd3a b8bd 6a8a 673c a958 0f3d
00000050: 831a acbd a144 babc dd0f fabd e637 1b3e
00000060: 3515 e23d 89c4 17bd e4c7 c2bc 534e 06be
00000070: 155e 0d3e 36a8 e63d d9c4 2bbe 9841 46bd
-0.13972989 0.21138147 0.06789491 0.24054915 0.10394036 -0.18497509 0.14708148 0.070491076
0.07856426 0.060592815 -0.1579275 0.04924757 -0.0035314204 0.11183859 0.26616052 -0.010407518
0.123133264 -0.0899559 0.014132122 0.034996662 -0.08403494 -0.022737803 -0.12210057 0.15158042
0.11039201 -0.037052665 -0.023776956 -0.13115816 0.1380542 0.112625524 -0.1677431 -0.0484024

weight_orig f4 [32, 12, 1]
00000000: 7987 a13d eef5 863c aa3c 54bd 3424 6d3e
00000010: f31e b9bd c7f9 86be 9c14 66be 43a0 253e
00000020: 6479 05be aa88 85be a11e 40be 1f2f 05be
00000030: 1630 d2bd 3a86 053e 29d8 59be 9162 24be
00000040: e690 613e d85b 29be d197 ff3d 8148 5f3e
00000050: c4e7 0e3e 03f4 61be a11a b93d acf8 873e
00000060: 3ccb 8d3e df20 33be e328 1f3d d552 69be
00000070: 2146 2d3d 75d4 e4bc d761 293d 223b 423c
00000080: 4dc6 b7bd 0b5c 38be 6255 0f3e 9cc9 0d3d
00000090: 3c8f 5dbd 3b99 ecbd dd18 3fbe 5256 b6bc
000000a0: 80a6 05bd 54a8 5e3e d7ab dc3d b8de 40bd
000000b0: 423b 7dbe 05c1 013c f21c 8e3d 5066 043e
000000c0: b02a 8cbe 9e74 183e f2e0 1cbe e956 123e
000000d0: 0fb7 88bd 8de8 dd3c c6be 883e e05b eebd
000000e0: dc0d 4b3e 8ee7 db3d 1f51 f93d 9c49 84be
000000f0: f0ce c03d b76c 46be 9ba1 303e 35d8 05bb
00000100: b782 5fbe 92ec 043e 2898 083d 9953 68be
00000110: 6210 d43c ef80 13be f1f4 3c3e a158 8b3e
00000120: e97f 803e 980a 51bc b7bf 643c 9047 2ebc
00000130: 8c23 86be c01e d6bd 5b23 0ebe 5b4a 03bc
00000140: efbd 533e dc7d 013e 92e1 21be 8b87 6e3e
00000150: eb9b 9a3a f4f7 c13d 2cc1 0fbe 370a 8abe
00000160: 2cb2 6fbe e594 3bbe 4428 493e 6bef 383e
00000170: 423b 793e 6581 6cbe 1db2 37be 45d5 5d3e
00000180: b8ac 013d a28b 073e b658 90be 60b2 13be
00000190: 0f8e 62bb 6102 3d3e 0a9f 773e 09fa 17be
000001a0: 194c a93d ebfd a23d 795b 7cbe 8f22 b53d
000001b0: 4ca8 51be 5b95 903e 9498 08be 2168 9bbd
000001c0: 7d75 0dbe 0bf1 833d 8d0d 67be cc66 e73d
000001d0: 86a5 53bd 7f0a 25bd 365e 2cbd 6a0d 61bd
000001e0: 7e85 17be 814e 3c3e 6b25 c13d 3467 07be
000001f0: 0492 5cbd fbba 573e 8c6b 123e 112d df3d
00000200: 1819 f23d 7cc7 1fbd 8dc0 123e 80f2 703e
00000210: dafe 14be 0e17 443e dd66 c7bd 0b27 9abe
00000220: bac8 143e 1e0f 6f3e c0be 813c cff9 a5bd
00000230: 4ab3 87be fa89 143e 8749 34be 4158 8e3e
00000240: 41f9 753e 2c4a 53be 412d 9ebd b287 173e
00000250: a6b9 ad3d 6c31 633e c8c2 343e 9f90 a8bd
00000260: 4b2b 49be e4d2 48be ca37 1a3d 0bbe 0cbe
00000270: 1ac0 2abe e65c 843e 95ad 363e 4077 a73c
00000280: 0133 e9bc 7a98 dbbd 6d3e cbbd cd71 3c3e
00000290: 81da 6ebc f4d7 723e 73c1 d93d 915c 853d
000002a0: 37ea 623e 085f 1f3e 0444 463e 9827 263e
000002b0: de8c 66be 1d53 72be 63d6 283e fc48 62be
000002c0: 9d1c 3b3d 0dc6 893e 0f7c 3f3e 3bef 84be
000002d0: 9000 61be 5254 333e 18e3 84bd e7ac 703e
000002e0: d957 653d 355d 74be f343 13be ac93 d9bd
000002f0: 6f30 aabd dfb8 b9b8 c9c6 d03d 9f20 953e
00000300: a066 71bd 3a9e 523e 5665 08be 1f87 283d
00000310: 2781 bebd 3a56 3d3e 0bc4 3d3e 4485 673d
00000320: aeca 22be b343 733e 2685 7bbe 30f5 49be
00000330: 32e7 adbd 7611 653e e5b8 353e f133 4b3d
00000340: d9a1 e8bd f0f9 41be c356 fdbd a87b 8dbc
00000350: 44e2 4c3e 3fe1 713e fde3 833e ce77 b83d
00000360: 5868 693e 2619 87bd 08f9 42bd ccb5 8fbd
00000370: b25d e2bd 481e 97bd b66d f2bd c7b0 12bc
00000380: 8d28 5b3e bf47 69bd b085 86bc 1f93 b73d
00000390: a87a 32bd 6d7d 89be 8ea2 18be a3a8 3d3e
000003a0: 4b36 6d3e 950d 84be 51f7 853e d613 12be
000003b0: 0b46 923e 477b 9cbd 2745 3b3e 7e76 5d3e
000003c0: ead9 db3d b31a 68be 5009 dfbd 0178 32be
000003d0: 17ac 2bbc 7920 933e 1e73 153e 4015 85be
000003e0: b0a2 9ebd 797c 5a3d 5dce 33be ba04 363e
000003f0: 7c28 4fbe 455f 0a3e 1396 45be b9fa d23d
0.078871675 0.01647469 -0.051815666 0.23158342 -0.09039106 -0.2636244 -0.224688 0.16174416
-0.13034588 -0.2608083 -0.18761684 -0.13006257 -0.10263078 0.13039485 -0.21273865 -0.16053225
0.2202793 -0.16538942 0.124801286 0.21805002 0.13955599 -0.2206574 0.09038282 0.2655691
0.27694118 -0.17493008 0.038857352 -0.22785504 0.04230321 -0.027933339 0.041353073 0.011854919
-0.0897337 -0.18003862 0.13997415 0.034616098 -0.054091677 -0.11552664 -0.18661828 -0.022257958
-0.03262949 0.217439 0.10774963 -0.0470874 -0.24729636 0.007919555 0.06939115 0.12929654
-0.27376318 0.14888236 -0.15320185 0.14290966 -0.06675541 0.027088428 0.2670805 -0.116386175
0.19829506 0.10737525 0.12173676 -0.2583741 0.0941447 -0.19377409 0.17249148 -0.002042306
-0.21827208 0.1298087 0.033348233 -0.2268814 0.025886718 -0.14404653 0.18452813 0.27216056
0.25097588 -0.012758873 0.013961724 -0.010637179 -0.26198995 -0.10455084 -0.13880675 -0.008013333
0.20677923 0.12645668 -0.15808704 0.23293893 0.0011795735 0.094711214 -0.14038533 -0.26960918
-0.23407811 -0.18318518 0.19644266 0.1806008 0.24339011 -0.23096235 -0.17939039 0.21663387
0.031658858 0.1323686 -0.2819268 -0.14423513 -0.0034569537 0.18457939 0.24181762 -0.14841475
0.082664676 0.07958587 -0.24644269 0.08844482 -0.20474356 0.2823895 -0.13339454 -0.075882204
-0.1381435 0.0644246 -0.22563763 0.11298904 -0.051671527 -0.040293213 -0.042082034 -0.054944433
-0.14797017 0.18389322 0.09430965 -0.13222963 -0.05385019 0.21067421 0.14298838 0.108972676
0.118211925 -0.039008602 0.14331265 0.23530006 -0.14550343 0.1914942 -0.097364165 -0.30107912
0.14529696 0.2334561 0.015838027 -0.08104288 -0.26503974 0.14505759 -0.17606173 0.27801707
0.24020864 -0.20633763 -0.07723475 0.14797857 0.08482675 0.22186822 0.17652428 -0.08230709
-0.19645421 -0.19611698 0.03765086 -0.1374437 -0.16674843 0.25852126 0.17839654 0.020442605
-0.028466703 -0.10722442 -0.09924016 0.18402787 -0.014578463 0.23715192 0.10632601 0.06511796
0.22159658 0.15563595 0.19361883 0.16226041 -0.22514674 -0.23664518 0.16488032 -0.22098154
0.045681585 0.26908913 0.18699668 -0.25963768 -0.21972871 0.17512634 -0.06488627 0.23503457
0.05599198 -0.2386368 -0.1438139 -0.10623869 -0.08310019 -8.855922e-05 0.10194165 0.2912645
-0.05893576 0.20568171 -0.13319907 0.041144487 -0.093019776 0.18489924 0.18531816 0.056523576
-0.15897629 0.23756294 -0.24562511 -0.19722438 -0.08491363 0.22369942 0.17746313 0.049610082
-0.11358995 -0.18943 -0.12370064 -0.017270878 0.20008188 0.23621081 0.2575988 0.09007226
0.2279371 -0.065965936 -0.047600776 -0.07017097 -0.11053027 -0.073788226 -0.11837332 -0.00895328
0.21402188 -0.056953188 -0.016421169 0.08963608 -0.043574005 -0.26853505 -0.1490576 0.18521361
0.23165242 -0.25791612 0.2616525 -0.1426538 0.28569064 -0.07640701 0.18288098 0.21627232
0.10734923 -0.22666435 -0.10890448 -0.1742859 -0.010478041 0.28735712 0.14594695 -0.25992775
-0.07745874 0.053341363 -0.1755919 0.1777524 -0.20230287 0.13512905 -0.1929553 0.10301728

weight_u f4 [32]
00000000: be41 533e 402f e13d 40d1 32be 3176 7ebe
00000010: 1c1b 993d 612b cebd fd61 bc3d 3bb8 ac3d
00000020: aa6a 51be 6eb4 9c3d 2c39 92bb c0c6 80be
00000030: 82ec 87be 8f9e 5a3e 02fc cc3d 03ea 7b3e
00000040: f0c9 07be fa14 8e3e 1825 273d 415d 013e
00000050: 3a06 bcbe f1a7 bb3d 10ef 9d3e 4025 333e
00000060: 0d56 993d f69f 04bd 6efd 9e3e e292 b33d
00000070: 91e2 2ebc e526 a03d 9fae 143e 1de9 8fbd
0.20630547 0.1099534 -0.17462635 -0.24849774 0.07475874 -0.100668676 0.09198377 0.08433577
-0.20450845 0.07651602 -0.004462382 -0.25151634 -0.2654763 0.21349548 0.10009004 0.24600987
-0.13260627 0.2775038 0.04080686 0.1263323 -0.367235 0.09162892 0.30846453 0.17494678
0.07487116 -0.032379113 0.31052727 0.0876825 -0.010674135 0.078199185 0.14519738 -0.07026885

weight_v f4 [12]
00000000: 9224 8abe 84d3 883e 795a 5d3e bcad da3e
00000010: a431 0abd 32e5 0fbf ac3d 83be c4bf 743e
00000020: e4f2 d83e 8a30 74bd 0927 8b3c c57a 6c3d
-0.26981026 0.26723874 0.21616544 0.42710674 -0.033738747 -0.562091 -0.2563299 0.23901278
0.4237281 -0.059616603 0.016986387 0.05773427

weight f4 [32, 12, 1]
00000000: 51bf 783d 43d5 4f3c df6a 23bd e297 363e
00000010: ea89 8ebd 30db 4fbe 1428 31be 670e ff3d
00000020: 408b cdbd c5a2 4dbe 77ed 13be e118 cdbd
00000030: f5d6 a1bd 049f cd3d 2bbc 27be 2b25 fdbd
00000040: 36ae 2d3e fa66 02be f4cc c43d 3dec 2b3e
00000050: 4611 dc3d 86fa 2dbe 9686 8e3d b663 513e
00000060: 1c5b 5a3e b5ec 09be 3419 f53c 55a7 33be
00000070: b66a 053d 9231 b0bc 986b 023d a48d 153c
00000080: 8b80 8dbd d7f3 0dbe 14ba dc3d 9b58 da3c
00000090: 7998 2abd e12c b6bd e923 13be 3565 8cbc
000000a0: b7d0 cdbc e870 2b3e 62e9 a93d 5e81 14bd
000000b0: 75fb 42be a4d0 c73b f0d8 5a3d a4e3 cb3d
000000c0: a5d9 57be 3ac6 ea3d f695 f1bd 1d5b e13d
000000d0: e688 52bd 3edd aa3c c794 523e dd87 b7bd
000000e0: ce58 1c3e 4052 a93d d6f7 bf3d 71b7 4bbe
000000f0: 3875 943d 46c8 18be 7d00 083e 431d ceba
00000100: 0f19 2cbe 64b2 cc3d 4f59 d23c cfe2 32be
00000110: c648 a33c 0e26 e3bd 067e 113e 2a96 563e
00000120: 26e2 453e f9f4 20bc 9921 303c ee30 06bc
00000130: 4891 4ebe 10de a4bd cfe2 dabd 5c2e cabb
00000140: 4a09 233e 3869 c73d 104a f9bd 7da9 373e
00000150: 3517 6e3a e959 953d 1160 ddbd 2f93 54be
00000160: 6d8f 38be f56e 10be e9e2 1a3e 5165 0e3e
00000170: 01e7 3f3e 861a 36be ff70 0dbe 66ce 2a3e
00000180: 61b1 c73c ccbb d03d 6e49 5ebe 3172 e3bd
00000190: 2371 2ebb 5f88 113e 9ba9 3e3e 7509 eabd
000001a0: da5a 823d f2ff 7a3d 264f 42be 3c78 8b3d
000001b0: 676e 21be d2a6 5e3e f659 d2bd ae51 6fbd
000001c0: 10d7 d9bd 0d2f 4b3d c2e7 31be 7a2c b23d
000001d0: 7ff6 22bd c527 febc 24b8 04bd f848 2dbd
000001e0: fd55 e9bd dffd 103e ceb7 943d b283 d0bd
000001f0: 80d5 29bd 791b 263e e57a e13d 1dd7 ab3d
00000200: e668 ba3d 6f0d f6bc ccfd e13d 1286 393e
00000210: 3172 e5bd 16fc 163e e188 99bd 3963 6dbe
00000220: d71e e53d e011 383e 26cd 473c 4d98 7fbd
00000230: def8 50be 36be e43d 20d1 0abe 4534 5b3e
00000240: d764 3d3e 28b0 22be b395 73bd 6159 e93d
00000250: a9c3 853d ecee 2e3e 7d2e 0b3e 80ca 81bd
00000260: 3ee5 1abe 2ca1 1abe 037d ed3c 91bc d8bd
00000270: 4979 03be 25d5 4b3e 65a8 0c3e daf1 803c
00000280: d38e b3bc 5c15 a9bd 337e 9cbd 0c19 113e
00000290: 5de9 37bc dbfb 3a3e aeaa a73d dc5e 4d3d
000002a0: 18b8 2e3e 956c f53d efa8 183e cfde ff3d
000002b0: ad84 31be 9395 3abe 3800 023e f33b 2ebe
000002c0: 5812 103d 372a 543e 4a70 133e 7db6 4cbe
000002d0: 133f 2dbe 5314 0a3e cca3 4cbd 7b50 393e
000002e0: bd96 303d 9327 3cbe 24c8 e2bd 6f87 a7bd
000002f0: aa0a 83bd 6e00 8fb8 c3c0 a03d 32a6 653e
00000300: 7cdf 39bd c32b 223e 0d0b d2bd 2fc3 013d
00000310: 19af 92bd eec8 113e 7d1d 123e f043 323d
00000320: 0ab1 fabd d24e 3b3e 20aa 41be b280 1bbe
00000330: bbe6 85bd 8b60 303e feeb 0b3e 2176 1c3d
00000340: 0f1f b3bd 715b 15be a310 c3bd 90e0 59bc
00000350: 77c1 1d3e e63d 3a3e f31a 4b3e 3709 8e3d
00000360: e5b7 333e 7f0b 50bd db1f 16bd 8d4e 5dbd
00000370: e64b aebd 0cb7 68bd 0eaa babd 81e5 e1bb
00000380: 2ebf 283e cc9e 33bd 6a28 4fbc 2259 8d3d
00000390: ba6c 09bd 60ba 53be f80c ebbd 6208 123e
000003a0: d0a5 363e 005b 4bbe 2b4d 4e3e d3f3 e0bd
000003b0: 2441 613e 65f9 70bd 8e31 103e 6c85 2a3e
000003c0: bf47 a93d ffb6 32be 95bb abbd af6a 09be
000003d0: fe2e 04bc 8391 623e 3c25 e63d 09f1 4cbe
000003e0: 8b4a 74bd af3a 283d 4b72 0abe 6126 0c3e
000003f0: c381 1fbe 2a16 d53d 0123 18be fb72 a23d
0.06072933 0.012685123 -0.039896842 0.17831376 -0.06959899 -0.20298457 -0.17300445 0.12453919
-0.100363255 -0.20081623 -0.14446054 -0.10014511 -0.07902328 0.100400954 -0.16380374 -0.12360605
0.16960987 -0.12734595 0.09609404 0.16789337 0.10745482 -0.16990098 0.06959264 0.20448193
0.21323818 -0.13469203 0.029919244 -0.17544301 0.03257247 -0.021508012 0.03184089 0.009128008
-0.06909283 -0.13862549 0.10777679 0.026653579 -0.041649316 -0.08895279 -0.14369167 -0.017138103
-0.025123937 0.16742289 0.08296467 -0.036256187 -0.19041236 0.00609787 0.053429544 0.099555284
-0.21079119 0.1146359 -0.11796181 0.110037066 -0.051400088 0.02085745 0.20564567 -0.08961461
0.15268251 0.08267641 0.09373443 -0.19894196 0.0724892 -0.14920148 0.13281436 -0.0015725273
-0.16806434 0.09994963 0.025677351 -0.17469333 0.019932162 -0.11091243 0.1420823 0.2095572
0.1932455 -0.009824031 0.010750198 -0.008190377 -0.20172608 -0.080501676 -0.106877916 -0.0061700772
0.15921512 0.09736866 -0.121723294 0.17935748 0.00090824376 0.072925396 -0.10809339 -0.20759271
-0.18023463 -0.14104827 0.15125622 0.13905837 0.18740465 -0.17783555 -0.13812636 0.16680297
0.024376573 0.101920694 -0.21707699 -0.11105765 -0.0026617728 0.14212178 0.18619387 -0.11427585
0.06364985 0.061279245 -0.18975505 0.06810042 -0.15764771 0.21743324 -0.10271065 -0.058427505
-0.10636723 0.049605418 -0.17373565 0.086998895 -0.03978586 -0.031024823 -0.032402173 -0.042305917
-0.11393354 0.14159344 0.072616205 -0.10181369 -0.041463375 0.16221417 0.110097684 0.08390639
0.09102039 -0.030035703 0.11034736 0.1811755 -0.11203421 0.147446 -0.07496811 -0.23182382
0.11187523 0.17975569 0.012194907 -0.062401105 -0.20407435 0.11169092 -0.13556337 0.21406658
0.18495499 -0.15887511 -0.059468936 0.11394001 0.0653146 0.17083329 0.13591953 -0.06337452
-0.15126511 -0.15100545 0.028990274 -0.10582841 -0.12839235 0.19905527 0.13736112 0.015740324
-0.02191869 -0.08256027 -0.07641258 0.14169711 -0.011225072 0.18260138 0.081868514 0.050139293
0.17062414 0.11983601 0.14908193 0.12493669 -0.17335768 -0.1822112 0.12695396 -0.17015056
0.035173744 0.20719229 0.14398304 -0.19991489 -0.16918592 0.13484316 -0.049960896 0.18097107
0.043112505 -0.18374471 -0.1107333 -0.08180129 -0.063985184 -6.8188514e-05 0.078492664 0.2242668
-0.045379147 0.15837006 -0.10256014 0.031680282 -0.071623035 0.14236805 0.14269061 0.04352182
-0.12240799 0.18291786 -0.18912554 -0.15185812 -0.06538149 0.17224328 0.13664243 0.038198594
-0.08746158 -0.14585663 -0.095246576 -0.013298169 0.15405832 0.18187675 0.19834499 0.06935351
0.17550619 -0.050792214 -0.036651473 -0.05402999 -0.0851057 -0.056815192 -0.091144666 -0.006893814
0.1647918 -0.043852612 -0.012643913 0.06901766 -0.033550955 -0.20676565 -0.11477083 0.1426101
0.1783669 -0.19858932 0.20146625 -0.10984006 0.21997505 -0.05883159 0.14081404 0.16652459
0.082656376 -0.1745262 -0.08385388 -0.13419603 -0.008067844 0.22125821 0.11237571 -0.20013823
-0.059641402 0.04107159 -0.13520162 0.13686515 -0.15576844 0.10404618 -0.14857103 0.07932087

bias f4 [32]
00000000: 909a e539 2086 febd aaff db3d d948 8e3d
00000010: f3a4 17bd c3fe cb3d dbc8 803b 1678 99bd
00000020: c497 80bd a11e f7ba eb79 283e 2456 06be
00000030: 8c8a d53d a503 943d 421a 3e3c 4d8d f5bc
00000040: 473a c23d a343 bcbd f8f4 183e 2b3a 95bd
00000050: ac37 78bd c82d d53c 4f12 4abd f4bd 163e
00000060: 4a41 313d 2ddb 9e3d e28a d93d 1597 063e
00000070: 43dd 213c 7c4c 533d a4dc 58bd 8286 ebbd
0.00043793442 -0.12427926 0.107421234 0.06947488 -0.037022542 0.09960701 0.003930194 -0.07493608
-0.06278947 -0.0018853733 0.16452758 -0.13118798 0.10426816 0.07227258 0.01160294 -0.029974604
0.09483772 -0.09192588 0.14937198 -0.07286485 -0.060599968 0.026022807 -0.049333867 0.14720899
0.043275155 0.07756648 0.10622193 0.1314357 0.009879413 0.051586613 -0.052944794 -0.11500265

weight_orig f4 [32, 32, 1]
00000000: 2008 253e cdf9 e83d f7d6 30bd 273a d23c
00000010: 78d6 943d 71ef c5bc 4107 983d 71cc c5bd
00000020: ca55 673d dfd3 463d ad48 163d 107e a93d
00000030: 6b35 593c 7e94 1abe 55ab fcbd 2674 0d3e
00000040: fa6b 2d3d fde5 0abe 6266 f9bd d9dd cdbd
00000050: 2598 0a3e 4a70 00be c54a 9ab9 c623 d0bd
00000060: 5baf 753d 8c43 55bd 39be c73d e932 423d
00000070: 6624 e6bd 1ee4 15be 49af d7bd a171 e33d
00000080: 3ea5 d8bd 4beb 25be fe1a 51bd 82c7 a3bd
00000090: 0a69 b03c b06a 1d3e 4024 28be d93f 0d3c
000000a0: bede 033e 2e85 39be 603b b03d ffb2 5abc
000000b0: 0925 073e 97f3 f0bd 4467 02be 7749 2cbd
000000c0: 126a 18be 5e10 5dbd b604 04be 36b4 c7bc
000000d0: 1cd2 153e 438c b73d 6c6f e33d 1fdb f43d
000000e0: 3147 f1bd a53b 0cbe 0b38 d6bd 5940 8bbd
000000f0: 83cf 523d 358c e33d 0e99 953d bac3 c03d
00000100: 1911 a73d d099 d3bd 8d07 4b3d db49 8ebd
00000110: 6294 093e b763 dd38 669f 28bc 0423 703d
00000120: 2eee f0bd 00f8 81bd 8310 153e 021b 89bd
00000130: 61d0 fbbd d0af 31be 4210 cc3d 9339 213d
00000140: bf3e 123e 1f27 383e 4891 8d3b 3991 043d
00000150: 5964 d43d e981 09bb 90f4 183e 9ef0 dfbd
00000160: e406 0b3e 040e 8a3d b6a9 bd3d 4315 39b9
00000170: f281 a93d 8d1d 973d 5575 e1bd 80ce 18be
00000180: 4458 2e3d cdc6 263e d528 353b d3be 1e3d
00000190: 659c 2ebe af80 7e3d 9f10 e5bd 8830 1c3d
000001a0: 1421 ae3d 7b97 083e 31ba 30be 3ff1 d23d
000001b0: 4b07 013e abb4 5dbd f33a 29be 655b 4abd
000001c0: eec7 2e3e 6e8c f33d 9c2d 4fbd b71f b8bd
000001d0: bccf 253e f78e e93c 9987 14bd 525e 303e
000001e0: 1f4f bfbd 983d 163e 4026 bebd fc60 133e
000001f0: 40d7 49bd 1536 d7bc 1085 a33d 4890 193e
00000200: bb33 d33d ca5c c4bc 2cd1 443d c9a2 0f3e
00000210: 77f0 98bd 4417 2e3d 552e 96bc 9e2a 06be
00000220: c3bc 0ebd cdd9 faba a59c 153e ed26 babd
00000230: cf05 bcbd 3234 19be 9d2a 763d 5bc6 a4bd
00000240: 58c8 f73c 589f debd fbda 6d3c c74e bb3d
00000250: ada1 5fbd a045 26be 3e0e 873c 699c f5bd
00000260: d483 eebd 7573 35bd 8177 8d3d 88f9 023d
00000270: 7a5a 1bbe 5a90 1c3e 47d5 90bd 6096 f93d
00000280: 08fb b63d 4200 293e fa54 c03d f6a7 83bd
00000290: 9952 e5bd 29d0 933d 596a febd cc75 2fbe
000002a0: 51db 12be f3e1 6bbd 8826 9cbc 7232 263e
000002b0: efc2 d13d 3e1f 11bd e588 31be 85af f5bd
000002c0: 28c1 81bd b509 4e3d 3318 483b 43fd 193e
000002d0: 6142 eb3c eca5 28be 2046 06be d871 1c3e
000002e0: c95e 01bc 5bda f63c a0e7 e4bd 5747 0fbe
000002f0: d2d2 cebd 74c3 bebd dec6 bfbd 41c0 ff3c
00000300: 984c 0e3d 7745 093e 599b eb3d 9cd9 bf3d
00000310: 7216 f4bd ee7e d1bd 2348 0d3d 3617 1bbe
00000320: cb4a a03c 3f7e 10be 577a 2d3d ea7b 313e
00000330: cecf 953d 69a5 c4bd d36f 05bc a57b fa3d
00000340: 5775 d93c 433b 053e ccb9 61bd 071d bbbc
00000350: 253b 0d3e c205 cebb 62f1 8abb 60b1 323e
00000360: f7b2 88bd 5164 023e 4563 303e 7949 9c3d
00000370: 44cd 1f3d dcc4 e1bd 0475 89bd 0b9a 1abe
00000380: 6f9e 46bd fbbe 68bc 3311 fcbd a9ed f13c
00000390: c866 093e bec7 e5bd 7f0e 8cbd 84ce 0d3e
000003a0: 6949 cc3c e990 863d 8336 28bd 4b2c 1bbe
000003b0: 966a 9dbc e81a 873c 5fd0 85bb 31f5 a0bd
000003c0: 274c 8cbd 77a6 503d 1667 fc3d c1ad 11be
000003d0: 79ae f23c 5aab eebd 1ac7 1c3e b056 853d
000003e0: be75 22be 16bf 9ebd b984 04bb 0a08 a2bd
000003f0: 2a73 67bd dcb3 993d 13a9 22be bf2d b5bd
0.1611638 0.11375771 -0.043173756 0.025662495 0.07267469 -0.024162026 0.074232586 -0.09658135
0.0564783 0.0485419 0.036690403 0.08275998 0.013257365 -0.15095708 -0.123373665 0.13813838
0.042339303 -0.13564296 -0.12177731 -0.1005208 0.13534601 -0.12542835 -0.00029428877 -0.10163073
0.059981685 -0.05206637 0.09753079 0.047411833 -0.11237411 -0.14637801 -0.1053148 0.11105657
-0.105783924 -0.16203038 -0.051051132 -0.079970375 0.021534462 0.1537273 -0.16420078 0.0086211795
0.12877938 -0.1811721 0.08605075 -0.01334834 0.13197722 -0.11765211 -0.12734705 -0.04206225
-0.14884213 -0.053970687 -0.12892422 -0.024377923 0.14630932 0.089623 0.111052364 0.119558565
-0.11781157 -0.13694628 -0.10459908 -0.06799383 0.05146743 0.11110727 0.073045835 0.09412332
0.08157558 -0.10332072 0.049567748 -0.069476806 0.1343551 0.000105566745 -0.01029191 0.058627144
-0.11764179 -0.0634613 0.1455708 -0.066946045 -0.122956045 -0.17352223 0.099640384 0.039361548
0.14281748 0.17983674 0.0043202974 0.032365058 0.10370702 -0.0020981974 0.14937043 -0.10934566
0.13576847 0.067409545 0.092608854 -0.00017650895 0.08276738 0.07378683 -0.110087074 -0.14922523
0.042564645 0.16286774 0.0027642746 0.038756203 -0.17051847 0.06213444 -0.11184811 0.03813222
0.08502403 0.13339035 -0.17258526 0.1029992 0.12600438 -0.054127377 -0.16526394 -0.049403567
0.17068455 0.11892019 -0.050580606 -0.08990424 0.16192526 0.028510554 -0.03626213 0.1722348
-0.09341263 0.14671934 -0.09284639 0.14392465 -0.049277544 -0.026270906 0.07984364 0.14996445
0.10312601 -0.023970027 0.048051044 0.14026941 -0.0746774 0.042502657 -0.01833264 -0.13102195
-0.034847986 -0.0019138396 0.14610536 -0.09089456 -0.091807954 -0.14961317 0.060099233 -0.08045646
0.030246899 -0.10870236 0.014517541 0.09145885 -0.054597545 -0.16237497 0.016486283 -0.119927235
-0.11646238 -0.04429956 0.06907559 0.031976253 -0.15171233 0.15289441 -0.070719294 0.12186885
0.08934599 0.16504005 0.09391208 -0.064285204 -0.11197395 0.07217438 -0.12422628 -0.1713478
-0.14341475 -0.05758853 -0.019061342 0.16230181 0.10242259 -0.035430185 -0.17337377 -0.11996368
-0.0633567 0.050302226 0.0030532002 0.15038018 0.028718175 -0.16469544 -0.13112688 0.15277803
-0.007896134 0.030133417 -0.111769915 -0.13992058 -0.100988045 -0.093146235 -0.09364103 0.031219603
0.034741014 0.13405405 0.115042396 0.093676776 -0.119183436 -0.10229288 0.034492623 -0.15145573
0.019566914 -0.14110659 0.042353 0.17332426 0.07315026 -0.09601862 -0.008144337 0.122306146
0.02654521 0.13010888 -0.05510883 -0.02284099 0.13792093 -0.0062873075 -0.004240201 0.17450476
-0.0667476 0.1273358 0.17225368 0.07631201 0.039014116 -0.11023876 -0.06711772 -0.15097825
-0.048490938 -0.01420569 -0.12307968 0.02953227 0.13418114 -0.112197384 -0.068387024 0.1384831
0.024937348 0.06570608 -0.04106761 -0.15153615 -0.019215863 0.016492322 -0.0040836777 -0.078592665
-0.068504624 0.050940003 0.123243496 -0.14226438 0.02962421 -0.116537765 0.15310326 0.06510675
-0.15865228 -0.077512905 -0.002022071 -0.079116896 -0.056506313 0.075050086 -0.15884809 -0.08846616

weight_u f4 [32]
00000000: bc10 4c3e e7f2 b3bb 2855 18be a109 9d3e
00000010: 9dc0 75bd 0bf2 d23e 4b5f 873e bfe7 3ebd
00000020: cbcf ff3b 95a0 c03c 531a 33bd cc54 80bd
00000030: 6b8e 99be 4b93 723e 6941 6b3d 08bf e73d
00000040: 03d7 c83c 2458 e23d 7974 24be 7adb 9abd
00000050: 53eb 103e 9c2c ad3e 3537 963d 0849 4d3e
00000060: ebf2 c73c b1d8 87bd 274c 053d d091 2abe
00000070: 6a31 2cbe 0aae 8a3e 350e 83bb b1ad 87be
0.19928259 -0.0054916027 -0.14876235 0.3067141 -0.059998143 0.4120029 0.2643989 -0.04660773
0.0078067533 0.023514071 -0.043726277 -0.06266174 -0.2999147 0.23689 0.057435427 0.11315733
0.024516588 0.11051968 -0.16060056 -0.07561393 0.14152269 0.33823097 0.07334749 0.2004739
0.024407825 -0.066331275 0.032543328 -0.16657186 -0.16815725 0.27085906 -0.0039994963 -0.26499704

weight_v f4 [32]
00000000: a90f 833e b408 9f3e e134 c6bc 2ce4 debd
00000010: c645 06be de8a 0c3d 1fc7 4abe eb1b 6dbe
00000020: c367 9bbd 0732 7c3c fc27 9ebd 667f a83e
00000030: efaf 543e f8a3 923d b82d 3bbe f12a a9bd
00000040: 9ea1 05bd e1f1 7dbd bd1b 6a3d 064f 573b
00000050: daae b13e 2640 dbbd d72f aebc bd2a 8e3e
00000060: 418f ebbd f3f6 5e3e 01a4 9b3c 9eed 5abd
00000070: 926d a4bd 2209 c4be e342 6fbe 6b66 033e
0.25597885 0.31061327 -0.024195137 -0.10883364 -0.13112554 0.03431212 -0.19802521 -0.23155181
-0.0758815 0.015392787 -0.0772247 0.32909697 0.20770238 0.07160181 -0.18279159 -0.082601435
-0.032624833 -0.06199825 0.05715536 0.0032853498 0.34703714 -0.10705595 -0.021263046 0.27766982
-0.11501933 0.21773891 0.018999102 -0.053449266 -0.080287114 -0.38288218 -0.23365359 0.12832038

weight f4 [32, 32, 1]
00000000: 4962 1a3e b9f1 d93d 176e 25bd d1a9 c43c
00000010: 1b3c 8b3d 212a b9bc 3138 8e3d 6309 b9bd
00000020: cf68 583d d2ff 393d 6d96 0c3d 8b8e 9e3d
00000030: c431 4b3c 489b 10be fa5d ecbd bf53 043e
00000040: 8e3b 223d cbef 01be 074f e9bd 8995 c0bd
00000050: f9a6 013e b84d f0bd 5156 90b9 eab5 c2bd
00000060: 5cd5 653d 0d81 47bd 0ddb ba3d 50ab 353d
00000070: 204b d7bd 5b38 0cbe cec4 c9bd ecc4 d43d
00000080: e5aa cabd cc36 1bbe 2f9d 43bd 5a36 99bd
00000090: 4207 a53c a042 133e 0b4b 1dbe d222 043c
000000a0: 45b9 f63d ee8c 2dbe 8adc a43d ba96 4cbc
000000b0: afd9 fc3d c767 e1bd c4fa f3bd ca2b 21bd
000000c0: a294 0ebe 0acd 4ebd 4f00 f7bd b0d1 babc
000000d0: 8227 0c3e 96b4 ab3d dcc2 d43d d10e e53d
000000e0: fcb5 e1bd 682f 03be c665 c8bd 5344 82bd
000000f0: 8a35 453d c9dd d43d 23f2 8b3d d253 b43d
00000100: a549 9c3d c9f2 c5bd 19ee 3d3d ab1b 85bd
00000110: f8b3 003e 021b cf38 3fbe 1dbc a9a4 603d
00000120: b762 e1bd 982a 73bd 6772 0b3e 6d42 80bd
00000130: 2691 ebbd f338 26be bae5 be3d 9cd2 163d
00000140: 35cf 083e 7545 2c3e 006f 843b 3307 f83c
00000150: 41b0 c63d b1a2 00bb 3016 0f3e c97d d1bd
00000160: 930e 023e c125 813d 096d b13d 3b24 2db9
00000170: 2d92 9e3d 915d 8d3d 6ce9 d2bd 95f2 0ebe
00000180: 9a18 233d 2404 1c3e 9c78 293b d180 143d
00000190: 5558 23be 0b15 6e3d 2449 d6bd bd1c 123d
000001a0: f9e4 a23d c58e ff3d 2c53 25be 1955 c53d
000001b0: 3e68 f13d bd66 4fbd c34f 1ebe 0d4d 3dbd
000001c0: 0f81 233e b8d5 e33d a2cf 41bd 873e acbd
000001d0: 041d 1b3e 437d da3c 52f2 0abd 3bfd 243e
000001e0: 41f7 b2bd 0f8c 0c3e 8ae1 b1bd b8de 093e
000001f0: 6ed1 3cbd 6c53 c9bc 32f8 983d dca7 0f3e
00000200: 4a93 c53d 75b1 b7bc 541e 383d 575e 063e
00000210: 5b12 8fbd cbdb 223d c87d 8cbc 2905 fbbd
00000220: 2987 05bd 7baa eaba 7ef5 0b3e 3d24 aebd
00000230: 39e4 afbd b751 0fbe aa48 663d c224 9abd
00000240: b3cb e73c 4642 d0bd 4e82 5e3c 0139 af3d
00000250: f033 51bd 4d8b 1bbe 0aaf 7c3c a3c3 e5bd
00000260: 4220 dfbd 6bbe 29bd e356 843d 6d0c f53c
00000270: 7e54 11be 6076 123e 0f7d 87bd ec7b e93d
00000280: ba2c ab3d db18 1e3e 37ec b33d c652 76bd
00000290: dc86 d6bd b846 8a3d 2600 eebd b623 24be
000002a0: ac61 09be dca9 5cbd 6213 92bc 5b79 1b3e
000002b0: 4a3a c43d 40c2 07bd 8a14 26be 83d5 e5bd
000002c0: fcc3 72bd 90be 403d 392f 3b3b cf0d 103e
000002d0: 9614 dc3c 59c4 1dbe a038 fbbd d659 123e
000002e0: ef0b f2bb 11ed e63c ca22 d6bd cc08 06be
000002f0: b47a c1bd 9974 b2bd 4767 b3bd ff3f ef3c
00000300: 3a1e 053d 256a 003e d067 dc3d cf78 b33d
00000310: d556 e4bd acfa c3bd 932a 043d 9115 11be
00000320: 3cf3 953c a42b 07be fe48 223d 6608 263e
00000330: 5a25 8c3d 64f5 b7bd ada7 f9bb 6652 ea3d
00000340: 916d cb3c 5645 f93d 7829 53bd 760a afbc
00000350: 6c1e 043e dfba c0bb 74fa 81bb e429 273e
00000360: 31c2 7fbd 40f5 f33d dc01 253e 1234 923d
00000370: cf7d 153d d133 d3bd a096 80bd 7aa0 10be
00000380: d5cd 39bd b3ba 59bc cacd ebbd b651 e23c
00000390: 5089 003e 72f4 d6bd 2c05 83bd 49a8 043e
000003a0: 311b bf3c 8cc4 7b3d 205c 1dbd 4a29 11be
000003b0: 8742 93bc bbc6 7c3c 505c 7abb a492 96bd
000003c0: d93e 83bd 2c30 433d 221e ec3d 9147 08be
000003d0: 1606 e33c 3c45 dfbd 98a9 123e a678 793d
000003e0: 61fa 17be 0f81 94bd d0ef f7ba c193 97bd
000003f0: 4a84 58bd 25c9 8f3d 662a 18be 347d a9bd
0.15076555 0.10641808 -0.040388193 0.024006756 0.067985736 -0.022603096 0.069443114 -0.090349935
0.05283433 0.045409985 0.034323145 0.07742032 0.012402002 -0.14121735 -0.11541362 0.12922572
0.039607577 -0.1268913 -0.113920264 -0.094035216 0.12661351 -0.11733574 -0.0002753013 -0.095073536
0.05611168 -0.048707057 0.09123812 0.04435283 -0.10512376 -0.13693373 -0.09851991 0.10389122
-0.09895877 -0.15157622 -0.047757324 -0.0748107 0.020145062 0.14380884 -0.15360658 0.008064942
0.12047056 -0.16948292 0.08049877 -0.012487108 0.12346207 -0.11006122 -0.11913064 -0.0393484
-0.13923886 -0.05048851 -0.12060606 -0.022805065 0.13686946 0.083840534 0.10388729 0.11184467
-0.11021039 -0.12811053 -0.09785037 -0.06360688 0.048146762 0.10393865 0.06833293 0.0880505
0.07631234 -0.09665448 0.046369646 -0.06499418 0.12568653 9.87556e-05 -0.009627878 0.054844532
-0.110051565 -0.059366792 0.1361786 -0.0626267 -0.11502294 -0.16232662 0.093211606 0.036821947
0.13360293 0.16823371 0.0040415525 0.03027687 0.097015865 -0.0019628222 0.13973308 -0.1022907
0.12700872 0.06306029 0.08663375 -0.00016512063 0.077427246 0.06902612 -0.10298428 -0.13959725
0.039818384 0.15235955 0.0025859242 0.03625566 -0.15951665 0.058125537 -0.10463169 0.03567194
0.07953829 0.12478403 -0.16145009 0.09635372 0.11787461 -0.05063509 -0.15460114 -0.04621606
0.159672 0.11124748 -0.047317155 -0.08410364 0.15147787 0.026671058 -0.0339225 0.16112225
-0.08738566 0.13725303 -0.08685596 0.13463867 -0.046098165 -0.024575911 0.074692145 0.14028877
0.09647234 -0.022423485 0.0449508 0.13121925 -0.06985923 0.039760392 -0.01714982 -0.122568436
-0.032599602 -0.001790359 0.13667867 -0.08503006 -0.08588452 -0.13996015 0.05622164 -0.07526542
0.028295374 -0.10168891 0.013580872 0.085557945 -0.051074922 -0.15189858 0.015422592 -0.11218955
-0.108948246 -0.041441362 0.06461885 0.029913152 -0.14192387 0.14302969 -0.0661565 0.11400589
0.0835814 0.15439169 0.08785289 -0.060137533 -0.10474941 0.0675177 -0.11621122 -0.16029248
-0.13416165 -0.053872928 -0.017831508 0.15183012 0.0958143 -0.033144236 -0.16218773 -0.11222365
-0.059268937 0.047056735 0.0028562082 0.14067768 0.026865285 -0.15406932 -0.1226666 0.14292082
-0.0073866765 0.028189214 -0.10455854 -0.13089293 -0.09447232 -0.087136455 -0.08759933 0.02920532
0.03249953 0.12540491 0.10761988 0.08763277 -0.111493744 -0.09569296 0.032267164 -0.14168383
0.01830446 -0.13200241 0.039620392 0.16214141 0.06843062 -0.089823514 -0.0076188655 0.114414975
0.024832519 0.12171428 -0.05155322 -0.021367293 0.1290223 -0.005881652 -0.003966624 0.16324574
-0.062441055 0.11912012 0.1611399 0.07138838 0.036496934 -0.103126176 -0.062787294 -0.14123717
-0.045362312 -0.0132891415 -0.115138605 0.027626853 0.1255238 -0.10495843 -0.06397471 0.1295482
0.023328396 0.06146674 -0.038417935 -0.14175907 -0.017976059 0.01542824 -0.0038201995 -0.07352188
-0.064084716 0.047653362 0.11529185 -0.1330855 0.027712863 -0.10901877 0.14322507 0.060906075
-0.14841606 -0.072511785 -0.0018916074 -0.07401229 -0.052860536 0.07020787 -0.14859924 -0.08275834

weight f4 [1, 32, 1]
00000000: 2001 433d 599b 283e 90ec 30bc 2702 0d3e
00000010: 60c5 073c 341a 4ebd 5ff5 9fbd 1272 d23d
00000020: 18ee 95bc a4f4 d6bd a0d7 cf3c 30bd edbd
00000030: ae93 25be f0e7 cfbc f8a9 95bc 10e2 2b3d
00000040: b047 24bd 5837 433d 06f0 12be 233e 263e
00000050: 36c5 58bd 5084 873d 98a6 92bc f0d8 afbc
00000060: b03b e33c 64bf 1f3d e03a 413c ec71 5e3d
00000070: e2ec ba3d 803f 77bb 33b4 0e3e cf0b 313e
0.047608495 0.1646551 -0.010798588 0.13770352 0.008286804 -0.050317958 -0.07810473 0.102756634
-0.018302009 -0.1049588 0.025371373 -0.1160835 -0.16169617 -0.025379151 -0.018269524 0.041963637
-0.04010743 0.0476602 -0.14349374 0.16234641 -0.05292245 0.066170335 -0.017901704 -0.021465749
0.027738422 0.039000884 0.011793822 0.054307863 0.09127213 -0.0037727058 0.13935928 0.17289661

weight f4 [1, 32, 1]
00000000: bbb3 053e e829 e2bc e0ad b23b 0448 343d
00000010: 31af c5bd 257b 05be b4ec 833d 7d72 073e
00000020: e2d6 e3bd dc64 ffbd 2803 833d f2ae 73bd
00000030: 9fdc dcbd 7f5b 2c3e 8a30 d2bd ccfa 4abd
00000040: 04e2 59bd a974 273e fdbf 023e f07a babc
00000050: 1d26 d1bd 009b 073b d45a 5e3d 70ef 53bd
00000060: c62e 1abe d63f b13d 6864 963c 8001 3e3b
00000070: e45a 15bd 1eac cf3d dc9c 4f3d 6891 0dbe
0.13056843 -0.027607873 0.0054528564 0.044013992 -0.09652556 -0.13035257 0.06441632 0.13227268
-0.1112497 -0.12470409 0.063970864 -0.059493013 -0.10784268 0.16831778 -0.10263164 -0.049555585
-0.05319406 0.16353096 0.1276855 -0.0227637 -0.10212348 0.0020691752 0.05428584 -0.051742017
-0.15056905 0.08654754 0.018358424 0.0028992593 -0.036463633 0.101402506 0.050686702 -0.13825

weight f4 [1, 32, 1]
00000000: 07a9 22be 68da 033d f082 5abc e58c 003e
00000010: ab8c 323e 6e49 ee3d 84f2 23bd 1045 80bc
00000020: 40ba ea3c 46a2 01be 4028 983c e4e9 163d
00000030: f7a3 cdbd 7353 b1bd 9117 003e f7c5 03be
00000040: c85a ddbc a8b7 16bd 7087 2fbe 0e78 a8bd
00000050: d754 273e c0fa b0bb 18ec e73c c2dd edbd
00000060: ecff 53bd b7af 05be e0de 89bb 9cfc 15be
00000070: d915 1f3e 4648 993d 3e72 d13d 66a2 f53d
-0.15884791 0.03219071 -0.013336882 0.12553747 0.17436473 0.11635099 -0.040026203 -0.015657932
0.028653264 -0.12659559 0.01857388 0.03684415 -0.100410394 -0.08658495 0.1250899 -0.12868486
-0.027020827 -0.036796242 -0.17141509 -0.082260236 0.16340958 -0.0054009855 0.02831082 -0.116145626
-0.051757738 -0.13055311 -0.004207477 -0.14647144 0.15535678 0.07484488 0.10226868 0.11993866

bias f4 [32]
00000000: c8b4 dc3c a130 813c 670a 15be 21df dcbd
00000010: 23e0 1e3e 1968 7b3d 78b5 f4bd 180e 063c
00000020: 25e3 0bbe 15ba 1b3e 6eb2 21bd 834a 963d
00000030: d81c 9bbd 9cf0 c63d 759c 153e 7651 18bd
00000040: caa2 b4bc ec99 853d 0a57 2f3e fc58 d43d
00000050: 4f7f 44bd fae0 c43c 6c0d 9b3d d62e d23d
00000060: f387 82bd 3764 d7bd 0034 193e 78b9 1fbe
00000070: 335d 983d 6ce5 d5bd afc6 94bd 9f2c c83d
0.026941672 0.015770258 -0.1455475 -0.10784746 0.15515189 0.061378572 -0.11948675 0.008182071
-0.13660868 0.15207703 -0.039476804 0.07338431 -0.07573861 0.09713861 0.14610465 -0.037187062
-0.02205028 0.06523499 0.17123047 0.10368535 -0.047972973 0.024033058 0.075709194 0.102628395
-0.063735865 -0.10517161 0.14961243 -0.15598094 0.07439651 -0.104441494 -0.072644584 0.09774136

weight_orig f4 [32, 32, 1]
00000000: 5a05 babd f26e f13c 87b4 163e 6851 283b
00000010: 3fcc d93c dc19 1f3d 9a91 01be 7a26 cdbd
00000020: bfd6 2c3d df43 22be 0ffd c83d dd40 aabd
00000030: 64a2 c83d d3a7 7bbd c5dd f53d 7045 5c3d
00000040: d49b 66bd d071 d7bc c1ef 223e cfd3 ed3d
00000050: 7926 8dbd 3579 963d c9ce 4abd 5d5f e9bc
00000060: 47d8 e43d 72d2 573d 9fe9 453d 83f0 0b3e
00000070: 81cb 2fbe 5efc 993d eb01 0c3e ae5b 2d3e
00000080: a611 373d 9c75 2bbe 8b55 dabd c2ac 26bd
00000090: e213 b8bd bc29 233e 3fdf 1a3d c356 6a3d
000000a0: fdd5 253e a78f c23c cf10 58bd 51a5 ebbc
000000b0: 3f3c 18be f995 603d 5419 c63c 05d8 443d
000000c0: ef80 bdbd 4382 9abc d05d 0d3e cdd8 74bd
000000d0: 651a 193e 9674 28be e547 b2bd 815f 2b3e
000000e0: e196 1fbe 1a6b 073d f759 473d 944b 863d
000000f0: 889c 8fbd f079 2d3e 45c6 f83d f6bd 27be
00000100: 6206 bc3c 1c34 04be 9774 2d3d 1da7 a6bd
00000110: 1c37 433d 59e1 ec3d d4c1 623d 12d6 093e
00000120: f25c 7c3d f130 173e 19c4 a8bd db6a d53d
00000130: a5bc 8cbd 0ed7 ffbd 68bb 55bd 6bbe 6e3d
00000140: 9dce 29bd c4a2 083d 7246 403d 167d 993d
00000150: 36c1 9c3d 1d8b e1bd ada2 67bd 2476 dabc
00000160: 49bf f8bd 846f 12bd ac67 303d feb2 083e
00000170: 3ab8 963c 8e66 1ebe 5bd7 0a3e e0f8 bbbc
00000180: 572e df3d d2de f7bd 3ea7 98bd 1099 153e
00000190: 1dad 0d3e 587a 453d 5ab3 0fbe 4b5b e5bd
000001a0: e0c7 233e 0481 903d 5687 19bd b663 35be
000001b0: 0672 b939 b05d f53c 9799 2c3b 306a 483c
000001c0: 8a47 81bd 5c34 c5bd a1ff 2e3e bc63 f5bd
000001d0: 6023 7e3d 22fd 953d bcae 27bc 6c89 b03d
000001e0: af44 b3bd de5a f13d 83d9 2fbe 3238 aebd
000001f0: e3c3 1bbd db1e dabc 2ed0 253c 2547 febc
00000200: ea0f 393b 8707 b23c 0a7c 0dbe 9fc3 dbbd
00000210: 7b41 7cbd 72b1 b83d bed5 42bd 6ba9 7bbd
00000220: a779 babd 29fe dbbd 193c 093d 4920 a1bd
00000230: ac40 13be 3969 303e 7e3a 053e 7834 2ebe
00000240: 7ff4 1b3e b98c 9dbd 8737 23be f717 8e3d
00000250: 8c0d 1f3e d898 aebd a912 cbbd 7129 10be
00000260: edb5 aebd b1d5 16be 8e7a 573c 5170 d13d
00000270: 15e9 b13d 9e65 d13d 32c9 213e 5071 bbbd
00000280: ec0c b83d e7cd c5bd 38ba afbd 3ca5 bdbd
00000290: 1dbb 95bd 544a 2cbe c3be 253d 749b 113e
000002a0: a4b1 a93d 532a e53c 0bbd 24be 79ba a33d
000002b0: f446 a2bd e32c 143e c2fe d3bd 4894 7dbd
000002c0: e384 133e 01bd b0bd da70 17be 2c27 c9bc
000002d0: c8e4 0dbe cf59 b03d cf11 80bc aeb6 ef3c
000002e0: 222b af3d 92b4 da3d 5745 2f3e abf9 b0bd
000002f0: 47f0 11be 0d6c 563d ce47 90bd bb50 55bd
00000300: e4cd a63c d442 953c f5ed 1a39 b870 ca3d
00000310: a77d 32be 3804 273e 8ced 493d 1ee3 d33d
00000320: 8f09 513d 06fb 173e 21c1 a93c 0ca8 db3c
00000330: 6080 2bbe aa03 1fbe baab cf3d 1e7c dcbd
00000340: 9f1c 793c 1961 5d3d 3617 c8bd 074d 8b3d
00000350: d1ba b33d bf18 ccbd d0bb 33be 489a 583d
00000360: 34a9 1e3e b71a acbd 4327 2abe 8642 e43c
00000370: d6cb 14be 5648 003e 9278 663d d77d a13c
00000380: aa36 81bd 576d 18be 32f2 49bd 604f 07be
00000390: e3fa 873d dd7e ecbd 5385 8bbd 4e27 3d3d
000003a0: 41fb 223e 80cf 33be b110 a3bd 5281 b53d
000003b0: e1e1 223e 3070 123e 74dd 8c3d 573a 31bc
000003c0: f32a 5a3d e116 103e f61d 723d 07e9 b7bd
000003d0: 4048 18be 3f90 bd3d 1dae 0d3e 7776 c5bd
000003e0: 6fb9 053e 811e 9fbc 1c53 18be 496d dcbd
000003f0: d069 c1bd 4aa0 893d 5b2e 44bd f548 78bd
-0.09083052 0.029471848 0.14717303 0.0025683288 0.02658665 0.03884302 -0.12653199 -0.100171044
0.042196985 -0.15846203 0.09813892 -0.08313153 0.097965986 -0.061439347 0.1200519 0.05377716
-0.056300953 -0.026299387 0.15911771 0.11612665 -0.06892104 0.07347337 -0.049513612 -0.028487856
0.11174064 0.05269093 0.0483185 0.13665967 -0.17167474 0.07518838 0.13672607 0.16929504
0.044694565 -0.16744083 -0.10660847 -0.0406921 -0.08988167 0.15933889 0.03781056 0.05721165
0.16194911 0.02375014 -0.052750405 -0.028765352 -0.14866732 0.054830525 0.024182 0.048057575
-0.09253108 -0.018860942 0.13805318 -0.05977707 0.14951475 -0.16450724 -0.08705119 0.1673565
-0.155849 0.033061124 0.04866978 0.06557384 -0.07012278 0.16941047 0.12147192 -0.16381058
0.022952262 -0.12910503 0.042347517 -0.08137343 0.04765998 0.11566419 0.05536063 0.13460568
0.061612077 0.14764763 -0.08240528 0.10420772 -0.068719186 -0.1249219 -0.052180678 0.058287065
-0.041456807 0.03335835 0.046942182 0.074945614 0.076540396 -0.11012862 -0.056551624 -0.026667662
-0.1214586 -0.03575088 0.04306762 0.1334953 0.018398393 -0.15468809 0.13558714 -0.022945821
0.108975105 -0.121030465 -0.07453774 0.1460917 0.13835569 0.04821238 -0.14033261 -0.111990534
0.15994215 0.07055858 -0.037482582 -0.17713818 0.00035370904 0.0299519 0.0026336664 0.012232348
-0.06312473 -0.096291274 0.17089702 -0.119819134 0.062045455 0.07323672 -0.010234531 0.08619961
-0.08753335 0.1178491 -0.17172818 -0.08506812 -0.03802861 -0.026626041 0.010120435 -0.031039784
0.0028238245 0.021732105 -0.13816848 -0.10730671 -0.061585885 0.0901822 -0.04756712 -0.061440866
-0.091052346 -0.107418366 0.03350458 -0.07867486 -0.14380139 0.1722764 0.13010594 -0.17012203
0.15229987 -0.07692856 -0.15939151 0.06938165 0.15532511 -0.085252464 -0.099156685 -0.14078309
-0.08530793 -0.14729954 0.013151778 0.10226501 0.08687035 0.1022446 0.15799406 -0.09152472
0.0898684 -0.096584134 -0.0858044 -0.092600316 -0.0731108 -0.16825229 0.040465128 0.14219457
0.082858354 0.027974283 -0.16087739 0.07994551 -0.079236895 0.14470248 -0.103513256 -0.06190899
0.14406161 -0.086298 -0.14789143 -0.024554811 -0.13856804 0.0861088 -0.015633492 0.029261913
0.08553149 0.10678972 0.17116295 -0.086413704 -0.14251815 0.05234914 -0.07044946 -0.052078944
0.020361848 0.018220343 0.0001477523 0.09884781 -0.17430745 0.16310203 0.049298808 0.103460535
0.051034506 0.14841852 0.020721974 0.02681353 -0.1674819 -0.15528741 0.10140176 -0.10765861
0.015204578 0.054047678 -0.09770052 0.06801801 0.08775867 -0.099656574 -0.17552114 0.05288151
0.15494233 -0.08403533 -0.1661654 0.027863752 -0.14530882 0.12527594 0.05626733 0.019713325
-0.063092545 -0.1488546 -0.04930324 -0.13213873 0.0663965 -0.11547635 -0.06812539 0.046180062
0.15916158 -0.17559624 -0.07962168 0.088625565 0.15906478 0.14300609 0.06878176 -0.010817132
0.053263616 0.14071228 0.059110604 -0.08979993 -0.14871311 0.092560284 0.1383595 -0.09641736
0.13059019 -0.019423725 -0.14875454 -0.10763032 -0.0944401 0.06720026 -0.04789577 -0.060616452

weight_u f4 [32]
00000000: b84b 2e3c 189b 0e3e 94af 9a3d de6a 47be
00000010: d2aa cd3e 92f0 26bd 819d a83e b5bf a8be
00000020: c376 c5bc 1edb a93c efb3 303d 33a8 5f3e
00000030: a860 893d aa7f 043c 4951 8f3d 188d 383e
00000040: 6f6a 2d3e b2ce 993e be5f 1ebe 6b2a 99be
00000050: ad78 093e 5cfc 25bd 206d 3b3e 8140 cebd
00000060: b4f8 22bd b3be 8abd 4f62 d8bd 913a 503e
00000070: 56a9 323c 9340 43be d789 e8bd 3bf4 7bbe
0.01063817 0.13926351 0.0755302 -0.1947436 0.40169388 -0.04075677 0.32932666 -0.3295876
-0.024104482 0.020734366 0.043140348 0.21841507 0.06707889 0.008087078 0.06997926 0.18022573
0.16935132 0.30040509 -0.1546621 -0.29915175 0.1342494 -0.04052387 0.18303347 -0.10070897
-0.039787963 -0.06774654 -0.10565626 0.20334841 0.010904631 -0.19067602 -0.11354416 -0.24604885

weight_v f4 [32]
00000000: bf95 073e f8b5 2b3e 3d00 1e3c e4a3 c5bc
00000010: a565 a7be e508 203e 2b91 703d baeb 81bd
00000020: 6b19 82bd 4cb6 b3bd 7dd2 b73c dc15 45be
00000030: 0b1d a8be d2fc 16bd 6767 c53d a21b 41be
00000040: 211e 19bd 80d9 babc 9825 a8be 2ca9 4c3e
00000050: 4053 be3d a4fe 99be 6105 f3be 1350 bbbd
00000060: 3ced 083b 943b 23be 29c4 d73d 8a7e 8f3e
00000070: c4eb df3c 5b4c 7f3d 1e6d c63d a23e 8ebb
0.13240717 0.16768634 0.0096436115 -0.024126 -0.32694736 0.15628393 0.058732193 -0.063437894
-0.06352504 -0.08775005 0.022439236 -0.1924662 -0.32834658 -0.036862202 0.09638863 -0.18858197
-0.03738225 -0.02280879 -0.32841182 0.19986409 0.092932224 -0.30077088 -0.4746504 -0.09146132
0.0020893356 -0.15940696 0.105354615 0.2802623 0.027334101 0.062328678 0.09688781 -0.0043409625
