Models/M4/2fade9_generator_model.pt (torch, 159537 bytes, 70 tensors)

bias f4 [32]
00000000: 90da f03c 863b 35be 9023 453d fc2e 153e
00000010: 799f 20be 6d6a a7bb 3206 80be 187b 81be
00000020: 6e06 7ebe d0f2 aabd ff81 203e 8176 86be
00000030: 75ff 2dbe e8ee 923e 6669 793d 4ddb 553e
00000040: 9b69 8fbd 89e5 723e c7f6 42be b2d8 83be
00000050: fa57 6c3e 89c5 04be 2562 613e cb63 ccbd
00000060: 8ee7 afbc 3f96 ef3d 20da 773e 5ad0 4cbe
00000070: 5048 9ebd a772 68be ef32 973e 80a7 873e
0.029401094 -0.17698488 0.04812962 0.14568704 -0.15685834 -0.0051091225 -0.25004727 -0.25289226
-0.2480714 -0.08347094 0.1567459 -0.26262286 -0.1699198 0.28697896 0.06089153 0.20884438
-0.070025645 0.23720373 -0.1903945 -0.25751263 0.23080435 -0.12965979 0.22010095 -0.099799715
-0.021472719 0.11698579 0.24204302 -0.20001355 -0.07728636 -0.22699986 0.29531047 0.2649498

weight_orig f4 [32, 12, 1]
00000000: 9ecb cab9 0e98 19be 4dad b73d c2c9 993d
00000010: 5f9d 3ebd b5cb 473e 00e5 53bc 8049 793e
00000020: 5bac e83d 6c4b 2abe 9f4d 92bd 9fe0 54be
00000030: 30e2 cbbd 6826 043b 1337 babd 5363 10be
00000040: 248d 603e 9794 fcbd 4389 a0bb 1749 0abd
00000050: aac9 673e ca4b 84be 37e5 01be 43c3 c1bd
00000060: aada 76be 4acd 2cbe 47c3 6cbe dcea 5cbe
00000070: 4a37 0e3e b647 5abe 71e5 b9bd 4754 45be
00000080: c45e 9dbd c4eb 1e3e 3550 76be 2464 043e
00000090: 1433 3f3e 4290 4b3e 485d 723e 4a49 063e
000000a0: 10b5 a93d ab2c 373e 1c86 97be 33e1 883e
000000b0: 65d8 28be 63a4 393e 6114 cc3d 1f82 82be
000000c0: c39d 333e b733 a8bd 2daf 083e 97fe 29be
000000d0: 1c77 5b3e 1cc2 bf3c 88bf 8f3d 3d06 0b3d
000000e0: 332a 5b3e 03b0 96bd e827 2abe 0bc2 1c3d
000000f0: b32c 25be 602c 44be ef3b eabc fcbd 22be
00000100: 86c8 27be 5f14 05be 90ac 6f3e d2d4 34bb
00000110: 2a4b 163e ea38 373e f34a 913e 7ba4 24be
00000120: 817f 23be 5e14 25be 6664 37bd 4886 283e
00000130: 8c4e 95be 9347 a93d f88d 09be d0f6 d83d
00000140: c245 8bbe 01e2 b6bc 6fec 8a3e 6456 92be
00000150: 36e6 82be 2133 efbd 4d2a 9c3d 21b3 c33d
00000160: 8e69 243e 0ef9 4b3e 9ec3 87be ceaa 88be
00000170: 2541 68be 2296 88bd 6c53 4bbe 255c 893e
00000180: e42f 3fbe aa76 f93d b630 96be 21fb b1bd
00000190: 1159 96be 078c 443e b532 d73c 0686 0bbe
000001a0: 97e4 30be b421 f43d ce8b 1f3e faa6 423e
000001b0: f334 493e cb4f 80be a20d 77be a2ce 903d
000001c0: 554c 193d 28c6 093e 3d69 953d e362 73be
000001d0: 9893 74be 37b8 25be 3ef1 83be 84b6 173e
000001e0: 9f98 24be d350 c83c f2d4 283d cff7 f2bd
000001f0: 8ce9 253e 80c2 37be b4c1 bf3a 5e59 033e
00000200: 4924 19be 615a b53d c186 873e 9bca 03bd
00000210: 8d22 8e3e e781 513d 9ee0 073d dd14 74bd
00000220: 969e a8bd d169 86be a7dc 5dbe b59b 4c3e
00000230: ab5b 3b3d 7be4 533e 602e 5a3e 268f dc3d
00000240: 3437 793e 8b61 28be 29a3 f03d b413 01bc
00000250: 8250 92bd 6695 f53d b0ba 7fbe cd06 6ebd
00000260: 0d58 64be 25a0 95bd dc6a 1dbe 98e6 073e
00000270: d395 403e d05c 1a3e 2636 053e faf5 2cbe
00000280: 0ae5 36be d39d 1ebd cbd9 823e e793 46be
00000290: c97a b6bd 3168 6f3c 985c 563d 6799 c2bc
000002a0: 547f c1bd 39ed b5bc 81f7 91bd 34d4 cf3d
000002b0: f3ef 7e3e 277a 8b3e 3f5e 81bc 3909 52be
000002c0: 77aa 673e 615d ca3d 5828 4b3e 094f babd
000002d0: 072b 703e 2f95 5e3e 3894 73be dd8d a93d
000002e0: 4ed0 503c e7b8 8bbe 004d 493e 329e 52bd
000002f0: 17b6 783e 72d4 303e d0e2 50be fc67 49be
00000300: ca56 35be 27ac 11be 50d4 653e fee0 95bd
00000310: 689b e9bd 3e18 8b3e 8676 793e e29b 7bbe
00000320: ef22 17be 0e8f 6abe 99f6 983d 54c5 61be
00000330: 9d7f a9bb 9ecf f9bd 3273 843e 9ec1 3e3e
00000340: 1e71 a13c c8ae 5bbe 4429 96bd 9e55 d43b
00000350: 2db4 e53d 2d78 863e d983 f3bd d0d8 da3d
00000360: 038c aebd 5a46 f1bd d863 533d 3084 353e
00000370: edb8 91bd 372d 683d e015 51be 9763 163d
00000380: c83a ee3d bddd 913e b32e 683d f9de 013e
00000390: d7e4 2bbe a985 16be 10d5 e8bd 3f2b eebc
000003a0: 672b 5bbd c84a 863e 3c66 1f3e c10e 87be
000003b0: 54cd f73d 1d77 7bbe e3d1 89be 9c66 88be
000003c0: efa0 0c3e 4b6d 223e 59e4 11be 875c 4bbd
000003d0: c3de 2c3e 48b4 7d3c 2266 d7bb d3a4 2e3d
000003e0: 7058 ab3b ab35 86be 2f98 2dbd da9a 6d3e
000003f0: 11f3 8a3d 4f74 8f3d 8ae2 7a3d 96c6 593e
-0.0003868015 -0.1499941 0.089686014 0.075091854 -0.0465368 0.19511302 -0.012933016 0.24344444
0.11360999 -0.16630334 -0.07143711 -0.20788811 -0.09955251 0.0020164493 -0.09092536 -0.14100389
0.21928841 -0.12333029 -0.0048991754 -0.03376111 0.22635522 -0.25839072 -0.12685095 -0.09461071
-0.24106851 -0.16875187 -0.23121367 -0.21573967 0.13888279 -0.21316418 -0.090769656 -0.1927043
-0.07684091 0.15519625 -0.24054034 0.12928826 0.18671829 0.19879249 0.23668396 0.13113895
0.08286488 0.17888133 -0.29594505 0.26734313 -0.16488798 0.18129115 0.099648245 -0.254899
0.1754065 -0.08212989 0.13348074 -0.16601025 0.21432155 0.023407988 0.070189536 0.033941496
0.21402816 -0.0735779 -0.16616786 0.03827099 -0.16130333 -0.19157553 -0.028593032 -0.15892786
-0.16385087 -0.12996052 0.23405671 -0.002759267 0.1467711 0.17892805 0.28377494 -0.1607837
-0.15966608 -0.1612105 -0.04477348 0.16457474 -0.2916149 0.08265605 -0.13433063 0.10593951
-0.27201658 -0.022324564 0.2713351 -0.28581536 -0.25566262 -0.11679674 0.07625256 0.095556505
0.16055891 0.19919226 -0.26516432 -0.26692814 -0.226811 -0.066692606 -0.19856042 0.26828113
-0.18670613 0.121808365 -0.29334038 -0.08690477 -0.29364827 0.19194041 0.026269296 -0.13625345
-0.172747 0.11920491 0.15580675 0.19009009 0.19649105 -0.25060877 -0.24126294 0.07070662
0.03742631 0.13454497 0.07295463 -0.23768191 -0.23884428 -0.16183554 -0.2576999 0.14815718
-0.16073845 0.024452602 0.041218705 -0.11863672 0.16202372 -0.1794529 0.0014629872 0.1282706
-0.14955248 0.08855129 0.26469997 -0.03217564 0.27760735 0.051149275 0.033173196 -0.05959021
-0.08233373 -0.26252607 -0.21666203 0.19981273 0.04574172 0.20692627 0.21306753 0.10769491
0.24337465 -0.1644346 0.1174987 -0.007878233 -0.07144262 0.11991386 -0.2497356 -0.058111954
-0.22299214 -0.07305936 -0.15372795 0.13271558 0.18807153 0.15074468 0.13008937 -0.16890708
-0.17860809 -0.03872473 0.25556788 -0.19392358 -0.08910138 0.0146122435 0.052334398 -0.023754789
-0.09448114 -0.022207843 -0.07127286 0.101478964 0.24896221 0.27241632 -0.01579201 -0.2051133
0.22623621 0.09881092 0.19839609 -0.09097106 0.23453914 0.21736597 -0.2378701 0.082790114
0.012744976 -0.27289507 0.1965828 -0.051420398 0.24288212 0.17268541 -0.20399022 -0.19668573
-0.17708889 -0.14225827 0.22444272 -0.073183045 -0.114065945 0.27166933 0.2436162 -0.24571183
-0.1475942 -0.22906134 0.0746891 -0.22047931 -0.0051726834 -0.12197803 0.25869137 0.18628547
0.019707259 -0.21453393 -0.073320895 0.006479933 0.112160064 0.26263562 -0.11890382 0.10685885
-0.08522799 -0.117809966 0.05160889 0.17726207 -0.0711535 0.056683745 -0.20418501 0.03671607
0.116323054 0.28489485 0.05668516 0.12682714 -0.16786514 -0.14699425 -0.113687634 -0.029073356
-0.05350819 0.2622893 0.15566343 -0.26378444 0.1209971 -0.24557157 -0.26917943 -0.26640785
0.13733266 0.15862004 -0.14247264 -0.049648788 0.16881852 0.015484877 -0.0065734545 0.042637657
0.0052290484 -0.2621282 -0.04238146 0.23203602 0.067846425 0.07004606 0.0612512 0.21267161

weight_u f4 [32]
00000000: 25f3 bb3d 6b3e 383e b77c 2d3e 2558 5bbe
00000010: c7d7 c53d 2d80 09be 6d59 7ebd 4424 813e
00000020: 282b edbc 53f0 b23e a583 27be 8449 b6be
00000030: 9533 ca3d 4469 81bd 0329 823d 2369 49bd
00000040: 8153 613e 789e 10be 566e 10be 9e78 d53e
00000050: 8d91 a23d d003 cd3d 5366 693c ce67 bcbc
00000060: 031b 3abe 30be 9fbe 3934 dfba 9963 d73d
00000070: 8e7c 423e ba83 3ebe d80f 23bd 5c3f 75bc
0.091772355 0.1799256 0.16942106 -0.21420343 0.09660297 -0.13427801 -0.062097 0.2522298
-0.028951243 0.34948978 -0.16358812 -0.35602963 0.0987312 -0.06318906 0.063554786 -0.04917253
0.2200451 -0.14122951 -0.1410459 0.41693586 0.07937918 0.10010493 0.014245587 -0.022998717
-0.18174367 -0.3119979 -0.0017029113 0.105170436 0.18992826 -0.18604937 -0.03981003 -0.014968719

weight_v f4 [12]
00000000: ceb2 07be ee30 acbe 88be 80be c725 79bd
00000010: 70e3 673e 7229 a73e a2d4 bc3d b27d aebe
00000020: 4d6a bdbd 5c23 e9be 6514 09bf 4388 06be
-0.13251802 -0.3363108 -0.25145364 -0.060827043 0.22645354 0.32648808 0.09220244 -0.34080273
-0.09248791 -0.4553479 -0.53546745 -0.13137917

weight f4 [32, 12, 1]
00000000: b3d0 95b9 77e4 e4bd 64d9 883d 5132 653d
00000010: d90b 0ebd 33df 143e 65b4 1dbc 9abe 393e
00000020: c55e ad3d 42c7 fdbd 8804 5abd 639d 1ebe
00000030: cbea 97bd 9f96 c53a 52c1 8abd da2a d7bd
00000040: d54f 273e ed31 bcbd 68b5 6fbb f618 cebc
00000050: 43b4 2c3e a125 45be 1692 c1bd d85f 90bd
00000060: aeee 37be 8ec1 00be 476a 30be 3c9a 24be
00000070: 6bec d33d a7a2 22be b382 8abd 9507 13be
00000080: fa84 6abd fbd0 ec3d 0087 37be ec49 c53d
00000090: 6177 0e3e d3ab 173e 7f94 343e 2f1b c83d
000000a0: 38ea 7c3d 377b 083e 9acb 61be 9afa 4b3e
000000b0: c59e fbbd ec4f 0a3e 890f 983d 257b 42be
000000c0: 84d5 053e 9cb0 7abd 0ab1 cb3d 9557 fdbd
000000d0: d085 233e 20d4 8e3c a134 563d 302b cf3c
000000e0: bb4c 233e 6f90 60bd d990 fdbd b896 e93c
000000f0: bd1f f6bd 9f2b 12be f573 aebc 1b81 f2bd
00000100: 3503 fabd 0a44 c6bd 4f96 323e 1263 07bb
00000110: 2ef7 df3d bf84 083e 4083 583e 6e58 f5bd
00000120: 1ea4 f3bd 2a00 f6bd 2a9f 08bd a225 fb3d
00000130: 757f 5ebe 473a 7c3d 04f9 ccbd a8a9 a13d
00000140: c88b 4fbe f347 88bc 0e06 4f3e e711 5abe
00000150: dd11 43be 183b b2bd 73b9 683d c8d2 913d
00000160: 0e00 f53d f6fc 173e fb4f 4abe b9ab 4bbe
00000170: 190d 2dbe 5d8d 4bbd 7c7f 17be 8eb1 4c3e
00000180: d575 0ebe 95e3 b93d 38d1 5fbe 919b 84bd
00000190: b90d 60be 6e75 123e 7953 a03c 47ec cfbd
000001a0: 76ce 03be 3ee8 b53d 49c3 ed3d a608 113e
000001b0: 62e9 153e 5535 3fbe 9713 38be 01d2 573d
000001c0: fe63 e43c 3253 cd3d f0ab 5e3d 2a5c 35be
000001d0: 193c 36be f0f0 f6bd f19e 44be 9414 e23d
000001e0: 9f42 f5bd 585a 953c 4c9d fb3c 5f07 b5bd
000001f0: 9940 f73d a6e6 08be 629e 903a bbbf c33d
00000200: 0535 e4bd cf20 873d 30f6 493e c163 c4bc
00000210: 68ce 533e 8818 1c3d 8087 ca3c e6e8 35bd
00000220: f245 7bbd 424d 48be de4e 25be ed73 183e
00000230: 1398 0b3d 52e1 1d3e 1891 223e d756 a43d
00000240: f1b0 393e 9deb fabd 8a4a b33d d52c c0bb
00000250: 1e07 5abd b2fd b63d c68b 3ebe 815e 31bd
00000260: 6222 2abe d1f4 5ebd a295 eabd 9984 ca3d
00000270: 9c7c 0f3e fbff e53d 9581 c63d 8cdc 00be
00000280: b746 08be d57b ecbc 3e00 433e f8f6 13be
00000290: edf7 87bd 9b73 323c afb7 1f3d f9f8 90bc
000002a0: 832e 90bd b885 87bc 2784 59bd e6de 9a3d
000002b0: 83f3 3d3e efd9 4f3e 06e4 40bc 847d 1cbe
000002c0: 049d 2c3e 76c8 963d c75f 173e bcd1 8abd
000002d0: 06f3 323e 07db 253e 127d 35be 4dac 7c3d
000002e0: eecb 1b3c d935 50be e9fa 153e deec 1cbd
000002f0: 1250 393e 5ec2 033e 2da4 1bbe 7c11 16be
00000300: e61f 07be f115 d9bd f23b 2b3e 4348 5fbd
00000310: 7813 aebd 2847 4f3e a9df 393e 827b 3bbe
00000320: 1f36 e1bd 32c4 2ebe 85f0 633d af38 28be
00000330: 5381 7cbb 8f23 babd 3e60 453e 1124 0e3e
00000340: eea4 703c eead 23be cdb8 5fbd f2e1 9d3b
00000350: a924 ab3d 6963 483e ec71 b5bd 2e10 a33d
00000360: 5410 82bd c4c7 b3bd 848c 1d3d 4c3e 073e
00000370: ea24 59bd 6ef0 2c3d 82cb 1bbe 6d1c e03c
00000380: bc7f b13d ef5e 593e 4700 2d3d be88 c13d
00000390: bf13 00be 9e4f e0bd dd7b adbd 0f82 b1bc
000003a0: c44b 23bd b71d 483e e387 ed3d 1e43 49be
000003b0: 93a1 b83d c55d 3bbe 2061 4dbe c643 4bbe
000003c0: 1a91 d13d fc06 f23d f765 d9bd 1f89 17bd
000003d0: c4cd 003e 32d4 3c3c 2587 a0bb b120 023d
000003e0: cb3e 7f3b ba00 48be 195b 01bd ee09 313e
000003f0: b411 4f3d 91be 553d c6f1 3a3d 8643 223e
-0.00028574988 -0.11176389 0.06682089 0.05595619 -0.034679268 0.14538269 -0.009625529 0.18139115
0.084653415 -0.12391521 -0.053226978 -0.15489726 -0.0741783 0.0015074796 -0.06775154 -0.1050622
0.16339047 -0.0918921 -0.0036576632 -0.025158387 0.1686564 -0.19252636 -0.09451692 -0.07049531
-0.17962143 -0.12573835 -0.17228042 -0.1607446 0.103478275 -0.1588236 -0.0676321 -0.14358361
-0.057255723 0.11563297 -0.17922592 0.0963324 0.13912727 0.1481164 0.17634772 0.0977081
0.061746806 0.13328253 -0.22050324 0.19919816 -0.12286142 0.1350705 0.07424838 -0.18992288
0.13069731 -0.061203584 0.09945877 -0.123702206 0.15969014 0.017435133 0.052296285 0.025289148
0.15947239 -0.054825243 -0.12381143 0.028514251 -0.12017772 -0.14274453 -0.021295527 -0.11841031
-0.12207643 -0.09680946 0.1744015 -0.0020658416 0.10935818 0.13331889 0.21143818 -0.11979757
-0.11896537 -0.1201175 -0.033354916 0.12263037 -0.21728308 0.061579015 -0.100084335 0.078936875
-0.20268166 -0.01663587 0.20217153 -0.21295892 -0.19049783 -0.087026775 0.056817483 0.071202815
0.11962901 0.1484259 -0.19757073 -0.19889726 -0.16899528 -0.04969536 -0.14794725 0.19989607
-0.13912137 0.09076611 -0.21857154 -0.064749844 -0.21880235 0.14302608 0.019571053 -0.10152488
-0.12871727 0.08882187 0.11609513 0.14163455 0.1463981 -0.18672688 -0.17976223 0.05269051
0.027879711 0.10025634 0.05436319 -0.17710939 -0.17796363 -0.12057674 -0.19201256 0.11039081
-0.119755976 0.018231556 0.030714653 -0.088392965 0.12072868 -0.13369235 0.001103353 0.09558054
-0.11142925 0.065980546 0.1972282 -0.023973348 0.20684206 0.038109332 0.024722815 -0.044411562
-0.061346002 -0.19560722 -0.16143367 0.14887972 0.034080576 0.15417984 0.15875661 0.08024376
0.18133904 -0.12251971 0.087544516 -0.0058647194 -0.053229444 0.08935107 -0.18608007 -0.043303017
-0.16614679 -0.054432694 -0.114543214 0.09888572 0.14012378 0.11230465 0.096926846 -0.12584132
-0.13308226 -0.028867641 0.19043061 -0.1444968 -0.06639085 0.01089182 0.038993534 -0.017696844
-0.070401214 -0.016543254 -0.053104546 0.07562046 0.18549924 0.20297979 -0.011773115 -0.15282255
0.16856772 0.07362454 0.1478263 -0.06778285 0.17475519 0.16196834 -0.17723492 0.061687756
0.00950907 -0.20333041 0.14646496 -0.03831183 0.1809695 0.12867114 -0.15199347 -0.14655107
-0.13195762 -0.10599888 0.16722086 -0.054512274 -0.08499807 0.20241988 0.18151726 -0.18308833
-0.10996651 -0.1706703 0.0556493 -0.16427873 -0.0038529232 -0.090888135 0.19274995 0.13880946
0.01468776 -0.15984318 -0.0546196 0.0048181945 0.08356602 0.19569172 -0.088596195 0.079620704
-0.063507706 -0.08778337 0.038464084 0.13207358 -0.05301372 0.04222148 -0.15214351 0.027357304
0.086669415 0.2122762 0.042236593 0.094499096 -0.12507533 -0.10952686 -0.08470891 -0.021668462
-0.039867178 0.19542585 0.11598184 -0.1965451 0.09015193 -0.18297489 -0.20056581 -0.19850072
0.10232754 0.118177384 -0.106151514 -0.036996003 0.12578493 0.011525201 -0.004898923 0.03176946
0.003894734 -0.19531527 -0.031581018 0.17288944 0.050553992 0.05218369 0.04564073 0.1584607

weight f4 [1, 32, 1]
00000000: dcd3 953b e43b 463d c0be 0e3e ccc5 07bd
00000010: 77e4 bbbd 993d b5bd 561c 153e 1823 1abe
00000020: 4ab2 f9bc 4649 033e 7e25 d93c 8d91 e53d
00000030: d5da cebc 899b 2a3d ed3c 4c3d a411 03be
00000040: 2d70 f03c ce80 ea3c 8056 06be 5df7 0fbd
00000050: 38ac 4ebd cf6c 8dbd 29d6 c63d 4371 25be
00000060: 18e2 9a3d a5de 61bc 7438 51bd 9f60 fd3c
00000070: e964 c9bd 711e a93d 500f fa3c 1c23 23bd
0.0045723747 0.04839696 0.13939953 -0.03314762 -0.091744356 -0.088496394 0.1456159 -0.1505245
-0.030480523 0.1282092 0.026507135 0.11209402 -0.025250832 0.041652236 0.04986279 -0.12799698
0.029350365 0.028625872 -0.13118935 -0.035148013 -0.05045721 -0.06905519 0.097088166 -0.16156487
0.07562655 -0.013785993 -0.05107923 0.030929862 -0.098337 0.08257759 0.03052488 -0.039828405

weight f4 [1, 32, 1]
00000000: 7668 253e 1a4c 1c3e ff45 4dbd 7436 703d
00000010: 78f5 1bbe 9541 233e fd5f 4d3d 60b7 dcbd
00000020: 2ba0 583d 046a eabd 41e3 16be e6ad 61bd
00000030: eecc c53d 54e2 743d 3ed3 303e 75cf a93d
00000040: 03a9 26be 62bd 0f3e 2f93 fabd 449b cdbd
00000050: 61b9 f4bc 0d81 0dbe daac 5f3d 4bd6 2abe
00000060: 8973 19bd 0f41 ce3d 19f8 df3d 3e89 13be
00000070: a768 0ebe e326 96bc a0e0 3a3d e359 843d
0.1615313 0.15263405 -0.05011558 0.05864568 -0.15230358 0.15942986 0.05014037 -0.107771635
0.052887123 -0.11446002 -0.14735128 -0.055097483 0.09658228 0.059786156 0.17268082 0.082915224
-0.1627541 0.14037088 -0.12235104 -0.1003938 -0.029873552 -0.1381876 0.054608203 -0.16683309
-0.0374637 0.10071003 0.10935993 -0.14407822 -0.13907109 -0.01832909 0.045624375 0.06462457

weight f4 [1, 32, 1]
00000000: 9ea4 b33d 56df 18bd 513f 253e e989 3c3d
00000010: f104 31be ee2c b2bd 083d 1ebe 9691 803c
00000020: 73e4 e3bc b593 ed3c 2e77 21be 69c7 5cbd
00000030: e824 b6bd d83e 073e e7cf 953a abaf 073e
00000040: 6884 1bbe fac4 343d 09cf b43d daf2 b53d
00000050: 62c8 13be 036a 903d 69c7 fa3d 80f3 a2bd
00000060: 4bc8 0ebd 50ad 083e 6d12 a23d d8cc 41bd
00000070: 333e 27be ad57 0bbc 24ab 32be 3738 843c
0.087716326 -0.037322365 0.16137435 0.04602996 -0.17287041 -0.08699976 -0.15452969 0.01569442
-0.027818894 0.029001096 -0.1576812 -0.05390111 -0.08893758 0.13207567 0.0011429758 0.13250606
-0.15187228 0.044133164 0.08828551 0.08884211 -0.14431909 0.0705147 0.12245066 -0.079566
-0.034858983 0.13347363 0.07913671 -0.047314495 -0.16332321 -0.00850479 -0.17448097 0.016140087

bias f4 [32]
00000000: 6f20 44bc 6fa2 b83d 3674 b6bd 69e5 99bd
00000010: 15d1 cbbd d494 bd3c b7f3 c5bd 6287 6e3d
00000020: 0d2d acbd 0014 b93d ad00 da3d fe09 04be
00000030: 7134 0ebe 1d3d c43d 44d5 0dbe 8a55 0abe
00000040: f04f e23c f161 903d a2b7 e4bd d23a 383d
00000050: a44e c23d 7566 85bd c158 063e d4f0 83bd
00000060: ac87 0ebe 5814 c83d 3698 953d f0b0 e93d
00000070: 0cc3 2b3d 5a2f bc3d 6197 13bd 1001 c33d
-0.011970623 0.09015357 -0.08908884 -0.0751446 -0.099519886 0.023142256 -0.096656255 0.05823458
-0.0840703 0.09037018 0.1064466 -0.12894437 -0.13887192 0.09581969 -0.13850886 -0.13509193
0.027626008 0.07049931 -0.11167838 0.04497797 0.09487656 -0.06513683 0.13119794 -0.06442419
-0.13918942 0.09769505 0.073044226 0.11410701 0.041934058 0.09188719 -0.036033038 0.09521687

weight_orig f4 [32, 43, 1]
00000000: 5942 31bc 65ba bc3d fe6e 43bd 2d84 b33d
00000010: f98a edbd 7f2d 183e e692 98bc a4cb dc3d
00000020: 6b06 543d 14ab fe3d 7be3 1b3e 577e 2c3d
00000030: 647c e83d 5a61 9cbc a76d 12be c4b0 163d
00000040: 0683 933d ce77 ddbd 44c7 5bbc b72f cbbd
00000050: 9774 b5bd c726 0dbe 012b 48bd edff d13d
00000060: 14f9 3fbd 9a36 aabd 1f87 5abc b026 9cbd
00000070: 585a a23d 36e6 133e 4001 84bb 43f9 23bd
00000080: faa0 f2bd 3e3d 17be b7d8 91bd 1b11 53bd
00000090: 3e88 02be 7e29 b2bd 569c d7bd 4a89 02bd
000000a0: ef48 863c b18d 06bd 1558 95bd 623f 0dbe
000000b0: 6921 1bbe 7317 9e3d 3db9 623d ef98 8bbd
000000c0: 6e16 e03d 0fa4 c13d f9e5 063e 614e 00be
000000d0: 6165 e83c d8bd 583d 8eef 3cbd 595b 013e
000000e0: b4b3 10be a138 f03d 7b36 db3d 6118 04be
000000f0: 070f aebd 08be 0fbe fe06 b9bd 5708 a03d
00000100: 62d2 47bd c7b7 19bd 326c 5abd bc03 e53b
00000110: 6d5e ae3d c0b3 20bd ca62 07bd 0032 c03d
00000120: 721b 53bc 17ae 51bd 22ce 003d 166e a43d
00000130: 95ef 9ebd d8dd 3dbd 3452 0b3d d4c7 ba3d
00000140: 8e4d e1bd fc60 9d3d e313 8dbc e58f b43d
00000150: 3d90 f1bd ef43 313c 35f5 93bc 527d 803d
00000160: 6bbc 1ebd fda1 10bd 2d83 0c3c 0084 4fbd
00000170: 71f1 cf3d 723e b5bd 7cd2 6abd 4da1 aebd
00000180: 1b43 203e dd9f 983c 8b6f 823d 522a cebd
00000190: cd26 04be d14b 59bc 329a c2bc d7c8 acbc
000001a0: c408 713d b7c3 aa3d e1e7 1d3d f1f8 2ebd
000001b0: 0907 f9bd 53ae 6f3d 5eef f3bd b697 74bc
000001c0: fc2f 75b9 8b3e a1bd 3e2d b53d 050f ce3d
000001d0: 6ab0 993d 25b3 b53d fc0b 0cbe acb7 f33d
000001e0: 5ade b7bd 3ad6 08bd cfb8 073d 86bd b83d
000001f0: 8fbc 8ebd a949 08be 1611 843d 0e4e d23c
00000200: f1b7 68bc 921f fbbd d514 f83d cedd cbbd
00000210: 2930 b9bd f9fa 223d 258e 013d f535 49bd
00000220: 4f8d a2bc a56a 8abc e504 6fbd df4f 3d3d
00000230: 6812 9dbd b8ca 0cbe 5bd5 203c 0cb1 c1bd
00000240: f83c 61bd dd6c 0cbc 824b 0ebe ebed 99bd
00000250: c875 3e3d aac8 c1bd e785 bebc 90e4 36bd
00000260: 40a6 c6bd 7a72 893d cfbc 44bd 0666 693d
00000270: e445 f3bd 6b94 00bd dd26 a33d 52f7 80bb
00000280: f56c 093e e38a 72bd 3b63 143e ee9a 09be
00000290: 74c5 693d 7d63 e2bd 5a42 17be b87c 483b
000002a0: 4ffc ffbd a9ba 7d3d e0b6 133d 840f d13d
000002b0: d32b 073e 3989 d53d e26f e639 1d11 0bbd
000002c0: 7c55 0bbc 064b 203d 36b9 10be 58bf 593d
000002d0: 329d 003e 3677 173d ccac eabd 01be 2e3c
000002e0: 51ed 81bd 4944 cc3c 7fb8 483d 7497 12be
000002f0: 2bad 8dbd def8 f43d f761 c2bd d478 fc3b
00000300: 925d 59bb 4e00 703d 28d4 84bd d33f 043e
00000310: 4424 e7bd 520d f33d 43d2 ac3d b925 023e
00000320: b1d0 62bd 92b0 d2bd e115 c73c 51fb 263e
00000330: 36f8 8d3d 8fe8 08be 8de9 7abc 930b 82bd
00000340: 4ed0 ca3d 1063 e13d 7fcf 2cbd baa9 02be
00000350: b0c9 05be 8e3a 753d 32b4 c6bc 84e6 bc3d
00000360: 9085 e4bc 23d6 c53d 9752 8fbb b3ef 423d
00000370: ea54 d9bc 646a 56bd f6d2 853d 6477 72bd
00000380: 97b7 9fbd ed82 fd3d c061 cbbd 0b2b fb3d
00000390: db89 0c3b 65c4 123e fbab e83d 98c1 16be
000003a0: 6634 fe3b 010a 8ebd 6301 cb3d d3fe 8cba
000003b0: 2962 983d e3fd b93b 92bb a33d d503 cbbc
000003c0: 7e5e fd3b dc3c a93d 8885 dd3d 116b ff3c
000003d0: 72ce 9abd ff75 cf3b 6039 90bd 0207 abbd
000003e0: acba 8abd 61cd ef3d cb1d d23d 29d1 953b
000003f0: dc1b 0d3e 1e1f 893d c7d2 ae3c b313 50bd
-0.010819041 0.092152394 -0.047713272 0.08765445 -0.115987726 0.14861105 -0.018624734 0.10781029
0.051763933 0.12434974 0.15223496 0.042112675 0.11351851 -0.01908939 -0.14299642 0.03678967
0.07202725 -0.108138666 -0.013414208 -0.0992121 -0.088601284 -0.13784324 -0.048869137 0.10253892
-0.0468684 -0.08311196 -0.013337879 -0.076245666 0.07927388 0.14443287 -0.0040284693 -0.040032636
-0.1184711 -0.14769456 -0.07121413 -0.051529985 -0.12747285 -0.0869932 -0.105278656 -0.03186921
0.0163922 -0.03284997 -0.07292191 -0.1379371 -0.15149464 0.07719316 0.05535244 -0.06816279
0.10941778 0.0945512 0.13173665 -0.12529899 0.028368654 0.052915424 -0.046126895 0.12632503
-0.14131051 0.11729551 0.10703751 -0.12899925 -0.0849896 -0.14037335 -0.09034537 0.07814091
-0.04878462 -0.03752878 -0.05332584 0.0069889706 0.08514104 -0.039233923 -0.033053197 0.09384537
-0.012884961 -0.051191416 0.031446584 0.0802881 -0.077605404 -0.046354145 0.034013942 0.091201454
-0.110011205 0.07684514 -0.017221397 0.08816508 -0.117950894 0.010819419 -0.01806126 0.06273903
-0.038753908 -0.035310734 0.008576197 -0.050662994 0.10153473 -0.08849801 -0.05732964 -0.085268594
0.15650599 0.018630916 0.063689314 -0.10066666 -0.12905426 -0.013262705 -0.023755167 -0.021091862
0.05884625 0.08338111 0.038551215 -0.042717878 -0.12159545 0.058515858 -0.1191089 -0.014928749
-0.00023382896 -0.07873257 0.0884652 0.100614585 0.075043514 0.0887206 -0.13676447 0.11900267
-0.08977957 -0.033407427 0.03313523 0.09020524 -0.069695584 -0.13309349 0.064485714 0.025671985
-0.014204011 -0.12261881 0.121133484 -0.09954415 -0.09042389 0.039790127 0.0316297 -0.049123723
-0.019842772 -0.016896555 -0.058354277 0.04621875 -0.07669526 -0.13749206 0.009816493 -0.09457597
-0.054989785 -0.008570877 -0.13895991 -0.075160824 0.046499044 -0.09462102 -0.023257209 -0.044651568
-0.096996784 0.06711288 -0.048031624 0.056982063 -0.11878565 -0.031391542 0.07966397 -0.003935733
0.1342047 -0.059214484 0.14490978 -0.13438007 0.05707307 -0.11054132 -0.14771405 0.0030591916
-0.12499296 0.06194559 0.036063075 0.102080375 0.13200311 0.10426564 0.00043952378 -0.033951867
-0.008504268 0.039134048 -0.14133152 0.053160995 0.12559965 0.036978923 -0.1145874 0.010665418
-0.06344093 0.024934905 0.049004074 -0.14315587 -0.06917795 0.1196153 -0.094913416 0.0077048335
-0.0033167345 0.05859404 -0.06485778 0.12914972 -0.11286214 0.11867775 0.08438542 0.12709703
-0.055374805 -0.10287584 0.024302425 0.16306807 0.06932108 -0.13369964 -0.015314472 -0.06349864
0.09903012 0.11005223 -0.04219007 -0.12760058 -0.13065219 0.059870295 -0.024255846 0.09223655
-0.027895719 0.09659984 -0.004373859 0.047591876 -0.026529748 -0.052347556 0.06534378 -0.05919589
-0.07798689 0.12378488 -0.09930754 0.12264069 0.0021444473 0.14332731 0.11360928 -0.14722288
0.007757711 -0.06935502 0.09912374 -0.0010757096 0.074405976 0.0056760176 0.079947606 -0.0247821
0.0077322116 0.08263561 0.10816485 0.031178983 -0.075589076 0.006331205 -0.070421934 -0.08350946
-0.06773886 0.11709095 0.10259589 0.004572053 0.13780159 0.06695388 0.02134074 -0.050800037

weight_u f4 [32]
00000000: cd96 8f3e 300c 593c 2098 373e 32c7 b13e
00000010: a4b4 98be d387 63be 9eca ffbd 729c 8d3e
00000020: 05c4 6abd 7f4b 10be e0f9 633e 5ba7 2cbe
00000030: 8dfd 8abd 1810 f03d ae5d 7f3e 3100 ee3c
00000040: af36 1e3e 6f12 383d 9b43 19be 67a8 d6bd
00000050: 6abb 8f3e c524 413e 4a87 ff3c 71ff eb3d
00000060: 4fb4 343e f009 1d3d 7a33 623c 8be1 c63d
00000070: 2f94 f23d ac8c 003d b1ab 08be 72c2 9bbe
0.2804474 0.013247535 0.17929125 0.34722286 -0.29825318 -0.22219782 -0.12489818 0.2765842
-0.057315845 -0.140913 0.22263288 -0.16860716 -0.06786642 0.1172182 0.2493808 0.029052826
0.15450548 0.044939455 -0.14967196 -0.10481339 0.28072673 0.18861683 0.03119244 0.11523331
0.17646907 0.038339555 0.013806218 0.09710988 0.1184467 0.031384155 -0.13346745 -0.30421788

weight_v f4 [43]
00000000: 333c a3be 7f2a 463e 92f5 3abe d8f0 863c
00000010: 95d3 3a3d 151d 5f3c 5ae6 053d 0d15 913d
00000020: c293 67bd 8b97 293e bba7 e83d c76f 653e
00000030: 7a1a e2bd 5801 0bbe ebd6 71be a4d0 3c3e
00000040: 3fae 0bbd 70ee 8abe d537 273d 7d31 fe3c
00000050: d6d1 acbd c74e 05be bb67 c0bd 4982 b2bd
00000060: 3235 153e ad4b 24be dc30 d83b 751b 9ebe
00000070: 291a 453e cbf6 a03e e54a c93d 2485 b23d
00000080: fd80 55bc 4252 4c3e 3138 05bd c8e5 043c
00000090: 0d08 b1be e330 07be 6e01 2d3d 8139 22bd
000000a0: b1ba 12bc e154 ca3d 7431 23bc
-0.31881866 0.19352148 -0.1825774 0.016472265 0.045611937 0.013617774 0.032690383 0.07084093
-0.056537397 0.16561715 0.11360117 0.22405921 -0.11040206 -0.13574731 -0.23617141 0.18438965
-0.03410172 -0.27135038 0.04082473 0.031029457 -0.084384605 -0.13018332 -0.09394785 -0.08716256
0.14571074 -0.16044493 0.0065976214 -0.30880323 0.1924826 0.31438288 0.09828738 0.08716801
-0.0130312415 0.19953254 -0.03252429 0.008111425 -0.34576455 -0.13202243 0.04223769 -0.03960562
-0.0089556435 0.098794706 -0.009960521

weight f4 [32, 43, 1]
00000000: aca8 3bbc 4dbd c73d eee1 4ebd 71fa bd3d
00000010: ce68 fbbd a40d 213e 7978 a1bc 26b0 e93d
00000020: 896c 603d 32c6 063e f2f7 243e 0c8e 363d
00000030: 120e f63d 147f a5bc 46f9 1abe 8f7c 1f3d
00000040: 8821 9c3d 186a eabd 04ad 68bc 7c09 d7bd
00000050: 940d c0bd 5265 15be 4cdf 53bd 8e42 de3d
00000060: 912d 4bbd f127 b4bd 525c 67bc 4245 a5bd
00000070: 0cd0 ab3d b988 1c3e 50a2 8bbb d290 2dbd
00000080: 2c64 00be 7c0e 20be 775c 9abd da58 5fbd
00000090: 1d29 0abe e282 bcbd d428 e4bd 2442 0abd
000000a0: 1927 8e3c 6868 0ebd f210 9ebd d17d 15be
000000b0: e92f 24be 744e a73d fdf7 6f3d 12c0 93bd
000000c0: ef25 ed3d 3cf0 cc3d 86c4 0e3e c8cc 07be
000000d0: e5ea f53c 3862 653d 5ff6 47bd 4fe7 083e
000000e0: 8726 19be 053d fe3d bd01 e83d 8bcf 0bbe
000000f0: 3238 b8bd 0b22 18be 78d9 c3bd 595f a93d
00000100: c17b 53bd 70b1 22bd ea28 67bd 5f5d f23b
00000110: a288 b83d 7316 2abd 0f49 0fbd b667 cb3d
00000120: b96a 5fbc b5ea 5dbd 0751 083d 6907 ae3d
00000130: a331 a8bd 43f1 48bd 9679 133d 1db1 c53d
00000140: 4372 eebd 818f a63d f240 95bc 9519 bf3d
00000150: 69a8 ffbd 6797 3b3c 059d 9cbc 0500 883d
00000160: 6b01 28bd 430e 19bd 7bbe 143c 3ba2 5bbd
00000170: 7613 dc3d d7d2 bfbd 3782 78bd efd1 b8bd
00000180: 969e 293e df89 a13c 7b0c 8a3d 8d30 dabd
00000190: e2dc 0bbe 17ed 65bc 78f0 cdbc dfe7 b6bc
000001a0: dc19 7f3d c0bb b43d 0a28 273d 9430 39bd
000001b0: 2ec9 03be d7ab 7d3d bf15 01be fb69 81bc
000001c0: 657e 82b9 f6a8 aabd 48c4 bf3d 8017 da3d
000001d0: b2ab a23d ec4f c03d d438 14be 9ffb 003e
000001e0: 3899 c2bd b7d7 10bd 85a9 0f3d 1389 c33d
000001f0: c00d 97bd 9d40 10be 8bc5 8b3d af8e de3c
00000200: 624c 76bc 43e4 04be 8049 033e 60c1 d7bd
00000210: b2fa c3bd c680 2c3d 2b28 093d 05f7 54bd
00000220: 790a acbc 4468 92bc 14f6 7cbd 7564 483d
00000230: 733b a6bd d602 15be b14a 2a3c a2fd ccbd
00000240: f352 6ebd 75b1 14bc 7799 16be 5ae8 a2bd
00000250: c295 493d 9412 cdbd e39f c9bc 6086 41bd
00000260: cb3d d2bd 037f 913d 1234 50bd fc16 773d
00000270: 9ebc 00be bb0e 08bd 42ae ac3d 63fa 87bb
00000280: 3b73 113e e95a 80bd c811 1d3e 4aa8 11be
00000290: a46e 773d d99b efbd 201a 20be d0da 533b
000002a0: d077 07be 824b 863d 0c54 1c3d dc44 dd3d
000002b0: df0f 0f3e 17ff e13d 2be8 f339 7b37 13bd
000002c0: e76b 13bc 1dac 293d a92a 19be 8773 663d
000002d0: fb1e 083e 7754 203d cc60 f8bd cce1 383c
000002e0: b183 89bd 8f31 d83c de77 543d e925 1bbe
000002f0: 0eef 95bd 99a2 013e 90ba cdbd ecd6 053c
00000300: 3a51 66bb 6401 7e3d a992 8cbd d0f6 0b3e
00000310: 91a3 f4bd 4d9e 003e 8be9 b63d 94be 093e
00000320: 030d 70bd f6fd debd d4b6 d23c 3bba 303e
00000330: f93f 963d cce8 10be 7ad7 84bc a1a1 89bd
00000340: 1da5 d63d a38b ee3d 6ccc 36bd 9c4e 0abe
00000350: 1d98 0dbe 49c5 813d 674e d2bc 46ef c73d
00000360: ebd5 f1bc 1965 d13d 5c8d 97bb 1c53 4e3d
00000370: baff e5bc 85ec 62bd a9a3 8d3d 0d4e 80bd
00000380: 2d09 a9bd f527 063e a940 d7bd 4ceb 043e
00000390: e3fe 143b 4f56 1b3e ba41 f63d 548d 1fbe
000003a0: 5894 063c 7a53 96bd b1da d63d 0cd9 94ba
000003b0: 454b a13d abf2 c43b c74d ad3d 7fda d6bc
000003c0: 0522 063c 491f b33d 3575 ea3d 7d2c 073d
000003d0: 12d7 a3bd 63a6 db3b eea2 98bd 6201 b5bd
000003e0: afd5 92bd 9bce fd3d 4d61 de3d fe98 9e3b
000003f0: 2f59 153e 6d1e 913d f40c b93c a534 5cbd
-0.011453789 0.09752903 -0.050508432 0.092762835 -0.12275849 0.1572786 -0.019710766 0.11410551
0.054791007 0.13161543 0.16110209 0.04456906 0.120144024 -0.020202197 -0.15134153 0.038937148
0.07623583 -0.11446017 -0.014201406 -0.10499856 -0.0937759 -0.14589432 -0.051726624 0.10852538
-0.049604002 -0.08796681 -0.014121132 -0.080698505 0.08389291 0.1528653 -0.0042612925 -0.04237444
-0.12538213 -0.15630525 -0.075371675 -0.054528095 -0.13492246 -0.092046514 -0.111406 -0.033754483
0.017352628 -0.03476754 -0.07718076 -0.14598776 -0.16033901 0.081692606 0.05858611 -0.07214369
0.11579501 0.100067586 0.13942155 -0.13261712 0.030019233 0.05600187 -0.048818942 0.13369487
-0.14956103 0.12413982 0.113284566 -0.1365339 -0.089950934 -0.14856736 -0.09562963 0.08270139
-0.051631693 -0.03972 -0.056435503 0.0073963846 0.09010436 -0.041525315 -0.034981783 0.09931891
-0.0136362845 -0.054178912 0.0332804 0.08497507 -0.082125925 -0.04905821 0.036004625 0.09652922
-0.116428874 0.0813284 -0.018219445 0.09331051 -0.124832936 0.011449671 -0.019117841 0.06640629
-0.041016977 -0.037367117 0.009078617 -0.053621512 0.107458994 -0.093663864 -0.060671058 -0.09024417
0.16564402 0.019719062 0.06740662 -0.106537916 -0.13658479 -0.014033577 -0.025139078 -0.022327362
0.06228052 0.08824873 0.04080967 -0.045212343 -0.12869713 0.061931457 -0.12605952 -0.015797606
-0.00024889703 -0.08333008 0.093636096 0.106490135 0.079429045 0.09390244 -0.14474803 0.12595986
-0.095018804 -0.03536197 0.035073776 0.09547629 -0.073756695 -0.14087148 0.06824788 0.027167646
-0.0150328595 -0.129777 0.12821007 -0.1053493 -0.09569301 0.042114995 0.033485573 -0.05199339
-0.021001088 -0.017871983 -0.061758116 0.04892393 -0.08116808 -0.14551863 0.010393784 -0.10009314
-0.058184575 -0.009075512 -0.1470698 -0.07954474 0.049215086 -0.10013309 -0.024612373 -0.04724729
-0.10265692 0.07104304 -0.050830908 0.060324654 -0.12571952 -0.033217173 0.084316745 -0.0041497215
0.14204113 -0.0626734 0.15338814 -0.14224353 0.06040825 -0.116996475 -0.15634966 0.0032326467
-0.13229299 0.06557371 0.03816609 0.108041495 0.13970898 0.11034983 0.0004652155 -0.035941582
-0.008997894 0.041423906 -0.1495768 0.05626252 0.13293068 0.039143052 -0.121278375 0.011284303
-0.06714571 0.026390819 0.051872127 -0.1515118 -0.07320987 0.12659682 -0.100453496 0.008168917
-0.003514363 0.062013045 -0.06863911 0.1366837 -0.1194526 0.12560387 0.089312635 0.13451606
-0.05860616 -0.10888283 0.025721945 0.17258541 0.073364206 -0.14151305 -0.016216028 -0.067202814
0.104807116 0.11647727 -0.044628546 -0.1350655 -0.13827558 0.06336457 -0.02567215 0.09762435
-0.02952095 0.10224361 -0.0046250056 0.050372228 -0.028076041 -0.055401344 0.06915981 -0.06264887
-0.08253703 0.1310118 -0.1051038 0.12980384 0.0022734932 0.15169643 0.12024255 -0.15581256
0.008214079 -0.07340141 0.10490931 -0.0011356189 0.07875685 0.0060103736 0.084621005 -0.026227234
0.008186822 0.087462015 0.11448137 0.03300141 -0.08000006 0.0067031845 -0.07452951 -0.088381544
-0.07169663 0.123929225 0.108584024 0.0048400154 0.14584802 0.070858814 0.022589184 -0.053761143

weight f4 [1, 32, 1]
00000000: 3be6 29be b1b3 0dbe b616 ebbd e294 2f3e
00000010: 88ca 66bd 5347 063e e28b e23d 678d c23d
00000020: c033 34be 56de b93d 019e efbb b16a dabd
00000030: 4d41 943d 7a52 7e3d a578 013e b9d5 87bd
00000040: b3e5 8dbc 86e4 f03b 0aa0 3f3d 7c1b fe3d
00000050: 0cfe c13d b4bc 1cbe dcbb e83b edaa 933d
00000060: b5e8 aebb 2cd6 bebd ea28 19be 8d74 77bd
00000070: f43c 4fbb 1101 023e 3fc4 10be b083 a63d
-0.16591732 -0.13838078 -0.11478941 0.17146638 -0.056345493 0.13113146 0.11061837 0.094996266
-0.17597866 0.0907561 -0.0073125367 -0.10664881 0.07239018 0.062090375 0.12643678 -0.06632561
-0.017321443 0.007351461 0.046783485 0.12407586 0.09472284 -0.1530636 0.0071024727 0.07210336
-0.0053377994 -0.09318194 -0.14957014 -0.060413886 -0.0031622024 0.1269572 -0.14137362 0.08130586

weight f4 [1, 32, 1]
00000000: 4604 a0bd c4ba 1b3e 987b 113e 7dfb 2dbb
00000010: a290 a93d ef2d 18be b5ef 293e 69c5 17be
00000020: 3fe8 2e3e 97a6 8b3d da93 833d 262e 1ebe
00000030: afec 73bc 77fa d23b 03b4 a4bd 06fc 103d
00000040: 6675 8fbd 84a6 c83d 933a 9dbb 98f4 74bd
00000050: c5b8 5e3d 0007 d53c 34f3 773d 2afa 933d
00000060: 6d91 f93d 0c92 b23d 0511 8c3d 5a01 19bc
00000070: b22c 44bd acec cbbc 7246 133e e0fa 913d
-0.07813315 0.15207964 0.14207304 -0.0026547604 0.0827954 -0.14861272 0.16595347 -0.148214
0.17080782 0.06818884 0.06424685 -0.15447292 -0.014887973 0.006438549 -0.08042147 0.0353966
-0.07004814 0.09797385 -0.0047982424 -0.059803575 0.05437543 0.026004314 0.06053467 0.072254494
0.12185941 0.087192625 0.06839184 -0.009338701 -0.047894187 -0.024893127 0.14382342 0.07127929

weight f4 [1, 32, 1]
00000000: f8cd e93d e8c9 03be 8122 06be 7cc2 d4bd
00000010: d76c 143e 309f 05bc 3cad a1bd 506e 11bd
00000020: 7c5f b23d d151 353d e314 023d ac9d 7fbc
00000030: 6390 d13d 369b c7bd 7a18 b23d 3510 033c
00000040: 7030 3abe 22eb 243c da14 243e 56ba 803d
00000050: f079 8a3b 10bc 183e f098 adbd 3927 eabd
00000060: 4544 f53d 3fa9 1b3d 9752 833d 55ea b3bd
00000070: 9265 e33d 0101 12be 387e d5bd 64ce cf3c
0.114162385 -0.1286999 -0.130991 -0.103886575 0.14494644 -0.008155629 -0.0789437 -0.035505593
0.087096184 0.04426748 0.0317582 -0.015601557 0.10232618 -0.09746401 0.08696075 0.0079994695
-0.1818254 0.010065826 0.16023579 0.06285541 0.004225962 0.1491549 -0.08476436 -0.114332624
0.11975912 0.038003203 0.06412237 -0.0878493 0.111033574 -0.14258195 -0.10424465 0.02536697

bias f4 [32]
00000000: 47cd f8bd 2440 cabc 340c 173d 3223 ffbd
00000010: 62d5 513c c7e0 9bbd df6e e2bd 6610 013e
00000020: 0c0f 073e 637b 19be faa6 90bd 5d98 193d
00000030: 89f4 bd3c 7d14 ee3c ed6a 04be 0e02 c7bd
00000040: 79a3 05be 0831 9d3c d03f ee3c 28b3 f8bc
00000050: ae28 8f3c 20d1 56bd 3fd8 bd3d 718e e1bd
00000060: 862a 10be 4837 2b3d 472e aabd 2b44 fa3d
00000070: a274 9bbd af93 59bd 739b 3f3c 8fb1 bc3d
-0.121485285 -0.024688788 0.036876872 -0.12457885 0.012807222 -0.07611232 -0.11056303 0.12603912
0.13189334 -0.14988475 -0.07063098 0.03749882 0.023187893 0.029062504 -0.12931414 -0.09717189
-0.13050641 0.019188419 0.029083163 -0.030358866 0.017475452 -0.05244553 0.09269761 -0.11013497
-0.14078721 0.041800767 -0.08309608 0.12220033 -0.07590605 -0.053119358 0.011694777 0.09213554

weight_orig f4 [32, 43, 1]
00000000: f9fd 0fbd f4a8 8e3d 35da b0bd 0fb4 df3d
00000010: fb7a 9c3c 06ef 07bd f1ed a33d 437e 073d
00000020: 9ffc b4bb 3fd4 923c 5235 99bd 444d 3fbc
00000030: 5b6a e9bb 5029 f6bd f5c9 63bd 95d1 8cbc
00000040: a524 003e 52fb c7bd 6b71 233d 5615 f03c
00000050: ef78 e9bd c33d d6bd 381b 163d 4955 4ebd
00000060: 37ed ed3d 1f94 12bd 6e3d 40bd dee3 e33d
00000070: 6667 393d 9c0d 98bd 38bf 823d e00b c63d
00000080: 0c2f e3bd 69fa 89bd 29f5 00be a816 673d
00000090: f24b 11bd 98aa 623d 14e7 de3d c3af 9dbd
000000a0: 2f3b b13c 3a90 a53d ae7c 133e ac4d 20bd
000000b0: 4839 f13d 5b93 c83d 4adf cb3d 1cea eb3d
000000c0: 8550 883c 6c47 f3bc 4be5 06be 4d09 74bd
000000d0: 797b 343d bec5 1c3e 19f9 6b3c 7eab 83bd
000000e0: e6d3 e53d a1f2 433c bbf3 9fbd dcf3 bf3d
000000f0: 8fb4 b93d cc74 313d 8344 00be 4eb8 e23d
00000100: a8db c0bd 6926 1d3d 364d cd3d 916a c1bd
00000110: bc5e 15be 4438 1d3d 52aa c83c 5945 91bd
00000120: e589 d3bd b238 e23d b817 e83c ec9b ef3d
00000130: f557 f3bd 1a01 d0bd 7d3f e5bd 0a4e 73bc
00000140: e99b 41bd 7a1f 243d 2a52 1e3d 92e5 1bbe
00000150: e0d5 ba3c 7477 7fbd 076c 013e 010d 853d
00000160: fb57 cc3d 0f07 f53d 494c dfbd f08b d03d
00000170: eee8 15be 069e d3bd cfb3 1ebe 26b9 cfbb
00000180: 2b49 82bd 0798 19be 8440 e23d 162d b53d
00000190: 7bb5 d5bd 3d8a c6bd 4da3 743d cc68 d0bd
000001a0: 922b b2bd ef1b e23d f325 eebd 80db 83bd
000001b0: 18eb d8bd 72f4 eebd 07ef c43d 1aef 07be
000001c0: 06f2 ff3d 6741 303d 12d9 e53d 4d35 92bd
000001d0: da3d bd3d 6e9e d1bd 71e6 d8bd 6ab5 5dbd
000001e0: a3a7 3f3d d390 8cbd 1252 143c 7a50 e23d
000001f0: 53c7 f7bd ee2e 293c 5272 cfbd 7451 e63d
00000200: 0ae7 8abc 1f66 8b3d f499 f33d fb6f 9fbd
00000210: 2d6d 3cbd 6279 eabc f0dc 013d 87f1 eb3d
00000220: 73bb c63c abfa 6ebd 6ba9 38bd a728 223d
00000230: afea 06be d3a3 12be ee7f b3bb 6aa4 cb3d
00000240: 2279 423d c2c4 a53c 58eb 12be 2c16 d3bd
00000250: 97e7 b0bd 8330 98bc 580c 093d 09f0 d23c
00000260: db52 0e3e 9d06 843d e75d 993d 405f 0c3e
00000270: 263c 733d 5b42 753d e3d7 1d3d 448c 0abe
00000280: c6a4 10bd 8305 febc bfd1 9c3d b8c2 6f3d
00000290: c6e1 003d c3c0 c5ba fcf4 a03b 56c6 eabd
000002a0: c2e0 db3d 78da c1bd 2806 60bd bd43 333c
000002b0: 7095 95bd aa47 84bd d5fb bebd 9741 483b
000002c0: 856e 59bd c9c6 a23c 6bcc a13d dcfc a53d
000002d0: 09d6 103e 5075 03be 317c dbbd 1be0 003e
000002e0: 126b 0c3e 77c7 0dbe 8ef5 14be 31b3 e7bd
000002f0: 7dd7 b8bd 647e 65bd a0c3 24bd bb20 8dbd
00000300: 2d25 8bbd 4589 493d deea f6bd 68bb 0abe
00000310: 5353 0c3e 5ae3 a03d 3e1e b83c 9d25 09be
00000320: 10b6 103e af07 173e 71f7 c3bd afe5 bdbd
00000330: faa2 f63d 6f70 0a3e d351 f63d d70b 103e
00000340: 2233 10be a266 013e f79e c23d 48a0 c93d
00000350: 2e40 8abd 3ace b6bd dc1f 30bc bbd7 2dbd
00000360: 7cc7 533b bdbf a03d a789 9cbd 92b1 463d
00000370: 98f0 623d 392e 42bd aeb4 913d 4ad3 9d3d
00000380: 020d 95bd c060 2d3c 3483 823d 794e 6d3d
00000390: 9ac8 81bd 0eaf ea3d d3bb c33d b64f 02be
000003a0: 6b8a 0f3e d2de e4bd 423a 053e 8994 16bb
000003b0: 6288 fa3d bdb7 9abc 61e2 86bc 843a 973d
000003c0: 7288 1b3e b63b 493d 8b07 d3bd 9a96 f9bd
000003d0: e2f9 823d da98 93bd a5bd 0a3e 975a b63d
000003e0: 350b cb3d 7773 09be 545d b7bc c3d9 a5bc
000003f0: f7f1 5f3d c57e dabd a574 a23d c148 643d
-0.035154317 0.06965819 -0.0863537 0.10923015 0.01910161 -0.033186935 0.08004368 0.033079397
-0.005523279 0.017923472 -0.07480873 -0.011676136 -0.0071232743 -0.120195985 -0.055612523 -0.01718978
0.12513979 -0.097647324 0.039903086 0.029307049 -0.114000194 -0.10460999 0.03664705 -0.050374303
0.11617511 -0.03578579 -0.046933584 0.111274466 0.045264624 -0.07424471 0.06384128 0.09670234
-0.11092958 -0.06737215 -0.12593521 0.05641809 -0.035472818 0.055338472 0.108839184 -0.076995395
0.021634666 0.0808415 0.1440303 -0.039136574 0.11778504 0.09793731 0.099546984 0.11519262
0.016639957 -0.029697143 -0.13173406 -0.059579182 0.044063065 0.15309808 0.014402651 -0.06429194
0.11222057 0.011959703 -0.0781016 0.09372684 0.09067642 0.043324277 -0.12526135 0.110703096
-0.09416896 0.03836671 0.100244924 -0.09444154 -0.1458692 0.038383737 0.024495278 -0.07093305
-0.10329036 0.1104597 0.028331622 0.116996616 -0.11882011 -0.1015646 -0.1119375 -0.014850149
-0.047267828 0.04006908 0.038652577 -0.15224293 0.022807062 -0.06236978 0.12638865 0.06496621
0.099777184 0.11964237 -0.10903222 0.10182941 -0.14639637 -0.10332875 -0.15498279 -0.00633921
-0.06361612 -0.149994 0.11047462 0.0884649 -0.10435005 -0.096943356 0.05972605 -0.101762384
-0.08699717 0.11040484 -0.11628332 -0.06438351 -0.105917156 -0.11667718 0.09615903 -0.13274804
0.12497334 0.043031123 0.112230435 -0.071390726 0.09240313 -0.10235296 -0.10590828 -0.054128088
0.04679073 -0.068635605 0.00905277 0.11050506 -0.12098565 0.01032613 -0.10129227 0.11246005
-0.016955871 0.068065874 0.118945986 -0.077850305 -0.046002556 -0.028622333 0.031704843 0.11520677
0.024259305 -0.058344524 -0.045083445 0.03958955 -0.13175462 -0.14320306 -0.005477897 0.09943469
0.047478803 0.020235423 -0.14347589 -0.10306963 -0.08637922 -0.01857782 0.033459038 0.025749223
0.13898794 0.06446574 0.074886136 0.1370821 0.059383534 0.059877735 0.038535964 -0.1353007
-0.03531339 -0.031008488 0.076571934 0.058535308 0.031465314 -0.0015087355 0.004912017 -0.11463611
0.107362285 -0.09465498 -0.05469337 0.010941443 -0.073038936 -0.06458981 -0.09325377 0.0030556673
-0.053083915 0.019870179 0.07900318 0.0810487 0.14144148 -0.1283772 -0.10717047 0.1258549
0.13712719 -0.13845621 -0.14546797 -0.11313475 -0.09025476 -0.05602874 -0.040225625 -0.068910085
-0.067942 0.049203176 -0.12056516 -0.13548052 0.1370366 0.07855864 0.022475358 -0.13393255
0.14131951 0.14749025 -0.0956868 -0.09272324 0.12042804 0.13519453 0.120273255 0.14067017
-0.14082006 0.12636808 0.095029764 0.09845024 -0.067505226 -0.08926053 -0.010749783 -0.042442065
0.0032314947 0.07849071 -0.076434426 0.048509188 0.05540523 -0.047407363 0.0711454 0.07706316
-0.07277872 0.010582149 0.06372681 0.057936165 -0.0633709 0.1145917 0.09557309 -0.1272572
0.14017646 -0.11175312 0.13010505 -0.0022976717 0.12233044 -0.018886441 -0.016465368 0.07384208
0.15188769 0.04912921 -0.10304173 -0.12186928 0.063953176 -0.072068885 0.13548906 0.089039974
0.09914247 -0.13422953 -0.02238337 -0.020245438 0.054674115 -0.106687106 0.079324044 0.055733446

weight_u f4 [32]
00000000: 4a71 58be 31b6 933e 5fb7 20be 5ea0 51be
00000010: f696 a1bd e3ed e43d 9761 713e 5009 a8bd
00000020: 00c1 41be 81ed 833d e945 bf3c b28e a4be
00000030: 3619 903b 38dd 3a3e ee82 0abd c576 353e
00000040: bc7e 503e e8d4 63be 0acf 033e 208f c5bd
00000050: 7b6c 4d3d 2bcb b23e 653a d5bd 3211 3b3d
00000060: 00f6 09be 2344 2e3e 1479 103e 7cae 0e3e
00000070: 2869 afbe 8565 c73d dd64 4f3e be1d a33d
-0.21136966 0.2884994 -0.1569495 -0.20471331 -0.07890122 0.11178186 0.23572384 -0.08204901
-0.1892128 0.06441785 0.023348765 -0.32140118 0.0043975366 0.18248451 -0.03381627 0.17721088
0.20360845 -0.22249186 0.12871948 -0.096464396 0.050152283 0.3492063 -0.104115285 0.045670696
-0.13472748 0.1701818 0.14108688 0.13933748 -0.34259915 0.0973616 0.2025332 0.07964657

weight_v f4 [43]
00000000: d6c1 e23d 908b 00bc 3768 8a3e de67 a0bc
00000010: 4641 5d3e 07a6 a83d 2aaa 86be 754a 243d
00000020: c125 b63d d8da 133e a651 b63d f9b5 7f3e
00000030: 2256 29bd 1e67 4f3d e56e 28bd 46d8 953c
00000040: 9fc5 b9bd 0a1b ab3e 3aef db3d d15a 1b3d
00000050: 797a ac3e f0fd 18be 5044 e93d 06a1 8dbd
00000060: 4df9 62be 9f96 bdbd 0ecd 8c3d fefc 41be
00000070: c921 d4bc be8b 59ba 5676 afbc e05e 40bc
00000080: 991d 823e ca7d 7dbd e735 49be 0a61 4abe
00000090: 0ad3 8fbd 20a8 ddbc 876c 263e faf1 223e
000000a0: 3328 9dbd ea4b 92be 9157 b2bd
0.110721275 -0.007845774 0.27032635 -0.019580778 0.21606931 0.08234792 -0.263017 0.04011007
0.0889392 0.14438951 0.08902292 0.24971761 -0.04134191 0.05063545 -0.041121382 0.018291604
-0.09070896 0.33419067 0.10738988 0.037928406 0.3368719 -0.1494062 0.11389983 -0.069154784
-0.22165413 -0.09257244 0.068750486 -0.18944165 -0.025895016 -0.0008298716 -0.021418732 -0.01174137
0.25413206 -0.06188754 -0.19649468 -0.1976358 -0.070226744 -0.027057707 0.16252337 0.15912619
-0.07673683 -0.28573543 -0.08708108

weight f4 [32, 43, 1]
00000000: 8d7f 14bd 9329 933d dc6c b6bd b5c6 e63d
00000010: 9d6a a13c 2e2c 0cbd 0719 a93d 07c2 0b3d
00000020: c85c babb cd80 973c 100a 9ebd e754 45bc
00000030: cbb3 f0bb 3feb fdbd e7f7 6abd 8b2a 91bc
00000040: 1730 043e cc46 cebd 1a98 283d c4c0 f73c
00000050: 66d3 f0bd 2cfe dcbd 05d4 1a3d c7ce 54bd
00000060: f16c f53d f02a 17bd d94d 46bd a913 eb3d
00000070: 0d42 3f3d add5 9cbd 35e2 863d 5d4c cc3d
00000080: ca5d eabd bf54 8ebd cb08 05be 9263 6e3d
00000090: 20e5 15bd 65d7 693d 2aef e53d 76a8 a2bd
000000a0: f4dc b63c b0ce aa3d a723 183e 9457 25bd
000000b0: 20d5 f83d 86e6 ce3d ff4d d23d cf5b f33d
000000c0: ed9d 8c3c 6ef3 fabc 9f25 0bbe e4b5 7bbd
000000d0: 2e30 3a3d 44b7 213e e26d 733c 6ad2 87bd
000000e0: dd13 ed3d fd1e 4a3c f6fd a4bd a701 c63d
000000f0: ad91 bf3d ab0d 373d f44e 04be c3df e93d
00000100: 99ef c6bd 251d 223d b7c6 d33d 0883 c7bd
00000110: e713 1abe cd2e 223d f6fc ce3c cad8 95bd
00000120: 6134 dabd a95b e93d 0f6b ef3c a02b f73d
00000130: c003 fbbd 0893 d6bd 0f7c ecbd 86cd 7abc
00000140: 50b9 47bd 614c 293d a052 233d 7ecf 20be
00000150: e9b5 c03c 29c2 83bd 477e 053e 6f3b 893d
00000160: 9cc8 d23d 10c0 fc3d 6357 e6bd 841e d73d
00000170: 6da2 1abe a047 dabd c3b7 23be 7491 d6bb
00000180: 8a63 86bd 4870 1ebe a462 e93d a8e4 ba3d
00000190: ee72 dcbd 89cd ccbd 955a 7c3d 6bfa d6bd
000001a0: 67c9 b7bd e33b e93d 3ca6 f5bd 3d03 88bd
000001b0: fec1 dfbd bc7b f6bd a624 cb3d fa39 0cbe
000001c0: 8802 043e 42d5 353d 9116 ed3d bbd1 96bd
000001d0: 0b32 c33d de39 d8bd dfbb dfbd 9aa8 64bd
000001e0: 2eb3 453d b6f8 90bd 01d7 183c 4674 e93d
000001f0: a28d ffbd 2492 2e3c 1eff d5bd 9a94 ed3d
00000200: 9c47 8fbc 94cc 8f3d 3249 fb3d 1477 a4bd
00000210: 195c 42bd e6dd f1bc 09f3 053d 1362 f33d
00000220: 2dfa cc3c 6080 76bd c878 3ebd 2244 273d
00000230: 7e2b 0bbe 2343 17be b352 b9bb 5410 d23d
00000240: b798 483d 66fa aa3c 698d 17be 03be d9bd
00000250: 047c b6bd 4800 9dbc 2161 0d3d fa91 d93c
00000260: 1cd0 123e f32f 883d 7b34 9e3d d4cb 103e
00000270: 21e7 7a3d e6fb 7c3d 7ed6 223d 6ae9 0ebe
00000280: f834 15bd 7105 03bd 0ac1 a13d db51 773d
00000290: 5bf1 043d 87bd cbba 8ce1 a53b 1234 f2bd
000002a0: 76ca e23d baf8 c7bd 8e1a 67bd 07eb 383c
000002b0: 6d4c 9abd b472 88bd f000 c5bd e79e 4e3b
000002c0: 5f4b 60bd 36e7 a73c a1e5 a63d 5536 ab3d
000002d0: d366 153e 489a 07be 5e68 e2bd fcef 043e
000002e0: 4dd7 103e 3740 12be 98a7 19be 87ff eebd
000002f0: 59ae bebd 37bb 6cbd 7cf4 29bd d493 91bd
00000300: 8d88 8fbd 1be4 4f3d 5cb4 febd 461b 0fbe
00000310: a2bf 103e 38f6 a53d a0e8 bd3c aa78 0dbe
00000320: 6345 153e ceca 1b3e 2925 cabd 96e3 c3bd
00000330: 7267 fe3d eccc 0e3e eb12 fe3d ef96 143e
00000340: bfbd 14be ac79 053e 5fc3 c83d 9afa cf3d
00000350: c29a 8ebd fa8f bcbd 75b1 35bc 0c4a 33bd
00000360: c780 5a3b f4d2 a53d 0375 a1bd 23f6 4c3d
00000370: b010 6a3d 974d 48bd 1749 963d 90d2 a23d
00000380: c2ba 99bd 73d1 323c 18a3 863d adc6 743d
00000390: 3ce2 85bd f616 f23d 5ce7 c93d bd6c 06be
000003a0: 7710 143e db16 ecbd 796d 093e a5e8 1bbb
000003b0: ab37 013e 29ab 9fbc 4721 8bbc 72fe 9b3d
000003c0: 0f70 203e 8883 4f3d 38af d9bd daba 00be
000003d0: 6c1c 873d 7f3f 98bd 121c 0f3e 5b14 bc3d
000003e0: 6271 d13d 50ca 0dbe 2323 bdbc 5a0b abbc
000003f0: 98f0 663d bd64 e1bd 2e8c a73d 3b79 6b3d
-0.036254454 0.07185664 -0.08907482 0.11268369 0.019704157 -0.03422182 0.08256727 0.034120586
-0.00568733 0.018494034 -0.07716763 -0.012044168 -0.0073456517 -0.12398385 -0.057365324 -0.017720481
0.1290897 -0.10072097 0.04116068 0.030243285 -0.11759071 -0.10790667 0.037799854 -0.05195501
0.119836695 -0.036906183 -0.048414085 0.11478359 0.04669385 -0.07657943 0.06586114 0.09975503
-0.1144367 -0.06949758 -0.12991636 0.058200426 -0.036595464 0.05709018 0.112272575 -0.079422876
0.022322156 0.08340204 0.1485735 -0.040366724 0.12150025 0.101025626 0.10268783 0.118827455
0.017165149 -0.030633654 -0.1358857 -0.06145276 0.045456104 0.15792567 0.014857741 -0.0663193
0.11576054 0.01233649 -0.08056252 0.09668284 0.09353957 0.04469077 -0.12920743 0.11419632
-0.097136684 0.039578576 0.10340636 -0.09741789 -0.15046655 0.039595414 0.025267106 -0.0731674
-0.10654522 0.11394436 0.029225854 0.12068868 -0.12256575 -0.10477263 -0.115471 -0.01530779
-0.048760712 0.041332606 0.03987372 -0.15704152 0.023524242 -0.064335175 0.13036452 0.06700789
0.102921695 0.123413205 -0.112471364 0.10503867 -0.15101023 -0.10658193 -0.15988068 -0.006548101
-0.06561954 -0.1547252 0.11395767 0.09125644 -0.107641086 -0.1000014 0.061609823 -0.10496982
-0.08973961 0.113883756 -0.11994597 -0.06641243 -0.10925673 -0.12035319 0.099190995 -0.13693991
0.1289159 0.04439283 0.1157657 -0.07364222 0.09531029 -0.10557912 -0.109245054 -0.055824853
0.048266582 -0.07078688 0.009328605 0.113991305 -0.12478186 0.01065496 -0.1044905 0.11600609
-0.0174902 0.07021442 0.1226982 -0.08030525 -0.047451112 -0.029524755 0.03270248 0.118839405
0.025021637 -0.06018102 -0.046501905 0.04083646 -0.1359081 -0.14771704 -0.0056556105 0.102570206
0.048973765 0.020871352 -0.14800037 -0.10631945 -0.08910373 -0.019165173 0.034516457 0.026558865
0.143372 0.066497706 0.077248536 0.14140254 0.061255578 0.061763667 0.039755337 -0.13956228
-0.036427468 -0.03198761 0.078981474 0.060380798 0.032456737 -0.0015544154 0.0050622877 -0.11826338
0.110737726 -0.09764238 -0.05642181 0.011286504 -0.07534108 -0.06662503 -0.096193194 0.0031527819
-0.05475938 0.020495992 0.08149267 0.083599724 0.14590006 -0.13242447 -0.11055063 0.12982172
0.1414463 -0.14282309 -0.15005338 -0.11669832 -0.09310598 -0.05779573 -0.041492924 -0.07108274
-0.07008467 0.050754648 -0.124367446 -0.13975248 0.14135602 0.08103603 0.023182213 -0.13815561
0.1457725 0.15214083 -0.09870369 -0.09564893 0.124220744 0.13945359 0.12405952 0.14510702
-0.14525507 0.13034695 0.09802889 0.1015522 -0.069631115 -0.09207149 -0.011089672 -0.04377179
0.0033340917 0.08096877 -0.07883646 0.05003942 0.05714482 -0.04890212 0.073381595 0.07950318
-0.07506324 0.010914194 0.065740764 0.059759784 -0.065372914 0.11820786 0.098585814 -0.13127418
0.14459406 -0.11527797 0.13420667 -0.002378979 0.12618892 -0.019490795 -0.016983641 0.07616891
0.15667747 0.050662547 -0.106291234 -0.12571278 0.06597218 -0.07433986 0.13975552 0.0918357
0.10226704 -0.13846707 -0.023088044 -0.020879436 0.05638179 -0.110055424 0.08181034 0.05748866

weight f4 [1, 32, 1]
00000000: ac6d a53b a198 0bbe 0281 843d 7c89 9c3d
00000010: b806 343e 4dbf 453b 6679 d73d 3eb0 163d
00000020: 1527 db3d 13e9 d23c fb22 2d3d 3034 e0bc
00000030: e1fa 79bd 6958 07be c895 ed3d 494f 093e
00000040: 3f8c bbbd 3be2 11be 0a9c 2f3e 7c36 083d
00000050: dcbb f43c dfbb e83d 39bf 0dbe 22f5 073e
00000060: 221c 6abd 46a0 2abe 25f9 233d a212 aabc
00000070: c311 003e c688 243c ec71 ca3d 1e31 b13b
0.0050484743 -0.13632442 0.06469919 0.076434106 0.17580688 0.0030173839 0.10521202 0.03678917
0.10700814 0.025745904 0.042269688 -0.027368635 -0.061030272 -0.1321732 0.11600834 0.13409151
-0.09157609 -0.14246456 0.17149368 0.033255085 0.029874735 0.113639586 -0.13842477 0.13277104
-0.057155736 -0.16662702 0.040032525 -0.020760838 0.12506776 0.010042375 0.0988501 0.0054074666
