Models/M4/2fade9_discriminator_model.pt (torch, 129609 bytes, 68 tensors)

weight f4 [347, 10]
0	0x3f381327	0.71904224
1	0xbf8f061a	-1.1173737
2	0xbf1b90fa	-0.6076809
3	0x3f955d8a	1.1669171
4	0xbf89418c	-1.0723128
5	0x40088cb4	2.1335878
6	0xbf5ac7bd	-0.85461026
7	0xbf2f705c	-0.6853082
8	0x3f00cb59	0.50310284
9	0xbe0bd41e	-0.13655135
10	0xbf6b03d6	-0.9180273
11	0x3e6fe0db	0.2342562
12	0xbfcbec8f	-1.5931567
13	0x3efa86b3	0.48930892
14	0xbd6d50b9	-0.05793831
15	0x3e510eae	0.20415756
16	0xbf70dd82	-0.94087994
17	0xbf4f51ed	-0.80984384
18	0x3e852b64	0.26009667
19	0x3f2a4e04	0.6652529
20	0x3f5a12d3	0.85184973
21	0xbd23ab68	-0.039958388
22	0xbf069fa6	-0.52587354
23	0x3dcc9189	0.09988696
24	0xbee9a9e9	-0.45637444
25	0xbfa19b94	-1.2625604
26	0xbd6510ba	-0.055924155
27	0x3f77f82c	0.96863055
28	0xbf0391f1	-0.51394564
29	0x3f9adf7c	1.2099452
30	0x402876ce	2.6322513
31	0x3f16ba5e	0.58878124
32	0x3edb6e9f	0.42857835
33	0x3f9f25a0	1.2433357
34	0x3f4c905a	0.79907763
35	0x3ec489a1	0.38386253
36	0x3f9de01b	1.2334017
37	0x3f3c02e3	0.73441905
38	0xbf9a5cd1	-1.2059575
39	0xbe0accf6	-0.13554749
40	0x3fb5e73b	1.4211191
41	0xbfb61c1c	-1.4227328
42	0xbbd5b82f	-0.0065222005
43	0x3f11457d	0.56746656
44	0x3e9ed665	0.31022945
45	0x3fe21501	1.766266
46	0x3f6e5072	0.930915
47	0x3e70e680	0.23525429
48	0x3ecf1dc5	0.404524
49	0xbe5f2284	-0.2179051
50	0x3dde5aa3	0.10857131
51	0xbe7e4fea	-0.24835172
52	0xbeb2db6e	-0.34933037
53	0xbee86454	-0.45389044
54	0x3f3ebf2c	0.74510455
55	0xbedb0978	-0.42780662
56	0xbf8507ce	-1.0393007
57	0x3fbd2752	1.4777625
58	0x3f90d602	1.131531
59	0x3f7b54ef	0.98176473
60	0x3f20cb03	0.6280977
61	0xbf43b329	-0.7644525
62	0xbf8244cc	-1.0177245
63	0x3e9ebc5b	0.3100308
64	0x3fcf094b	1.6174711
65	0xbe5e0ff8	-0.21685779
66	0xbfd5bc4e	-1.6698091
67	0x3f887fd9	1.0664016
68	0x3f13dedc	0.5776193
69	0x3fe1b1c6	1.7632377
70	0x3ed97ebe	0.4247951
71	0xbcccafb8	-0.024986133
72	0x3f44a809	0.768189
73	0xbf56599e	-0.83730495
74	0xbfcbd9ac	-1.5925803
75	0x3ff880cb	1.9414304
76	0x3ec42c20	0.38314915
77	0xbf22c055	-0.63574725
78	0xbe022492	-0.12709263
79	0xbf31ec75	-0.6950143
80	0xbebb6023	-0.36596784
81	0xbff1447b	-1.8849024
82	0xbf44e213	-0.7690746
83	0xbf9d635b	-1.2295946
84	0xbcfce392	-0.030870233
85	0xbc5a0e9f	-0.01330915
86	0xbe95fc10	-0.2929387
87	0xbf05f15a	-0.523214
88	0xbf092b3b	-0.5358159
89	0xbf1bd4bc	-0.6087148
90	0x3f89aa0e	1.0755022
91	0xbf6f1d5f	-0.9340419
92	0x3f9579d8	1.1677809
93	0x3eb6599d	0.35615245
94	0x3ec65431	0.38736108
95	0xbff0cfde	-1.8813436
96	0x3d33e0dd	0.04391562
97	0x3da1a8dc	0.078935355
98	0x3ec0fe6d	0.3769411
99	0x3e44cf61	0.19219734
100	0xc00a7cc6	-2.1638656
101	0xbf8a655a	-1.081218
102	0xbf36befc	-0.7138517
103	0xbd375eab	-0.044768017
104	0x3da6ff12	0.081541196
105	0xbf3cffff	-0.7382812
106	0x3e94e25d	0.2907895
107	0x3f8d208c	1.1025558
108	0x3fefd39a	1.8736451
109	0xbf11875b	-0.5684716
110	0x3f1342b4	0.57523656
111	0xbf5ee541	-0.87068564
112	0xbf7abc13	-0.9794323
113	0xbe9980f0	-0.29981184
114	0xbf5d17d8	-0.8636451
115	0x3e0d1d3e	0.13780686
116	0x3fa29ad6	1.2703502
117	0xbe4e26fa	-0.20132056
118	0xbfe08c08	-1.7542734
119	0xbfa4de7f	-1.28804
120	0xbf046ef8	-0.51731825
121	0x3faae1e6	1.3350189
122	0x3fe391e2	1.7778895
123	0xbf682764	-0.90685105
124	0xbf2b2988	-0.66860247
125	0xbddc13e9	-0.10745985
126	0x3e4319d6	0.19052824
127	0x3f3f8b4f	0.74821943
128	0x3f456910	0.7711344
129	0x3f4fde18	0.81198263
130	0x3f2d4573	0.67684096
131	0xbf489d86	-0.7836536
132	0x3fa76555	1.3077799
133	0xbfa503b1	-1.2891752
134	0x3d78d4a1	0.060749654
135	0x3f335655	0.7005361
136	0x3c638073	0.013885605
137	0xbeacc41e	-0.33743376
138	0xbf50fec5	-0.8163875
139	0x3f6adb92	0.9174129
140	0xbd9df43a	-0.07712598
141	0xbf0a09e9	-0.5392137
142	0x3ec22d28	0.37925076
143	0xbe2f6166	-0.17126998
144	0xbdd15c05	-0.102226295
145	0xbd576eae	-0.052595787
146	0x3f97a5a1	1.1847421
147	0xbf912ba4	-1.1341443
148	0xbf0e8f65	-0.5568755
149	0xbf845ed5	-1.034144
150	0x3eff2f77	0.498409
151	0x3ed5a003	0.41723642
152	0xc01c47b7	-2.4418771
153	0xbef58ba4	-0.479581
154	0xbfa451a3	-1.2837414
155	0x3faa7ab3	1.3318695
156	0x3f563afa	0.8368374
157	0x3ed5b23f	0.41737553
158	0x3f191d57	0.59810394
159	0xbe2019b6	-0.15634808
160	0x3e2c0d72	0.16802004
161	0xbec428b5	-0.38312307
162	0xbe544eec	-0.20733231
163	0xbe9a61a5	-0.30152622
164	0x3e991f30	0.29906607
165	0xbf1f92f0	-0.62333584
166	0x3f3ff690	0.749856
167	0xbf9c9aee	-1.2234781
168	0x3fea1e65	1.8290526
169	0xbf9bc2b3	-1.2168792
170	0xbf7e33c1	-0.9929772
171	0xbf9ef2c4	-1.2417836
172	0xbf1cad59	-0.6120201
173	0xbd49b4cb	-0.049244683
174	0x3eafddfb	0.34349045
175	0x3d8120ac	0.0630506
176	0x3f0ca726	0.5494255
177	0x3ddcefd4	0.10787931
178	0xbd46665e	-0.04843747
179	0x3fb0d784	1.381577
180	0xbfa00a77	-1.2503194
181	0xbfbdd5ad	-1.4830834
182	0x3fb87522	1.4410746
183	0xbe1ad9bf	-0.15122126
184	0xbf5d2612	-0.86386216
185	0x3ec12d21	0.37729743
186	0x3ffa7db2	1.9569609
187	0xbf8ffb2c	-1.1248527
188	0x3fa5913f	1.293495
189	0x3f63c693	0.88974875
190	0xbd71feb2	-0.059080787
191	0x3facafaf	1.3491114
192	0xbf023f70	-0.5087805
193	0xbdfb5979	-0.12272925
194	0x3e215870	0.15756392
195	0x3f6edea3	0.93308467
196	0xbe24157e	-0.16023824
197	0x400e0495	2.2190297
198	0xbf81671f	-1.0109595
199	0xbf4202e9	-0.7578569
200	0xbec5e42b	-0.3865064
201	0x3fc19a98	1.5125303
202	0x3e72f721	0.23727085
203	0x3f197829	0.59948975
204	0xc0056763	-2.0844352
205	0x3ecdf606	0.40226763
206	0x3ee781b5	0.45216146
207	0x3da0b386	0.078467414
208	0x3ef5ae72	0.47984654
209	0xbf8154b4	-1.0103974
210	0x3f8929df	1.0715903
211	0xbe6bc921	-0.23025943
212	0x3ea7815b	0.32715878
213	0x3e8c8b36	0.2744996
214	0xbf3c2c01	-0.73504645
215	0xc008fe70	-2.1405296
216	0xbfbd158d	-1.4772202
217	0xbe497fcd	-0.19677658
218	0x3fe7427d	1.8067166
219	0x3e370a1d	0.17874952
220	0x3d0016bd	0.031271685
221	0xbf58c339	-0.84672886
222	0x3eb15ef1	0.34642747
223	0xbf828ad5	-1.0198618
224	0x3ee25354	0.442042
225	0x3f7ef33e	0.9958991
226	0xbde60b50	-0.112326264
227	0xbd3c6554	-0.04599507
228	0xbf9bc88b	-1.2170576
229	0x3d8114e8	0.06302816
230	0x3f991435	1.1959292
231	0xbf2e19ca	-0.680081
232	0x3f0ad400	0.54229736
233	0x3fa7e8fa	1.3117974
234	0x3f8b2f1c	1.0873752
235	0xbf656922	-0.89613545
236	0xbff82bec	-1.9388404
237	0x3f2aa7be	0.66662204
238	0x3dd06f75	0.10177509
239	0xbe165107	-0.14679347
240	0x3f7921a4	0.97316957
241	0xbf2f09ab	-0.6837413
242	0x3e435b9c	0.19077915
243	0x3fb56abf	1.4173201
244	0x3fd9fab8	1.7029638
245	0x40376c8f	2.866001
246	0x3db4ae03	0.088222526
247	0x3fcf5f40	1.6200943
248	0x3fc7db71	1.5613843
249	0x3dd77e54	0.10522142
250	0x3e4552c6	0.19269857
251	0xbdef72b6	-0.11691801
252	0x3fc72ba5	1.5560194
253	0xbf20b105	-0.6277011
254	0x3f90007a	1.1250145
255	0x40278191	2.617283

bias f4 [32]
0	0xbe88be2f	-0.267076
1	0x3d94acaa	0.072594956
2	0x3e30fab3	0.17283134
3	0x3e09da63	0.13462214
4	0xbd9d7697	-0.07688635
5	0x3ce3265b	0.02772825
6	0x3c480e4d	0.012210441
7	0xbdad4aef	-0.08461558
8	0xbd30c6ba	-0.04315827
9	0x3c1cd9df	0.009573429
10	0x3d8a2d4e	0.067469224
11	0xbe85ae25	-0.26109424
12	0xbe91f7af	-0.2850928
13	0x3e733d68	0.23753893
14	0xbe529d97	-0.20567928
15	0xbc24f715	-0.010068675
16	0x3e255397	0.16145168
17	0xbe4a8a2e	-0.19779274
18	0xbe22c3dc	-0.15895027
19	0xbd00cd40	-0.03144574
20	0xbcc12ccb	-0.02358093
21	0x3e88c1ed	0.26710454
22	0x3e376362	0.17909005
23	0x3e64b5a3	0.22334914
24	0x3dd3171e	0.10307144
25	0x3e415eb1	0.18883778
26	0xbe3a94c6	-0.18220815
27	0x3d81a1f9	0.06329722
28	0x3de631aa	0.112399414
29	0xbe45c9a2	-0.19315198
30	0x3e619639	0.22029962
31	0xbd397a27	-0.04528251

weight_orig f4 [32, 12, 1]
0	0xbe870e3f	-0.26378056
1	0x3dd9d639	0.10636563
2	0xbe82a5e2	-0.25517184
3	0x3e7281f0	0.2368238
4	0xbe7cd7a1	-0.24691631
5	0xbe15521d	-0.14582105
6	0xbcc934af	-0.024561254
7	0xbe0f574a	-0.13998142
8	0x3dd337bb	0.10313364
9	0xbd88702a	-0.066620186
10	0x3d952174	0.07281771
11	0xbe8d33ea	-0.2757867
12	0xbe4ce33b	-0.20008557
13	0xbe83d974	-0.2575184
14	0xbdeb5633	-0.114910506
15	0x3ccf06b2	0.025271747
16	0x3e44925d	0.19196458
17	0xbc37153e	-0.011174498
18	0x3e7db1fb	0.24774925
19	0xbe81f245	-0.2538015
20	0x3e450260	0.19239187
21	0x3d7816c7	0.060568597
22	0x3e726048	0.23669541
23	0x3e844779	0.2583578
24	0xbd850ee8	-0.06496984
25	0x3e8c73c1	0.27432063
26	0xbcfde660	-0.03099364
27	0xbe3a777e	-0.18209645
28	0xbe883cc8	-0.26608872
29	0xbe56c536	-0.20973668
30	0xbe639c85	-0.22227676
31	0x3e5fed0a	0.21867767
32	0xbd2e7ae1	-0.042597655
33	0xbdda1231	-0.10648001
34	0xbd62760b	-0.055288356
35	0x3e5d0498	0.21583784
36	0x3d229c2b	0.039699715
37	0x3e838aff	0.25691983
38	0xbd8297c0	-0.063766
39	0xbc36e7be	-0.01116365
40	0x3d283857	0.041069355
41	0xbe993afe	-0.2992782
42	0x3d548ab7	0.0518901
43	0xbd2778ce	-0.040886693
44	0xbe128347	-0.14307891
45	0xbe403205	-0.18769081
46	0x3cf3a530	0.029741853
47	0xbe202885	-0.15640457
48	0x3e214e7b	0.15752594
49	0xbdb744e3	-0.08948686
50	0xbe4fe94d	-0.20303841
51	0xbe6cd0d4	-0.23126537
52	0x3e9876b5	0.29778066
53	0x3e4f732e	0.20258781
54	0x3e0abc66	0.13548431
55	0x3e389730	0.18026423
56	0xbe421f93	-0.18957357
57	0x3e6e1382	0.23249629
58	0xbe84d79b	-0.25945744
59	0x3e8b91c6	0.27259654
60	0xbd8295d8	-0.06376237
61	0xbcf6cc0b	-0.030126592
62	0x3e6dc241	0.23218633
63	0x3e0ecdaa	0.13945642
64	0xbd906e8f	-0.070523374
65	0x3dcef9e9	0.1010626
66	0xbddab944	-0.10679868
67	0xbe5dd851	-0.2166455
68	0xbd3da494	-0.046299532
69	0xbd8058bc	-0.06266925
70	0x3e3e5424	0.18586785
71	0x3d845362	0.064612165
72	0x3d105cf6	0.035244904
73	0x3dc69303	0.09696009
74	0x3db2e3c9	0.08734853
75	0x3e2679af	0.16257356
76	0x3dd25095	0.10269276
77	0xbe725871	-0.2366655
78	0x3d02dcf0	0.031948984
79	0x3deb0a8d	0.11476622
80	0x3e937d6e	0.28806633
81	0xbe0c5f67	-0.13708268
82	0xbe3b3fe3	-0.1828609
83	0x3e0be355	0.13660939
84	0x3e18bf67	0.14916764
85	0xbcdd6870	-0.027027339
86	0xbe7360da	-0.23767415
87	0x3deb12ca	0.11478193
88	0x3ceebef2	0.029143784
89	0x3e4b8e1e	0.19878432
90	0x3de83c0d	0.11339579
91	0xbe8e0138	-0.27735305
92	0xbe813b6d	-0.2524065
93	0x3da40699	0.08009071
94	0x3e555cfa	0.20836249
95	0x3e8f2c84	0.2796365
96	0xbddf1d30	-0.10894239
97	0xbcb0197e	-0.02149653
98	0x3e3d6cdd	0.1849856
99	0xbe48ad61	-0.19597389
100	0x3e89894d	0.26862565
101	0xbe8e1631	-0.27751306
102	0xbe792b41	-0.24332906
103	0x3dc5b88f	0.096543424
104	0x3e19c352	0.15015915
105	0xbe82ef48	-0.25573182
106	0xbe542913	-0.20718794
107	0x3e8d8d81	0.2764702
108	0xbd772686	-0.060339473
109	0x3dd78996	0.10524289
110	0x3d96923e	0.07352112
111	0x3e7a5e05	0.24449928
112	0xbd235926	-0.03987994
113	0xbe297c14	-0.16551238
114	0xbe346eea	-0.17620435
115	0xbe40c313	-0.18824415
116	0x3d0e91d7	0.034807052
117	0xbe265ae0	-0.16245604
118	0x3e5fc1e9	0.21851315
119	0xbc75dc65	-0.015006159
120	0xbdd688af	-0.10475289
121	0x3e828d86	0.254986
122	0x3e1465d3	0.14491968
123	0x3db4fbc2	0.088370815
124	0xb87c22c4	-6.011386e-05
125	0x3d97c00e	0.074096784
126	0xbd95967e	-0.07304095
127	0x3e06ec05	0.13175972
128	0x3e7e1d8a	0.24815956
129	0xbe18234f	-0.14857219
130	0x3e51117e	0.20416829
131	0xbd12659e	-0.03574144
132	0x3d62e898	0.0553976
133	0x3e892966	0.26789397
134	0x3d06ddba	0.0329263
135	0x3e03c3f1	0.12867714
136	0x3e1c4e38	0.15264213
137	0xbe7ede56	-0.24889502
138	0xbb9dbc01	-0.0048136716
139	0xbe2a3b56	-0.16624197
140	0x3de31ca6	0.11089449
141	0x3e339fde	0.17541453
142	0xbd65416e	-0.0559706
143	0x3cf76549	0.030199664
144	0x3d8bc480	0.06824589
145	0x3e5179a3	0.20456557
146	0x3e584bec	0.21122712
147	0xbe3a6654	-0.18203098
148	0xbe5c4eb7	-0.21514402
149	0x3e860079	0.26172236
150	0xbc28dbf5	-0.010306348
151	0xbe879334	-0.26479495
152	0x3e080dbb	0.13286488
153	0xbe82b16b	-0.25525984
154	0x3cc13912	0.023586784
155	0xbe9180b2	-0.284185
156	0xbde0ca0e	-0.10976039
157	0xbe536d16	-0.20647082
158	0xbe7ff0fa	-0.24994269
159	0x3bec3940	0.007208973
160	0xbcd7a25d	-0.026322538
161	0x3d776781	0.060401443
162	0x3e93e59c	0.28886116
163	0x3e8254d5	0.25455347
164	0x3e27df55	0.16393788
165	0xbe4eddb2	-0.20201758
166	0xbe2e0e56	-0.16997656
167	0x3c82ff0a	0.015990753
168	0xbe30786e	-0.1723344
169	0xbe041048	-0.12896836
170	0xbe35d061	-0.17755271
171	0x3e9854f1	0.29752305
172	0x3dd1a9b5	0.10237447
173	0xbe6defc9	-0.23236002
174	0x3e52c7bd	0.20584007
175	0x3e33d50d	0.17561741
176	0xbbee5aa2	-0.007273988
177	0x3e908c42	0.28232008
178	0x3dc61b9f	0.09673237
179	0x3ddb54d9	0.10709543
180	0xbd5f96da	-0.054587223
181	0x3e897fe7	0.26855394
182	0x3dec7c98	0.11547202
183	0x3e82bdf9	0.25535563
184	0x3e6bbd98	0.23021543
185	0x3e6b80b9	0.22998323
186	0xbdb65d01	-0.08904458
187	0xbe18c75d	-0.14919801
188	0xbe202e90	-0.15642762
189	0x3e1a5bc3	0.15074067
190	0x3df22c91	0.118249066
191	0xbe9e0ff0	-0.30871534
192	0xbd2aa5ab	-0.0416619
193	0x3d0cb9b4	0.034356788
194	0x3e2c29a3	0.16812758
195	0x3d972563	0.07380178
196	0xbdd7fea8	-0.10546619
197	0x3e8555df	0.26042077
198	0xbe76acc2	-0.2408934
199	0xbe506dd6	-0.20354399
200	0xbc93d373	-0.018045163
201	0xbdd5a05d	-0.104309775
202	0x3e8e4e7c	0.27794254
203	0x3d24bea0	0.040220857
204	0x3e90031b	0.2812737
205	0xbdab4393	-0.08362498
206	0xbe8c07ee	-0.273498
207	0x3d51edc1	0.05125213
208	0xbe4c7722	-0.1996732
209	0x3e2c1be5	0.16807516
210	0x3deca9c4	0.11555818
211	0xbe3ed101	-0.18634416
212	0x3e45d137	0.1931809
213	0x3b77292c	0.003771375
214	0xbd8b47e4	-0.068008214
215	0xbe53ccdd	-0.20683618
216	0xbdbf2072	-0.0933236
217	0xbe1f6076	-0.1556414
218	0x3e1c6d59	0.15276088
219	0x3e2f9b39	0.17149056
220	0x3e5ca71e	0.21548125
221	0xbe6b0ad2	-0.22953346
222	0xbd751f8c	-0.05984454
223	0x3e40203a	0.18762293
224	0xbe434f72	-0.19073275
225	0x3d85e77a	0.06538291
226	0x3c700de4	0.014651749
227	0x3d579e0e	0.052640967
228	0x3e7174d5	0.23579724
229	0xbce46bac	-0.027883373
230	0xba48564d	-0.00076422543
231	0x3e87a6dc	0.2649449
232	0x3e4549cb	0.19266431
233	0x3d03c936	0.03217431
234	0xbc3846ef	-0.011247381
235	0x3e1ce1f5	0.15320571
236	0x3e37d6f6	0.17953095
237	0x3e613190	0.21991563
238	0xbdefc3ce	-0.11707269
239	0x3e4533ef	0.19258092
240	0x3e45748f	0.19282745
241	0x3e3af89b	0.18258898
242	0xbdcbfb92	-0.099600926
243	0xbe3bf4e5	-0.18355139
244	0x3cdbff1f	0.02685505
245	0x3e2350cb	0.15948789
246	0xbe281953	-0.1641591
247	0xbd81ddf5	-0.06341163
248	0x3e02eb23	0.1278501
249	0xbd68e018	-0.056854337
250	0x3cc9aea0	0.0246194
251	0x3e316ca9	0.17326607
252	0xbe161b24	-0.14658791
253	0x3e64accf	0.22331546
254	0xbc3aa919	-0.011392855
255	0xbe29e4d3	-0.16591196

weight_u f4 [32]
0	0xbe852c30	-0.26010275
1	0x3d3a3a63	0.04546584
2	0xbca6c3ee	-0.020357098
3	0xbdb41cc8	-0.08794552
4	0x3eccfc75	0.4003636
5	0xbe4012d9	-0.1875719
6	0x3dc9cb3b	0.09853216
7	0x3b0deb5a	0.0021655173
8	0x3e0f42e6	0.13990363
9	0xbe730992	-0.2373412
10	0xbe13f974	-0.14450628
11	0xbcc78884	-0.024357088
12	0xbe92eec2	-0.28697783
13	0x3e45aea5	0.19304903
14	0x3e15d460	0.14631796
15	0xbe4214b0	-0.18953204
16	0xbe814755	-0.25249735
17	0xbd431d20	-0.047635198
18	0x3de7a87b	0.11311432
19	0x3e59cbc3	0.21269135
20	0x3ae892ac	0.0017743907
21	0xbdee85f6	-0.11646645
22	0xbd8d14be	-0.06888722
23	0xbe8cd357	-0.2750499
24	0x3dd7c6b8	0.105359495
25	0x3c519c02	0.012793543
26	0x3e47143a	0.1944131
27	0x3d94a583	0.07258131
28	0x3e0df917	0.13864551
29	0x3e120086	0.14258012
30	0x3e1bc826	0.1521307
31	0xbea7eb49	-0.32796696

weight_v f4 [12]
0	0x3e6b5d15	0.22984727
1	0xbe95e434	-0.29275668
2	0xbe1ccdfa	-0.15312949
3	0xbe0fe00a	-0.14050308
4	0x3eca4f81	0.39513782
5	0xbd103c2f	-0.035213646
6	0x3e8caff6	0.27477998
7	0x3ef8bd4e	0.48581928
8	0xbcc547fa	-0.024082173
9	0x3e3bce19	0.18340339
10	0xbed48b9d	-0.41512766
11	0x3ec17f82	0.37792593

weight f4 [32, 12, 1]
0	0xbe2ea1e1	-0.1705394
1	0x3d8cd5fa	0.0687675
2	0xbe28eedc	-0.16497368
3	0x3e1cc936	0.15311131
4	0xbe2377b4	-0.15963632
5	0xbdc113e4	-0.09427622
6	0xbc821564	-0.01587934
7	0xbdb95879	-0.09050078
8	0x3d888e74	0.06667796
9	0xbd306b83	-0.04307128
10	0x3d40d4f8	0.047078103
11	0xbe3694b2	-0.1783016
12	0xbe0476c4	-0.1293593
13	0xbe2a7c90	-0.1664908
14	0xbd98265f	-0.07429194
15	0x3c85d8b7	0.01633869
16	0x3dfe2cd3	0.12410893
17	0xbbecbbcd	-0.007224536
18	0x3e2404df	0.16017483
19	0xbe28069d	-0.16408773
20	0x3dfebda9	0.124385186
21	0x3d2064fc	0.039158806
22	0x3e1cb374	0.15302831
23	0x3e2b0ad2	0.16703346
24	0xbd2c0cb2	-0.042004295
25	0x3e359c39	0.17735375
26	0xbca426bf	-0.020038007
27	0xbdf11be5	-0.117728986
28	0xbe302912	-0.17203167
29	0xbe0ada73	-0.13559894
30	0xbe1327c3	-0.14370637
31	0x3e10c5c8	0.14137948
32	0xbce19c0f	-0.027540235
33	0xbd8cfcbf	-0.06884145
34	0xbd126960	-0.035745025
35	0x3e0ee47c	0.13954347
36	0x3cd242e2	0.025666658
37	0x3e2a171d	0.1661038
38	0xbd28dc96	-0.041225992
39	0xbbec80f8	-0.0072175227
40	0x3cd983e9	0.026552157
41	0xbe462211	-0.19348933
42	0x3d09699d	0.033547986
43	0xbcd88c3f	-0.026434062
44	0xbdbd7268	-0.09250337
45	0xbdf8842d	-0.121345855
46	0x3c9d8583	0.019228702
47	0xbdcf174f	-0.10111868
48	0x3dd09369	0.10184366
49	0xbd6cf968	-0.05785504
50	0xbe066b38	-0.13126838
51	0xbe191b29	-0.14951767
52	0x3e452443	0.19252114
53	0x3e061eda	0.13097706
54	0x3db3641f	0.08759331
55	0x3deeaed8	0.116544425
56	0xbdfb025c	-0.122563094
57	0x3e19ebc8	0.1503135
58	0xbe2bc531	-0.16774441
59	0x3e347806	0.1762391
60	0xbd28da1f	-0.04122364
61	0xbc9f8f29	-0.019477444
62	0x3e19b73f	0.15011309
63	0x3db8a685	0.09016136
64	0xbd3ac194	-0.045594767
65	0x3d85d073	0.06533899
66	0xbd8d68c3	-0.06904747
67	0xbe0f6d5e	-0.14006564
68	0xbcf53740	-0.029933572
69	0xbd25f512	-0.04051692
70	0x3df61a42	0.12016727
71	0x3d2b1a39	0.041773055
72	0x3cbaaad3	0.022786533
73	0x3d8061d9	0.06268663
74	0x3d674fc7	0.056472566
75	0x3dd7425e	0.105107054
76	0x3d87f903	0.06639292
77	0xbe1cae62	-0.15300897
78	0x3ca9360d	0.020655656
79	0x3d97f576	0.07419865
80	0x3e3eb5dd	0.18624063
81	0xbdb581e9	-0.08862669
82	0xbdf21f04	-0.11822322
83	0x3db4e17b	0.088320695
84	0x3dc58242	0.09643985
85	0xbc8f2509	-0.017473714
86	0xbe1d5954	-0.15366107
87	0x3d97faca	0.07420881
88	0x3c9a5a9e	0.018842038
89	0x3e039a3b	0.12851803
90	0x3d9624f0	0.07331264
91	0xbe379e2a	-0.17931429
92	0xbe271a31	-0.16318585
93	0x3d541785	0.051780242
94	0x3e09f18d	0.1347105
95	0x3e39212a	0.18079057
96	0xbd903f67	-0.07043343
97	0xbc63b42b	-0.013897936
98	0x3df4ef35	0.119596876
99	0xbe01bdea	-0.12670103
100	0x3e31d708	0.17367184
101	0xbe37b948	-0.17941773
102	0xbe2117bb	-0.15731709
103	0x3d7fa93b	0.06241725
104	0x3dc6d258	0.09708089
105	0xbe294dc5	-0.16533573
106	0xbe092a7c	-0.13395113
107	0x3e37088a	0.17874351
108	0xbd1fc9a8	-0.039010674
109	0x3d8b5969	0.06804163
110	0x3d42b1d4	0.04753287
111	0x3e21de10	0.15807366
112	0xbcd3373e	-0.025783177
113	0xbddb2684	-0.10700706
114	0xbde94eb2	-0.11391963
115	0xbdf93fbc	-0.121703595
116	0x3cb8592a	0.022503454
117	0xbdd71a87	-0.105031066
118	0x3e10a9e6	0.14127311
119	0xbc1ef439	-0.009701782
120	0xbd8ab351	-0.06772483
121	0x3e28cf5d	0.16485353
122	0x3dbfe25c	0.093693465
123	0x3d6a04d0	0.057133496
124	0xb82302c6	-3.886481e-05
125	0x3d443816	0.04790505
126	0xbd416c4e	-0.047222428
127	0x3dae75a0	0.08518529
128	0x3e244a69	0.1604401
129	0xbdc4b86d	-0.09605489
130	0x3e072ab6	0.13199887
131	0xbcbd4c0e	-0.023107555
132	0x3d12b36f	0.035815652
133	0x3e315b06	0.17319879
134	0x3cae6324	0.021287508
135	0x3daa60bf	0.08319234
136	0x3dca1bfb	0.09868618
137	0xbe24c70f	-0.1609156
138	0xbb4bf4f5	-0.0031121348
139	0xbddc1dd2	-0.10747875
140	0x3d92d517	0.0716955
141	0x3de842fa	0.113409
142	0xbd1437e3	-0.03618611
143	0x3c9ff23b	0.019524684
144	0x3d34b99d	0.044122327
145	0x3e076e0b	0.13225572
146	0x3e0bd70d	0.13656254
147	0xbdf105b4	-0.11768666
148	0xbe0e6ee5	-0.1390949
149	0x3e2d450d	0.16920872
150	0xbbda5779	-0.0066632596
151	0xbe2f4dcc	-0.17119521
152	0x3dafec3b	0.08589979
153	0xbe28fdc7	-0.16503058
154	0x3c79d84f	0.015249326
155	0xbe3c240d	-0.18373127
156	0xbd9154ac	-0.07096228
157	0xbe08b0f3	-0.13348751
158	0xbe25789e	-0.16159293
159	0x3b98b92a	0.004660745
160	0xbc8b696e	-0.017018046
161	0x3d1ff3ab	0.03905074
162	0x3e3f3c92	0.1867545
163	0x3e28860f	0.1645739
164	0x3dd910d2	0.10598911
165	0xbe05be35	-0.1306084
166	0xbde10fb5	-0.10989324
167	0x3c296225	0.010338341
168	0xbde42eed	-0.11141763
169	0xbdaac375	-0.08338062
170	0xbdeb17bd	-0.11479137
171	0x3e44f89a	0.19235459
172	0x3d878d1f	0.066187136
173	0xbe19d4af	-0.15022539
174	0x3e08460c	0.13307971
175	0x3de887be	0.11354016
176	0xbb9a19c3	-0.004702778
177	0x3e3ae7fb	0.18252556
178	0x3d8014a9	0.062539406
179	0x3d8dcd5a	0.06923933
180	0xbd108e0f	-0.035291728
181	0x3e31cae1	0.17362548
182	0x3d98e4b4	0.07465497
183	0x3e290e03	0.16509251
184	0x3e186937	0.14883886
185	0x3e1841dd	0.14868875
186	0xbd6bcd93	-0.057569098
187	0xbdc58c8e	-0.09645949
188	0xbdcf1f1f	-0.10113358
189	0x3dc79775	0.09745685
190	0x3d9c9204	0.07645038
191	0xbe4c617c	-0.19959062
192	0xbcdca750	-0.02693525
193	0x3cb5f6ac	0.022212349
194	0x3dde9cf9	0.10869784
195	0x3d437018	0.047714323
196	0xbd8ba519	-0.06818599
197	0x3e2c6875	0.16836722
198	0xbe1f7aef	-0.15574239
199	0xbe06c0e8	-0.13159525
200	0xbc3f2517	-0.011666558
201	0xbd8a1d1e	-0.06743835
202	0x3e380212	0.1796954
203	0x3cd50579	0.026003586
204	0x3e3a36a3	0.18184905
205	0xbd5d737e	-0.05406522
206	0xbe3510ce	-0.17682192
207	0x3d07b91e	0.033135526
208	0xbe0430e1	-0.12909271
209	0x3dde8b34	0.10866395
210	0x3d9901e8	0.07471067
211	0xbdf6bbb6	-0.12047522
212	0x3dffc91d	0.12489531
213	0x3b1fcb5e	0.002438269
214	0xbd34187d	-0.043968666
215	0xbe08eedf	-0.13372372
216	0xbd77226f	-0.060335573
217	0xbdce14a0	-0.10062528
218	0x3dca443b	0.09876295
219	0x3de310e6	0.110872075
220	0x3e0ea80c	0.13931292
221	0xbe17f5a3	-0.14839797
222	0xbd1e7a21	-0.03869069
223	0x3df86d2b	0.12130197
224	0xbdfc8b47	-0.123312525
225	0x3d2d24bb	0.042271357
226	0x3c1b332b	0.009472649
227	0x3d0b66a5	0.034033436
228	0x3e1c1b3b	0.15244763
229	0xbc93adb0	-0.018027157
230	0xba01859e	-0.000494087
231	0x3e2f6737	0.17129217
232	0x3dff1a01	0.12456132
233	0x3caa678f	0.020801334
234	0xbbee4712	-0.007271656
235	0x3dcadb03	0.099050544
236	0x3dedb649	0.11607034
237	0x3e119798	0.14217985
238	0xbd9b0345	-0.07568983
239	0x3dfefdbe	0.12450741
240	0x3dff514e	0.124666795
241	0x3df1c2d8	0.118047416
242	0xbd83e0fe	-0.06439398
243	0xbdf30911	-0.11866964
244	0x3c8e3b6f	0.017362325
245	0x3dd32c70	0.1031121
246	0xbdd95bce	-0.106132135
247	0xbd27ec59	-0.040996883
248	0x3da94869	0.08265764
249	0xbd168efe	-0.03675746
250	0x3c82643b	0.015916934
251	0x3de56aba	0.11201997
252	0xbdc217d3	-0.094772
253	0x3e13d7cd	0.1443779
254	0xbbf15c0a	-0.0073657082
255	0xbddbadf5	-0.10726539

bias f4 [32]
0	0x3e300ab9	0.1719159
1	0x3dcfa31e	0.10138534
2	0xbe2aedf3	-0.16692333
3	0xbd8668ee	-0.065629825
4	0x3caf0138	0.021362886
5	0xbcd9e3d8	-0.026597902
6	0xbc610eb0	-0.013736412
7	0xbceefa50	-0.029172093
8	0xbdc3462c	-0.095348686
9	0xbd40c71c	-0.047064885
10	0x3bac5b20	0.0052598864
11	0x3e2ee50f	0.17079566
12	0xbcb362a8	-0.021897629
13	0xbc3b3330	-0.011425778
14	0xbda86ce5	-0.08223895
15	0x3d4ef2c4	0.050524488
16	0xbd2ce5dc	-0.0422114
17	0xbde13ee1	-0.10998321
18	0xbd555f9a	-0.052093126
19	0xbe1a4308	-0.15064633
20	0x3defe932	0.117144
21	0xbd8c8c4a	-0.068626955
22	0x3e17f72b	0.14840381
23	0x3d57c344	0.052676454
24	0x3d934b1e	0.07192062
25	0xbdd8a96c	-0.1057919
26	0x3dbc89a2	0.09205939
27	0x3de54d06	0.11196332
28	0x3db276f2	0.08714093
29	0x3d14427c	0.036196217
30	0xbd806a14	-0.06270233
31	0xbdd5547f	-0.10416507

weight_orig f4 [32, 32, 1]
0	0x3d64b4b0	0.05583638
1	0x3d52a3ac	0.05142562
2	0xbe02e1da	-0.12781468
3	0x3dd2af0a	0.10287292
4	0xbdd7fdea	-0.10546477
5	0xbde5697b	-0.112017594
6	0x3e322e91	0.17400576
7	0xbe2fba69	-0.17160954
8	0x3e2b4889	0.16726889
9	0x3d8c1828	0.06840545
10	0xbda74411	-0.081672795
11	0x3d259930	0.040429294
12	0xbd9d01b5	-0.07666341
13	0xbd9a425e	-0.0753219
14	0x3d87d818	0.066330135
15	0x3d3979dc	0.04528223
16	0xbd0d9640	-0.034567118
17	0x3d39bf34	0.04534836
18	0x3e0a1c7d	0.1348743
19	0xbdfaeb18	-0.12251872
20	0xbd6c7bda	-0.0577353
21	0xbd17f22c	-0.037096187
22	0x3d479aa0	0.048731446
23	0xbdb8eb62	-0.09029271
24	0x3d94ce90	0.07265961
25	0x3b8f15e0	0.0043666214
26	0xbde6f3f0	-0.11276996
27	0x3df96a0e	0.121784315
28	0x3cb01908	0.02149631
29	0xbe117237	-0.14203726
30	0x3db7df5a	0.08978148
31	0x3e03eb03	0.12882619
32	0x3dcb3dbe	0.09923886
33	0xbcf3da00	-0.029767036
34	0xbd985468	-0.07437974
35	0xbd85757d	-0.0651655
36	0x3e178339	0.14796151
37	0xbd643fc4	-0.055724874
38	0xbdab6298	-0.08368415
39	0xbe152897	-0.14566265
40	0xbdcb7776	-0.09934895
41	0x3df50646	0.11964087
42	0xbe2419bd	-0.16025443
43	0x3dfbaaea	0.12288459
44	0x3da17c66	0.07885055
45	0x3da05f66	0.07830696
46	0x3d892fd6	0.06698577
47	0xbe1eb258	-0.1549772
48	0xbe22a4f3	-0.15883236
49	0xbdde20e0	-0.10846114
50	0xbdc3d00f	-0.095611684
51	0x3dfda8c2	0.123857036
52	0xbd8d2e5f	-0.0689361
53	0xbe1f9f31	-0.1558807
54	0xbdc98fa8	-0.098418534
55	0xbe32098e	-0.17386457
56	0xbcd097b0	-0.025462955
57	0xbe240fc3	-0.16021638
58	0x3cabafb0	0.020957798
59	0x3db7c1aa	0.08972485
60	0xbcbcf540	-0.023066163
61	0x3df2b0ee	0.11850153
62	0x3c9b3498	0.018945977
63	0x3df00626	0.11719923
64	0xbe3079d7	-0.17233978
65	0x3e063463	0.13105921
66	0xbd7940ea	-0.060852922
67	0xbd166c04	-0.036724105
68	0xbdf6d9f8	-0.12053293
69	0x3e26177f	0.162199
70	0xbe06db52	-0.13169602
71	0x3e23d6f7	0.15999971
72	0x3e205e55	0.15660985
73	0x3dbf04ce	0.09327088
74	0x3db785be	0.08961056
75	0x3d3e6f40	0.046492815
76	0xbac5a580	-0.001507923
77	0x3de97d1a	0.11400814
78	0xbd022778	-0.03177592
79	0xbdea8ee6	-0.11453037
80	0xbe0155a5	-0.12630327
81	0xbe202169	-0.15637745
82	0xbdaa15ab	-0.08304914
83	0x3dd42b2e	0.10359798
84	0x3d314c10	0.04328543
85	0x3c9daf70	0.019248694
86	0xbd5e7e56	-0.054319702
87	0xbcc71208	-0.02430059
88	0x3daaddbe	0.08343075
89	0x3d523838	0.051323146
90	0x3e075a3f	0.1321802
91	0xbd8fe1b9	-0.07025475
92	0xbd303b28	-0.043025166
93	0x3e23821d	0.15967603
94	0xbdc83ede	-0.09777616
95	0xbe2f55b6	-0.1712254
96	0xbe281188	-0.16412938
97	0xbdd605fe	-0.10450362
98	0xbdc5dc53	-0.09661164
99	0x3b753a40	0.0037418753
100	0x3d709f34	0.058745578
101	0xbd9f42ea	-0.07776435
102	0xbd53b98c	-0.051690623
103	0xbd79d032	-0.060989566
104	0xbcd65928	-0.02616556
105	0x3d9605e2	0.07325341
106	0xbdbd5448	-0.09244591
107	0x3dc872f6	0.09787552
108	0xbe3420b4	-0.175906
109	0xbdeb91f2	-0.11502446
110	0xbe3017e7	-0.17196618
111	0xbd2860c4	-0.041107908
112	0x3d8c14a4	0.068398744
113	0x3d5d93a4	0.05409588
114	0xbb8eb9c0	-0.004355639
115	0xbbc1c240	-0.005913049
116	0x3e169a49	0.14707293
117	0xbe005284	-0.12531477
118	0xbd8a5aa6	-0.06755571
119	0xb9b37c00	-0.00034233928
120	0x3db2d3f2	0.087318316
121	0xbdeaa9c5	-0.11458162
122	0x3cbcc0b8	0.023041114
123	0xbdd757bc	-0.10514781
124	0xbdab478c	-0.08363256
125	0xbe1df5e5	-0.15425833
126	0x3e0b1445	0.13581951
127	0xbdf11fdc	-0.11773655
128	0xbd6b513c	-0.057450518
129	0xbda8147c	-0.08207032
130	0x3d8a59a4	0.06755379
131	0x3df3ecb2	0.119103804
132	0x3da47656	0.08030383
133	0xbcaf0448	-0.021364346
134	0xbde3ad71	-0.11117066
135	0x3e2bdb23	0.16782813
136	0xbe0eb387	-0.13935672
137	0xbc880fe8	-0.016609147
138	0x3d9f9976	0.07792942
139	0x3dcc42e2	0.099736944
140	0x3e0f8093	0.14013891
141	0x3e27ae47	0.16375075
142	0x3db1fb72	0.086905375
143	0x3e303bab	0.17210262
144	0x3dfef1d6	0.1244847
145	0x3ce0c6a8	0.027438477
146	0x3dbfacf2	0.093591586
147	0xbd8b47d1	-0.06800807
148	0xbde3c727	-0.1112197
149	0xbe1f699b	-0.15567629
150	0x3d55902c	0.052139446
151	0xbe00d928	-0.12582839
152	0xbcd4a6f8	-0.025958523
153	0xbe3384bb	-0.17531101
154	0xbd5398d8	-0.051659435
155	0x3dba4016	0.09094255
156	0x3e0cfe43	0.13768868
157	0x3d9a82ae	0.075444564
158	0x3d3692a8	0.044573456
159	0xbe1de4a3	-0.15419249
160	0x3da7c332	0.081915274
161	0xbd99456c	-0.07483944
162	0x3dd97f16	0.10619943
163	0x3de25ff2	0.11053456
164	0xbe00c6a8	-0.12575781
165	0xbdd32f79	-0.10311789
166	0x3bbd8d60	0.0057846755
167	0x3d7d9120	0.06190598
168	0x3e0f6145	0.14001949
169	0x3e310411	0.17286707
170	0xbddbca22	-0.10731913
171	0xbb591a80	-0.0033127367
172	0x3bb61e60	0.00555782
173	0x3a4e6300	0.00078730285
174	0xbaad8500	-0.001323849
175	0xbc299a10	-0.010351673
176	0x3dbbbea6	0.09167223
177	0xbdf7ad37	-0.12093585
178	0xbda2b5d6	-0.07944839
179	0x3e0a4003	0.13500981
180	0x3dcd7a2a	0.100330666
181	0xbce60f30	-0.028083414
182	0x3e2296b3	0.158778
183	0xbe042b94	-0.12907249
184	0xbde1b05e	-0.110199675
185	0xbe17b407	-0.14814769
186	0x3d3110b0	0.043228805
187	0x3de4d896	0.11174123
188	0x3d9f4022	0.07775904
189	0x3d80c0d2	0.062867776
190	0xbdb5ae8e	-0.08871184
191	0x3e21669b	0.15761797
192	0xbd58d02c	-0.052932903
193	0x3e2decc5	0.16984852
194	0x3d6d13fc	0.057880387
195	0x3ce59870	0.02802679
196	0x3dbc171e	0.09184097
197	0xbdcd16ef	-0.1001414
198	0xbe21da37	-0.15805899
199	0xbdd326e0	-0.10310149
200	0xbd96db63	-0.073660634
201	0x3e314f3b	0.1731538
202	0x3c7ffe80	0.015624642
203	0xbcf2e210	-0.02964881
204	0x3e1a0a7b	0.1504306
205	0xbd8767e6	-0.06611614
206	0xbd8409ef	-0.06447207
207	0xbe120e4a	-0.14263263
208	0x3d5f1ec8	0.054472715
209	0x3df28382	0.118414894
210	0x3d9d3bb2	0.076774016
211	0xbc7e9b30	-0.015539929
212	0xbe1860d8	-0.14880693
213	0xbd277f48	-0.04089287
214	0xbc8d5f00	-0.017257214
215	0xbd07c828	-0.03314987
216	0xbe18f2d1	-0.14936377
217	0xbe2ee1cb	-0.1707832
218	0xbdcccaad	-0.09999595
219	0xbe02ebc6	-0.12785253
220	0x37882000	1.6227365e-05
221	0x3e0a019d	0.13477178
222	0xbc97fef0	-0.01855418
223	0x3d8bb8a8	0.0682233
224	0x3db338ce	0.08751069
225	0x3dde9bee	0.10869585
226	0x3dfe6f06	0.1242352
227	0x3d05d458	0.03267321
228	0xbcd25370	-0.025674552
229	0xbe04fdf6	-0.12987503
230	0xbd64561c	-0.055746183
231	0xbe31cc01	-0.17362978
232	0x3e22f3c3	0.159133
233	0x3d6fa20c	0.05850415
234	0x3e26a609	0.16274275
235	0x3de9da52	0.114185944
236	0x3dfef4b6	0.12449019
237	0xbda27380	-0.07932186
238	0x3e113be3	0.14183001
239	0xbe283180	-0.16425133
240	0x3dfb568a	0.122723654
241	0x3e333d17	0.17503773
242	0x3d234920	0.03986466
243	0x3dc1ba7e	0.09459399
244	0xbd0fba64	-0.035089865
245	0x3e0c974b	0.13729589
246	0x3dc4747a	0.09592529
247	0x3d0a1888	0.0337148
248	0x3d9400f8	0.07226747
249	0x3e1a6ffb	0.1508178
250	0xbd937759	-0.07200498
251	0x3e0b4ce5	0.13603552
252	0xbdbd755f	-0.092509024
253	0x3dc880d2	0.097901955
254	0xbe34b369	-0.17646565
255	0xbc966b48	-0.018361703

weight_u f4 [32]
0	0x3e7d2a05	0.2472306
1	0x3e8b871d	0.2725152
2	0x3ea2ac19	0.31771925
3	0x3e099bfb	0.13438408
4	0xbe875645	-0.26433006
5	0x3df51540	0.11966944
6	0xbd5fda5f	-0.054651614
7	0xbe0ad1a7	-0.13556539
8	0x3d89e414	0.067329556
9	0xbcba6adc	-0.022756033
10	0x3e3d866a	0.18508306
11	0x3e90a9ae	0.28254455
12	0xbe36ca3e	-0.17850587
13	0x3dc52f65	0.096281804
14	0xbddbfe2d	-0.107418396
15	0xbdc66b1c	-0.09688398
16	0xbce14319	-0.027497815
17	0xbcd8b3f9	-0.026453005
18	0x3e9a8a8a	0.30183822
19	0x3d5b2531	0.053502265
20	0xbdf619be	-0.12016629
21	0xbd845c52	-0.06462921
22	0x3e834bd4	0.2564379
23	0xbdfb4f7a	-0.12271018
24	0x3d998f17	0.07497995
25	0x3bd31559	0.006441754
26	0xbd6daf57	-0.058028545
27	0x3e57c7ed	0.2107236
28	0xbde786a1	-0.11304975
29	0x3dcfd6c9	0.10148389
30	0xbe5c7bdc	-0.21531624
31	0x3ec05634	0.37565768

weight_v f4 [32]
0	0x3dad1a39	0.08452267
1	0x3e25ac67	0.16179048
2	0xbea0face	-0.3144135
3	0xbe4a1dc1	-0.19737913
4	0x3d33b03d	0.043869246
5	0x3d4ed0ac	0.050491974
6	0xbd8cc166	-0.06872825
7	0x3e2b9d46	0.16759214
8	0xbca5af8b	-0.020225307
9	0x3add9a29	0.0016906905
10	0xbe5dc6cf	-0.2165787
11	0xbd0c42b6	-0.034243308
12	0x3e0b8efe	0.13628766
13	0xbd37befd	-0.044859875
14	0x3e1752a4	0.14777619
15	0xbe3afaec	-0.18259782
16	0x3ea5b4fb	0.3236464
17	0xbd80b901	-0.06285287
18	0xbeb9de54	-0.36302435
19	0xbcbf7ca4	-0.023374863
20	0xbd74bcaf	-0.059750255
21	0x3e2a6a33	0.16642074
22	0x3c531e7f	0.012885689
23	0xbdd54f42	-0.10415508
24	0xbeb7d151	-0.35901883
25	0xbe607876	-0.21920952
26	0xbe651d5b	-0.2237448
27	0xbdd16e27	-0.10226088
28	0x3e619017	0.22027622
29	0xbdd751ab	-0.10513624
30	0xbe9473a9	-0.28994492
31	0x3d5cb00b	0.053878825

weight f4 [32, 32, 1]
0	0x3d64b4b0	0.05583638
1	0x3d52a3ac	0.05142562
2	0xbe02e1da	-0.12781468
3	0x3dd2af0a	0.10287292
4	0xbdd7fdea	-0.10546477
5	0xbde5697b	-0.112017594
6	0x3e322e91	0.17400576
7	0xbe2fba69	-0.17160954
8	0x3e2b4889	0.16726889
9	0x3d8c1828	0.06840545
10	0xbda74411	-0.081672795
11	0x3d259930	0.040429294
12	0xbd9d01b5	-0.07666341
13	0xbd9a425e	-0.0753219
14	0x3d87d818	0.066330135
15	0x3d3979dc	0.04528223
16	0xbd0d9640	-0.034567118
17	0x3d39bf34	0.04534836
18	0x3e0a1c7d	0.1348743
19	0xbdfaeb18	-0.12251872
20	0xbd6c7bda	-0.0577353
21	0xbd17f22c	-0.037096187
22	0x3d479aa0	0.048731446
23	0xbdb8eb62	-0.09029271
24	0x3d94ce90	0.07265961
25	0x3b8f15e0	0.0043666214
26	0xbde6f3f0	-0.11276996
27	0x3df96a0e	0.121784315
28	0x3cb01908	0.02149631
29	0xbe117237	-0.14203726
30	0x3db7df5a	0.08978148
31	0x3e03eb03	0.12882619
32	0x3dcb3dbe	0.09923886
33	0xbcf3da00	-0.029767036
34	0xbd985468	-0.07437974
35	0xbd85757d	-0.0651655
36	0x3e178339	0.14796151
37	0xbd643fc4	-0.055724874
38	0xbdab6298	-0.08368415
39	0xbe152897	-0.14566265
40	0xbdcb7776	-0.09934895
41	0x3df50646	0.11964087
42	0xbe2419bd	-0.16025443
43	0x3dfbaaea	0.12288459
44	0x3da17c66	0.07885055
45	0x3da05f66	0.07830696
46	0x3d892fd6	0.06698577
47	0xbe1eb258	-0.1549772
48	0xbe22a4f3	-0.15883236
49	0xbdde20e0	-0.10846114
50	0xbdc3d00f	-0.095611684
51	0x3dfda8c2	0.123857036
52	0xbd8d2e5f	-0.0689361
53	0xbe1f9f31	-0.1558807
54	0xbdc98fa8	-0.098418534
55	0xbe32098e	-0.17386457
56	0xbcd097b0	-0.025462955
57	0xbe240fc3	-0.16021638
58	0x3cabafb0	0.020957798
59	0x3db7c1aa	0.08972485
60	0xbcbcf540	-0.023066163
61	0x3df2b0ee	0.11850153
62	0x3c9b3498	0.018945977
63	0x3df00626	0.11719923
64	0xbe3079d7	-0.17233978
65	0x3e063463	0.13105921
66	0xbd7940ea	-0.060852922
67	0xbd166c04	-0.036724105
68	0xbdf6d9f8	-0.12053293
69	0x3e26177f	0.162199
70	0xbe06db52	-0.13169602
71	0x3e23d6f7	0.15999971
72	0x3e205e55	0.15660985
73	0x3dbf04ce	0.09327088
74	0x3db785be	0.08961056
75	0x3d3e6f40	0.046492815
76	0xbac5a580	-0.001507923
77	0x3de97d1a	0.11400814
78	0xbd022778	-0.03177592
79	0xbdea8ee6	-0.11453037
80	0xbe0155a5	-0.12630327
81	0xbe202169	-0.15637745
82	0xbdaa15ab	-0.08304914
83	0x3dd42b2e	0.10359798
84	0x3d314c10	0.04328543
85	0x3c9daf70	0.019248694
86	0xbd5e7e56	-0.054319702
87	0xbcc71208	-0.02430059
88	0x3daaddbe	0.08343075
89	0x3d523838	0.051323146
90	0x3e075a3f	0.1321802
91	0xbd8fe1b9	-0.07025475
92	0xbd303b28	-0.043025166
93	0x3e23821d	0.15967603
94	0xbdc83ede	-0.09777616
95	0xbe2f55b6	-0.1712254
96	0xbe281188	-0.16412938
97	0xbdd605fe	-0.10450362
98	0xbdc5dc53	-0.09661164
99	0x3b753a40	0.0037418753
100	0x3d709f34	0.058745578
101	0xbd9f42ea	-0.07776435
102	0xbd53b98c	-0.051690623
103	0xbd79d032	-0.060989566
104	0xbcd65928	-0.02616556
105	0x3d9605e2	0.07325341
106	0xbdbd5448	-0.09244591
107	0x3dc872f6	0.09787552
108	0xbe3420b4	-0.175906
109	0xbdeb91f2	-0.11502446
110	0xbe3017e7	-0.17196618
111	0xbd2860c4	-0.041107908
112	0x3d8c14a4	0.068398744
113	0x3d5d93a4	0.05409588
114	0xbb8eb9c0	-0.004355639
115	0xbbc1c240	-0.005913049
116	0x3e169a49	0.14707293
117	0xbe005284	-0.12531477
118	0xbd8a5aa6	-0.06755571
119	0xb9b37c00	-0.00034233928
120	0x3db2d3f2	0.087318316
121	0xbdeaa9c5	-0.11458162
122	0x3cbcc0b8	0.023041114
123	0xbdd757bc	-0.10514781
124	0xbdab478c	-0.08363256
125	0xbe1df5e5	-0.15425833
126	0x3e0b1445	0.13581951
127	0xbdf11fdc	-0.11773655
128	0xbd6b513c	-0.057450518
129	0xbda8147c	-0.08207032
130	0x3d8a59a4	0.06755379
131	0x3df3ecb2	0.119103804
132	0x3da47656	0.08030383
133	0xbcaf0448	-0.021364346
134	0xbde3ad71	-0.11117066
135	0x3e2bdb23	0.16782813
136	0xbe0eb387	-0.13935672
137	0xbc880fe8	-0.016609147
138	0x3d9f9976	0.07792942
139	0x3dcc42e2	0.099736944
140	0x3e0f8093	0.14013891
141	0x3e27ae47	0.16375075
142	0x3db1fb72	0.086905375
143	0x3e303bab	0.17210262
144	0x3dfef1d6	0.1244847
145	0x3ce0c6a8	0.027438477
146	0x3dbfacf2	0.093591586
147	0xbd8b47d1	-0.06800807
148	0xbde3c727	-0.1112197
149	0xbe1f699b	-0.15567629
150	0x3d55902c	0.052139446
151	0xbe00d928	-0.12582839
152	0xbcd4a6f8	-0.025958523
153	0xbe3384bb	-0.17531101
154	0xbd5398d8	-0.051659435
155	0x3dba4016	0.09094255
156	0x3e0cfe43	0.13768868
157	0x3d9a82ae	0.075444564
158	0x3d3692a8	0.044573456
159	0xbe1de4a3	-0.15419249
160	0x3da7c332	0.081915274
161	0xbd99456c	-0.07483944
162	0x3dd97f16	0.10619943
163	0x3de25ff2	0.11053456
164	0xbe00c6a8	-0.12575781
165	0xbdd32f79	-0.10311789
166	0x3bbd8d60	0.0057846755
167	0x3d7d9120	0.06190598
168	0x3e0f6145	0.14001949
169	0x3e310411	0.17286707
170	0xbddbca22	-0.10731913
171	0xbb591a80	-0.0033127367
172	0x3bb61e60	0.00555782
173	0x3a4e6300	0.00078730285
174	0xbaad8500	-0.001323849
175	0xbc299a10	-0.010351673
176	0x3dbbbea6	0.09167223
177	0xbdf7ad37	-0.12093585
178	0xbda2b5d6	-0.07944839
179	0x3e0a4003	0.13500981
180	0x3dcd7a2a	0.100330666
181	0xbce60f30	-0.028083414
182	0x3e2296b3	0.158778
183	0xbe042b94	-0.12907249
184	0xbde1b05e	-0.110199675
185	0xbe17b407	-0.14814769
186	0x3d3110b0	0.043228805
187	0x3de4d896	0.11174123
188	0x3d9f4022	0.07775904
189	0x3d80c0d2	0.062867776
190	0xbdb5ae8e	-0.08871184
191	0x3e21669b	0.15761797
192	0xbd58d02c	-0.052932903
193	0x3e2decc5	0.16984852
194	0x3d6d13fc	0.057880387
195	0x3ce59870	0.02802679
196	0x3dbc171e	0.09184097
197	0xbdcd16ef	-0.1001414
198	0xbe21da37	-0.15805899
199	0xbdd326e0	-0.10310149
200	0xbd96db63	-0.073660634
201	0x3e314f3b	0.1731538
202	0x3c7ffe80	0.015624642
203	0xbcf2e210	-0.02964881
204	0x3e1a0a7b	0.1504306
205	0xbd8767e6	-0.06611614
206	0xbd8409ef	-0.06447207
207	0xbe120e4a	-0.14263263
208	0x3d5f1ec8	0.054472715
209	0x3df28382	0.118414894
210	0x3d9d3bb2	0.076774016
211	0xbc7e9b30	-0.015539929
212	0xbe1860d8	-0.14880693
213	0xbd277f48	-0.04089287
214	0xbc8d5f00	-0.017257214
215	0xbd07c828	-0.03314987
216	0xbe18f2d1	-0.14936377
217	0xbe2ee1cb	-0.1707832
218	0xbdcccaad	-0.09999595
219	0xbe02ebc6	-0.12785253
220	0x37882000	1.6227365e-05
221	0x3e0a019d	0.13477178
222	0xbc97fef0	-0.01855418
223	0x3d8bb8a8	0.0682233
224	0x3db338ce	0.08751069
225	0x3dde9bee	0.10869585
226	0x3dfe6f06	0.1242352
227	0x3d05d458	0.03267321
228	0xbcd25370	-0.025674552
229	0xbe04fdf6	-0.12987503
230	0xbd64561c	-0.055746183
231	0xbe31cc01	-0.17362978
232	0x3e22f3c3	0.159133
233	0x3d6fa20c	0.05850415
234	0x3e26a609	0.16274275
235	0x3de9da52	0.114185944
236	0x3dfef4b6	0.12449019
237	0xbda27380	-0.07932186
238	0x3e113be3	0.14183001
239	0xbe283180	-0.16425133
240	0x3dfb568a	0.122723654
241	0x3e333d17	0.17503773
242	0x3d234920	0.03986466
243	0x3dc1ba7e	0.09459399
244	0xbd0fba64	-0.035089865
245	0x3e0c974b	0.13729589
246	0x3dc4747a	0.09592529
247	0x3d0a1888	0.0337148
248	0x3d9400f8	0.07226747
249	0x3e1a6ffb	0.1508178
250	0xbd937759	-0.07200498
251	0x3e0b4ce5	0.13603552
252	0xbdbd755f	-0.092509024
253	0x3dc880d2	0.097901955
254	0xbe34b369	-0.17646565
255	0xbc966b48	-0.018361703

weight f4 [1, 32, 1]
0	0x3de6d312	0.11270727
1	0xbe1c7bc5	-0.1528159
2	0x3e157e05	0.14598854
3	0xbc956ef8	-0.01824139
4	0xbde0f7c8	-0.109847605
5	0x3e24ace1	0.16081573
6	0xbce921a0	-0.028458416
7	0x3e1a33a3	0.1505876
8	0xbe309831	-0.17245556
9	0x3e333e45	0.17504223
10	0x3c0a5ff0	0.008445725
11	0xbe1a07d6	-0.15042052
12	0xbd729b2e	-0.059230022
13	0x3d3bc09c	0.045837983
14	0x3c8e52b0	0.017373413
15	0xbe1dc50e	-0.15407202
16	0x3ca5b950	0.020229965
17	0x3d56d1c4	0.05244614
18	0x3cbd2bf8	0.023092255
19	0x3daaed8a	0.08346088
20	0x3d9bf9be	0.07615994
21	0x3c902fe8	0.017600968
22	0xbe2f40b6	-0.17114529
23	0xbc8c95d8	-0.017161295
24	0xbd73d610	-0.059530318
25	0xbda132e2	-0.07871033
26	0xbe0e6ad6	-0.13907942
27	0xbde6323f	-0.112400524
28	0xbda59e2d	-0.0808681
29	0xbdcef635	-0.10105554
30	0x3d2faec8	0.042891294
31	0x3ddb2ee2	0.107023016

weight f4 [1, 32, 1]
0	0xbcaf5a28	-0.021405295
1	0x3dd4a4be	0.103829846
2	0xbde8fd3e	-0.11376427
3	0xbcd0ffd8	-0.02551262
4	0x3c592c10	0.013255134
5	0xbe149664	-0.14510494
6	0xbdb4eec9	-0.08834607
7	0x3d77e5bc	0.060521826
8	0xbdf8aa37	-0.12141841
9	0xbd31e8c4	-0.043434873
10	0x3e1f25b7	0.15541731
11	0x3d971ebe	0.073789105
12	0xbdcc67ef	-0.09980761
13	0x3ac78800	0.0015223026
14	0x3e330b5d	0.17484803
15	0xbdbeed49	-0.09322602
16	0xbe2ad1fb	-0.16681664
17	0xbd365fc4	-0.044524923
18	0x3ddbcf72	0.107329264
19	0x3c4f9af0	0.012671217
20	0xbe20c762	-0.15701059
21	0x3df0f62a	0.11765702
22	0x395a0800	0.0002079308
23	0xbd37513c	-0.044755206
24	0x3d6da494	0.058018282
25	0x3dc1193e	0.09428643
26	0x3c962cc8	0.0183319
27	0x3dce327a	0.100682214
28	0xbd16f000	-0.036849976
29	0x3c734160	0.01484713
30	0x3dc7a72a	0.09748681
31	0x3c6dedc0	0.014522016

weight f4 [1, 32, 1]
0	0x3dcf0bba	0.101096585
1	0xbdb13e09	-0.086544104
2	0x3dec9af6	0.11552994
3	0x3d46d6e4	0.04854478
4	0xbe06d905	-0.13168724
5	0x3d094e4c	0.033521935
6	0xbe271fc4	-0.16320711
7	0x3de4e816	0.111770794
8	0xbb13ea40	-0.0022570044
9	0x3e16ea17	0.14737736
10	0x3e282af3	0.16422634
11	0xbd4312b4	-0.04762526
12	0x3c3fc040	0.011703551
13	0x3dfe222e	0.12408863
14	0x3e2f4b43	0.17118554
15	0xbd81d895	-0.06340138
16	0xbd90afab	-0.07064756
17	0x3e2f6327	0.17127667
18	0xbe125643	-0.14290719
19	0xbd0dec40	-0.034649134
20	0xbe231c32	-0.15928724
21	0x3dc5dd66	0.09661369
22	0xbd88f72c	-0.06687769
23	0x3daf4f3a	0.08560033
24	0x3e18147f	0.14851569
25	0x3e0a5595	0.1350921
26	0x3b334940	0.0027356893
27	0xbe0e3308	-0.13886654
28	0xbde37ae5	-0.11107425
29	0x3dc6eb86	0.09712891
30	0x3d3a3354	0.045459107
31	0x3db77c72	0.08959283

bias f4 [32]
0	0x3e100c10	0.14067101
1	0x3dac4ff4	0.08413687
2	0x3ddc54d7	0.107583694
3	0x3d8ab235	0.067722715
4	0xbdeb8114	-0.11499229
5	0x3d978d90	0.07400048
6	0x3e2d5faf	0.16931032
7	0x3de9c754	0.11414972
8	0x3d4fdbbb	0.05074666
9	0x3d1a4f2e	0.037673168
10	0x3e392153	0.18079118
11	0xbca04043	-0.019561892
12	0xbe233695	-0.1593879
13	0x3d9d6557	0.07685345
14	0x3dfa02c6	0.1220756
15	0x3d66439f	0.056216832
16	0xbd3cd486	-0.046101116
17	0x3dc5e9e3	0.09663751
18	0xbde653c6	-0.11246447
19	0x3db97109	0.09054763
20	0xbdc1d9e1	-0.09465385
21	0xbdc49d1a	-0.09600277
22	0x3d58625e	0.052828185
23	0xbd8945d0	-0.06702769
24	0x3e02e1cc	0.12781447
25	0x3e13ea4c	0.14444846
26	0x3c6248f5	0.01381134
27	0x3db08ace	0.08620225
28	0x3af6e8aa	0.001883765
29	0x3c8915c9	0.01673402
30	0x3d716aea	0.05893985
31	0xbe2cad10	-0.16862893

weight_orig f4 [32, 32, 1]
0	0xbd982a0e	-0.07429896
1	0x3da85f34	0.082212836
2	0xbd724a31	-0.059152786
3	0xbd69acb4	-0.05704947
4	0xbe0215e7	-0.12703668
5	0x3de1f09a	0.11032219
6	0x3d877cbb	0.06615587
7	0xbdb70df9	-0.08938212
8	0xbdc9b062	-0.098480955
9	0x3e2f4258	0.17115152
10	0xbdf1b7bb	-0.11802622
11	0x3e13346a	0.14375463
12	0xbd3aded4	-0.04562266
13	0x3d813eb0	0.06310785
14	0x3e22a0c5	0.15881641
15	0x3dbe38f3	0.09288206
16	0xbe2a553a	-0.16634074
17	0xbd380e3c	-0.04493545
18	0x3dbaa917	0.091142826
19	0xbdf3beac	-0.11901602
20	0xbca8076a	-0.020511348
21	0x3d9b23ad	0.07575164
22	0x3e0e559d	0.13899846
23	0xbe373b3c	-0.1789369
24	0x3d1b90aa	0.03797976
25	0xbd958e4b	-0.07302531
26	0xbe37e86c	-0.17959756
27	0xbdf3b4a3	-0.11899688
28	0xbe05ac67	-0.13054048
29	0xbd3b6faf	-0.045760807
30	0x3d9e3bcd	0.0772625
31	0xbbf827e6	-0.0075731156
32	0x3dc2353a	0.094828084
33	0x3df87e0a	0.12133415
34	0xbd874014	-0.06604019
35	0xbe0cfc68	-0.1376816
36	0xbe04b242	-0.12958625
37	0xbe00089e	-0.12503287
38	0x3e24d887	0.16098224
39	0xbdafaab0	-0.08577478
40	0xbe1d8629	-0.1538321
41	0xbce1f42d	-0.027582252
42	0x3d21e744	0.039527193
43	0xbe29e9d5	-0.16593106
44	0xbd4e320d	-0.0503407
45	0x3db2abc6	0.087241694
46	0x3dbb6294	0.09149662
47	0x3dffd3bd	0.12491558
48	0x3e23b0ab	0.15985362
49	0xbcffa71f	-0.03120762
50	0xbe32b1c2	-0.17450622
51	0xbd49baa8	-0.049250275
52	0xbdd41a72	-0.103566065
53	0xbdf60102	-0.12011911
54	0x3e13addb	0.1442179
55	0xbcba31db	-0.022728851
56	0xbe040789	-0.128935
57	0xbe1f5d03	-0.15562825
58	0x3ddc31b7	0.1075167
59	0xbdbf573e	-0.09342812
60	0xbd97b1cf	-0.07406961
61	0x3d9c5b50	0.07634604
62	0xbd53f41f	-0.051746484
63	0x3bf2de62	0.007411764
64	0x3d3358e9	0.043785963
65	0x3d9b826f	0.075932376
66	0x3de89263	0.11356046
67	0xbe03dfb8	-0.1287831
68	0x3df82066	0.121155545
69	0x3bbf8c58	0.0058455877
70	0xbc87bc5a	-0.016569305
71	0xbe22b7df	-0.15890454
72	0x3dd16a13	0.1022531
73	0x3c83d3be	0.016092177
74	0xbe280e37	-0.16411673
75	0xbca9c474	-0.020723559
76	0x3d7029d2	0.058633633
77	0xbe1bbd09	-0.1520883
78	0x3e29a93a	0.16568461
79	0xbde9e35d	-0.11420319
80	0x3cd44c30	0.025915235
81	0xbe170b64	-0.14750439
82	0xbce7a73d	-0.028277988
83	0x3b3c8996	0.002876853
84	0x3d68f766	0.056876563
85	0x3d74f554	0.059804276
86	0xbc4758ed	-0.012167198
87	0xbda15ac0	-0.07878637
88	0xbe1f285f	-0.15542744
89	0xbe019430	-0.12654185
90	0x3defa3b5	0.117011465
91	0xbdc74664	-0.09730223
92	0xbde6f9d7	-0.11278122
93	0xbd8cfa5d	-0.068836905
94	0x3d91e16b	0.07123073
95	0x3d842c3d	0.0645375
96	0x3dce9d1a	0.100885585
97	0x3ce2e6f7	0.027698023
98	0x3e13d2dd	0.14435907
99	0x3db113b5	0.08646337
100	0xbd264be3	-0.040599715
101	0x3e2b56d9	0.16732349
102	0xbd74b279	-0.059740517
103	0x3d765f66	0.060149573
104	0xbd6467eb	-0.055763166
105	0x3e147fe3	0.1450191
106	0xbde5b9e5	-0.11217097
107	0xbe0f4c58	-0.13993967
108	0x3de4010f	0.111330144
109	0x3e170f68	0.14751971
110	0xbd4f7e8a	-0.050657786
111	0xbd1018dc	-0.035179958
112	0xbd3d8089	-0.04626516
113	0xbc2c65db	-0.010522331
114	0x3dbc4a54	0.091938645
115	0xbdfa81fd	-0.122318245
116	0x3e39cd29	0.18144669
117	0xbe06d402	-0.13166812
118	0xbde89bab	-0.11357816
119	0x3caa6c26	0.020803522
120	0xbdbf1063	-0.093292974
121	0x3e0a5449	0.13508715
122	0xbd0ff5d2	-0.035146542
123	0xbde5b47e	-0.11216067
124	0x3d7c0c44	0.061535135
125	0xbcfc4859	-0.030796217
126	0x3e191a68	0.1495148
127	0x3d874423	0.06604793
128	0xbd42ec14	-0.047588423
129	0xbc2ed81d	-0.010671643
130	0xbde517d5	-0.11186186
131	0xbdf7f8ca	-0.121079996
132	0x3dd5bbe7	0.1043623
133	0xbe2a3a1c	-0.1662373
134	0xbdda9e0f	-0.106746785
135	0x3dc2de24	0.09515026
136	0xbe120f60	-0.14263678
137	0xbcc4f45d	-0.024042303
138	0x3c65f0c5	0.014034455
139	0xbdb556cd	-0.088544466
140	0x3dbbf230	0.09177053
141	0xbcdbf03d	-0.026847953
142	0x3dad65a3	0.08466651
143	0xbd45f024	-0.04832472
144	0xbe29515f	-0.16534947
145	0xbdc58326	-0.09644155
146	0xbc89d8de	-0.016827043
147	0x3d914e8a	0.07095058
148	0x3e10ce70	0.1414125
149	0xbe118733	-0.1421173
150	0xba39ecc4	-0.0007092471
151	0xbe22b6e9	-0.15890087
152	0x3da69677	0.08134168
153	0x3dcbd93d	0.09953544
154	0xbbaad4f1	-0.005213373
155	0x3e187b77	0.14890848
156	0xbe1edf37	-0.15514837
157	0xbe2ca30a	-0.1685907
158	0xbbba6133	-0.0056878566
159	0xbd110253	-0.035402607
160	0x3d052710	0.032507956
161	0xbe1eb8c2	-0.15500167
162	0x3e0e19fb	0.13877098
163	0xbe12f859	-0.1435255
164	0xbdfd3f92	-0.12365641
165	0x3e313f17	0.17309223
166	0xbe1dc90f	-0.15408729
167	0x3d0fd01c	0.035110578
168	0xbddb2f5d	-0.10702393
169	0x3d55fa5d	0.05224072
170	0xbe0e31e8	-0.13886225
171	0x3bf296f8	0.007403251
172	0xbda73fb0	-0.08166444
173	0xbcd3ccda	-0.025854517
174	0x3e19580c	0.14974993
175	0x3df724ed	0.1206759
176	0x3e165c16	0.14683565
177	0x3dcbd831	0.099533446
178	0x3e1ea000	0.15490723
179	0xbc696e4c	-0.014247488
180	0xbd91d839	-0.07121319
181	0x3e01c1a3	0.12671523
182	0x3e021028	0.12701476
183	0xbac80c55	-0.0015262464
184	0xbdce8b1d	-0.100851275
185	0x3cad4c36	0.021154504
186	0xbccf836c	-0.025331222
187	0x3d915306	0.070959136
188	0x3e0ab1ed	0.13544436
189	0xbcc61e39	-0.024184333
190	0xbe0dba63	-0.13840632
191	0xbca3792b	-0.019955238
192	0xbe03c6d9	-0.12868823
193	0xbc1d58bc	-0.009603675
194	0xbdab5650	-0.08366072
195	0xbcff3791	-0.031154426
196	0x3e17f493	0.14839391
197	0x3deccc94	0.11562458
198	0xbdaedee0	-0.08538604
199	0xbe1fead4	-0.15616924
200	0xbdba07db	-0.090835296
201	0xbe192040	-0.14953709
202	0x3e0e0d61	0.13872291
203	0xbdf36563	-0.11884572
204	0xbd58a274	-0.052889302
205	0xbe1ff472	-0.15620592
206	0x3ca53f05	0.020171652
207	0xbd188c3f	-0.037243124
208	0x3e2f12a6	0.17096958
209	0x3d8cbef3	0.06872358
210	0xbdce2677	-0.1006593
211	0x3da1d4a6	0.079018876
212	0xbc80e8df	-0.015736042
213	0x3decf9cc	0.115710825
214	0xbd6f64d8	-0.05844578
215	0x3da9fc9e	0.08300136
216	0x3df9b42c	0.12192568
217	0x3e2416fe	0.16024396
218	0x3e2a0a1d	0.1660542
219	0x3e1cb2a2	0.15302518
220	0x3e1767b0	0.14785647
221	0x3d9177e4	0.071029454
222	0xbd3762da	-0.044772007
223	0x3d017460	0.031605124
224	0xbda6f31e	-0.0815184
225	0x3d9dca3b	0.07704588
226	0xbd60e3ea	-0.054904856
227	0xbe1dc33d	-0.15406509
228	0x3c0769ef	0.008265003
229	0x3d9a59cb	0.07536658
230	0xbd9bf649	-0.076153345
231	0x3e17668a	0.1478521
232	0x3d52ae74	0.051435903
233	0x3ddbfbde	0.10741399
234	0x3d7420e3	0.059601676
235	0xbdaf85d4	-0.085704476
236	0xbcf11ebe	-0.029433604
237	0xbde17b31	-0.11009825
238	0x3dba20d0	0.0908829
239	0xbe07f70e	-0.13277838
240	0x3d4d6da9	0.05015341
241	0xbdf29daf	-0.11846482
242	0x3d8c7945	0.06859068
243	0x3e12dc41	0.14341833
244	0xbda42863	-0.08015516
245	0x3d8d88ad	0.069108345
246	0x3d8dd82d	0.06925998
247	0xbd16e1bc	-0.03683637
248	0x3d8a68cc	0.0675827
249	0x3dc33fd7	0.09533661
250	0x3d9766a4	0.07392624
251	0xbd9657eb	-0.07340988
252	0xbe018b8b	-0.12650888
253	0xbe30689c	-0.17227405
254	0x3ca319bb	0.01990973
255	0xbde111f6	-0.10989754

weight_u f4 [32]
0	0xbe97132a	-0.2950681
1	0xbe4cf5cf	-0.20015644
2	0xbdeb9b14	-0.11504188
3	0xbd0d8958	-0.03455481
4	0xbde3778b	-0.111067854
5	0x3d33cab1	0.043894473
6	0x3e8ba7de	0.2727651
7	0x3de98d2a	0.11403878
8	0xbe0edf89	-0.1395246
9	0xbe355e0b	-0.17711656
10	0x3ceaa24d	0.028641844
11	0x3e5c87db	0.215362
12	0x3e15cddc	0.1462931
13	0x3d36af4b	0.044600766
14	0x3e34b406	0.17646798
15	0x3d92e9c7	0.07173496
16	0xbd5b755f	-0.05357873
17	0xbe39ea4e	-0.18155786
18	0x3e01d353	0.1267827
19	0xbc3645af	-0.011125012
20	0xbc078a45	-0.008272712
21	0x3e84eba9	0.25961044
22	0xbec74f10	-0.38927507
23	0x3a01a8a4	0.0004946089
24	0xbc56fabf	-0.013121306
25	0x3db4ca4e	0.08827649
26	0x3e435eb1	0.1907909
27	0x3eabd5a8	0.33561444
28	0x3e84dec6	0.25951213
29	0x3dc4eea9	0.09615833
30	0xbdd2bee1	-0.102903135
31	0xbe94403b	-0.28955254

weight_v f4 [32]
0	0xba4a5330	-0.00077180844
1	0xbe992c9e	-0.29916853
2	0x3d304447	0.043033864
3	0x3e09fc44	0.13475138
4	0x3eb74315	0.35793367
5	0x3e151baa	0.14561334
6	0xbdf59b1f	-0.119924776
7	0x3e466eb6	0.1937817
8	0x3e5806da	0.21096364
9	0x3d521cb2	0.051296897
10	0x3e65c149	0.22437014
11	0xbe7c4643	-0.24636178
12	0xbe092bc4	-0.13395602
13	0xbe2b35d7	-0.16719757
14	0xbdcad469	-0.09903795
15	0xbd147d37	-0.036252227
16	0x3e1ae1e2	0.1512523
17	0x3d7acf7e	0.061233036
18	0xbd29691f	-0.041360017
19	0x3e56b178	0.20966136
20	0xbe06d18a	-0.1316587
21	0x3e789d13	0.24278669
22	0xbdaabf33	-0.083372496
23	0x3eac14a3	0.33609495
24	0x3de4e80e	0.111770734
25	0x3eb4324f	0.35194632
26	0x3c9df41a	0.019281436
27	0xbde9279a	-0.113845065
28	0x3ded4b4a	0.11586626
29	0x3e0cc739	0.13747872
30	0xbe0659c7	-0.13120185
31	0xbda2db47	-0.0795198
