Models/M4/wo_sa_ml/wo_sa_ml_generator.pt (torch, 149147 bytes, 70 tensors)

bias f4 [32]
-0.14656045 -0.124016315 0.24531837 0.19760379 -0.15603021 -0.03203387 -0.25382504 -0.06831542
-0.0067727556 -0.224802 0.29061434 -0.15942933 -0.2037712 -0.028469516 0.26984835 -0.018217498
-0.18778253 0.054541424 0.06269323 -0.21902068 0.11579241 -0.20999931 -0.09791299 0.15120348
-0.07938604 0.26275918 0.31018165 -0.30438012 -0.26622847 -0.04569272 0.0045623463 0.13231082
00000000: f113 16be 44fc fdbd bd34 7b3e a658 4a3e
00000010: 62c6 1fbe f335 03bd 5bf5 81be f4e8 8bbd
00000020: feed ddbb 7f32 66be 67cb 943e 7141 23be
00000030: 66a9 50be e738 e9bc 9029 8a3e dd3c 95bc
00000040: 104a 40be d466 5f3d 4f65 803d f546 60be
00000050: 9224 ed3d 0f0a 57be 9b86 c8bd 16d5 1a3e
00000060: 2695 a2bd 5f88 863e 21d0 9e3e b6d7 9bbe
00000070: 194f 88be 4a28 3bbd bc7f 953b 7d7c 073e

weight_orig f4 [32, 12, 1]
0.13841638 0.16133401 -0.16211115 0.0068106814 0.22106153 -0.04165525 0.18502332 -0.11943843
-0.11696029 0.05418257 0.048203137 -0.11486602 0.28379783 -0.118659474 -0.10620239 -0.18764251
0.24267697 -0.08938887 0.11825348 0.12412916 0.30744943 0.019686086 -0.08251705 -0.114418834
0.14242096 0.12787004 -0.10383396 -0.0446374 0.20778887 0.058791682 0.045657117 -0.26675373
-0.059732378 0.25479966 -0.08878179 -0.075857826 0.077449545 0.027227402 0.20982762 -0.010105726
-0.049519666 -0.17330463 0.13130723 0.0054328963 -0.20987466 0.25139913 -0.14317106 -0.26457822
-0.16592613 0.23633699 0.1639656 -0.27106568 0.12629692 0.19112213 -0.08367452 -0.15610525
-0.28087017 -0.15429528 -0.20735857 0.25739235 0.13104446 0.18641247 -0.08127114 0.018475726
0.052837163 0.21542679 -0.26022148 0.15021926 0.15253958 -0.11218349 0.13979504 -0.23810634
-0.05231737 0.005638163 0.096532285 0.23310383 -0.06456225 -0.004955693 0.027325414 0.08079509
0.069666125 0.05406681 0.06447699 -0.16772768 -0.106515914 -0.15130185 0.14785738 0.14702567
-0.06883414 0.11554437 0.09570884 -0.24246237 -0.014871487 -0.21357694 0.087093346 -0.17866813
-0.17772187 0.16600797 0.27972743 -0.19160621 0.028943239 -0.0069280015 -0.2205626 0.0048182984
0.25511262 -0.21680489 0.07492175 -0.11249869 0.009212992 -0.028774256 -0.2137076 -0.13081111
-0.10949245 -0.17000067 -0.20568821 0.16740564 -0.20794958 -0.13494904 0.141756 -0.23346141
0.29044485 -0.0050036637 0.10778103 0.06700471 -0.23219983 0.05682168 -0.05829757 0.14585167
0.12528856 -0.06729295 0.18802679 -0.27057412 0.1071483 0.022701705 -0.09144767 0.09449148
0.082636416 0.19087085 0.15193747 -0.17194672 -0.06349935 -0.06427616 0.2773652 -0.2797038
0.115934305 -0.23640227 -0.13573094 -0.23578605 0.2067162 0.20568492 -0.0993557 0.038348693
-0.22322951 0.15851086 -0.08711841 -0.27247995 0.15360677 0.008019882 0.018487355 0.19687699
-0.038796805 -0.0043426123 -0.1756363 -0.034978036 0.20090571 -0.048480775 0.12594439 0.22510746
-0.18375066 0.12736265 0.16322537 0.093323186 -0.14317906 -0.015159892 0.23622194 -0.041505516
-0.123442866 0.24124362 -0.057166427 -0.23041555 -0.08608444 -0.12829196 0.13227977 -0.065847635
-0.23945552 0.21152264 -0.14883284 -0.05602873 0.11172026 -0.18954207 0.21988873 0.25984544
-0.03379977 0.0496774 0.02468047 0.27763736 0.0027604287 -0.061699986 -0.21667296 -0.2994069
-0.08203405 0.22805108 -0.12887011 0.09797976 -0.017439758 0.007957923 -0.15468341 -0.00311074
-0.13779718 -0.16020572 -0.10270434 -0.2806487 0.23059537 0.040149458 -0.09176427 -0.105310686
0.22812621 -0.13816975 0.27609608 -0.30944073 -0.17081916 0.1517898 -0.15413927 -0.20271683
-0.2875551 0.2612645 0.2734919 0.21222484 -0.13869607 0.15734492 0.10185664 -0.1975795
-0.1698469 -0.06757138 0.23659945 -0.11371529 0.121502094 -0.21737699 -0.06584449 -0.14405975
0.22440979 -0.22803882 -0.082901984 -0.03634522 0.22690296 -0.14753662 -0.21087085 0.026573485
0.08271724 -0.037081193 -0.12995574 -0.032442927 -0.17987117 0.26071033 0.12611736 -0.27911
00000000: 06bd 0d3e be34 253e 7700 26be 232c df3b
00000010: f45d 623e b29e 2abd c176 3d3e 239c f4bd
00000020: e088 efbd 8bee 5d3d a770 453d e03e ebbd
00000030: f34d 913e bd03 f3bd a380 d9bd 5c25 40be
00000040: 5080 783e 8311 b7bd e12e f23d 6e37 fe3d
00000050: 036a 9d3e b744 a13c b3fe a8bd 6c54 eabd
00000060: cdd6 113e 5df0 023e e6a6 d4bd b5d5 36bd
00000070: 9bc6 543e 8ccf 703d f502 3b3d f293 88be
00000080: f0a9 74bd 1a75 823e 3ad3 b5bd 595b 9bbd
00000090: de9d 9e3d 000c df3c 0ddd 563e 7d92 25bc
000000a0: 22d5 4abd c576 31be 6775 063e 7006 b23b
000000b0: 62e9 56be 63b7 803e 6f9b 12be cc76 87be
000000c0: 8ae8 29be 5302 723e 99e6 273e 1fc9 8abe
000000d0: fb53 013e 85b5 433e 8c5d abbd 0eda 1fbe
000000e0: 37ce 8fbe 95ff 1dbe ce55 54be eec8 833e
000000f0: 8530 063e e9e2 3e3e 7c71 a6bd 685a 973c
00000100: c86b 583d d798 5c3e c03b 85be 14d3 193e
00000110: 5633 1c3e 75c0 e5bd 6e26 0f3e 26d2 73be
00000120: bd4a 56bd 57c0 b83b b8b2 c53d c5b2 6e3e
00000130: 3739 84bd 5e63 a2bb 8cd9 df3c e577 a53d
00000140: 1dad 8e3d 2975 5d3d 830c 843d cec0 2bbe
00000150: 0425 dabd dfee 1abe ed67 173e e68d 163e
00000160: eaf8 8cbd 87a2 ec3d ff02 c43d 0e48 78be
00000170: 8aa7 73bc eab3 5abe ff5d b23d c7f4 36be
00000180: b9fc 35be fefd 293e 6f38 8f3e 6b34 44be
00000190: 5f1a ed3c 4a04 e3bb 2adb 61be d1e2 9d3b
000001a0: 1f9e 823e 1a02 5ebe 9370 993d b765 e6bd
000001b0: 17f2 163c fdb7 ebbc 2ad6 5abe 59f3 05be
000001c0: 943d e0bd a814 2ebe ee9f 52be 626c 2b3e
000001d0: bcf0 54be 1530 0abe 7c28 113e 8210 6fbe
000001e0: 30b5 943e c6f5 a3bb 4dbc dc3d c439 893d
000001f0: cbc5 6dbe dabd 683d 6fc9 6ebd 245a 153e
00000200: a54b 003e e3d0 89bd 188a 403e b188 8abe
00000210: 9170 db3d edf8 b93c ea48 bbbd c084 c13d
00000220: 483d a93d a673 433e 7f95 1b3e cd12 30be
00000230: f20b 82bd 38a3 83bd d002 8e3e 5635 8fbe
00000240: f76e ed3d 7013 72be 0dfd 0abe e671 71be
00000250: 69ad 533e 119f 523e 007b cbbd 8513 1d3d
00000260: 4796 64be ac50 223e 236b b2bd 7e82 8bbe
00000270: 184b 1d3e d365 033c cb72 973c 1f9a 493e
00000280: 66e9 1ebd 794c 8ebb 01da 33be 2145 0fbd
00000290: 3aba 4d3e c793 46bd 91f7 003e 9282 663e
000002a0: 2229 3cbe 5b6b 023e 8d24 273e 3a20 bf3d
000002b0: 889d 12be 3261 78bc 2ae4 713e b001 2abd
000002c0: 9dcf fcbd 9108 773e 5827 6abd 0ef2 6bbe
000002d0: 0a4d b0bd f85e 03be 5974 073e 20db 86bd
000002e0: d433 75be 6499 583e a367 18be 627e 65bd
000002f0: 97cd e43d 5117 42be 832a 613e 760a 853e
00000300: a171 0abd 887a 4b3d b22e ca3c 7c26 8e3e
00000310: 4fe8 343b 20b9 7cbd 84df 5dbe dc4b 99be
00000320: 7801 a8bd 3986 693e 87f6 03be 9da9 c83d
00000330: d3dd 8ebc f361 023c 5465 1ebe 8fdd 4bbb
00000340: b41a 0dbe f80c 24be a756 d2bd 30b1 8fbe
00000350: 3121 6c3e c273 243d e8ee bbbd 21ad d7bd
00000360: eb99 693e 5f7c 0dbe 775c 8d3e 046f 9ebe
00000370: 38eb 2ebe c96e 1b3e afd6 1dbe 0095 4fbe
00000380: 6c3a 93be 76c4 853e 2107 8c3e 7851 593e
00000390: 5806 0ebe 071f 213e 379a d03d 4852 4abe
000003a0: 59ec 2dbe dd62 8abd 2047 723e 90e3 e8bd
000003b0: 17d6 f83d 1398 5ebe 7ad9 86bd 6684 13be
000003c0: aecb 653e 0283 69be 84c8 a9bd bade 14bd
000003d0: 4059 683e d713 17be 87ee 57be a3b0 d93c
000003e0: a867 a93d 73e2 17bd 1e13 05be e0e2 04bd
000003f0: 2630 38be d37b 853e e924 013e 82e7 8ebe

weight_u f4 [32]
-0.13537449 0.018372096 -0.19488755 -0.29409498 -0.119536035 0.059507847 -0.009747374 0.050771236
-0.023783822 -0.021461861 0.097112365 -0.0037102788 -0.11443725 0.27287042 -0.31421527 0.28934062
-0.04277321 -0.0823937 0.07701304 -0.18633595 0.12203508 -0.36283657 -0.16359916 0.17139484
-0.23508458 0.05475197 0.15303963 0.177029 0.252666 -0.26183787 -0.23213987 -0.06797873
00000000: 9c9f 0abe 1481 963c 9a90 47be 9e93 96be
00000010: 4fcf f4bd 80be 733d 73b3 1fbc 80f5 4f3d
00000020: 4ad6 c2bc c9d0 afbc d9e2 c63d 2628 73bb
00000030: 145e eabd acb5 8b3e d3e0 a0be 7424 943e
00000040: f632 2fbd 07be a8bd 03b9 9d3d dace 3ebe
00000050: 87ed f93d b7c5 b9be 8a86 27be 2182 2f3e
00000060: 03ba 70be 9a43 603d 6cb6 1c3e 1747 353e
00000070: 705d 813e 9d0f 86be 13b6 6dbe 6f38 8bbd

weight_v f4 [12]
0.2726289 -0.43978277 -0.016118338 0.29794064 0.016223848 0.13471691 -0.21907297 0.13702682
0.18919995 -0.38977894 0.36133185 0.48966324
00000000: 0496 8b3e 352b e1be 9b0a 84bc ad8b 983e
00000010: e0e7 843c 3bf3 093e aa54 60be c250 0c3e
00000020: a2bd 413e 1b91 c7be 7d00 b93e 24b5 fa3e

weight f4 [32, 12, 1]
0.11047279 0.12877837 -0.12938793 0.005432987 0.17646247 -0.033247605 0.14768355 -0.09532886
-0.0933672 0.043257605 0.038464326 -0.091700725 0.22653024 -0.09471492 -0.08477061 -0.14977247
0.19370376 -0.0713552 0.094390295 0.09907632 0.2454097 0.015711676 -0.06586481 -0.09132733
0.113652624 0.10206815 -0.082876205 -0.035629474 0.16585551 0.046952162 0.036435883 -0.21292296
-0.047688145 0.20338233 -0.07087704 -0.06056404 0.0618103 0.021751298 0.16748846 -0.00807737
-0.039529547 -0.13831884 0.10481838 0.004331244 -0.16752668 0.20067108 -0.114293 -0.21120323
-0.132447 0.18865496 0.13088912 -0.2163503 0.10081371 0.15254506 -0.06677196 -0.12461114
-0.2241886 -0.12314675 -0.1655279 0.20544209 0.104598336 0.14879052 -0.06486948 0.014757495
0.04217235 0.17194986 -0.20770256 0.11990253 0.12176056 -0.08954834 0.11159369 -0.19004852
-0.041758507 0.0045055845 0.07705348 0.18606077 -0.05153163 -0.003954601 0.021810267 0.06449637
0.055608273 0.043161046 0.051463746 -0.1338851 -0.085026495 -0.120769314 0.11801604 0.11735851
-0.05494336 0.09223668 0.076384276 -0.19352895 -0.011874832 -0.170475 0.06952602 -0.14260593
-0.1418533 0.1325159 0.22328843 -0.15292865 0.023108345 -0.005541457 -0.17604196 0.003850151
0.20363098 -0.17303982 0.059797753 -0.08980185 0.00733927 -0.022976646 -0.17059338 -0.104426965
-0.08740569 -0.13569021 -0.16418965 0.1336278 -0.1659942 -0.107720606 0.11314845 -0.18635601
0.23183015 -0.003999481 0.08602963 0.053493198 -0.18533577 0.04537159 -0.046534196 0.116438024
0.10000717 -0.053716943 0.15009503 -0.21596366 0.085542604 0.018134093 -0.07300256 0.07541473
0.06595578 0.1523468 0.12128531 -0.13725269 -0.050690487 -0.05130696 0.22139674 -0.22326353
0.092538185 -0.18867475 -0.10832064 -0.18819226 0.16500609 0.16416498 -0.07927891 0.030589448
-0.17817777 0.12653893 -0.0695497 -0.21750842 0.12261338 0.0063933334 0.014755536 0.15716009
-0.030964626 -0.0034541204 -0.14019446 -0.027915893 0.16036204 -0.03870426 0.10054462 0.17969725
-0.1466871 0.1016762 0.1302897 0.07447642 -0.11428502 -0.012105377 0.18856464 -0.033133306
-0.09854069 0.19257446 -0.045643855 -0.183934 -0.068697 -0.10242137 0.10559012 -0.05255906
-0.19113764 0.16884792 -0.11881417 -0.044720493 0.0891801 -0.15130346 0.17552954 0.20742562
-0.026977465 0.039663322 0.019700527 0.22160535 0.0021980286 -0.049249396 -0.17295304 -0.23898467
-0.065485656 0.18204097 -0.10287363 0.078199364 -0.013919155 0.00635179 -0.12346051 -0.0024896595
-0.10998871 -0.12787695 -0.08198308 -0.2240217 0.18406938 0.032052383 -0.07325832 -0.08407289
0.1820899 -0.110271655 0.22038431 -0.24697532 -0.13633904 0.12115229 -0.123015836 -0.16179493
-0.22952513 0.20854793 0.21831083 0.1694088 -0.110714026 0.12559837 0.08131947 -0.15771818
-0.13557637 -0.053948868 0.18885808 -0.090775706 0.09697983 -0.17349574 -0.052571427 -0.115002975
0.17911676 -0.18202005 -0.06617716 -0.029002616 0.1811114 -0.117762975 -0.1683073 0.021212148
0.06602685 -0.029597098 -0.103722274 -0.025884224 -0.14358635 0.2081208 0.10066502 -0.22279525
00000000: 8f3f e23d 7ade 033e 457e 04be 3307 b23b
00000010: 94b2 343e a42e 08bd 5b3a 173e c73b c3bd
00000020: 4d37 bfbd e32e 313d c58c 1d3d 97cd bbbd
00000030: 8bf7 673e e5f9 c1bd 379c adbd f45d 19be
00000040: 475a 463e ad22 92bd b34f c13d 87e8 ca3d
00000050: ae4c 7b3e c6b5 803c 21e4 86bd d309 bbbd
00000060: b5c2 e83d 1b09 d13d 00bb a9bd 36f0 11bd
00000070: 07d6 293e e950 403d cb3d 153d 7a08 5abe
00000080: a554 43bd 7543 503e fb27 91bd 0012 78bd
00000090: cc2c 7d3d c72f b23c 1882 2b3e f256 04bc
000000a0: bce9 21bd 74a3 0dbe 05ab d63d 1ced 8d3b
000000b0: 1d8c 2bbe b87c 4d3e 7312 eabd a945 58be
000000c0: 30a0 07be c42e 413e cc07 063e ef8a 5dbe
000000d0: 6b77 ce3d c634 1c3e bdbf 88bd 2034 ffbd
000000e0: b291 65be 5d34 fcbd 2580 29be 695f 523e
000000f0: a737 d63d 8b5c 183e 4ada 84bd 6cc9 713c
00000100: eabc 2c3d a013 303e fbaf 54be 758f f53d
00000110: 9a5d f93d 1f65 b7bd 3c8b e43d 149c 42be
00000120: f80a 2bbd 95a3 933b 37ce 9d3d b786 3e3e
00000130: d512 53bd 9995 81bb 72ab b23c ac16 843d
00000140: 80c5 633d a3c9 303d a6cb 523d 2d19 09be
00000150: 5f22 aebd e755 f7bd 65b2 f13d a959 f03d
00000160: 4a0c 61bd 96e6 bc3d 5c6f 9c3d 742c 46be
00000170: a88e 42bc 0091 2ebe a863 8e3d 4a07 12be
00000180: fe41 11be 40b2 073e b9a5 643e 5499 1cbe
00000190: b64d bd3c 1c95 b5bb 5844 34be d152 7c3b
000001a0: a484 503e 5a31 31be 7dee 743d 08ea b7bd
000001b0: 427e f03b 8539 bcbc 08b0 2ebe cedd d5bd
000001c0: c101 b3bd 60f2 0abe 5521 28be bad5 083e
000001d0: 62fa 29be 9f9c dcbd 60ba e73d 1cd4 3ebe
000001e0: e264 6d3e 140e 83bb 4d30 b03d af1b 5b3d
000001f0: a9c8 3dbe 8fd7 393d a49a 3ebd 0f77 ee3d
00000200: 8fd0 cc3d 4c06 5cbd 83b2 193e 9425 5dbe
00000210: f630 af3d f38d 943c 5e82 95bd 0a73 9a3d
00000220: d313 873d cd00 1c3e 6f64 f83d f88b 0cbe
00000230: d4a0 4fbd 3f27 52bd d4b5 623e 329f 64be
00000240: a984 bd3d f433 41be 36d7 ddbd 79b5 40be
00000250: 5bf7 283e dd1a 283e fb5c a2bd b996 fa3c
00000260: 3c74 36be 6c93 013e 1370 8ebd 87ba 5ebe
00000270: b91c fb3d 2b7f d13b 34c1 713c 93ee 203e
00000280: 87a9 fdbc 865e 62bb 238f 0fbe dfaf e4bc
00000290: f235 243e 5c88 1ebd 56ea cd3d 8e02 383e
000002a0: 2535 16be 9d3b d03d aa6a 053e 1887 983d
000002b0: 440e eabd a255 46bc 1717 413e cab6 07bd
000002c0: b4cf c9bd 3d32 453e 0df5 3abd 3259 3cbe
000002d0: 03b1 8cbd 4cc2 d1bd a23f d83d 2b48 57bd
000002e0: 96b9 43be 78e6 2c3e d854 f3bd d62c 37bd
000002f0: 0ea4 b63d 4bef 1abe 04be 333e 6267 543e
00000300: d8ff dcbc 0276 223d 0063 a13c 83ec 623e
00000310: cd0c 103b bcb9 49bd 9a1a 31be 66b8 74be
00000320: 581d 86bd f368 3a3e 69af d2bd fd26 a03d
00000330: 2b0d 64bc ad22 d03b ddd8 fcbd 8e29 23bb
00000340: c341 e1bd 2df2 02be bfe6 a7bd f265 65be
00000350: af7c 3c3e 5c49 033d 7508 96bd 682e acbd
00000360: c675 3a3e 1bd6 e1bd 6dac 613e 19e7 7cbe
00000370: 769c 0bbe b11e f83d baef fbbd 92ad 25be
00000380: a308 6bbe 978d 553e e08c 5f3e 8079 2d3e
00000390: 09be e2bd dc9c 003e d38a a63d e080 21be
000003a0: 88d4 0abe 7df9 5cbd 0364 413e 9de8 b9bd
000003b0: 5c9d c63d dea8 31be 2355 57bd ae86 ebbd
000003c0: 626a 373e 7763 3abe e487 87bd e596 edbc
000003d0: 4475 393e b72d f1bd c058 2cbe 19c5 ad3c
000003e0: 1639 873d 9d75 f2bc 586c d4bd 270b d4bc
000003f0: 4d08 13be 9e1d 553e 7629 ce3d 7024 64be

weight f4 [1, 32, 1]
0.027827457 -0.08215076 -0.039030746 0.0613479 0.14213823 -0.098680414 0.037230328 0.14473452
0.07961483 -0.13853142 0.16674624 -0.11631034 -0.028130949 0.15659742 -0.0751449 0.03146842
-0.014628917 0.027874678 0.021666348 0.13744922 -0.15864764 -0.16235958 -0.06177152 0.023945704
-0.15301931 0.15064262 0.11001696 0.17523368 -0.16863361 0.035627067 -0.10362264 -0.04440379
00000000: 68f6 e33c a83e a8bd b4de 1fbd f047 7b3d
00000010: af8c 113e f518 cabd d47e 183d 4935 143e
00000020: 1a0d a33d 2edb 0dbe 87bf 2a3e 1e34 eebd
00000030: e072 e6bc 135b 203e 92e5 99bd 08e5 003d
00000040: 20ae 6fbc 7059 e43c a07d b13c 7dbf 0c3e
00000050: 8774 22be 9741 26be 2204 7dbd c829 c43c
00000060: 18b1 1cbe 0f42 1a3e 9250 e13d 7570 333e
00000070: 4aae 2cbe b0ed 113d 1b38 d4bd c0e0 35bd

weight f4 [1, 32, 1]
-0.003089279 0.14815553 -0.04765649 -0.16684219 -0.12108153 -0.07358973 0.020990476 0.046304718
0.038568854 0.09477706 0.09798972 -0.007354051 -0.09697368 -0.14505252 -0.120775476 0.074563965
0.06233962 0.041882798 0.09402569 0.084185705 -0.03252314 0.062230393 -0.051179364 -0.049985334
-0.080343165 -0.1721161 -0.0870828 0.06792304 0.095061615 0.034212917 -0.032044187 -0.060701363
00000000: 8075 4abb 15b6 173e 7433 43bd aed8 2abe
00000010: 98f9 f7bd 36b6 96bd 38f4 ab3c 04aa 3d3d
00000020: 60fa 1d3d 7a1a c23d d6ae c83d 40fa f0bb
00000030: 239a c6bd a688 14be 2259 f7bd feb4 983d
00000040: d457 7f3d 4c8d 2b3d 8a90 c03d 8e69 ac3d
00000050: fc36 05bd 4ce5 7e3d 74a1 51bd 6cbd 4cbd
00000060: f58a a4bd 343f 30be 7858 b2bd 3c1b 8b3d
00000070: aaaf c23d d822 0c3d c440 03bd fea1 78bd

weight f4 [1, 32, 1]
0.15787493 -0.15384787 0.049525514 0.08469923 0.0065716356 -0.16826436 -0.13694802 -0.0670113
-0.05858203 0.0064187795 0.10747065 0.06958878 0.059682682 -0.13914792 -0.008390635 0.040261507
-0.06212768 0.08692171 -0.033971205 0.008469909 -0.10039166 0.092832014 -0.1099621 0.122211024
0.13069375 0.087822184 0.052027524 0.0043637753 0.006754756 0.12797599 -0.15519315 -0.17612812
00000000: f7a9 213e 4c8a 1dbe 44db 4a3d ca76 ad3d
00000010: e056 d73b 7e4d 2cbe 1a3c 0cbe 383d 89bd
00000020: b6f3 6fbd a054 d23b 9219 dc3d 9084 8e3d
00000030: d475 743d cb7c 0ebe e078 09bc 40e9 243d
00000040: 9879 7ebd 0204 b23d 6425 0bbd 60c5 0a3c
00000050: 259a cdbd b61e be3d cf33 e1bd c649 fa3d
00000060: 95d4 053e 1edc b33d d01a 553d 00fe 8e3b
00000070: 0057 dd3b 230c 033e f4ea 1ebe ee5a 34be

bias f4 [32]
-0.0650749 -0.048443165 -0.0075039375 -0.14401472 -0.11915119 0.11167052 0.06130196 -0.14403798
0.006951524 -0.034696605 0.016627265 -0.076332666 -0.048588227 0.13515058 -0.031465493 0.11062332
-0.09436196 -0.14099982 -0.07940708 0.056687787 0.016414624 -0.10188452 0.03463579 0.12744848
-0.121038474 0.035906307 -0.051778544 -0.12267739 0.017208606 0.0892073 0.06814251 0.0027486242
00000000: fd45 85bd 576c 46bd 97e3 f5bb 9878 13be
00000010: 8a05 f4bd 83b3 e43d c417 7b3d b17e 13be
00000020: 9cc9 e33b 071e 0ebd e735 883c 4d54 9cbd
00000030: 7304 47bd ea64 0a3e f6e1 00bd 7b8e e23d
00000040: d840 c1bd 4262 10be 2ea0 a2bd 7431 683d
00000050: f677 863c d5a8 d0bd 42de 0d3d db81 023e
00000060: 05e3 f7bd 7e12 133d bd15 54bd 493e fbbd
00000070: 10f9 8c3c 51b2 b63d 4d8e 8b3d 4322 343b

weight_orig f4 [32, 43, 1]
0.18696475 0.04672695 0.10768721 0.093086444 -0.1159035 -0.0722893 0.066179946 -0.08887834
0.053422898 -0.025425833 0.11668628 0.13010749 -0.113643564 0.07986741 0.12864296 -0.013445253
-0.008868396 -0.13081989 0.037427366 0.06381645 0.021048224 -0.082481414 -0.0017387619 0.09976573
-0.06735532 -0.029629447 -0.04408336 0.03848365 -0.054768134 0.13764149 0.119580865 -0.11005863
0.08762043 0.052229535 0.070759885 -0.08300533 -0.048959136 -0.012005507 -0.020927006 0.003599055
-0.10639143 -0.00272579 0.122203685 0.044034924 0.021906553 0.028213263 -0.04866711 -0.10029147
-0.000500055 -0.07565851 -0.01844874 -0.075083084 0.09060969 -0.025028802 -0.11691102 -0.08307396
0.13932726 0.11217949 -0.09496917 0.08640842 0.045825675 -0.08452561 0.1044085 0.06274847
0.1227394 -0.040098432 0.09691934 -0.15104465 0.0077952617 0.05364 0.11737061 -0.04528676
0.09343973 0.089638405 -0.045433752 -0.12668651 -0.06720059 0.098787546 0.05368086 -0.09847847
-0.10429603 0.10973904 -0.05534083 0.010438881 0.1138792 0.1464468 -0.09552981 0.068768755
0.10718782 -0.022180134 0.012670385 -0.10802632 0.02084753 -0.11443623 -0.09052898 0.0077458518
-0.10477899 -0.13992848 0.090083405 -0.005612869 -0.062416192 -0.08110927 -0.16669053 -0.0019655263
0.1307188 -0.01594776 0.112789236 0.027045906 0.09816208 0.10129777 -0.10823875 0.032667056
-0.1154676 -0.050147545 -0.12431007 -0.083228976 0.027565198 -0.15960242 -0.056339256 -0.06992787
0.04520858 0.081318736 0.14898871 -0.085023515 0.07485917 -0.055859506 0.00796113 -0.057843108
-0.068064615 -0.018211365 -0.034131654 -0.10152162 0.115599185 0.0139955245 -0.11086026 -0.10594683
0.13021536 0.07509503 0.048411526 0.116737686 -0.1099629 0.08409251 -0.13860546 0.047072746
-0.14368932 0.06694856 0.011765663 -0.14147514 -0.086588375 0.040715337 -0.038709838 -0.114491664
0.009285793 -0.05802319 0.0022823603 -0.03511628 -0.025446234 0.077801585 -0.055956006 -0.12843405
-0.16934775 -0.11592285 0.12775737 -0.027258791 -0.14776514 -0.030446516 -0.059806794 -0.032267865
-0.044890866 -0.02688474 -0.011366431 -0.07220857 0.04433038 -0.021838522 0.08656142 -0.04817353
0.04490228 0.035192672 0.10807683 0.15542166 -0.11365263 0.011835659 0.11913836 -0.06689609
0.014317807 -0.0066799875 0.046211936 -0.004946871 0.116095126 0.060638215 -0.047611374 0.19709674
-0.034544308 0.15502648 0.098784015 0.06244768 0.011361154 0.067247145 0.03926363 0.023588022
0.10637673 -0.056388475 0.039870124 0.08389824 -0.15562017 0.11010536 0.074141845 0.09781799
-0.022648765 -0.13876307 0.05675104 0.023325006 -0.0672514 -0.0620327 0.01351354 0.07453866
-0.1370162 -0.11975106 -0.0114648035 -0.12133686 -0.06511885 0.01868028 0.09843272 0.12153708
0.093319334 0.030873038 -0.063420475 0.08230931 0.02343334 0.08746774 0.08981964 -0.116097756
-0.035518482 0.12284007 -0.14607851 0.1276769 -0.11804691 0.07725677 -0.12512843 0.1490633
-0.038004134 0.05388211 -0.07878398 0.12534554 0.013742199 -0.14798582 -0.121613055 0.09474303
0.076832406 0.054467577 -0.079979986 -0.04415343 -0.031108066 0.015107146 -0.028190743 -0.09100106
00000000: b073 3f3e c264 3f3d 1d8b dc3d 1ba4 be3d
00000010: d05e edbd 6a0c 94bd 5a89 873d d905 b6bd
00000020: f8d1 5a3d d649 d0bc 37f9 ee3d e63a 053e
00000030: f5bd e8bd 8691 a33d fbba 033e 7a49 5cbc
00000040: c04c 11bc a6f5 05be 704d 193d 33b2 823d
00000050: 536d ac3c 04ec a8bd 2be7 e3ba fa51 cc3d
00000060: 96f1 89bd 74b9 f2bc c190 34bd 08a1 1d3d
00000070: 8d54 60bd e4f1 0c3e d0e6 f43d 6b66 e1bd
00000080: 5772 b33d a3ee 553d 8fea 903d b3fe a9bd
00000090: 6089 48bd bfb2 44bc 1d6f abbc 20de 6b3b
000000a0: c0e3 d9bd 2ba3 32bb ed45 fa3d f75d 343d
000000b0: 5f75 b33c 801f e73c 2a57 47bd 9d65 cdbd
000000c0: 1f16 03ba d9f2 9abd d021 97bc 29c5 99bd
000000d0: 9391 b93d 3409 cdbc 0b6f efbd ae22 aabd
000000e0: ceab 0e3e 5cbe e53d 327f c2bd e6f6 b03d
000000f0: b4b3 3b3d c31b adbd 20d4 d53d 4582 803d
00000100: cb5e fb3d 413e 24bd a67d c63d 73ab 1abe
00000110: 656f ff3b 9eb5 5b3d 0160 f03d 9c7e 39bd
00000120: 545d bf3d 5794 b73d be18 3abd 1cba 01be
00000130: 77a0 89bd 2051 ca3d 76e0 5b3d 15af c9bd
00000140: 2899 d5bd ddbe e03d 11ad 62bd d707 2b3c
00000150: 7f39 e93d 26f6 153e 22a5 c3bd a2d6 8c3d
00000160: 4a85 db3d 1db3 b5bc 7297 4f3c e73c ddbd
00000170: 70c8 aa3c 8b5d eabd 4267 b9bd ead0 fd3b
00000180: 5e96 d6bd 6949 0fbe a67d b83d 28ec b7bb
00000190: 1fa8 7fbd 9e1c a6bd ecb0 2abe 0fd0 00bb
000001a0: 26db 053e e0a4 82bc 0bfe e63d 608f dd3c
000001b0: 3309 c93d 3575 cf3d 47ac ddbd e4cd 053d
000001c0: 477a ecbd 8367 4dbd 4796 febd f473 aabd
000001d0: 69d0 e13c d16e 23be fec3 66bd 5836 8fbd
000001e0: a22c 393d 708a a63d 7f90 183e cf20 aebd
000001f0: c44f 993d f0cc 64bd 666f 023c e5ec 6cbd
00000200: 7665 8bbd 0030 95bc a2cd 0bbd 91ea cfbd
00000210: 44bf ec3d 7c4d 653c b40a e3bd a7fa d8bd
00000220: 2d57 053e 6ccb 993d 2a4b 463d 2b14 ef3d
00000230: 3b34 e1bd b238 ac3d 97ee 0dbe 5acf 403d
00000240: 4b23 13be 541c 893d c4c4 403c dcde 10be
00000250: 3f55 b1bd 20c5 263d 358e 1ebd 9b7a eabd
00000260: 7023 183c b9a9 6dbd a793 153b 17d6 0fbd
00000270: 9f74 d0bc 7056 9f3d 2032 65bd 3784 03be
00000280: 7f69 2dbe f668 edbd d4d2 023e d44d dfbc
00000290: bf4f 17be f96a f9bc f8f7 74bd 4f2b 04bd
000002a0: 7cdf 37bd 633d dcbc 443a 3abc 16e2 93bd
000002b0: c693 353d b3e6 b2bc 1d47 b13d 9b51 45bd
000002c0: 74eb 373d 3126 103d 6357 dd3d db26 1f3e
000002d0: b6c2 e8bd 5aea 413c d0fe f33d d100 89bd
000002e0: 3c95 6a3c cce3 dabb ba48 3d3d 5d19 a2bb
000002f0: 48c3 ed3d c75f 783d 2504 43bd bad3 493e
00000300: 557e 0dbd 43bf 1e3e 464f ca3d 23c9 7f3d
00000310: 2224 3a3c dfb8 893d e6d2 203d ab3b c13c
00000320: 0bdc d93d 9af7 66bd db4e 233d d7d2 ab3d
00000330: e55a 1fbe eb7e e13d aed7 973d cc54 c83d
00000340: e789 b9bc e817 0ebe c773 683d 1514 bf3c
00000350: 1abb 89bd 0016 7ebd e567 5d3c baa7 983d
00000360: fa4d 0cbe 0b40 f5bd dfd6 3bbc 767f f8bd
00000370: 085d 85bd 6307 993c 1897 c93d 6fe8 f83d
00000380: 351e bf3d 74e9 fc3c 98e2 81bd c991 a83d
00000390: 47f7 bf3c 4922 b33d 5cf3 b73d a9c4 edbd
000003a0: d47b 11bd 9393 fb3d 9b95 15be bcbd 023e
000003b0: 94c2 f1bd cc38 9e3d ab21 00be 0da4 183e
000003c0: 39aa 1bbd 7db3 5c3d 7f59 a1bd 955a 003e
000003d0: f626 613c 9889 17be 4410 f9bd a208 c23d
000003e0: 4f5a 9d3d 6519 5f3d 8ccc a3bd 3ada 34bd
000003f0: 58d6 febc f783 773c 46f0 e6bc c45e babd

weight_u f4 [32]
-0.26789978 -0.35401803 -0.027654905 0.035184275 -0.15218265 0.18236595 -0.027250519 -0.14647065
-0.14264399 -0.1264249 -0.115277134 0.13442846 0.018508341 -0.06608551 0.04053982 0.23639847
-0.14478116 -0.07363493 0.31660458 0.053487625 -0.1725816 -0.17243584 0.11500605 0.24628502
0.03176922 0.10201662 -0.37608805 -0.25123006 -0.14610314 -0.1712291 -0.12851593 0.21521018
00000000: 292a 89be da41 b5be 8a8c e2bc 631d 103d
00000010: c5d5 1bbe 24be 3a3e 7b3c dfbc 67fc 15be
00000020: 4411 12be 8775 01be 6b16 ecbd 9da7 093e
00000030: ce9e 973c d757 87bd 150d 263d 7112 723e
00000040: 8341 14be e9cd 96bd ff19 a23e d715 5b3d
00000050: 3bb9 30be 0593 30be 4b88 eb3d 2432 7c3e
00000060: 7120 023d 17ee d03d 9d8e c0be 3aa1 80be
00000070: 109c 15be ae56 2fbe ae99 03be 0f60 5c3e

weight_v f4 [43]
-0.106287554 -0.071991146 -0.23228803 -0.2125004 0.10953228 -0.00052891177 -0.060433958 0.10141698
0.13132873 -0.07693347 -0.110330366 0.11954315 0.23504916 -0.1566244 -0.20173874 0.10837511
-0.066223815 0.06378367 -0.03733293 -0.07733991 0.14602852 -0.18448211 0.009009271 -0.17447306
0.19543839 0.03838824 -0.017946646 0.06828982 0.158913 -0.37707588 -0.18430185 -0.006155216
0.2448148 -0.095428824 0.018085217 -0.12460438 0.16947521 0.26315767 0.101542324 0.22325425
0.1254888 -0.25050753 -0.0853609
00000000: 4aad d9bd 1870 93bd eadc 6dbe b499 59be
00000010: 7652 e03d aba6 0aba 9989 77bd b5b3 cf3d
00000020: 0a7b 063e 4c8f 9dbd e3f4 e1bd 0ad3 f43d
00000030: bab0 703e 2662 20be 9a94 4ebe c5f3 dd3d
00000040: 5aa0 87bd 03a1 823d 6aea 18bd 6364 9ebd
00000050: 8088 153e e1e8 3cbe 9f9b 133c 11a9 32be
00000060: 0021 483e fd3c 1d3d d804 93bc 88db 8b3d
00000070: 17ba 223e 1710 c1be a0b9 3cbe b2b1 c9bb
00000080: bbb0 7a3e 3070 c3bd 7327 943c 9530 ffbd
00000090: e98a 2d3e 9abc 863e 6cf5 cf3d c39c 643e
000000a0: 2380 003e 8642 80be b2d1 aebd

weight f4 [32, 43, 1]
0.19074938 0.04768166 0.10987402 0.09498077 -0.118250504 -0.073751524 0.06752323 -0.090682164
0.054490566 -0.025926555 0.11904663 0.13271803 -0.11595072 0.0814926 0.1312505 -0.0137309665
-0.009031265 -0.13347192 0.038187068 0.06511215 0.021463057 -0.08413137 -0.0017751368 0.10178944
-0.06872368 -0.030232519 -0.044967573 0.03924975 -0.0558862 0.14043252 0.12200713 -0.11228808
0.0893767 0.05328306 0.07219586 -0.08467377 -0.04993907 -0.012264982 -0.021355698 0.0036584397
-0.10855307 -0.0027655533 0.12467932 0.044933602 0.02235383 0.028795652 -0.049639586 -0.10232588
-0.0005078965 -0.07717409 -0.018833928 -0.076607846 0.09244976 -0.02553271 -0.11928138 -0.08476534
0.14215297 0.114448845 -0.096897334 0.088166304 0.046736166 -0.08624103 0.106521614 0.063998215
0.12523235 -0.040912017 0.09888564 -0.15410458 0.007942051 0.05471219 0.11972618 -0.046216194
0.09534588 0.09146369 -0.04635312 -0.12926497 -0.06853633 0.10077709 0.05477089 -0.10047672
-0.10640566 0.11194221 -0.05646337 0.010637293 0.11618752 0.14941335 -0.09745469 0.07016672
0.10935531 -0.022618655 0.012925476 -0.110204384 0.021270279 -0.1167289 -0.09234663 0.007903471
-0.10688437 -0.14275354 0.09189069 -0.0057144305 -0.06366774 -0.08273966 -0.17004639 -0.001988148
0.13336295 -0.016260335 0.11507041 0.027600197 0.10014757 0.10334864 -0.11042708 0.03333549
-0.117777705 -0.05115923 -0.1268155 -0.084899746 0.028125772 -0.16282478 -0.05747812 -0.07134486
0.046128135 0.08296452 0.15199108 -0.08675131 0.07637386 -0.057000957 0.00814784 -0.05902369
-0.069432124 -0.01858238 -0.03482416 -0.10357237 0.117926165 0.014282175 -0.11309639 -0.10808508
0.13284568 0.07661128 0.049386155 0.119089864 -0.112177886 0.085796036 -0.14140783 0.048015147
-0.14658277 0.06829529 0.012004395 -0.14432932 -0.08833804 0.04153972 -0.03949799 -0.11680165
0.009470047 -0.05918908 0.0023291223 -0.03582495 -0.025957974 0.07937693 -0.0570913 -0.13102879
-0.17276348 -0.118254706 0.13032904 -0.027811015 -0.15074612 -0.031053932 -0.061006807 -0.03291578
-0.0457917 -0.027428495 -0.01160033 -0.07366707 0.045229163 -0.022266505 0.088313475 -0.049133662
0.045793194 0.035903387 0.11026438 0.15853971 -0.11595757 0.01208648 0.121547215 -0.068258815
0.014593118 -0.006802839 0.047146637 -0.0050625536 0.118439384 0.061839312 -0.04855898 0.20107514
-0.03525365 0.15816447 0.10076699 0.06371757 0.011577031 0.068592325 0.040041067 0.024054488
0.108508185 -0.057511374 0.040684436 0.08558365 -0.15877047 0.11232237 0.07565457 0.09978103
-0.023113761 -0.14156839 0.05788461 0.02379613 -0.06861228 -0.06326109 0.013794884 0.07602913
-0.13979176 -0.12217571 -0.011704312 -0.12377436 -0.06643833 0.01904783 0.100417055 0.12399358
0.09519827 0.031484507 -0.06469107 0.083980866 0.023886507 0.08922467 0.09163458 -0.11845195
-0.036234714 0.12531525 -0.1490356 0.1302569 -0.12043928 0.07881737 -0.12766905 0.15208043
-0.03876926 0.05496393 -0.08036853 0.12787972 0.014005093 -0.15098263 -0.12405879 0.0966566
0.07838799 0.055556536 -0.08160541 -0.045034226 -0.0317228 0.015412466 -0.028743252 -0.09283974
00000000: ce53 433e d84d 433d a105 e13d 4785 c23d
00000010: 522d f2bd 0a0b 97bd 9f49 8a3d 92b7 b9bd
00000020: 8031 5f3d ed63 d4bc b8ce f33d 3ce7 073e
00000030: 9277 edbd 98e5 a63d 8866 063e d9f7 60bc
00000040: dff7 13bc ddac 08be 0b6a 1c3d 8559 853d
00000050: 4bd3 af3c 114d acbd b5ab e8ba fb76 d03d
00000060: 00bf 8cbd 30aa f7bc eb2f 38bd 59c4 203d
00000070: eee8 64bd 8bcd 0f3e e0de f93d 4bf7 e5bd
00000080: 220b b73d 573f 5a3d 6cdb 933d 7169 adbd
00000090: e98c 4cbd 10f3 48bc 25f2 aebc 6fc2 6f3b
000000a0: 1251 debd 493e 35bb df57 ff3d 4c0c 383d
000000b0: 611f b73c dce4 eb3c e152 4bbd 3b90 d1bd
000000c0: 5b24 05ba 730d 9ebd 9c49 9abc 93e4 9cbd
000000d0: 4d56 bd3d f929 d1bc cc49 f4bd 7399 adbd
000000e0: 8c90 113e 2864 ea3d 1c72 c6bd 8990 b43d
000000f0: 6c6e 3f3d 239f b0bd 0128 da3d 7f11 833d
00000100: e93c 003e 5c93 27bd 8e84 ca3d 97cd 1dbe
00000110: 601f 023c e419 603d 0033 f53d 314d 3dbd
00000120: b344 c33d 5151 bb3d c5dc 3dbd 095e 04be
00000130: c65c 8cbd 3864 ce3d 7157 603d bdc6 cdbd
00000140: 36eb d9bd f541 e53d 2246 67bd 0a48 2e3c
00000150: b9f3 ed3d d0ff 183e 5396 c7bd 92b3 8f3d
00000160: adf5 df3d c24a b9bc 60c5 533c d6b2 e1bd
00000170: 023f ae3c 900f efbd 3b20 bdbd 8f7d 013c
00000180: 31e6 dabd fc2d 12be 3031 bc3d 1e40 bbbb
00000190: 3b64 82bd 6973 a9bd a420 2ebe 974b 02bb
000001a0: 4c90 083e 6534 85bc 09aa eb3d cf19 e23c
000001b0: 2b1a cd3d 74a8 d33d 9827 e2bd cb8a 083d
000001c0: 7035 f1bd 578c 51bd ecdb 01be ebdf adbd
000001d0: 0568 e63c 8abb 26be 2d6e 6bbd 411d 92bd
000001e0: dbf0 3c3d 4de9 a93d 8da3 1b3e acaa b1bd
000001f0: e669 9c3d d679 69bd 857e 053c d3c2 71bd
00000200: 6e32 8ebd 133a 98bc c7a3 0ebd c01d d4bd
00000210: 4683 f13d c9ff 693c 159f e7bd b65b ddbd
00000220: b308 083e 60e6 9c3d 2349 4a3d 63e5 f33d
00000230: 85bd e5bd d5b5 af3d 37cd 10be 88ab 443d
00000240: cb19 16be 67de 8b3d 15ae 443c 11cb 13be
00000250: 93ea b4bd 8e25 2a3d a5c8 21bd b435 efbd
00000260: 4228 1b3c 4070 72bd 30a4 183b 2fbd 12bd
00000270: d1a5 d4bc 5f90 a23d 91d8 69bd 692c 06be
00000280: e9e8 30be 862f f2bd fa74 053e edd3 e3bc
00000290: 315d 1abe d164 febc 46e2 79bd b2d2 06bd
000002a0: 1490 3bbd b9b1 e0bc 4f0f 3ebc c3de 96bd
000002b0: 3742 393d 3f68 b6bc b2dd b43d 6140 49bd
000002c0: a591 3b3d 6e0f 133d 4bd2 e13d 3c58 223e
000002d0: 2a7b edbd 5f06 463c bfed f83d 47cb 8bbd
000002e0: f917 6f3c 5aea debb d51c 413d c7e3 a5bb
000002f0: 5990 f23d 384b 7d3d c8e5 46bd a4e6 4d3e
00000300: 2266 10bd def5 213e ec5e ce3d 5b7e 823d
00000310: 96ad 3d3c 227a 8c3d 1a02 243d eb0d c53c
00000320: 8a39 de3d 0c91 6bbd b9a4 263d 7b46 af3d
00000330: ba94 22be 4509 e63d c8f0 9a3d ff59 cc3d
00000340: 1259 bdbc 4ef7 10be 6a18 6d3d 1af0 c23c
00000350: 9884 8cbd 088f 81bd f003 623c 29b5 9b3d
00000360: 9225 0fbe 4237 fabd 71c3 3fbc 697d fdbd
00000370: d210 88bd 320a 9c3c 75a7 cd3d 59f0 fd3d
00000380: 50f7 c23d e6f5 003d c07c 84bd 29fe ab3d
00000390: a3ad c33c 6cbb b63d e9aa bb3d f096 f2bd
000003a0: da6a 14bd a452 003e ca9c 18be 1162 053e
000003b0: dfa8 f6bd 006b a13d adbb 02be f9ba 1b3e
000003c0: 84cc 1ebd dc21 613d 4198 a4bd e7f2 023e
000003d0: 9e75 653c 319b 1abe 8912 febd e5f3 c53d
000003e0: e289 a03d 408f 633d bd20 a7bd cf75 38bd
000003f0: c4ef 01bd 9184 7c3c f876 ebbc c322 bebd

weight f4 [1, 32, 1]
0.15149565 0.15026923 -0.041422278 0.00016921759 0.058588803 -0.13947266 -0.13577366 0.03503865
-0.07397688 0.067631885 0.07407923 -0.009850368 0.055381626 -0.10562373 0.037401408 -0.17481777
-0.035631448 0.050592408 -0.053877138 0.0077520907 -0.055796064 0.04247932 0.11097245 -0.16083315
0.17299919 -0.07689766 -0.032119572 -0.116831586 0.080101684 -0.025147796 -0.004473418 -0.11355103
00000000: ad21 1b3e 2de0 193e 68aa 29bd 0070 3139
00000010: d0fa 6f3d ecd1 0ebe 4008 0bbe b084 0f3d
00000020: 3181 97bd 9682 8a3d dab6 973d 7063 21bc
00000030: d8d7 623d 4151 d8bd 3832 193d 6e03 33be
00000040: 48f2 11bd fc39 4f3d 46ae 5cbd 4005 fe3b
00000050: 6a8a 64bd ccfe 2d3d 8645 e33d 72b1 24be
00000060: b326 313e 857c 9dbd d08f 03bd 6645 efbd
00000070: 5a0c a43d c002 cebc c095 92bb 718d e8bd

weight f4 [1, 32, 1]
-0.026125923 -0.05971361 -0.17022099 -0.09206267 0.16592745 0.033685252 -0.03209634 -0.15386276
-0.055210114 -0.045073286 -0.059484586 0.10822107 -0.151957 -0.05128333 0.17411254 -0.005823493
0.12431641 0.07328506 -0.13763025 0.04988928 0.11310454 0.13923727 -0.010238528 -0.088901676
0.007416874 0.09135668 -0.091556504 0.0059345514 -0.05972495 0.08567689 0.052137375 0.16270937
00000000: 0806 d6bc 4296 74bd 694e 2ebe 5a8b bcbd
00000010: e3e8 293e 8cf9 093d 7477 03bd 338e 1dbe
00000020: 0024 62bd c49e 38bd 1ca6 73bd 02a3 dd3d
00000030: 9e9a 1bbe 780e 52bd 8f4a 323e 00d3 bebb
00000040: 9a99 fe3d 7a16 963d f2ee 0cbe b458 4c3d
00000050: 5aa3 e73d 3794 0e3e 80bf 27bc 1512 b6bd
00000060: 4009 f33b 3619 bb3d fa81 bbbd a076 c23b
00000070: 26a2 74bd 5e77 af3d 008e 553d 499d 263e

weight f4 [1, 32, 1]
0.003181368 0.16403152 0.0963545 0.124357834 -0.13813886 -0.14613625 -0.16174783 -0.15954074
0.1256619 -0.060217053 -0.11275877 -0.03332758 0.06841339 -0.16255668 0.16127802 -0.04374318
-0.17393833 0.049727485 0.078352466 -0.14931642 0.15298073 -0.084170856 0.08405681 0.14535306
0.04262115 0.075406924 0.06574832 -0.0046428144 -0.004494041 0.010241389 -0.020781621 2.463162e-05
00000000: 807e 503b e1f7 273e 8255 c53d 52af fe3d
00000010: 4674 0dbe bea4 15be 39a1 25be a65e 23be
00000020: 83ad 003e 28a6 76bd 12ee e6bd 8082 08bd
00000030: 521c 8c3d 4275 26be 1126 253e 0c2c 33bd
00000040: e41c 32be 0caf 4b3d 4277 a03d 67e6 18be
00000050: fba6 1c3e c561 acbd fa25 ac3d 6fd7 143e
00000060: 8493 2e3d f26e 9a3d 0ea7 863d c022 98bb
00000070: c042 93bb 80cb 273c 383e aabc 00a0 ce37

bias f4 [32]
-0.038682345 0.08265 -0.066949554 -0.059862483 0.07930592 0.14703494 0.029831838 0.09101444
-0.1478069 -0.065613955 -0.03157784 0.01494278 0.09915124 0.0019359554 -0.011763295 -0.12354394
-0.08482237 0.057044644 -0.10417449 -0.12176528 -0.10119118 -0.020078862 0.1340598 -0.068721615
-0.118437275 0.16060658 0.10626489 0.15157703 -0.04044251 0.040029924 0.03974658 -0.11920671
00000000: 6171 1ebd 6744 a93d d91c 89bd 5d32 75bd
00000010: 246b a23d 5490 163e e661 f43c c765 ba3d
00000020: b15a 17be 9c60 86bd c457 01bd 90d2 743c
00000030: ce0f cb3d e2bf fd3a d6ba 40bc 9b04 fdbd
00000040: 5ab7 adbd a5a7 693d 6f59 d5bd 1360 f9bd
00000050: 523d cfbd 6d7c a4bc f946 093e ebbd 8cbd
00000060: 3e8f f2bd 0d76 243e 68a1 d93d 0237 1b3e
00000070: 0ca7 25bd 6bf6 233d 4fcd 223d a622 f4bd

weight_orig f4 [32, 43, 1]
0.10000813 -0.005008254 -0.004332255 -0.042756587 -0.1410963 0.030090835 0.085438564 0.042986777
0.09831565 -0.05610446 0.059431136 0.09075112 7.740346e-05 0.08478092 0.033285767 -0.011511402
-0.050350413 -0.027991844 0.06311387 0.040809322 -0.110847056 0.03753028 0.06162808 0.14059795
0.14253353 2.1617654e-05 0.007807635 -0.04557331 -0.08160281 -0.094344914 -0.023116425 0.08914892
-0.000617743 0.042488366 -0.17383482 -0.0080958335 0.067524254 0.10731599 -0.11777171 0.05317098
0.12378891 0.05888299 -0.011133725 -0.07338118 0.017238071 -0.044471882 0.08112493 0.02276477
0.057512674 0.13467504 0.104054354 0.17827095 0.10240754 0.0591908 -0.12667449 -0.016981319
-0.09593114 0.022218777 0.15886396 0.09901479 0.08565954 0.0038657174 -0.032456342 -0.051355973
-0.035078686 0.039299108 -0.06415208 0.05713642 -0.04497182 0.08459978 -0.04533223 0.026695801
0.050253887 -0.09145808 -0.06123248 0.11614252 0.12350218 0.011946194 -0.07320067 -0.048291367
-0.03781406 0.09087735 0.017526187 0.033363137 0.20551896 -0.017487714 0.1171624 0.015217356
-0.05835186 -0.039837793 0.06090431 -0.11606186 0.113934785 0.13992728 -0.05484217 0.07079013
0.11963187 -0.07508393 0.070003316 -0.10479682 -0.067389265 -0.13712537 0.13884431 0.1382251
-0.029682357 -0.09052283 -0.025244484 0.080850355 0.11427235 0.10831463 -0.027405223 -0.07483316
0.14911464 0.075975895 -0.13062492 -0.0975008 0.066618845 0.028039873 -0.041512225 -0.06871082
0.12894806 -0.15267798 0.065051734 -0.0675447 0.14749245 -0.014253426 -0.09082299 0.070896335
0.05710392 0.0634219 0.029384375 -0.11618994 -0.08399613 -0.006508132 0.057224542 -0.0038247735
-0.0942548 -0.022831565 -0.011162565 -0.12204536 -0.1026728 0.051114127 -0.09537669 -0.06892094
-0.121603645 -0.1361921 0.038598735 -0.09816724 0.029593946 0.073674634 -0.1325662 -0.089738004
0.14875199 -0.08215772 -0.09397481 -0.043078918 0.0058080615 -0.1315535 -0.08999087 0.041716456
0.04031401 0.010075267 0.13019593 0.09282044 -0.09747964 0.047798194 -0.06922915 -0.044303972
-0.033448428 0.00955653 0.06591974 -0.05725836 0.00036436727 -0.054165665 0.01035222 -0.14984481
-0.019979058 0.1289184 0.13341561 0.028355623 -0.013367564 -0.17747861 0.029208815 0.027934434
-0.061917163 -0.08742277 0.029895144 -0.1150503 0.07913575 0.08808076 -0.16156125 -0.057934687
0.09100793 0.11950911 -0.061044604 -0.022056142 -0.09052958 0.019530887 -0.08306926 0.07846949
-0.055849858 0.1253261 -0.1257018 -0.013653862 0.032101255 0.013764056 -0.01590039 0.09794467
0.08390714 -0.05706617 -0.05460994 0.018363202 -0.104346864 -0.114656076 -0.1600314 -0.11078975
0.06293568 -0.004901532 0.0099214185 -0.113609724 0.13965458 -0.045711596 -0.13911761 0.005482273
-0.105419315 -0.09797228 -0.04492019 -0.017421018 -0.06840628 -0.013847761 0.006189479 0.14441629
-0.1444296 -0.032966282 0.01101912 0.07764423 0.0858082 0.035745766 -0.094100274 -0.04455723
0.050069876 0.014775593 -0.08667162 0.14257808 0.14623551 -0.13812812 0.05731992 0.07230098
-0.031087708 0.04712041 -0.08488548 -0.005326046 -0.006354498 0.12202178 -0.116452254 0.051936727
00000000: 10d1 cc3d 481c a4bb 97f5 8dbb 8821 2fbd
00000010: 8c7b 10be 0e81 f63c 6afa ae3d e712 303d
00000020: b759 c93d cacd 65bd 106e 733d b9db b93d
00000030: ab53 a238 9ea1 ad3d a856 083d 529a 3cbc
00000040: 3c3c 4ebd 274f e5bc d841 813d ad27 273d
00000050: c803 e3bd 5ab9 193d ba6d 7c3d e9f8 0f3e
00000060: 4ff4 113e 8f57 b537 30d7 ff3b 14ab 3abd
00000070: 601f a7bd e837 c1bd a85e bdbc b593 b63d
00000080: 08f0 21ba 4808 2e3d c101 32be 63a4 04bc
00000090: 284a 8a3d 7cc8 db3d 4b32 f1bd d0c9 593d
000000a0: 0a85 fd3d 4a2f 713d 3a6a 36bc df48 96bd
000000b0: db36 8d3c 2628 36bd d424 a63d 2f7d ba3c
000000c0: 6992 6b3d 41e8 093e 731a d53d a98c 363e
000000d0: 0bbb d13d 0d72 723d f5b6 01be 681c 8bbc
000000e0: 8c77 c4bd 2704 b63c 3cad 223e 44c8 ca3d
000000f0: 456e af3d fa57 7d3b f1f0 04bd a45a 52bd
00000100: abae 0fbd 1af8 203d 2a62 83bd e107 6a3d
00000110: 5f34 38bd a642 ad3d 4aae 39bd 27b1 da3c
00000120: 05d7 4d3d 604e bbbd e9ce 7abd 21dc ed3d
00000130: b6ee fc3d f8b9 433c 3cea 95bd 2bcd 45bd
00000140: eae2 1abd e71d ba3d 1493 8f3c c9a7 083d
00000150: 9073 523e 6542 8fbc d7f2 ef3d 3852 793c
00000160: 5c02 6fbd f42c 23bd cc76 793d d7b1 edbd
00000170: a456 e93d 1949 0f3e 2fa2 60bd 6afa 903d
00000180: 8e01 f53d 9ac5 99bd e65d 8f3d b79f d6bd
00000190: 6203 8abd 986a 0cbe 342d 0e3e e18a 0d3e
000001a0: 6a28 f3bc 0964 b9bd 85cd cebc df94 a53d
000001b0: 9f07 ea3d 10d4 dd3d eb80 e0bc 2142 99bd
000001c0: 82b1 183e 4099 9b3d 8ac2 05be 80ae c7bd
000001d0: 766f 883d e0b3 e53c b908 2abd 42b8 8cbd
000001e0: f60a 043e 9e57 1cbe d839 853d e054 8abd
000001f0: 4308 173e 3487 69bc 6701 babd 1932 913d
00000200: cde5 693d 57e3 813d 80b7 f03c fef4 edbd
00000210: 2a06 acbd 2b42 d5bb 4864 6a3d 0da9 7abb
00000220: a908 c1bd 4309 bbbc 31e3 36bc ebf2 f9bd
00000230: 1e46 d2bd 0c5d 513d db54 c3bd 6c26 8dbd
00000240: 550b f9bd f175 0bbe b519 1e3d e80b c9bd
00000250: 016f f23c bae2 963d 6fbf 07be 8fc8 b7bd
00000260: 7152 183e 4f42 a8bd dd75 c0bd 8573 30bd
00000270: 8d51 be3b f6b5 06be 224d b8bd e0de 2a3d
00000280: 4e20 253d bc12 253c 1552 053e a518 be3d
00000290: 68a3 c7bd 0ac8 433d 03c8 8dbd 1578 35bd
000002a0: 3801 09bd fe92 1c3c ee00 873d be87 6abd
000002b0: 8c08 bf39 d1dc 5dbd 5c9c 293c eb70 19be
000002c0: 1fab a3bc 2f03 043e 1a9e 083e 0d4a e83c
000002d0: a103 5bbc f4bc 35be 5347 ef3c c1d6 e43c
000002e0: da9c 7dbd b60a b3bd a9e6 f43c 7e9f ebbd
000002f0: ed11 a23d af63 b43d 5070 25be ec4c 6dbd
00000300: 5e62 ba3d 31c1 f43d e809 7abd 15af b4bc
00000310: 9367 b9bd 3dff 9f3c 3720 aabd 9db4 a03d
00000320: d2c2 64bd 7c55 003e f9b7 00be 73b4 5fbc
00000330: 9b7c 033d a382 613c 8941 82bc 3797 c83d
00000340: 82d7 ab3d 37be 69bd acae 5fbd 6d6e 963c
00000350: cfb3 d5bd ced0 eabd 45df 23be bde5 e2bd
00000360: 6ce4 803d 089d a0bb 728d 223c 37ac e8bd
00000370: 9c01 0f3e 153c 3bbd d974 0ebe a4a4 b33b
00000380: 15e6 d7bd b1a5 c8bd 3cfe 37bd 86b6 8ebc
00000390: 9718 8cbd b8e1 62bc 1dd1 ca3b dde1 133e
000003a0: 5ae5 13be a707 07bd 8a89 343c f003 9f3d
000003b0: 36bc af3d 276a 123d a5b7 c0bd a481 36bd
000003c0: 1216 4d3d 5415 723c e480 b1bd fdff 113e
000003d0: c3be 153e 7571 0dbe 4bc8 6a3d 8912 943d
000003e0: a6ab febc 5501 413d 70d8 adbd 1d86 aebb
000003f0: 6539 d0bb 8ee6 f93d 857e eebd 9bbb 543d

weight_u f4 [32]
0.11460585 0.17371047 0.40053785 0.012694913 0.024109116 -0.2471232 -0.12034621 0.014216342
-0.13932227 0.29111192 -0.23988028 0.09602544 0.13404392 0.3914788 -0.2869075 0.15441136
-0.11761677 0.12209789 -0.20505913 0.21447188 0.008234124 -0.0017819713 -0.079526365 0.118534215
0.12946469 0.20770438 0.13831371 0.08568654 -0.09161477 0.14505062 0.09021319 0.10138166
00000000: 79b6 ea3d 28e1 313e 4c13 cd3e 53fe 4f3c
00000010: 7b80 c53c dd0d 7dbe 1378 f6bd a9eb 683c
00000020: 7faa 0ebe 9f0c 953e 2da3 75be fca8 c43d
00000030: cf42 093e e96f c83e 8ae5 92be 031e 1e3e
00000040: 10e1 f0bd 750e fa3d 05fb 51be 849e 5b3e
00000050: 6be8 063c 0991 e9ba b8de a2bd 11c2 f23d
00000060: 6492 043e 75b0 543e 1ca2 0d3e 6d7c af3d
00000070: 86a0 bbbd 2688 143e b1c1 b83d 30a1 cf3d

weight_v f4 [43]
0.22935681 0.051020186 -0.17391646 -0.0863131 -0.0021196792 -0.21495247 0.3182189 0.28254795
0.24792995 0.12096645 0.16565953 -0.09459838 -0.10244492 -0.07332048 -0.06598508 -0.17135435
0.09034203 0.28016108 0.007559331 -0.07164303 -0.11982827 -0.00027351375 0.28030124 0.042196922
0.1136334 0.1327711 0.24597709 0.012640179 -0.21179473 -0.07706022 0.050161894 -0.039886754
-0.22486165 0.07872402 -0.05175734 -0.06722453 0.014581372 -0.25275636 -0.0381016 0.11642749
-0.1762059 0.09875332 0.034445696
00000000: 83dc 6a3e 8bfa 503d 2817 32be ecc4 b0bd
00000010: 51ea 0abb 801c 5cbe 96ed a23e 20aa 903e
00000020: 59e1 7d3e 42bd f73d a7a2 293e ccbc c1bd
00000030: a4ce d1bd 0c29 96bd 3023 87bd 8477 2fbe
00000040: 3e05 b93d 4671 8f3e 44b4 f73b 95b9 92bd
00000050: 8668 f5bd 6566 8fb9 a583 8f3e aed6 2c3d
00000060: a1b8 e83d 26f5 073e 6be1 7b3e c118 4f3c
00000070: b8e0 58be c0d1 9dbd 8f76 4d3d 4b60 23bd
00000080: 2242 66be 0f3a a13d 81ff 53bd 04ad 89bd
00000090: b5e6 6e3c 4869 81be 6c10 1cbd 8971 ee3d
000000a0: 526f 34be 2e3f ca3d ee16 0d3d

weight f4 [32, 43, 1]
0.101518676 -0.005079348 -0.0044121034 -0.043411486 -0.14322272 0.030520553 0.08668113 0.0436529
0.099751875 -0.056961905 0.0603098 0.09210698 6.336272e-05 0.086042136 0.03376186 -0.011703963
-0.051123474 -0.028424295 0.0640345 0.041406557 -0.11253358 0.0380724 0.06253483 0.14269467
0.1446975 -1.7745928e-05 0.007950851 -0.046254776 -0.08284034 -0.09577778 -0.02348047 0.09046474
-0.00065874116 0.043188903 -0.17643978 -0.008192077 0.06854723 0.10891309 -0.11952156 0.053954102
0.12564628 0.059802298 -0.011310584 -0.074485645 0.017493546 -0.045154937 0.08233498 0.023103327
0.05836589 0.13672039 0.10562966 0.18094106 0.10393597 0.060071938 -0.1285908 -0.017243616
-0.09738031 0.02254969 0.1612415 0.10050235 0.086955756 0.0039237444 -0.03295706 -0.05213303
-0.035602164 0.03990472 -0.06512115 0.05802529 -0.04563829 0.08587667 -0.04601591 0.02709022
0.051002152 -0.092840716 -0.062163267 0.117841735 0.12535582 0.012119086 -0.07429627 -0.04901898
-0.038360015 0.09224207 0.017808663 0.033852417 0.20861028 -0.017752998 0.11893872 0.015454859
-0.059241366 -0.040450893 0.061821416 -0.117818214 0.11566257 0.14204581 -0.055654343 0.071865186
0.1214451 -0.07622102 0.07104664 -0.106378436 -0.06841134 -0.13919881 0.1409457 0.14031653
-0.030126775 -0.09189259 -0.02563497 0.0820651 0.11600406 0.109951265 -0.027803678 -0.0759433
0.15137115 0.077127844 -0.13260023 -0.098973095 0.06762476 0.02845446 -0.04214811 -0.06973753
0.1308814 -0.15497558 0.06602265 -0.06857472 0.14971218 -0.014464816 -0.09220315 0.0719661
0.057972316 0.06438269 0.029836752 -0.117935546 -0.085261256 -0.0066043558 0.05808963 -0.0038773033
-0.095667474 -0.023167893 -0.011320679 -0.123873115 -0.10421858 0.051891476 -0.09681022 -0.06995928
-0.1234335 -0.13823043 0.039188325 -0.09964489 0.030047122 0.07478273 -0.1345606 -0.09108513
0.15099198 -0.08339047 -0.095385775 -0.043721452 0.0058992845 -0.1335316 -0.09133677 0.04235416
0.040926274 0.010237942 0.1321556 0.09422014 -0.09895365 0.048525274 -0.0702822 -0.044965483
-0.033960477 0.009699323 0.066923894 -0.05811584 0.00037157699 -0.05498279 0.010499821 -0.15210333
-0.020280205 0.13085255 0.13542786 0.028786093 -0.013564434 -0.18015392 0.029646896 0.02835188
-0.06285583 -0.08874002 0.030340794 -0.11678604 0.08032831 0.08941153 -0.16400194 -0.058826633
0.09237695 0.12130901 -0.061960116 -0.022387989 -0.09188533 0.019822756 -0.08431528 0.079651356
-0.05669625 0.12720221 -0.12759542 -0.013860528 0.032569528 0.013975652 -0.016133081 0.099412024
0.085164525 -0.05793045 -0.0554327 0.018635683 -0.105917655 -0.11637751 -0.16243918 -0.1124723
0.06387266 -0.004965381 0.010084076 -0.115323134 0.14176299 -0.046415135 -0.14122795 0.005545119
-0.10702267 -0.09946952 -0.045587517 -0.017679876 -0.06943196 -0.014049334 0.0062900726 0.14657547
-0.14661728 -0.033465747 0.011189702 0.07882351 0.08710178 0.036268685 -0.09552708 -0.045240615
0.050806135 0.014982223 -0.08798199 0.1447337 0.1484365 -0.14021534 0.058179967 0.07339236
-0.031552657 0.047825195 -0.086161345 -0.005405896 -0.0064317607 0.12385148 -0.1182007 0.052725524
00000000: 06e9 cf3d a970 a6bb 6893 90bb 3ed0 31bd
00000010: faa8 12be 3d06 fa3c e085 b13d 62cd 323d
00000020: b64a cc3d e350 69bd 6907 773d 96a2 bc3d
00000030: 9ae1 8438 dc36 b03d e049 0a3d fbc1 3fbc
00000040: d966 51bd 11da e8bc 8524 833d ec99 293d
00000050: 0178 e6bd cef1 1b3d 4312 803d 8d1e 123e
00000060: 952b 143e 17dd 94b7 4944 023c a675 3dbd
00000070: 32a8 a9bd 2427 c4bd 1d5a c0bc 9445 b93d
00000080: 5faf 2cba d9e6 303d a1ac 34be 1038 06bc
00000090: 7d62 8c3d d30d df3d b8c7 f4bd fafe 5c3d
000000a0: 6ba9 003e 41f3 743d 0750 39bc ee8b 98bd
000000b0: a04e 8f3c 62f4 38bd 3e9f a83d 3043 bd3c
000000c0: 1211 6f3d 6e00 0c3e 5d54 d83d 9d48 393e
000000d0: 62dc d43d fe0d 763d 4fad 03be 7c42 8dbc
000000e0: 546f c7bd 21ba b83c 7e1c 253e 2dd4 cd3d
000000f0: dc15 b23d c192 803b fbfd 06bd 7289 55bd
00000100: 93d3 11bd 2273 233d 3d5e 85bd edab 6d3d
00000110: 37ef 3abd 1ce0 af3d 2e7b 3cbd 4fec dd3c
00000120: a2e7 503d 4623 bebd e99e 7ebd 0257 f13d
00000130: 475d 003e 228f 463c a528 98bd 20c8 48bd
00000140: 641f 1dbd 69e9 bc3d 79e3 913c d5a8 0a3d
00000150: ef9d 553e bc6e 91bc 2596 f33d 6036 7d3c
00000160: 13a7 72bd d6af 25bd 7438 7d3d ad4a f1bd
00000170: 7fe0 ec3d 7574 113e cff5 63bd 0e2e 933d
00000180: 35b8 f83d c419 9cbd e780 913d f0dc d9bd
00000190: 3f1b 8cbd 228a 0ebe 1254 103e 23af 0f3e
000001a0: 6dcc f6bc 2f32 bcbd 6e00 d2bc bf11 a83d
000001b0: 8993 ed3d 212e e13d 8ac4 e3bc 2988 9bbd
000001c0: 0a01 1b3e 34f5 9d3d 5bc8 07be 68b2 cabd
000001d0: da7e 8a3d 5419 e93c 7fa3 2cbd 8dd2 8ebd
000001e0: c605 063e ebb1 1ebe e236 873d e770 8cbd
000001f0: 264e 193e d6fd 6cbc 01d5 bcbd f662 933d
00000200: 6174 6d3d 12db 833d 346c f43c 3188 f1bd
00000210: 749d aebd 5a69 d8bb 64ef 6d3d 5b1a 7ebb
00000220: 4fed c3bd 98ca bdbc 5f7a 39bc 30b1 fdbd
00000230: 8d70 d5bd 288c 543d 7044 c6bd d046 8fbd
00000240: b4ca fcbd 478c 0dbe f083 203d 9f12 ccbd
00000250: 6225 f63c b027 993d 41ca 09be d78a babd
00000260: a49d 1a3e 9fc8 aabd 9e59 c3bd 4415 33bd
00000270: c94e c13b 82bc 08be c60e bbbd 8e7b 2d3d
00000280: 4fa2 273d 0bbd 273c cc53 073e 7df6 c03d
00000290: 36a8 cabd 70c2 463d 1df0 8fbd ba2d 38bd
000002a0: 241a 0bbd e9e9 1e3c 650f 893d e00a 6ebd
000002b0: 38d0 c239 a235 61bd 7107 2c3c fac0 1bbe
000002c0: ac22 a6bc 36fe 053e 9aad 0a3e d0d0 eb3c
000002d0: 5c3d 5ebc 457a 38be 0cde f23c 3442 e83c
000002e0: 8fba 80bd 54bd b5bd 428d f83c 852d efbd
000002f0: 2b83 a43d 641d b73d 20f0 27be 32f4 70bd
00000300: 2030 bd3d dc70 f83d e4c9 7dbd 0467 b7bc
00000310: 602e bcbd 5563 a23c 7dad acbd 4020 a33d
00000320: 543a 68bd 4c41 023e 60a8 02be 4517 63bc
00000330: a067 053d 22fa 643c 8629 84bc 8898 cb3d
00000340: bd6a ae3d 7b48 6dbd 660d 63bd dca9 983c
00000350: 5beb d8bd 5557 eebd 7556 26be e157 e6bd
00000360: abcf 823d a3b4 a2bb ae37 253c 892e ecbd
00000370: 512a 113e cc1d 3ebd 0f9e 10be d4b3 b53b
00000380: b42e dbbd adb6 cbbd fab9 3abd 63d5 90bc
00000390: 5832 8ebd 2e2f 66bc f41c ce3b e117 163e
000003a0: d722 16be 6113 09bd 0355 373c 386e a13d
000003b0: 6b62 b23d 798e 143d b4a3 c3bd 394e 39bd
000003c0: 181a 503d ff77 753c e72f b4bd 1235 143e
000003d0: bdff 173e 9c94 0fbe 1e4e 6e3d bc4e 963d
000003e0: 5c3d 01bd 5ae4 433d 5c75 b0bd f123 b1bb
000003f0: 85c1 d2bb d8a5 fd3d 3513 f2bd b8f6 573d

weight f4 [1, 32, 1]
0.0019383281 0.10692455 0.043614462 -0.043660432 0.031655088 -0.116439834 -0.10867798 0.025243565
-0.12697458 -0.038942114 0.106032684 0.054096684 -0.046190336 0.10920136 0.12768818 -0.00919731
-0.0022452623 0.02661468 -0.1288176 -0.05299355 -0.11528615 -0.094944604 0.110392675 0.12244658
-0.03475882 0.15309294 0.00753887 0.079108045 -0.17212678 -0.10361617 -0.07188539 0.06132704
00000000: 800f fe3a 42fb da3d 14a5 323d 48d5 32bd
00000010: c4a8 013d 0278 eebd 9092 debd 98cb ce3c
00000020: a005 02be c481 1fbd aa27 d93d 7c94 5d3d
00000030: 1432 3dbd f6a4 df3d b1c0 023e 50b0 16bc
00000040: 4025 13bb 0807 da3c c3e8 03be c40f 59bd
00000050: 251b ecbd 5172 c2bd 8e15 e23d 46c5 fa3d
00000060: 445f 0ebd 65c4 1c3e a008 f73b 6603 a23d
00000070: 0142 30be b734 d4bd a638 93bd 1032 7b3d
