Models/M4/wo_sa_ml/wo_sa_ml_discriminator.pt (torch, 119603 bytes, 68 tensors)

weight f4 [121, 10]
-0.44513395 -0.5344828 -0.9218466 1.1488941 0.47283912 0.78877467 -1.5635659 0.088558845
-0.69019675 0.19995464 -1.1174226 1.3808895 -0.23490912 0.51112527 0.6457406 -0.68120974
0.19172846 -0.12809387 -0.703314 -0.6449371 1.0156763 -1.5651592 0.00088888564 0.43804383
-0.32661045 1.7875755 0.052075934 -0.23009436 -1.4604609 0.97892004 -0.48952654 -1.8333702
0.64097536 0.8496516 1.2794963 0.90603787 -1.1995512 0.43771702 0.9556471 -1.009425
0.7565731 -1.2147423 -0.2709475 -1.69734 -0.23868856 0.55990094 1.189307 -0.12600815
-0.3249479 0.48209476 0.13563824 0.21867116 0.6709971 0.548221 -0.10119246 2.5047317
0.8371947 -0.13577132 -0.46742335 0.27927056 -0.13562764 -1.2590693 -0.2516326 0.68098277
0.23106396 1.4376458 0.79153097 -2.8775716 1.8661091 -0.97367305 -0.97276187 0.30293208
1.2229114 0.25944716 -0.19069244 -0.92568046 -1.4620392 0.2050589 -0.45161498 0.18877703
0.6929361 -0.537593 0.7749291 -0.63540995 -0.9505221 0.6131537 1.331655 -0.60943806
0.94943273 -0.049605906 -0.87135565 -0.5829077 -0.48763815 -0.44231254 0.95533925 0.36864582
-1.3713334 0.7174597 0.3382998 -1.8776073 -0.59721017 1.0482707 -0.9933464 -0.68192375
-1.0649929 -0.5234845 -2.4177747 0.581119 0.8783476 1.3164531 -0.011025952 -1.1444181
0.6253264 -0.56556916 1.0774285 1.24662 1.4680647 -0.8626674 0.44463634 -0.053838592
0.5657153 -0.8107599 -0.44370523 1.5713516 -0.044550408 -0.011367417 0.53947365 0.4937314
-0.24106953 -0.35509095 0.7326009 -0.6074425 0.80521417 0.7237022 0.9814905 -0.37778363
0.2129712 -0.04121062 -2.5403771 0.0076107443 0.79582995 -1.0459454 0.36698517 -0.09818344
0.80073065 0.9570134 -0.09590595 0.35374796 -0.6065842 -0.6216162 0.59816206 0.19922653
1.6671878 0.79815644 -0.35141423 -0.78785884 0.8624299 -1.659406 0.39886746 0.22404665
0.2916497 0.7958135 0.55796844 0.579861 0.00048234925 0.23944856 -1.4972336 -2.5140388
-1.029792 1.424495 -1.1592978 1.6841187 0.46503627 -0.7310966 -0.5836214 -0.26737043
-0.6261562 -0.24487042 1.0578653 0.21224539 0.59478223 -1.5092393 0.7372535 1.7730243
2.1684513 1.2013909 -0.6951736 -1.6590787 -0.75619423 0.19541985 -1.0496664 2.2935789
1.7862967 -0.6108545 0.53713703 1.6734884 -1.1126556 -1.8016496 -0.7378518 -0.92644346
2.004441 -0.3446427 -2.2285428 0.6086324 -1.5645763 -1.819402 -0.6810315 -0.57551455
-1.5018145 0.96840745 0.071976684 0.38675752 1.003673 -0.78223354 -1.1449447 -0.56292963
0.18074207 0.073041275 -0.17210631 0.1845921 -0.035593554 -0.49245062 0.14362954 -0.79755026
0.2766608 1.6744277 -0.06070298 -1.7165298 -1.6898472 -0.7133207 0.5265968 -0.15863916
1.3101494 -1.5288788 -0.08446519 0.14620349 -0.3967049 -0.6744902 1.0876155 -0.1155875
1.748747 0.9883821 1.1367486 -0.8050116 -0.17589445 -1.4004409 0.6877133 1.5089871
2.5786378 1.4980012 -1.0040895 -0.4146267 1.108332 0.70880944 -0.2066395 1.3042697
00000000: 99e8 e3be ddd3 08bf 24fe 6bbf f60e 933f
00000010: f817 f23e 23ed 493f ed22 c8bf 575e b53d
00000020: bcb0 30bf e9c0 4c3e b407 8fbf fdc0 b03f
00000030: 048c 70be 1bd9 023f 424f 253f c363 2ebf
00000040: 7754 443e 0a2b 03be 630c 34bf 991a 25bf
00000050: ae01 823f 2357 c8bf 1b04 693a 4847 e03e
00000060: 7c39 a7be 46cf e43f 934d 553d db9d 6bbe
00000070: 62f0 babf 819a 7a3f 39a3 fabe e0ab eabf
00000080: f616 243f c482 593f 89c6 a33f 19f2 673f
00000090: e58a 99bf 721c e03e 4aa5 743f d734 81bf
000000a0: c6ae 413f ad7c 9bbf a1b9 8abe 7042 d9bf
000000b0: c66a 74be ab55 0f3f 363b 983f 4808 01be
000000c0: 925f a6be 20d5 f63e c0e4 0a3e 55eb 5f3e
000000d0: 77c6 2b3f 3658 0c3f fe3d cfbd 864d 2040
000000e0: 6452 563f a307 0bbe 1d52 efbe 8dfc 8e3e
000000f0: f9e1 0abe 2f29 a1bf fdd5 80be e354 2e3f
00000100: 089c 6c3e c704 b83f c6a1 4a3f 222a 38c0
00000110: aadc ee3f a342 79bf ec06 79bf ea19 9b3e
00000120: 5c88 9c3f 42d6 843e e144 43be 65f9 6cbf
00000130: 1a24 bbbf f6fa 513e 143a e7be c44e 413e
00000140: 4364 313f b29f 09bf c161 463f 3aaa 22bf
00000150: 6b55 73bf a4f7 1c3f ac73 aa3f 2204 1cbf
00000160: 060e 733f 902f 4bbd 2a11 5fbf 7039 15bf
00000170: b5ab f9be ca76 e2be 1d91 743f 25bf bc3e
00000180: da87 afbf 70ab 373f a235 ad3e 7055 f0bf
00000190: c4e2 18bf bc2d 863f f34b 7ebf 8e92 2ebf
000001a0: b051 88bf 1503 06bf d2bc 1ac0 37c4 143f
000001b0: 63db 603f 8981 a83f 32a6 34bc 4b7c 92bf
000001c0: 6415 203f 24c9 10bf 2de9 893f 3f91 9f3f
000001d0: 8be9 bb3f c5d7 5cbf 60a7 e33e db85 5cbd
000001e0: b8d2 103f f68d 4fbf 552d e3be 0d22 c93f
000001f0: 7d7a 36bd 673e 3abc f21a 0a3f 5dca fc3e
00000200: eeda 76be 7bce b5be bc8b 3b3f 5a81 1bbf
00000210: 8422 4e3f 8c44 393f f642 7b3f db6c c1be
00000220: 1f15 5a3e 78cc 28bd 8a95 22c0 8d63 f93b
00000230: 83bb 4b3f 8ae1 85bf 7be5 bb3e 6614 c9bd
00000240: affc 4c3f d5fe 743f 576a c4bd 741e b53e
00000250: 1a49 1bbf 3d22 1fbf 2621 193f 0a02 4c3e
00000260: 6966 d53f fb53 4c3f 91ec b3be 1eb1 49bf
00000270: 35c8 5c3f 6a67 d4bf 5b38 cc3e 7c6c 653e
00000280: 1c53 953e 6fba 4b3f 05d7 0e3f c571 143f
00000290: d2e3 fc39 0132 753e 5aa5 bfbf 03e6 20c0
000002a0: 39d0 83bf da55 b63f df63 94bf 3491 d73f
000002b0: 3c19 ee3e 2629 3bbf 3668 15bf c7e4 88be
000002c0: c64b 20bf 50bf 7abe 2168 873f db56 593e
000002d0: a643 183f c12e c1bf a5bc 3c3f 76f2 e23f
000002e0: e8c7 0a40 2dc7 993f e6f6 31bf b15c d4bf
000002f0: f295 41bf 241c 483e 785b 86bf ffc9 1240
00000300: 5fa5 e43f f660 1cbf d081 093f de34 d63f
00000310: 806b 8ebf 749c e6bf dbe3 3cbf 662b 6dbf
00000320: c348 0040 0275 b0be 72a0 0ec0 55cf 1b3f
00000330: 0944 c8bf 2ae2 e8bf 1558 2ebf ec54 13bf
00000340: 753b c0bf 8de9 773f 8368 933d 1505 c63e
00000350: 5b78 803f 7540 48bf 8c8d 92bf 281c 10bf
00000360: 7314 393e aa96 953d a33c 30be b605 3d3e
00000370: 8cca 11bd 7d22 fcbe 9f13 133e 412c 4cbf
00000380: 7ca6 8d3e a653 d63f b0a3 78bd 40b7 dbbf
00000390: ea4c d8bf 2f9c 36bf 0ccf 063f 4e72 22be
000003a0: fab2 a73f 4db2 c3bf 16fc acbd 5eb6 153e
000003b0: e81c cbbe 64ab 2cbf fc36 8b3f 24b9 ecbd
000003c0: f1d6 df3f 9c06 7d3f fa80 913f 3d15 4ebf
000003d0: ad1d 34be a641 b3bf fb0d 303f 7d26 c13f
000003e0: 6708 2540 81be bf3f 0186 80bf f349 d4be
000003f0: d3dd 8d3f 8974 353f 4e99 53be 4ff2 a63f

bias f4 [32]
-0.24397928 0.25924549 -0.065143704 -0.010660444 -0.29147664 0.28826907 0.27316564 -0.033938937
0.29543877 -0.012832981 -0.14300784 -0.23198935 0.0066784346 -0.15118386 0.19727436 -0.09014671
0.133472 0.087197 0.27208397 0.16354436 -0.020360446 -0.11129923 -0.13981937 0.0025174734
-0.21881239 0.22520049 -0.14880176 -0.13685177 -0.00557081 0.23977962 -0.25306848 -0.29605842
00000000: b4d5 79be d3bb 843e 106a 85bd 25a9 2ebc
00000010: 6d3c 95be 0198 933e 5edc 8b3e 8e03 0bbd
00000020: c043 973e 6c41 52bc a670 12be 9e8e 6dbe
00000030: c5d6 da3b f1cf 1abe 4a02 4a3e d79e b8bd
00000040: e2ac 083e 5794 b23d 974e 8b3e 2c78 273e
00000050: f3ca a6bc daf0 e3bd cf2c 0fbe 32fc 243b
00000060: 5b10 60be f59a 663e 7d5f 18be df22 0cbe
00000070: 578b b6bb ca88 753e 3192 81be f894 97be

weight_orig f4 [32, 12, 1]
0.19856323 0.091703564 0.21093738 0.2431901 -0.19853646 0.18175898 0.19079171 -0.1658951
-0.23888926 -0.23956227 0.078299694 0.16959713 -0.22882569 -0.11982608 -0.15043451 -0.012130693
-0.20607552 -0.08605321 -0.09235065 0.23121428 0.2577528 0.2509056 -0.23110603 -0.112398766
0.11155273 0.092127256 -0.18342373 -0.1099015 -0.07909447 0.30495113 0.10581769 0.22951628
0.28359783 0.18594909 0.09626288 -0.14519365 -0.11018406 -0.1532438 -0.3002439 0.18937974
-0.15812175 0.015243356 -0.26334542 0.12172063 -0.19351377 -0.24752146 0.017797148 0.21614225
0.17425436 0.16227539 0.044766977 -0.22877815 0.20001033 0.2874553 0.25879797 -0.17862679
-0.030380221 0.23654859 -0.28210065 0.13742158 -0.22787224 -0.030656783 -0.23452125 0.123020045
0.12811373 -0.26176003 0.20773992 -0.24414441 -0.24326992 0.01648877 0.04527767 0.12714982
-0.11830132 0.18220073 0.16264614 -0.045307662 0.07978765 0.27778682 -0.27273932 -0.04711142
0.01706178 -0.007827581 -0.11176064 0.2946064 0.21568897 0.004510301 0.21019934 -0.26977277
-0.113521725 0.013147089 -0.10725819 -0.10246912 -0.2658365 0.021421677 0.13631167 0.11736178
0.123353966 -0.23890333 -0.13372663 -0.19192645 0.04542327 0.21024694 0.0048244405 0.07604822
-0.12574638 0.1728528 -0.015093718 0.2042894 -0.034891225 -0.2561331 0.029844716 -0.04291196
-0.012573147 -0.14337897 -0.1271391 0.16506943 -0.1953799 -0.0019258733 -0.25066587 0.08158177
-0.30440202 0.13010758 0.14531253 -0.21610637 -0.17810005 0.22964388 0.2629839 0.19321464
-0.19799215 0.07419368 -0.061981186 -0.04243982 0.17372859 -0.122532606 -0.09268278 -0.084325165
-0.16241221 0.023895858 -0.18197244 0.08006237 -0.23207606 0.22637317 0.18288167 0.13224687
0.07944069 0.1927841 -0.2012303 -0.15620936 0.03938578 -0.13842781 -0.063725844 0.020113945
0.08972974 -0.08780057 0.22807504 -0.018546574 0.11936788 0.07340641 -0.1458647 0.18016493
0.09327779 -0.14408486 -0.12561516 0.018619187 0.07377698 -0.11149566 0.038591415 -0.33935866
-0.19582604 0.23273279 0.081024036 0.15893614 -0.042401817 0.15560524 -0.21059716 0.17022014
-0.014247929 -0.2586409 -0.052838728 0.14519556 0.12645258 -0.112492114 0.059363786 0.006404257
-0.033386346 0.14261083 -0.0028541896 0.03640329 -0.089825384 -0.023690686 -0.23303191 -0.119771734
-0.18253285 -0.06259643 0.14814216 -0.24970205 -0.06770449 0.22466321 -0.26928452 -0.13782416
-0.1218373 -0.072740674 -0.024919963 0.011502296 -0.16371045 0.13864926 -0.14662388 0.073141046
0.1561642 0.11328457 -0.28876677 -0.16595457 -0.19142641 0.13516606 -0.098150276 -0.19215687
-0.09569445 0.25439376 0.11522455 -0.11452807 -0.059073456 0.06154044 -0.06507046 0.031340506
0.047657244 0.2194283 -0.28531963 0.19180813 0.105993 -0.06637784 -0.080945246 -0.19598943
0.07727784 0.043186072 0.19690156 0.24937776 0.1879575 -0.11239805 0.12438312 -0.081800774
0.12825513 0.24825263 0.011364652 0.23800462 0.15555827 -0.096473694 0.19994512 -0.26086146
-0.1680934 -0.062444404 0.27788034 0.010874515 0.2666489 -0.15204993 0.21123573 -0.21045387
00000000: 2954 4b3e 14cf bb3d f8ff 573e d306 793e
00000010: 244d 4bbe 071f 3a3e e75e 433e 68e0 29be
00000020: 639f 74be d04f 75be 975b a03d dfaa 2d3e
00000030: 4851 6abe 6067 f5bd 810b 1abe d0bf 46bc
00000040: 7605 53be aa3c b0bd 5622 bdbd 70c3 6c3e
00000050: 2df8 833e b376 803e 0fa7 6cbe 5331 e6bd
00000060: c275 e43d 37ad bc3d 6ed3 3bbe 0a14 e1bd
00000070: 48fc a1bd 8e22 9c3e f2b6 d83d 5106 6b3e
00000080: bc33 913e 7069 3e3e 7925 c53d a5ad 14be
00000090: 2ea8 e1bd f1eb 1cbe 92b9 99be c3ec 413e
000000a0: abea 21be 45bf 793c 36d5 86be aa48 f93d
000000b0: 7928 46be 4476 7dbe 53cb 913c 6554 5d3e
000000c0: bc6f 323e 852b 263e 945d 373d d244 6abe
000000d0: 82cf 4c3e 572d 933e 2b81 843e f1e9 36be
000000e0: f1df f8bc cb39 723e 7f6f 90be 3eb8 0c3e
000000f0: 5757 69be ef23 fbbc 5726 70be eff1 fb3d
00000100: 3f30 033e 6905 86be c6b9 543e fe00 7abe
00000110: c01b 79be 7513 873c 1475 393d 9033 023e
00000120: f647 f2bd d492 3a3e b68c 263e 8794 39bd
00000130: b567 a33d 133a 8e3e 7da4 8bbe e8f7 40bd
00000140: 25c5 8b3c 413f 00bc c3e2 e4bd a6d6 963e
00000150: 92dd 5c3e 26cb 933b 7f3e 573e a81f 8abe
00000160: 147e e8bd e366 573c 2faa dbbd 54db d1bd
00000170: b91b 88be 837c af3c 4995 0b3e 5f5b f03d
00000180: 01a1 fc3d 13a3 74be a2ef 08be 5e88 44be
00000190: c00d 3a3d f94a 573e 5716 9e3b 2bbf 9b3d
000001a0: a9c3 00be 5300 313e a44b 77bc 3e31 513e
000001b0: 1aea 0ebd e123 83be e87c f43c 74c4 2fbd
000001c0: 9aff 4dbc f0d1 12be c130 02be f607 293e
000001d0: ab11 48be 966d fcba 4757 80be 5814 a73d
000001e0: 95da 9bbe ec3a 053e cfcc 143e fd4a 5dbe
000001f0: dc5f 36be c427 6b3e d3a5 863e 0fda 453e
00000200: 74be 4abe dbf2 973d fcdf 7dbd 60d5 2dbd
00000210: e8e5 313e 60f2 fabd 78d0 bdbd acb2 acbd
00000220: 634f 26be 3fc1 c33c fc56 3abe bdf7 a33d
00000230: 59a5 6dbe 5ece 673e 5545 3b3e b96b 073e
00000240: cdb1 a23d 3269 453e 510f 4ebe 59f5 1fbe
00000250: fc52 213d 05c0 0dbe b282 82bd 00c6 a43c
00000260: 3ac4 b73d c9d0 b3bd 818c 693e fcee 97bc
00000270: 2677 f43d 1a56 963d 8e5d 15be 287d 383e
00000280: 6d08 bf3d fb8a 13be 43a1 00be 4487 983c
00000290: 6318 973d d657 e4bd 0812 1e3d 6bc0 adbe
000002a0: 9f86 48be 8151 6e3e eeef a53d 28c0 223e
000002b0: 87ad 2dbd fb56 1f3e c8a6 57be 304e 2e3e
000002c0: 2570 69bc 946c 84be 6c6d 58bd 25ae 143e
000002d0: c97c 013e 4462 e6bd 7127 733d cdda d13b
000002e0: 1fc0 08bd 9308 123e 5b0d 3bbb 9e1b 153d
000002f0: 5ff6 b7bd f812 c2bc eb9f 6ebe e24a f5bd
00000300: e4e9 3abe 8f32 80bd 94b2 173e e5b1 7fbe
00000310: a7a8 8abd 1d0e 663e a9df 89be c721 0dbe
00000320: d685 f9bd 10f9 94bd f324 ccbc 2074 3c3c
00000330: b6a3 27be 12fa 0d3e 9224 16be f9ca 953d
00000340: 82e9 1f3e be01 e83d 3dd9 93be ffef 29be
00000350: 4905 44be f968 0a3e 0303 c9bd c5c4 44be
00000360: 74fb c3bd e63f 823e d9fa eb3d b18d eabd
00000370: 02f7 71bd d411 7c3d a943 85bd e75e 003d
00000380: 3e34 433d d0b1 603e 6a15 92be 5a69 443e
00000390: dc12 d93d 1bf1 87bd 9fc6 a5bd 74b1 48be
000003a0: d843 9e3d e1e3 303d 90a0 493e e25c 7f3e
000003b0: ee77 403e f330 e6bd 94bc fe3d 2a87 a7bd
000003c0: 5055 033e f035 7e3e ce32 3a3c 7cb7 733e
000003d0: ab4a 1f3e 0094 c5bd 6abe 4c3e a28f 85be
000003e0: ad20 2cbe b4c5 7fbd 5546 8e3e 062b 323c
000003f0: 3486 883e fab2 1bbe 2e4e 583e 3881 57be

weight_u f4 [32]
-0.14971176 0.25693426 0.25819415 -0.012331271 0.23184867 -0.2294386 0.17688027 0.04689749
0.2661454 0.111871704 0.3116517 0.13903016 -0.118612565 -0.2313232 0.029224737 0.11193772
0.17460701 0.020018617 0.24873218 0.054937456 -0.3757772 0.0084727695 -0.07274758 0.032680865
-0.14531131 -0.29432154 -0.23696521 0.059415136 -0.104302905 0.038740262 -0.029635785 0.0029204488
00000000: 0a4e 19be e38c 833e 0632 843e 1909 4abc
00000010: bd69 6d3e f4f1 6abe 1a20 353e 9517 403d
00000020: 3644 883e fe1c e53d d090 9f3e ec5d 0e3e
00000030: 25eb f2bd fddf 6cbe b768 ef3c 9a3f e53d
00000040: 2ecc 323e 15fe a33c a6b3 7e3e 1906 613d
00000050: df65 c0be 5fd1 0a3c affc 94bd 5fdc 053d
00000060: 7dcc 14be 50b1 96be 02a7 72be 495d 733d
00000070: c39c d5bd 1cae 1e3d bfc6 f2bc 0065 3f3b

weight_v f4 [12]
-0.14255925 -0.10529993 -0.01993901 -0.42023444 -0.22487865 0.53804886 -0.06838958 0.3862762
0.0048475186 0.4200286 -0.3222445 0.13172588
00000000: 0dfb 11be 7da7 d7bd 2257 a3bc f828 d7be
00000010: 9746 66be 92bd 093f d60f 8cbd fec5 c53e
00000020: efd7 9e3b fd0d d73e 3bfd a4be 26e3 063e

weight f4 [32, 12, 1]
0.16180196 0.074725896 0.1718852 0.19816676 -0.16178013 0.14810878 0.15546922 -0.13518189
-0.19466217 -0.19521059 0.063803576 0.13819854 -0.18646173 -0.097641915 -0.12258361 -0.00988486
-0.16792345 -0.07012163 -0.07525318 0.1884081 0.21003339 0.20445386 -0.18831989 -0.09158967
0.090900265 0.07507115 -0.14946532 -0.089554735 -0.06445121 0.24849358 0.086226985 0.18702447
0.23109356 0.15152314 0.07844112 -0.11831303 -0.08978498 -0.124872796 -0.24465784 0.15431866
-0.12884766 0.012421257 -0.21459061 0.09918571 -0.15768734 -0.20169623 0.014502249 0.17612647
0.14199354 0.13223231 0.03647898 -0.186423 0.16298114 0.23423687 0.21088506 -0.14555648
-0.024755737 0.19275483 -0.22987355 0.11197985 -0.1856848 -0.024981098 -0.19110285 0.10024456
0.10439522 -0.21329872 0.16927971 -0.1989444 -0.19823182 0.0134360995 0.036895126 0.10360976
-0.09639944 0.14846875 0.13253443 -0.036919568 0.06501605 0.22635838 -0.22224535 -0.038389385
0.013903024 -0.006378411 -0.09106968 0.24006402 0.1757571 0.0036752804 0.1712838 -0.21982802
-0.092504725 0.010713085 -0.0874008 -0.08349836 -0.2166205 0.017455745 0.111075416 0.09563384
0.10051666 -0.19467364 -0.108968966 -0.15639389 0.03701377 0.17132258 0.003931261 0.061968926
-0.10246616 0.14085147 -0.012299322 0.16646801 -0.02843159 -0.20871356 0.024319373 -0.034967396
-0.0102454005 -0.11683431 -0.10360103 0.13450907 -0.15920797 -0.0015693242 -0.2042585 0.06647802
-0.24804614 0.10601994 0.1184099 -0.17609723 -0.14512725 0.18712845 0.21429601 0.15744358
-0.1613366 0.060457733 -0.050506216 -0.034582663 0.1415651 -0.09984736 -0.07552382 -0.06871351
-0.1323438 0.019471865 -0.14828272 0.065239914 -0.18911034 0.18446326 0.14902362 0.107763164
0.06473333 0.15709275 -0.16397525 -0.12728932 0.03209404 -0.112799786 -0.051927872 0.016390122
0.0731175 -0.07154549 0.18585005 -0.015112929 0.097268544 0.059816215 -0.118859835 0.14680985
0.07600868 -0.11740951 -0.10235923 0.015172099 0.06011818 -0.09085376 0.03144674 -0.27653104
-0.15957151 0.18964548 0.06602354 0.12951128 -0.0345517 0.12679705 -0.17160797 0.13870619
-0.011610119 -0.21075705 -0.043056358 0.11831458 0.10304161 -0.09166573 0.04837339 0.005218596
-0.02720532 0.11620838 -0.0023257753 0.029663717 -0.07319544 -0.019304678 -0.18988924 -0.09759763
-0.14873938 -0.051007558 0.120715655 -0.20347312 -0.05516993 0.18306988 -0.21943016 -0.1123079
-0.09928079 -0.05927373 -0.020306371 0.009372802 -0.13340169 0.11298024 -0.119478464 0.059599977
0.12725253 0.09231148 -0.23530555 -0.13523035 -0.15598643 0.11014191 -0.07997909 -0.15658164
-0.07797793 0.20729622 0.09389229 -0.09332476 -0.04813681 0.050147068 -0.05302355 0.025538238
0.038834155 0.17880414 -0.23249659 0.15629748 0.08636984 -0.05408889 -0.065959334 -0.15970466
0.0629709 0.03519076 0.16044793 0.20320886 0.15315972 -0.091589086 0.101355284 -0.06665648
0.10451044 0.20229204 0.009260641 0.19394131 0.12675878 -0.0786129 0.16292801 -0.21256651
-0.1369732 -0.050883673 0.22643459 0.008861247 0.21728249 -0.12389996 0.17212832 -0.1714912
00000000: 6aaf 253e e409 993d ad02 303e 3aec 4a3e
00000010: b1a9 25be d4a9 173e 5333 1f3e 1f6d 0abe
00000020: 8555 47be 49e5 47be 73ab 823d eb83 0d3e
00000030: d3ef 3ebe 7cf8 c7bd 1e0d fbbd 1cf4 21bc
00000040: 20f4 2bbe ee9b 8fbd 571e 9abd 0eee 403e
00000050: fe12 573e 5a5c 513e eed6 40be 5d93 bbbd
00000060: eb29 ba3d e7be 993d 700d 19be 7968 b7bd
00000070: fffe 83bd 1a75 7e3e c697 b03d 5883 3f3e
00000080: caa3 6c3e e228 1b3e bda5 a03d 1a4e f2bd
00000090: 30e1 b7bd 4fbd ffbd 9687 7abe b605 1e3e
000000a0: a4f0 03be 8782 4b3c a4bd 5bbe e121 cb3d
000000b0: ca78 21be 7589 4ebe d79a 6d3c 7f5a 343e
000000c0: c166 113e e867 073e fc6a 153d ace5 3ebe
000000d0: 87e4 263e cadb 6f3e 41f2 573e c20c 15be
000000e0: 8bcc cabc 8661 453e f963 6bbe b155 e53d
000000f0: 2824 3ebe 29a5 ccbc 77b0 43be 054d cd3d
00000100: 29cd d53d fb6a 5abe a957 2d3e 15b8 4bbe
00000110: 48fd 4abe 1623 5c3c 581f 173d 5b31 d43d
00000120: 126d c5bd 3108 183e 1bb7 073e f938 17bd
00000130: 2327 853d 7eca 673e 4994 63be 303e 1dbd
00000140: 82c9 633c fd01 d1bb be82 babd 58d3 753e
00000150: abf9 333e f9dc 703b 0565 2f3e 991a 61be
00000160: 1e73 bdbd ef85 2f3c 31ff b2bd 3001 abbd
00000170: c4d1 5dbe 5aff 8e3c 827b e33d addb c33d
00000180: aedb cd3d 8758 47be 1f2b dfbd b825 20be
00000190: c09b 173d 306f 2f3e cfd1 803b 21d3 7d3d
000001a0: c7d9 d1bd 5e3b 103e 1883 49bc 9776 2a3e
000001b0: 5ee9 e8bc 02b9 55be 6c39 c73c f939 0fbd
000001c0: 53dc 27bc d446 efbd c72c d4bd bfbc 093e
000001d0: 6a07 23be c8b1 cdba 2429 51be a125 883d
000001e0: cfff 7dbe fb20 d93d e480 f23d d552 34be
000001f0: 3d9c 14be 9a9e 3f3e 6a70 5b3e e438 213e
00000200: 6c35 25be 87a2 773d 9bdf 4ebd 8da6 0dbd
00000210: 71f6 103e c67c ccbd 3cac 9abd abb9 8cbd
00000220: 2285 07be 7683 9f3c 6dd7 17be 819c 853d
00000230: 24a6 41be f0e3 3c3e a699 183e efb2 dc3d
00000240: e892 843d ecdc 203e 21e9 27be 2258 02be
00000250: 0a75 033d 9303 e7bd 52b2 54bd 9444 863c
00000260: a1be 953d 7186 92bd 7a4f 3e3e 389c 77bc
00000270: bb34 c73d d901 753d c96c f3bd 5255 163e
00000280: 70aa 9b3d 6674 f0bd b7a1 d1bd 6594 783c
00000290: 7b3e 763d 8911 babd 4cce 003d 7a95 8dbe
000002a0: b766 23be 6d32 423e 5a37 873d 9b9e 043e
000002b0: 1586 0dbd 16d7 013e 00ba 2fbe ff08 0e3e
000002c0: 5e38 3ebc b2d0 57be dd5b 30bd ea4e f23d
000002d0: 7b07 d33d 3ebb bbbd 2d23 463d c200 ab3b
000002e0: b1dd debc a9fe ed3d 096c 18bb 5301 f33c
000002f0: 7ee7 95bd d824 9ebc 5372 42be 44e1 c7bd
00000300: 234f 18be 4ded 50bd c539 f73d 425b 50be
00000310: ddf9 61bd ac76 3b3e 4db2 60be af01 e6bd
00000320: ba53 cbbd 03c9 72bd 8c59 a6bc 6290 193c
00000330: 749a 08be 2f62 e73d 20b1 f4bd 1b1f 743d
00000340: 7d4e 023e cd0d bd3d f0f3 70be d379 0abe
00000350: e8ba 1fbe 1592 e13d 14cc a3bd f056 20be
00000360: e5b2 9fbd 7645 543e 9a4a c03d 0d21 bfbd
00000370: 1b2b 45bd 0367 4d3d 392f 59bd 9135 d13c
00000380: 9010 1f3d 6f18 373e 9613 6ebe 720c 203e
00000390: ace2 b03d 508c 5dbd b015 87bd 9e89 23be
000003a0: e3f6 803d 3024 103d 764c 243e fc15 503e
000003b0: e7d5 1c3e 0f93 bbbd 5c93 cf3d 3183 88bd
000003c0: 9209 d63d a525 4f3e f2b9 173c 8d98 463e
000003d0: 0ecd 013e cdff a0bd 9ad6 263e 09ab 59be
000003e0: b442 0cbe 666b 50bd 78de 673e c42e 113c
000003f0: 4d7f 5e3e 43bf fdbd 6842 303e 649b 2fbe

bias f4 [32]
-0.14834245 0.04745495 0.1259748 0.01444787 0.09609827 0.13885142 -0.03800317 0.113478094
-0.040664755 -0.06048012 -0.1029897 -0.14300445 0.04931382 0.010765018 0.055657674 0.010996217
0.06822718 -0.15321295 -0.14015393 -0.053854108 -0.06871642 0.17482015 -0.0933244 0.091745116
0.022517858 -0.010165008 -0.13354617 -0.16924517 0.10238387 -0.122226 0.098292455 0.15847585
00000000: 15e7 17be 1f60 423d 8aff 003e c2b6 6c3c
00000010: 2bcf c43d 112f 0e3e 36a9 1bbd 3467 e83d
00000020: 1690 26bd 01ba 77bd 44ec d2bd c26f 12be
00000030: 4afd 493d c25f 303c 4df9 633d 7a29 343c
00000040: b1ba 8b3d dbe3 1cbe 8384 0fbe 2096 5cbd
00000050: 32bb 8cbd 0e04 333e dd20 bfbd dde4 bb3d
00000060: 5f77 b83c 228b 26bc 54c0 08be 9b4e 2dbe
00000070: a2ae d13d a051 fabd 8e4d c93d 7e47 223e

weight_orig f4 [32, 32, 1]
-0.14371969 -0.12957327 0.08020742 0.09224678 0.072631605 0.07750142 -0.076932155 0.08865491
0.026936868 0.16950223 -0.10783449 -0.050204232 -0.080479085 0.069795 0.13599832 0.13264275
0.0470508 -0.1779552 -0.15426575 0.15110211 0.05654552 -0.021712048 0.13507487 -0.04902887
0.16504984 0.12335786 0.12396559 0.1410412 -0.029781498 -0.04050289 0.05330363 -0.07485711
-0.0026873327 -0.15620032 0.05146821 0.0098479325 0.10789982 -0.06520464 0.08021013 0.09828915
-0.11354621 0.016899878 -0.17405973 0.02124643 0.08188603 0.048002362 0.08341299 0.032093972
0.0115192635 0.0835323 0.118942924 0.05773938 0.08862284 0.096301004 -0.023021098 -0.038172312
0.11940781 -0.053928036 0.052217666 -0.05638175 0.16300228 0.07671105 -0.14753245 0.106094114
0.07945008 -0.00749751 0.14828415 -0.06028824 -0.11859813 -0.10547422 0.1300825 0.06023446
0.19002457 -0.16118842 -0.11164026 -0.12859756 -0.022308724 -0.12210941 0.014658294 0.057022
-0.0067995335 -0.1938494 0.1402223 0.03505392 -0.1374545 -0.008180507 0.05526288 -0.14324297
-0.08850864 -0.10557108 -0.13281342 -0.07573882 -0.16476081 -0.03930951 0.021747205 -0.16181178
-0.022348925 0.048385594 -0.09539617 -0.17630675 0.07724899 0.16972053 0.11472554 0.05335907
0.056911867 0.022814944 0.12600714 -0.0435461 0.13914554 -0.07710104 0.15979238 -0.0870885
-0.05918018 -0.018977096 -0.01199363 0.10177778 -0.09002444 -0.15859577 -0.15044042 0.06137149
-0.09688342 -0.17514734 0.08698274 -0.034724295 0.0076228003 -0.01657109 0.017471015 0.03536826
0.13708715 0.019973237 -0.116127945 -0.16314217 -0.04287984 0.1399956 0.08412714 0.030239632
-0.030797714 0.0932991 0.037919063 0.027562933 -0.048085462 0.14170153 0.013429819 0.0848869
0.021619618 -0.049341623 -0.045226764 0.0783552 0.019150632 0.16765852 -0.07484309 0.09122496
0.122020826 -0.02545587 -0.1087092 0.0069493344 -0.04653674 -0.09315511 -0.017503211 -0.00770524
0.028026715 -0.08474794 -0.018789843 0.018887851 -0.07154643 0.0149838235 0.0646997 0.078527875
0.084110424 0.12523223 -0.1600284 0.16226783 -0.023348955 -0.12911457 0.129313 -0.12014001
0.010611941 -0.080336764 0.025775537 -0.05731558 0.07796663 0.11769232 0.0133725265 0.030965684
-0.16100605 0.07318594 0.119408764 -0.191112 0.049995206 0.12611878 0.08381257 -0.16713257
-0.08413366 -0.082297444 0.12548544 -0.13481146 -0.03332618 -0.110319905 0.076949626 0.031023346
-0.16972949 0.15221646 -0.13159086 0.017599728 -0.0836007 0.100618534 -0.028995618 -0.07893832
-0.13352859 -0.13073209 -0.15929979 0.083117105 -0.056833133 0.055262197 0.13430095 -0.18429361
-0.0681303 -0.04069079 -0.14629683 -0.0657613 0.03727165 -0.12222274 -0.1913956 -0.10723544
-0.056385983 -0.16230899 0.109203495 -0.1334605 0.13979413 0.026873264 0.058772027 0.100862704
-0.16967861 -0.07858604 -0.09862216 0.061091363 0.16134323 -0.020298095 -0.056175034 -0.05422928
-0.06278883 -0.06956976 -0.080469914 0.11420098 0.06805324 0.16374074 -0.13785806 0.111655466
-0.05362101 0.082995564 -0.051996104 -0.031014752 -0.10214264 -0.11242277 0.13473755 0.15948701
00000000: 412b 13be dbae 04be ca43 a43d e1eb bc3d
00000010: e1bf 943d 11b9 9e3d 9b8e 9dbd b590 b53d
00000020: b5aa dc3c fe91 2d3e 54d8 dcbd f4a2 4dbd
00000030: 38d2 a4bd aef0 8e3d 2543 0b3e 80d3 073e
00000040: 57b8 403d e339 36be d7f7 1dbe 83ba 1a3e
00000050: 469c 673d 77dd b1bc 1151 0a3e 7fd2 48bd
00000060: d302 293e 0ca3 fc3d ace1 fd3d 1b6d 103e
00000070: 54f8 f3bc 5ce6 25bd e854 5a3d af4e 99bd
00000080: f61d 30bb faf2 1fbe 54d0 523d 3959 213c
00000090: 95fa dc3d 038a 85bd 3545 a43d d24b c93d
000000a0: ea8a e8bd 9d71 8a3c b73c 32be fe0c ae3c
000000b0: ddb3 a73d 209e 443d 6ed4 aa3d f874 033d
000000c0: 4bbb 3c3c fc12 ab3d 5998 f33d 2180 6c3d
000000d0: e47f b53d 7639 c53d be96 bcbc 925a 1cbd
000000e0: 158c f43d a5e3 5cbd 31e2 553d 8df0 66bd
000000f0: 12ea 263e af1a 9d3d bf12 17be df47 d93d
00000100: b9b6 a23d acad f5bb cdd7 173e cdf0 76bd
00000110: 94e3 f2bd de02 d8bd 5934 053e 69b8 763d
00000120: cd95 423e 940e 25be a6a3 e4bd 14af 03be
00000130: c9c0 b6bc 8014 fabd 5729 703c e78f 693d
00000140: 9fce debb 7580 46be 6f96 0f3e b394 0f3d
00000150: dfc0 0cbe 8907 06bc 545b 623d 49ae 12be
00000160: 0544 b5bd a735 d8bd 3e00 08be f41c 9bbd
00000170: 0fb7 28be 0203 21bd 3227 b23c fdb1 25be
00000180: 1815 b7bc f92f 463d 115f c3bd c289 34be
00000190: b834 9e3d 38cb 2d3e 39f5 ea3d 0a8f 5a3d
000001a0: 6b1c 693d 68e6 ba3c 0408 013e 655d 32bd
000001b0: 2b7c 0e3e 26e7 9dbd 9da0 233e 755b b2bd
000001c0: eb66 72bd db75 9bbc ee80 44bc de70 d03d
000001d0: bc5e b8bd ee66 22be 0e0d 1abe ac60 7b3d
000001e0: d16a c6bd d359 33be 0224 b23d 103b 0ebd
000001f0: afc8 f93b 18c0 87bc 601f 8f3c 4fde 103d
00000200: 9360 0c3e ea9e a33c 7dd4 edbd be0e 27be
00000210: c5a2 2fbd 025b 0f3e da4a ac3d 1bb9 f73c
00000220: 7d4b fcbc 9913 bf3d 0551 1b3d a9cb e13c
00000230: 43f5 44bd 351a 113e be08 5c3c 2fd9 ad3d
00000240: a01b b13c 711a 4abd b33f 39bd b178 a03d
00000250: c9e1 9c3c adae 2b3e 5547 99bd 27d4 ba3d
00000260: 0ee6 f93d d488 d0bc eea2 debd 3eb7 e33b
00000270: 4f9d 3ebd 1bc8 bebd e562 8fbc 3d7c fcbb
00000280: 4898 e53c 5490 adbd 28ed 99bc b2ba 9a3c
00000290: ef86 92bd b67e 753c 4781 843d 39d3 a03d
000002a0: 1642 ac3d e13c 003e 7cde 23be 8a29 263e
000002b0: 4f46 bfbc 9c36 04be a16a 043e f70b f6bd
000002c0: b5dd 2d3c 9a87 a4bd 3827 d33c bec3 6abd
000002d0: f8ac 9f3d ac08 f13d 7118 5b3c bfab fd3c
000002e0: c5de 24be 83e2 953d 958c f43d ddb2 43be
000002f0: c6c7 4c3d 4825 013e eda5 ab3d cd24 2bbe
00000300: 454e acbd 908b a8bd 417f 003e 040c 0abe
00000310: 0881 08bd 67ef e1bd c497 9d3d ac24 fe3c
00000320: 91cd 2dbe a2de 1b3e c1bf 06be 4e2d 903c
00000330: d836 abbd 1711 ce3d 3888 edbc 6aaa a1bd
00000340: b8bb 08be a2de 05be 7c1f 23be 4d39 aa3d
00000350: dcc9 68bd 9d5a 623d 3086 093e 77b7 3cbe
00000360: e687 8bbd 63ab 26bd d6ce 15be dcad 86bd
00000370: 28aa 183d ea4f fabd 35fd 43be 419e dbbd
00000380: fdf4 66bd 5434 26be 15a6 df3d dfa9 08be
00000390: 3126 0f3e 5225 dc3c f0ba 703d 1b91 ce3d
000003a0: 3bc0 2dbe b8f1 a0bd 6afa c9bd f03a 7a3d
000003b0: 2937 253e 3148 a6bc cb17 66bd 861f 5ebd
000003c0: 6e97 80bd 977a 8ebd 69cd a4bd 34e2 e93d
000003d0: 7f5f 8b3d a7ab 273e aa2a 0dbe 9fab e43d
000003e0: b4a1 5bbd 94f9 a93d def9 54bd a612 febc
000003f0: 2930 d1bd e93d e6bd a4f8 093e 9050 233e

weight_u f4 [32]
-0.055716723 0.04920835 0.3265447 -0.14907435 -0.017354395 0.013474726 0.2242473 0.14442177
0.04393469 0.097388245 0.17044827 0.11472473 0.19645278 -0.21905775 -0.14545296 -0.07198213
0.32993254 -0.12555797 0.16044232 -0.18240888 -0.34471324 0.038454432 -0.12999585 -0.25668997
-0.19710125 0.12605102 0.1944832 0.29851663 -0.027149344 0.034891818 -0.23718381 0.028830169
00000000: 3837 64bd b28e 493d de30 a73e f2a6 18be
00000010: ce2a 8ebc 19c5 5c3c 16a1 653e 4de3 133e
00000020: ddf4 333d 7d73 c73d fe89 2e3e cdf4 ea3d
00000030: eb2a 493e ad50 60be 9ff1 14be 5e6b 93bd
00000040: ebec a83e 4592 00be fe4a 243e 65c9 3abe
00000050: 417e b0be 6582 1d3d a21d 05be de6c 83be
00000060: e9d4 49be 8513 013e 9b26 473e 2cd7 983e
00000070: 4d68 debc b9ea 0e3d 50e0 72be 3f2d ec3c

weight_v f4 [32]
-0.2624362 -0.20731185 0.2666753 -0.0045736316 -0.14145371 -0.15692557 0.2874583 0.017396618
0.17584309 -0.25639126 -0.18908484 -0.105609626 -0.07784859 -0.124433994 -0.27990815 0.11186256
-0.07223218 -0.2658462 0.015203986 -0.15905774 -0.049252037 0.28196806 -0.1357472 -0.113685735
-0.011761023 0.037667267 -0.19769007 -0.21432745 -0.09183003 -0.21683519 -0.27594262 0.024449639
00000000: 0a5e 86be 8f49 54be aa89 883e 67de 95bb
00000010: 3ed9 10be 19b1 20be bc2d 933e 5a83 8e3c
00000020: 3610 343e b745 83be 759f 41be dc49 d8bd
00000030: 156f 9fbd 40d7 febd 1f50 8fbe 3318 e53d
00000040: 77ee 93bd fe1c 88be 241a 793c 08e0 22be
00000050: 81bc 49bd 1e5e 903e 5001 0bbe 11d4 e8bd
00000060: 4eb1 40bc fe48 1a3d 446f 4abe a878 5bbe
00000070: 6211 bcbd 0b0a 5ebe 5a48 8dbe 9c4a c83c

weight f4 [32, 32, 1]
-0.13967161 -0.12592365 0.07794826 0.08964851 0.070585825 0.07531848 -0.07476524 0.08615781
0.02617815 0.16472794 -0.10479716 -0.048790153 -0.07821227 0.06782912 0.13216773 0.12890667
0.045725543 -0.17294282 -0.14992061 0.14684609 0.054952826 -0.021100495 0.13127027 -0.047647897
0.16040096 0.1198833 0.120473914 0.13706857 -0.028942656 -0.039362065 0.05180225 -0.072748646
-0.00261164 -0.15180069 0.050018527 0.00957055 0.104860656 -0.06336805 0.07795089 0.09552068
-0.110348 0.016423868 -0.16915707 0.020647991 0.079579584 0.0466503 0.08106354 0.031189997
0.011194806 0.081179485 0.11559271 0.056113064 0.08612664 0.09358854 -0.022372674 -0.03709713
0.11604451 -0.05240907 0.050746877 -0.05479367 0.15841107 0.07455037 -0.14337698 0.10310581
0.077212244 -0.007286331 0.1441075 -0.05859013 -0.115257636 -0.102503374 0.12641853 0.058537867
0.18467224 -0.15664831 -0.10849574 -0.12497541 -0.021680364 -0.11867002 0.014245421 0.05541589
-0.0066080145 -0.18838933 0.13627271 0.034066573 -0.13358288 -0.007950091 0.053706314 -0.13920832
-0.086015664 -0.10259751 -0.12907253 -0.073605515 -0.16012007 -0.038202297 0.021134662 -0.15725411
-0.021719433 0.04702274 -0.09270919 -0.17134081 0.07507315 0.16494009 0.11149412 0.05185613
0.055308856 0.022172326 0.12245796 -0.042319555 0.1352263 -0.07492937 0.15529159 -0.08463552
-0.05751328 -0.018442577 -0.011655811 0.09891105 -0.08748876 -0.15412867 -0.14620304 0.05964287
-0.09415455 -0.17021404 0.08453274 -0.03374623 0.0074080923 -0.016104339 0.016978918 0.034372058
0.13322589 0.01941066 -0.11285702 -0.15854703 -0.041672062 0.13605241 0.081757575 0.029387888
-0.029930249 0.09067119 0.036851015 0.02678658 -0.046731062 0.13771029 0.013051547 0.082495935
0.021010669 -0.04795184 -0.043952882 0.076148205 0.018611224 0.16293617 -0.07273502 0.08865547
0.118583925 -0.024738867 -0.10564724 0.0067535955 -0.045225963 -0.09053125 -0.017010206 -0.00748821
0.0272373 -0.082360886 -0.018260598 0.018355846 -0.06953121 0.014561782 0.062877335 0.076316014
0.081741326 0.12170488 -0.15552096 0.1576973 -0.022691296 -0.12547787 0.1256707 -0.11675608
0.01031304 -0.078073956 0.02504953 -0.0557012 0.07577058 0.114377335 0.012995869 0.030093487
-0.15647107 0.071124546 0.11604543 -0.18572904 0.048587013 0.122566454 0.08145186 -0.16242503
-0.08176391 -0.07997941 0.12195095 -0.13101429 -0.032387495 -0.10721257 0.07478222 0.030149525
-0.16494879 0.14792906 -0.1278844 0.017104005 -0.08124596 0.09778446 -0.028178912 -0.0767149
-0.12976755 -0.12704982 -0.15481287 0.08077598 -0.055232342 0.05370565 0.13051815 -0.1791027
-0.066211306 -0.03954467 -0.14217615 -0.06390903 0.036221836 -0.11878014 -0.18600464 -0.10421499
-0.054797783 -0.15773731 0.10612761 -0.12970139 0.13585661 0.026116338 0.057116624 0.09802175
-0.16489935 -0.07637255 -0.09584431 0.059370633 0.15679875 -0.019726368 -0.054592777 -0.05270183
-0.061020285 -0.06761022 -0.07820336 0.11098433 0.06613641 0.15912873 -0.13397507 0.10851052
-0.05211069 0.08065787 -0.050531555 -0.030141173 -0.099265635 -0.109256215 0.13094246 0.15499482
00000000: 1306 0fbe 21f2 00be 56a3 9f3d a399 b73d
00000010: 4d8f 903d 9340 9a3d 851e 99bd 8273 b03d
00000020: 8f73 d63c 71ae 283e e59f d6bd 2fd8 47bd
00000030: c12d a0bd fee9 8a3d fa56 073e 1c00 043e
00000040: b54a 3b3d ec17 31be ca84 19be d25e 163e
00000050: 3716 613d f2da acbc b76b 063e 712a 43bd
00000060: 2640 243e 6085 f53d 07bb f63d b45b 0c3e
00000070: 2619 edbc 1e3a 21bd 992e 543d 3efd 94bd
00000080: 0c28 2bbb a471 1bbe 3ae0 4c3d cccd 1c3c
00000090: 2fc1 d63d 1cc7 81bd b7a4 9f3d 59a0 c33d
000000a0: 22fe e1bd 598b 863c 8337 2dbe fa25 a93c
000000b0: 9ffa a23d 6314 3f3d a404 a63d 2a82 ff3c
000000c0: 6b6a 373c 6e41 a63d dfbb ec3d d0d6 653d
000000d0: 2a63 b03d 59ab bf3d e646 b7bc 29f3 17bd
000000e0: bea8 ed3d e5aa 56bd f5db 4f3d 546f 60bd
000000f0: 8336 223e ddad 983d 6ad1 12be 2429 d33d
00000100: 7421 9e3d 2dc2 eebb eb90 133e 34fc 6fbd
00000110: 320c ecbd 4aed d1bd dc73 013e 67c5 6f3d
00000120: b81a 3d3e 6a68 20be 0433 debd 1cf3 ffbd
00000130: 059b b1bc 4409 f3bd a065 693c c6fb 623d
00000140: 0b88 d8bb 22e9 40be 138b 0b3e 6489 0b3d
00000150: f3c9 08be 1941 02bc 27fb 5b3d a08c 0ebe
00000160: fb28 b0bd a51e d2bd 972b 04be 7dbe 96bd
00000170: 84f6 23be 037a 1cbd 9922 ad3c 3907 21be
00000180: f4ec b1bc eb9a 403d 51de bdbd f773 2fbe
00000190: f4bf 993d 0ee6 283e 0757 e43d 1867 543d
000001a0: 8a8b 623d bda2 b53c 3dcb fa3d 4557 2dbd
000001b0: c378 0a3e 9274 99bd c204 1f3e 6355 adbd
000001c0: 0c93 6bbd e314 97bc 04f8 3ebc e091 ca3d
000001d0: 4f2d b3bd e8d3 1dbe 40b6 15be 154c 743d
000001e0: 1ad4 c0bd 974c 2ebe 801f ad3d 7d39 0abd
000001f0: 95bf f23b 3fed 83bc 5f17 8b3c b7c9 0c3d
00000200: 5e6c 083e 1b03 9f3c 9521 e7bd 275a 22be
00000210: 53b0 2abd 5351 0b3e 8470 a73d debe f03c
00000220: 4830 f5bc d1b1 b93d 17f1 163d 886f db3c
00000230: 1269 3fbd ed03 0d3e 28d6 553c a1f3 a83d
00000240: 911e ac3c 2669 44bd f007 34bd 97f3 9b3d
00000250: 9176 983c bdd8 263e 19f6 94bd 0091 b53d
00000260: 21dc f23d 2aa9 cabc 955d d8bd 444d dd3b
00000270: dc3e 39bd 7368 b9bd fd58 8bbc a95f f5bb
00000280: c220 df3c d3ac a8bd 4097 95bc 005f 963c
00000290: 6166 8ebd 8a94 6e3c d5c5 803d 924b 9c3d
000002a0: ff67 a73d 6840 f93d e340 1fbe 677b 213e
000002b0: 19e3 b9bc 457d 00be d2af 003e d01d efbd
000002c0: 06f8 283c 3de5 9fbd ac34 cd3c f126 64bd
000002d0: 9b2d 9b3d aa3e ea3d a0ec 543c 9e86 f63c
000002e0: f439 20be bfa9 913d 3aa9 ed3d c12f 3ebe
000002f0: 2d03 473d 1f04 fb3d 3cd0 a63d bf52 26be
00000300: d673 a7bd 3fcc a3bd 6bc1 f93d 9c28 06be
00000310: c0a8 04bd 4492 dbbd 6c27 993d 23fc f63c
00000320: 56e8 28be b77a 173e 21f4 02be b31d 8c3c
00000330: 4864 a6bd 3843 c83d 76d7 e6bc b41c 9dbd
00000340: c9e1 04be 5919 02be 4487 1ebe e16d a53d
00000350: 4f3b 62bd 75fa 5b3d 8da6 053e b366 37be
00000360: cb99 87bd 98f9 21bd a096 11be bde2 82bd
00000370: 595d 143d 0143 f3bd 0078 3ebe ab6e d5bd
00000380: a473 60bd e485 21be 6f59 d93d 71d0 04be
00000390: ff1d 0b3e eef1 d53c 1ff3 693d a1bf c83d
000003a0: 60db 28be 3669 9cbd 064a c4bd 9f2e 733d
000003b0: da8f 203e 3199 a1bc ad9c 5fbd e0dd 57bd
000003c0: 68f0 79bd 3a77 8abd 1529 a0bd c14b e33d
000003d0: 8772 873d a4f2 223e c330 09be c33a de3d
000003e0: 0572 55bd f42f a53d 2dfa 4ebd 9fea f6bc
000003f0: c84b cbbd b9c1 dfbd c815 063e f6b6 1e3e

weight f4 [1, 32, 1]
-0.14294477 0.06655748 0.069450185 0.14498793 0.03496176 -0.13267928 -0.12570205 0.054592222
-0.11499645 -0.082305945 -0.06767551 0.045246437 0.018549591 -0.07459286 0.15211235 -0.11766812
-0.07492494 0.15533073 -0.16674039 0.1158631 0.09774886 -0.14746524 -0.07402828 -0.035258666
0.10844599 -0.09821113 -0.14172691 -0.12206916 0.093458936 0.10780464 0.08185466 -0.0030329227
00000000: 1d60 12be 4a4f 883d e63b 8e3d b777 143e
00000010: 1034 0f3d 14dd 07be 0ab8 00be 189c 5f3d
00000020: 4283 ebbd 0590 a8bd 7599 8abd 5454 393d
00000030: 50f5 973c 24c4 98bd 57c3 1b3e fcfb f0bd
00000040: 3f72 99bd 050f 1f3e febd 2abe a249 ed3d
00000050: 8e30 c83d 2101 17be 249c 97bd 646b 10bd
00000060: ee18 de3d eb22 c9bd dc20 11be 65ff f9bd
00000070: 6667 bf3d aec8 dc3d 6aa3 a73d 00c4 46bb

weight f4 [1, 32, 1]
-0.04815668 0.1631174 0.10610114 -0.0317899 0.025412321 -0.010708928 -0.056499094 0.103380516
0.011057958 0.121395215 0.036126852 0.01577422 0.08508982 0.11336015 0.06351943 0.08812229
-0.07527747 0.08675788 0.02549699 -0.063335985 -0.09110796 0.03230448 0.010903552 -0.048117682
-0.11566998 0.09176843 -0.14329314 -0.11086303 -0.11077418 0.1536165 0.15930022 0.05489418
00000000: f03f 45bd 3f08 273e 8e4b d93d 2036 02bd
00000010: 802d d03c 8074 2fbc 986b 67bd 2ab9 d33d
00000020: 702c 353c 0e9e f83d c0f9 133d f038 813c
00000030: 9243 ae3d 5e29 e83d 7a16 823d 7679 b43d
00000040: 132b 9abd 1eae b13d 10df d03c 4cb6 81bd
00000050: cf96 babd b451 043d d0a4 323c 0c17 45bd
00000060: 62e4 ecbd 16f1 bb3d 70bb 12be 280c e3bd
00000070: 93dd e2bd a54d 1d3e 991f 233e b8d8 603d

weight f4 [1, 32, 1]
0.043648228 -0.1457197 -0.06398717 0.0656133 -0.16908483 -0.03879483 -0.12975661 0.13145824
0.026198775 0.035663784 0.017398939 0.15588523 -0.12538898 0.071460396 0.027390778 -0.011654556
0.06513648 -0.04848723 -0.11219103 -0.09794561 0.123946354 0.13388334 -0.00010237098 -0.123312086
0.087575 -0.08819879 0.04240884 0.13712142 -0.10017488 -0.016818315 -0.062332004 0.13886456
00000000: 7cc8 323d 8c37 15be b50b 83bd 4460 863d
00000010: 9324 2dbe 54e7 1ebd ebde 04be fd9c 063e
00000020: d09e d63c 3014 123d 3888 8e3c 61a0 1f3e
00000030: f865 00be d459 923d a062 e03c c0f2 3ebc
00000040: 4666 853d 8c9a 46bd 69c4 e5bd b597 c8bd
00000050: 96d7 fd3d b718 093e 00b0 d6b8 0c8b fcbd
00000060: 865a b33d 91a1 b4bd e4b4 2d3d 8f69 0c3e
00000070: 7d28 cdbd 90c6 89bc d84f 7fbd 8332 0e3e

bias f4 [32]
0.16430633 0.01448644 0.021233412 0.16117722 -0.02037931 -0.076539844 0.05470981 0.10974462
0.10627947 0.008041499 -0.15437779 0.063309245 -0.058781125 0.16714786 0.14011054 -0.07332713
0.07512115 -0.13102944 0.04678722 -0.0036038053 0.1282658 0.019037398 0.18247077 0.011091662
-0.04157416 -0.14533952 0.15313138 -0.006269541 0.036861904 0.090321474 0.0818796 0.1868217
00000000: eb3f 283e 8958 6d3c b1f1 ad3c a40b 253e
00000010: 83f2 a6bc ecc0 9cbd 6517 603d cac1 e03d
00000020: 0da9 d93d 7ec0 033c 3615 1ebe 47a8 813d
00000030: 7ac4 70bd cf28 2b3e 2379 0f3e 892c 96bd
00000040: 1ed9 993d 952c 06be f5a3 3f3d d22d 6cbb
00000050: 1c58 033e 51f4 9b3c 9ed9 3a3e cdb9 353c
00000060: ab49 2abd e2d3 14be 79ce 1c3e b970 cdbb
00000070: 82fc 163d 77fa b83d 7eb0 a73d 304e 3f3e

weight_orig f4 [32, 32, 1]
0.13546225 0.12795961 0.09483727 -0.07983164 -0.06849405 0.045273807 0.016557693 -0.09559336
0.15779757 0.0020377878 -0.05717933 -0.07380096 0.05053552 0.039956152 0.037067764 -0.010892875
-0.10138977 0.041656107 -0.064351946 -0.12850246 -0.16847982 0.10027593 0.04812923 -0.13183752
0.08736809 -0.060384534 -0.019794222 -0.041906144 -0.16560306 0.020471059 -0.061465677 -0.09742329
0.13833043 -0.11282502 0.013502492 0.076235466 0.06837827 0.16053142 0.10905098 0.057131194
-0.095182866 0.116007 0.049367364 -0.12128057 0.018918417 -0.12980226 -0.14115907 -0.01723469
-0.081736684 -0.044299256 0.027193237 0.05003686 -0.036233354 0.031524282 0.05423291 -0.15140323
-0.12688614 0.10713271 0.0021498436 -0.15134312 0.09469038 0.14425556 -0.06349458 -0.1084719
0.058479033 0.10803241 -0.004567749 0.04952046 -0.030477317 -0.12481756 -0.02161478 -0.1340837
-0.105790064 -0.12705466 -0.0961599 -0.13039155 -0.13288364 0.040974297 -0.17100342 -0.048650768
-0.04607353 -0.08297265 -0.022615109 0.052177392 -0.05880332 0.12696917 0.032996163 -0.22948083
-0.008845106 -0.18739934 -0.018443167 0.11397153 -0.13353097 0.099180385 0.1151342 0.1319113
-0.03973208 0.051668666 -0.15454157 0.09464391 -0.045464233 0.052475274 -0.05015652 -0.034162436
0.013860117 -0.031135645 0.03587664 0.10120859 0.1542727 0.04618963 -0.15736695 0.15921196
-0.100370705 -0.024974547 -0.14461336 -0.14551294 -0.17489894 -0.09450768 -0.16417083 -0.17469037
-0.07384148 0.071973495 -0.08145536 -0.021350667 0.1646467 -0.13331525 -0.0021780964 0.072109714
0.10094511 0.02792673 -0.049027964 -0.15134898 0.070608236 0.049410053 -0.0693379 0.015744068
0.05932076 0.17088333 0.04304129 -0.11603404 0.18007 0.17516883 -0.051445235 -0.087080255
-0.07404477 0.16707265 0.116443336 -0.16024257 0.11355608 -0.011590024 0.14276783 -0.01050698
0.04022901 -0.15438144 0.03660013 0.079021536 0.12214949 0.15193202 0.1669657 -0.15006743
0.008238367 0.048410684 0.055673037 0.012406168 -0.075510345 -0.04651674 0.063102506 0.040688694
-0.1262903 0.025865356 0.0393264 0.07752186 0.009918745 -0.13896112 -0.10117297 -0.036826685
-0.13542947 -0.037438817 0.1058894 -0.11858516 -0.05187267 -0.1816259 -0.11745775 0.144821
-0.07437673 0.07723427 -0.17047235 -0.08240917 0.027286783 0.09972239 -0.1498335 0.10640692
0.07956608 -0.021156164 -0.19858621 -0.15266924 0.13523515 -0.0707254 -0.020327406 0.10657812
0.13891211 -0.02541626 -0.17662294 0.062091056 0.15925731 -0.13991983 -0.0941279 0.014998389
0.025228499 -0.04941983 0.06523802 0.06659334 0.07064704 0.112794936 -0.1481502 0.053341266
-0.06906133 -0.0379053 -0.12716849 0.0034865167 -0.0025695884 0.06658093 -0.16910215 0.104443386
-0.17806923 -0.13214608 -0.11848644 0.17579526 -0.11851111 0.09632637 0.1562379 0.013254767
-0.12433977 -0.044979442 0.1279112 -0.05455647 0.093997516 -0.019024767 -0.015823863 0.07242125
-0.09423911 -0.077000104 0.11507327 0.13959086 -0.18083355 0.109909125 0.076397836 -0.04495163
-0.16103733 0.06653423 0.024924846 0.088276535 -0.035132278 -0.06907825 -0.019126596 0.054988112
00000000: 9eb6 0a3e d807 033e 0b3a c23d c57e a3bd
00000010: 9c46 8cbd 0771 393d 00a4 873c 74c6 c3bd
00000020: b095 213e 688c 053b e034 6abd f524 97bd
00000030: 55fe 4e3d 10a9 233d 5ed4 173d 0778 32bc
00000040: 71a5 cfbd 989f 2a3d f4ca 83bd 2696 03be
00000050: f985 2cbe 775d cd3d 2823 453d 6a00 07be
00000060: 0bee b23d c655 77bd 7e27 a2bc c7a5 2bbd
00000070: d993 29be ecb2 a73c 6fc3 7bbd dd85 c7bd
00000080: 7ea6 0d3e ce10 e7bd 8e39 5d3c 5721 9c3d
00000090: e809 8c3d 5962 243e 1f56 df3d 6602 6a3d
000000a0: 3cef c2bd 1495 ed3d 6f35 4a3d f361 f8bd
000000b0: ccfa 9a3c e2ea 04be 018c 10be c42f 8dbc
000000c0: 9065 a7bd 2373 35bd 5ac4 de3c 73f3 4c3d
000000d0: 6d69 14bd 9b1f 013d 5423 5e3d 7309 1bbe
000000e0: 71ee 01be 6568 db3d 64e4 0c3b b1f9 1abe
000000f0: 08ed c13d bbb7 133e 7209 82bd 8426 debd
00000100: b687 6f3d 1940 dd3d 0ead 95bb f7d5 4a3d
00000110: 91ab f9bc 59a0 ffbd 7b11 b1bc 3d4d 09be
00000120: 76a8 d8bd 9e1a 02be 7bef c4bd 5d85 05be
00000130: a612 08be aad4 273d 851b 2fbe 0746 47bd
00000140: 99b7 3cbd 91ed a9bd 5243 b9bc f6b7 553d
00000150: c0db 70bd 3504 023e fc26 073d 06fd 6abe
00000160: 10eb 10bc 9de5 3fbe 2016 97bc e869 e93d
00000170: 58bc 08be 161f cb3d 7bcb eb3d c113 073e
00000180: 1bbe 22bd 86a2 533d 2540 1ebe abd4 c13d
00000190: b438 3abd 50f0 563d ec70 4dbd e9ed 0bbd
000001a0: 8b15 633c 2e10 ffbc 62f3 123d 7346 cf3d
000001b0: aaf9 1d3e 5631 3d3d cd24 21be 7608 233e
000001c0: 288f cdbd 6c97 ccbc 8615 14be 5801 15be
000001d0: b518 33be 3e8d c1bd 661c 28be 08e2 32be
000001e0: 343a 97bd d766 933d 11d2 a6bd 98e7 aebc
000001f0: 2599 283e cb83 08be 65be 0ebb 42ae 933d
00000200: 4fbc ce3d 99c6 e43c 8cd1 48bd 3afb 1abe
00000210: 0d9b 903d 3262 4a3d 0701 8ebd b4f9 803c
00000220: 53fa 723d 0afc 2e3e 104c 303d 41a3 edbd
00000230: 4564 383e 755f 333e 3db8 52bd 2257 b2bd
00000240: c9a4 97bd 1815 2b3e d879 ee3d a116 24be
00000250: 1790 e83d 16e4 3dbc bb31 123e 7825 2cbc
00000260: 2dc7 243d 2b16 1ebe 05ea 153d 0bd6 a13d
00000270: 8329 fa3d 1194 1b3e 0ef9 2a3e 47ab 19be
00000280: 37fa 063c 484a 463d 6909 643d 3d43 4b3c
00000290: 2ba5 9abd 5688 3ebd e33b 813d 30a9 263d
000002a0: 3f52 01be 95e3 d33c b814 213d c8c3 9e3d
000002b0: 3b82 223c d34b 0ebe c633 cfbd 94d7 16bd
000002c0: 06ae 0abe 7259 19bd 8bdc d83d c7dc f2bd
000002d0: 7078 54bd 24fc 39be b08d f0bd f54b 143e
000002e0: d452 98bd 002d 9e3d 4e90 2ebe 24c6 a8bd
000002f0: 8888 df3c 413b cc3d f46d 19be dfeb d93d
00000300: 8af3 a23d b14f adbc 2f5a 4bbe 5355 1cbe
00000310: 157b 0a3e 7ad8 90bd a985 a6bc a145 da3d
00000320: fa3e 0e3e c335 d0bc a5dc 34be 3153 7e3d
00000330: 5914 233e 2547 0fbe 21c6 c0bd cebb 753c
00000340: ffab ce3c 736c 4abd 839b 853d 1762 883d
00000350: 65af 903d 0801 e73d b0b4 17be 5f7c 5a3d
00000360: 0770 8dbd 9642 1bbd 7538 02be 0b7e 643b
00000370: 8a66 28bb 955b 883d 1d29 2dbe 6ae6 d53d
00000380: c857 36be 4d51 07be 05a9 f2bd ac03 343e
00000390: f4b5 f2bd c346 c53d d4fc 1f3e 862a 593c
000003a0: d9a5 febd 5d3c 38bd 27fb 023e 9b76 5fbd
000003b0: c581 c03d d4d9 9bbc 0ca1 81bc 9851 943d
000003c0: 6f00 c1bd 3bb2 9dbd 89ab eb3d e8f0 0e3e
000003d0: 6e2c 39be 0918 e13d 7876 9c3d 331f 38bd
000003e0: f8e6 24be 1943 883d 312f cc3c 54ca b43d
000003f0: dde6 0fbd e678 8dbd 61af 9cbc 373b 613d

weight_u f4 [32]
-0.10222861 0.096412115 0.13578296 0.25327888 -0.04034628 0.101146474 0.052245546 0.028813927
-0.31140444 0.053222146 -0.0028855111 -0.26193613 0.122659124 0.1818276 -0.0730291 -0.102061495
0.10435941 0.2243441 0.32523206 -0.15854056 0.16337842 0.048603464 0.04864718 -0.058033995
0.0011677188 -0.37328833 -0.34817722 0.35282198 -0.002155466 -0.092475675 -0.09614485 -0.14209174
00000000: 3c5d d1bd b773 c53d b00a 0b3e c5ad 813e
00000010: 2442 25bd e225 cf3d 6dff 553d 2f0b ec3c
00000020: 6770 9fbe 77ff 593d d81a 3dbb 7e1c 86be
00000030: b534 fb3d 0431 3a3e 4890 95bd 9e05 d1bd
00000040: 63ba d53d 76ba 653e d184 a63e 7558 22be
00000050: ac4c 273e 6d14 473d 4442 473d 0eb5 6dbd
00000060: 240e 993a a61f bfbe 4944 b2be 15a5 b43e
00000070: b842 0dbb e363 bdbd 97e7 c4bd 7f80 11be

weight_v f4 [32]
0.2334028 -0.026117187 -0.1139912 0.1868122 -0.15028265 -0.05763818 -0.16756879 0.13283682
-0.056353565 0.010028492 -0.03879446 -0.18082806 -0.15111333 -0.016718743 -0.30353847 0.30258828
-0.093802206 -0.055222068 -0.073581606 -0.23326871 0.19980709 0.018992767 -0.046644665 -0.20708263
-0.18678038 0.2807436 -0.22683504 0.11116343 0.23815411 -0.023856495 0.13509098 0.41346735
00000000: 2501 6f3e b6f3 d5bc 3874 e9bd b34b 3f3e
00000010: b2e3 19be 0316 6cbd 2797 2bbe 6006 083e
00000020: ffd2 66bd 8b4e 243c f1e6 1ebd fe2a 39be
00000030: 74bd 1abe bff5 88bc 6569 9bbe daec 9a3e
00000040: 5f1b c0bd 8930 62bd f4b1 96bd fedd 6ebe
00000050: 3b9a 4c3e b896 9b3c 7a0e 3fbd 780d 54be
00000060: 5b43 3fbe a0bd 8f3e 7247 68be a7a9 e33d
00000070: acde 733e b26e c3bc 4a55 0a3e feb1 d33e
