Models/M4/wo_fade/wo_fade_generator.pt (torch, 149045 bytes, 70 tensors)

bias f4 [32]
00000000: 3fed 94be 8168 483e 42db e03d 2064 fd3d
00000010: 8454 8bbe cb21 56be adb2 6e3e b7e3 073e
00000020: abab 613d 42d9 8bbd 2a49 ec3c 927d 083d
00000030: 9478 653e ead2 87be 9939 833e 7d9f 0c3e
00000040: 3a88 5ebd d6b9 51be a9fb 8b3e dca0 14be
00000050: 6420 d7bc 8f3a 4c3e 67ee 063e 37fe 1bbe
00000060: 4093 eebd 9c4b 1b3e 287b d7bd bcd5 01be
00000070: 810a b83d 3b8b 4b3e ecff 1bbe 3ea2 92bd
-0.29087254 0.19571115 0.1097932 0.12372613 -0.27212918 -0.20911328 0.23310347 0.1327046
0.055095356 -0.06828548 0.028843481 0.03332288 0.22409278 -0.26528102 0.2562988 0.13732715
-0.054329135 -0.20481047 0.2734044 -0.14514488 -0.026260562 0.19944213 0.13176881 -0.15233694
-0.116491795 0.15165561 -0.10521537 -0.1267919 0.089863785 0.19877331 -0.15234345 -0.071598515

weight_orig f4 [32, 12, 1]
00000000: cc5b ab3d 8532 3fbe 3b5c ea3d ecfd 133e
00000010: 979e 41be 945c 463e f1d5 643e 1cc1 1ebe
00000020: 5230 303e 0688 923c e0bf 54be c9fe fd3d
00000030: ec78 d93d a4e3 66bd 21bc 7e3c eb71 ee3d
00000040: c73a 853e 6c64 c63d 98c3 8d3e 4b35 86be
00000050: 3aec 683d ad6d 56be 3480 9b3d d64f 12be
00000060: dca4 86be c1cd 5bbe 5c9b 2bbe da68 aabd
00000070: d0c3 37be f9c3 8bbe 1d99 76be 1720 b53d
00000080: b014 11be 6a34 eebd e4f4 d4bd 62bf 34be
00000090: 3ee2 58be 5745 503e 42f6 483e b26e 893e
000000a0: 9eb7 413e 1f41 89be 4e29 62be 9010 8f3e
000000b0: 6f85 2abd 57df 0bbd 730c 3abe dfc4 7bbd
000000c0: 1afd 8d3e e2b1 b8bd cf02 1abd 4fe0 81bc
000000d0: 374d e2bc e817 dabd 8d21 7ebe 25f2 86be
000000e0: 264b 9ebb 6e40 773e 21cf 5ebe 47f1 b1bd
000000f0: ff06 c9bc d03e 493e f420 89be 6620 aebd
00000100: a101 65be 3460 cd3c 3d1f b73c 1af3 353e
00000110: c7e5 633e a6bc 5cbc 7c31 133d 24e9 b83d
00000120: 1746 2b3e c37f 3c3e 07be bf3c 6133 123e
00000130: 127d 93bd f5cd 26be 8115 b2bd a982 533e
00000140: a9d2 7c3e ff76 8c3e 5ab8 0ebe d536 703e
00000150: a076 09be eaff 573e 2327 0abe 1b04 0fbe
00000160: ac19 1c3e 253d 01bc dd1f 5e3e f819 1abe
00000170: 6fec eebd f249 fa3d 7c2d 7bbe 5cff 573d
00000180: b2c2 8f3e 0f97 2ebd 887a 953e 3a07 95be
00000190: 9c37 5dba 1f75 4e3e eeb4 28be af37 67be
000001a0: 8100 3c3e d742 0f3e 3ca9 67be c9e9 76be
000001b0: 2d7d 0a3e 0a01 1dbe 0d13 24be fcc8 883e
000001c0: dac9 223d eb5b 063d 1bb5 5f3e b992 dbbc
000001d0: 331e 7bbe 5cbd 123e bc58 743c a592 79be
000001e0: 98b7 613d 40b2 8b3e 4b63 9ebd 013c 50be
000001f0: 240e 04bd 944d 72be df9b 4dbe 99d4 ed3d
00000200: 5264 92be 18bf f0bb 4dcc 56be 1eaa ab3d
00000210: 3d14 7bbe ac00 02be 1ebe 53be 8c2d 713e
00000220: 9b0a 4fbe b074 583d 8618 163e 1470 1b3e
00000230: 7e43 11be 9969 91be f099 d73b cee0 5dbe
00000240: 9741 053e 15c5 91bd 905a 59bc f865 6bbe
00000250: d27d 4fbe 7d8d e63d dc81 23be a1a8 b53c
00000260: 78f8 893e 2082 fbbc 0a02 933e 5025 533d
00000270: 1b2d 903e 0dd9 f4bd 9636 743e b732 c53d
00000280: 035e f03d 4b66 8c3e 514a 643a d91c 813d
00000290: 29c4 7b3d 7937 0ebd 5653 88be 7d4e 843e
000002a0: ef5a 0d3e 710b 2ebe ffb0 c2bb 683e 8e3c
000002b0: f546 28be 783d b9bc 02ae e13d b4c9 5bbe
000002c0: 119f dfbd 320e 7cbe 987e 353e d35e f8bc
000002d0: 61b7 1e3e 7be5 ebbd 878c 6bbe 98e3 58bd
000002e0: 001c 843d 514c 8d3e 4cbf 173d d2aa 2e3e
000002f0: a2c8 3e3c f5b9 83be e230 95bd fc0e 913e
00000300: 6e2f f1bd 72a7 183e c0f0 6e3d 98d3 503e
00000310: dad8 26be 5448 603e b7e2 5d3a 9aeb 863e
00000320: 026c cf3d 2448 b6bd b93a 743e 1c1e be3d
00000330: d5c6 0f3d 4abb 413e 1644 babd 1e7b 603e
00000340: d05a 7dbe 3cbe 3a3e 6f6a bdbd f635 473e
00000350: 18c7 12bd ac05 803e cdbc 693e 7f79 103d
00000360: e7a9 293e 1790 52be cee4 41bb 4b67 623e
00000370: 1cd1 5ebe c330 d23d e905 f73c a60c 78be
00000380: 692e 74be d2aa 4a3e 5254 8cbd 5606 57be
00000390: dd2a d33a d815 8b3e 71c0 53be 97c8 19bd
000003a0: 427b 003e d86b 87be 4bcc 11be 5fa0 193e
000003b0: 4634 5e3e 6bd2 6cbe e281 f03d 713e 96bb
000003c0: 2fa5 c7ba 7819 823e 14b9 913e 4569 843e
000003d0: 88e0 c9bd c465 443e 9489 553e 94e2 82be
000003e0: 3f1f 85be b044 823e ecd5 813c 9cd2 90be
000003f0: 39b6 bb3c 13c8 4cbe c773 ecbd 50eb 10be
0.08367118 -0.18671615 0.11443373 0.14452332 -0.18908153 0.19371253 0.22347237 -0.15503353
0.17205933 0.017887127 -0.2077632 0.12402112 0.10618767 -0.05636944 0.015547783 0.11642822
0.26021406 0.09687123 0.2768829 -0.26212534 0.05686591 -0.20940275 0.07592812 -0.14288267
-0.26297653 -0.21465208 -0.16758484 -0.0832078 -0.1794579 -0.27297953 -0.24081846 0.08844011
-0.14168048 -0.11631091 -0.10398272 -0.17651132 -0.21180055 0.20338951 0.1962519 0.26842266
0.189177 -0.26807496 -0.22086069 0.27942324 -0.04163116 -0.03414854 -0.18168812 -0.061467048
0.27732164 -0.090183035 -0.037600335 -0.015854029 -0.02762471 -0.10649091 -0.24817486 -0.26356617
-0.0048307357 0.24145672 -0.21758701 -0.08688598 -0.024539469 0.19652867 -0.26782954 -0.08502273
-0.22363903 0.025070287 0.022353763 0.17768517 0.22255622 -0.013472712 0.035935864 0.09028843
0.16725956 0.18408112 0.023406042 0.14277412 -0.0720159 -0.16289504 -0.08695508 0.20655312
0.24689735 0.27434537 -0.13937512 0.23458417 -0.13424158 0.21093717 -0.13491492 -0.1396641
0.15244168 -0.007888113 0.21691842 -0.15048969 -0.1166619 0.12221135 -0.2452907 0.052733764
0.28078228 -0.04262453 0.29195046 -0.29107076 -0.00084387674 0.20161866 -0.16475269 -0.22579835
0.18359567 0.13990341 -0.22623152 -0.2411262 0.13524313 -0.15332428 -0.16022892 0.2671584
0.039743282 0.032802504 0.2184643 -0.026803361 -0.24523239 0.14330047 0.014913734 -0.24372347
0.05510673 0.2728443 -0.077337824 -0.2033539 -0.032240048 -0.23662406 -0.20078991 0.116128154
-0.28592163 -0.007346999 -0.20976372 0.08382057 -0.24519439 -0.12695569 -0.20677993 0.23552531
-0.2021889 0.052845657 0.14657792 0.15179473 -0.14185902 -0.28400877 0.00657963 -0.21667787
0.13013302 -0.071176685 -0.013266221 -0.22988117 -0.2026284 0.112574555 -0.15967506 0.022175135
0.2694738 -0.030701697 0.28712493 0.051549256 0.28159413 -0.11955462 0.23848948 0.09628814
0.11736681 0.27421793 0.0008708584 0.063043304 0.06146637 -0.03472087 -0.2662608 0.25841132
0.1380422 -0.16996552 -0.0059415097 0.017363742 -0.16433318 -0.022612318 0.110195175 -0.21463662
-0.109190114 -0.2461479 0.17724073 -0.030318653 0.15499641 -0.11518379 -0.23002826 -0.052951425
0.06450653 0.27597287 0.03704767 0.1705735 0.011644514 -0.2572781 -0.07284714 0.28331745
-0.117766246 0.14907625 0.058335066 0.20393217 -0.1629366 0.21902591 0.0008464264 0.26351625
0.10128023 -0.089004785 0.23850526 0.09283087 0.03510173 0.18919101 -0.090950176 0.21921965
-0.24741673 0.18236631 -0.09248816 0.19454178 -0.0358344 0.25004327 0.22825928 0.035272118
0.16568719 -0.20562778 -0.002958584 0.22109716 -0.21759456 0.10263207 0.030154185 -0.24223575
-0.23845829 0.19791725 -0.0685202 -0.2099851 0.0016110797 0.27165103 -0.2067888 -0.037544813
0.12547019 -0.26449466 -0.14238088 0.15002583 0.21699628 -0.23127143 0.11743523 -0.0045850803
-0.0015231724 0.25410056 0.28461516 0.25861564 -0.09857279 0.19179446 0.20853263 -0.2556349
-0.260004 0.2544303 0.015849076 -0.28285682 0.022914039 -0.19998197 -0.1154552 -0.14152265

weight_u f4 [32]
00000000: a457 6e3e 5b76 2e3e bd5a 4abe 1e83 70be
00000010: 406c 2c3e c13b 37be 21db a5bd 2ee9 af3c
00000020: 00da 863e e700 4d3e e8d3 38be e726 aebd
00000030: 26ff 02bd 2226 0d3e 83e2 003e 4a0f cabd
00000040: fba8 dabd 9f5e 0cbb 0078 a93e 8cf8 a7be
00000050: 1a4e bb3e 2bef 00be ed7c 1d3e 3ecd 0d3e
00000060: 1445 28be cd78 cbbd 2883 d43d 66fe 19be
00000070: 8ba6 1f3e 0970 30be c165 bebd 6df5 a23d
0.2327562 0.17037337 -0.19761176 -0.23487517 0.16838169 -0.17893888 -0.08098436 0.021473493
0.26338196 0.20019875 -0.18049586 -0.08503514 -0.03198161 0.13784078 0.12586407 -0.098661974
-0.10676762 -0.0021418703 0.33099365 -0.32806814 0.36583024 -0.12591235 0.15379687 0.13847825
-0.16432601 -0.0993515 0.103765786 -0.15038452 0.15590875 -0.17230238 -0.09296752 0.079569675

weight_v f4 [12]
00000000: 6f7d bb3e 35ba 63be 2d08 aa3e d1cd 013e
00000010: ea0c 01be 108b a23e b8e7 ab3e 1a8c 07bf
00000020: bef2 11be a87b af3e cce8 36bd 723d 4ebe
0.36619136 -0.22239001 0.33209363 0.12676169 -0.12602583 0.3174672 0.33575225 -0.52948153
-0.14252755 0.3427403 -0.044655606 -0.20140627

weight f4 [32, 12, 1]
00000000: 85dd 6c3d 6a20 04be 95f1 a13d c686 cc3d
00000010: 84cd 05be 2b0f 093e 4d23 1e3e 8060 dbbd
00000020: 317c f33d 9172 4a3c c500 13be 1a87 af3d
00000030: 014c 963d 158a 1fbd 3a21 303c 0fbe a43d
00000040: 291d 383e c214 893d e1e8 433e c377 39be
00000050: 14f6 203d 672c 14be 72e0 563d e22e cabd
00000060: 5716 3abe a8e5 17be 792c edbd 1382 6bbd
00000070: cdfa fdbd 8d25 41be 7e68 2abe 525c 7a3d
00000080: 7e86 c8bd 889c a4bd 1824 93bd 17d0 f9bd
00000090: 62dc 15be 4ce9 0f3e 45df 0a3e b1ec 3d3e
000000a0: 00de 053e 88b4 3dbe 8d44 1cbe 69b6 453e
000000b0: c9c0 ebbc 4638 c1bc 5391 00be 0100 2ebd
000000c0: 6b3a 443e 854b 7fbd cce3 d4bc 6457 33bc
000000d0: b054 9cbc a5b1 96bd 3e9a 2fbe a47c 3abe
000000e0: 5132 5bbb 3edc 2a3e 70f5 19be 07e6 75bd
000000f0: 37d2 8abc 060d 0b3e 8080 3dbe 1e96 70bd
00000100: dd3b 1ebe 40da 8d3c e532 7d3c 2979 fb3d
00000110: 4877 1d3e d858 18bc 8c5a cb3c e684 7f3d
00000120: 8bb2 ec3d 4c43 023e df91 843c de12 ca3d
00000130: 54c9 4bbd c185 e6bd 2414 76bd c62a 123e
00000140: 71b0 2e3e 4320 423e f339 c5bd 7cfa 253e
00000150: 22fa bdbd 5e3f 153e 3eea bebd f3aa c5bd
00000160: 38c0 d73d 0283 b2bb fa7e 193e 2afc d4bd
00000170: a718 a5bd 2eef ac3d 4c90 2dbe c83f 153d
00000180: a1aa 463e a152 f1bc e294 4e3e c6f5 4dbe
00000190: 49f4 16ba beac 0e3e e126 e9bd ddc7 1fbe
000001a0: ffeb 013e fef7 c53d 5112 20be be9c 2abe
000001b0: 816b bf3d 56fc d8bd bfc3 e2bd 850a 3d3e
000001c0: fce9 e03c 0593 b93c 6397 1a3e d1bd 97bc
000001d0: 3888 2dbe 20cf ca3d f3f1 283c 2c73 2cbe
000001e0: 1de4 1b3d 0912 413e eaf1 5abd c2e4 0fbe
000001f0: 2093 b6bc b66c 27be 2713 0ebe 8a57 a43d
00000200: de51 4abe 2e1d a6bb 846c 14be 7635 6d3d
00000210: f281 2dbe 50a3 b3bd 0353 12be c1a6 263e
00000220: dd12 0fbe e79c 153d 7468 cf3d 16cb d63d
00000230: 75bb c8bd 66f9 48be 242d 953b 8d52 19be
00000240: 8823 b83d e775 49bd 4e5b 16bc 6da8 22be
00000250: 6d5f 0fbe ee4b 9f3d 01fc e1bd 62dd 7a3c
00000260: ebaa 3e3e 99d6 adbc e72b 4b3e 90de 113d
00000270: 9943 473e 5034 a9bd 16c2 283e a13f 883d
00000280: fb13 a63d 540a 423e 816d 213a 6878 323d
00000290: bb05 2e3d 4590 c4bc 8c65 3cbe 35db 363e
000002a0: d056 c33d 1189 f0bd 0acb 86bb eeba 443c
000002b0: 2b90 e8bd 1b07 80bc bdf8 9b3d b1e0 17be
000002c0: 848b 9abd d52a 2ebe d9d8 fa3d 099b abbc
000002d0: 4f56 db3d 4406 a3bd e3c3 22be 17db 15bd
000002e0: 5c8a 363d 0849 433e d4a0 d13c 0469 f13d
000002f0: fffd 033c aa0d 36be 472c 4ebd 5578 483e
00000300: a5ac a6bd 68f9 d23d 0c1c 253d 6e4e 103e
00000310: c690 e6bd e5f9 1a3e b1e0 1a3a 1873 3a3e
00000320: 585b 8f3d fde1 7bbd 8fc2 283e d45d 833d
00000330: 13c4 c63c 18e0 053e b4ba 80bd b21e 1b3e
00000340: ba13 2fbe 5c0b 013e dade 82bd afa6 093e
00000350: 1dd7 cabc 5def 303e 5884 213e c7c0 c73c
00000360: 667f ea3d ba7e 11be 2f82 06bb c674 1c3e
00000370: f1f8 19be 693d 913d c3be aa3c 1364 2bbe
00000380: f7b8 28be bd0c 0c3e cbe8 41bd b093 14be
00000390: c6a2 923a 2635 403e 244f 12be 179c d4bc
000003a0: 6a8b b13d 8425 3bbe d57b c9bd 764a d43d
000003b0: 968d 193e bca7 23be bf2c a63d b917 50bb
000003c0: 05b9 8aba d7ce 333e a967 493e 78ff 363e
000003d0: 7185 8bbd 21b6 073e 428c 133e 11df 34be
000003e0: 49f7 37be 9f05 343e 8d92 333c 8023 48be
000003f0: 90cf 813c c17e 0dbe 1960 a3bd 9241 c8bd
0.057828445 -0.1290299 0.07907406 0.099866435 -0.13066679 0.13384692 0.15443154 -0.10711765
0.11888922 0.012356416 -0.14355762 0.085706905 0.07338715 -0.038950045 0.010750109 0.08044063
0.17979874 0.06693412 0.19131805 -0.18112092 0.03929718 -0.14470063 0.05246014 -0.098722234
-0.18172584 -0.148337 -0.11580748 -0.057497095 -0.12401352 -0.1886198 -0.16641423 0.0611232
-0.09791277 -0.080376685 -0.07184619 -0.12197893 -0.1463485 0.1405384 0.13561733 0.18547322
0.13072968 -0.18525898 -0.15260525 0.19307865 -0.02877845 -0.023586404 -0.12555437 -0.042480472
0.1916291 -0.06232788 -0.025987528 -0.0109461285 -0.01908335 -0.07358102 -0.17148682 -0.18211609
-0.003344674 0.16685578 -0.15035033 -0.060033824 -0.016945941 0.13579187 -0.1850605 -0.058736913
-0.15452524 0.017315984 0.015454029 0.12278969 0.15377533 -0.009298526 0.02482345 0.0623826
0.11557492 0.12720984 0.016182838 0.0986688 -0.04975255 -0.1125598 -0.0600778 0.1427413
0.17059495 0.1895762 -0.096301936 0.16208833 -0.09276225 0.14574954 -0.09322022 -0.096517466
0.1053471 -0.0054477463 0.14989844 -0.10399659 -0.08061343 0.084440574 -0.16949576 0.03643778
0.19401027 -0.029458346 0.20173982 -0.20113286 -0.0005758447 0.13933083 -0.11384369 -0.15603586
0.12687682 0.096664414 -0.15631987 -0.16661355 0.093466766 -0.10595004 -0.11072492 0.18461044
0.027455322 0.022653112 0.15096812 -0.018523129 -0.16946495 0.09902787 0.010311591 -0.1684081
0.038059343 0.18854536 -0.053453363 -0.14052108 -0.022286952 -0.16350064 -0.13874494 0.08024509
-0.19757792 -0.0050693965 -0.1449452 0.057912312 -0.16944101 -0.08771384 -0.14289479 0.16274549
-0.1397204 0.036526587 0.10127345 0.10487954 -0.098013796 -0.19626388 0.0045525003 -0.14972897
0.08991152 -0.049184706 -0.009177042 -0.15884562 -0.14001246 0.07778154 -0.11034394 0.015311571
0.18619888 -0.021220492 0.19840966 0.035612643 0.1945938 -0.08261931 0.16480288 0.06652761
0.0810928 0.18949252 0.000615798 0.04357186 0.042485934 -0.023994574 -0.18398112 0.17857058
0.095380425 -0.11744893 -0.0041135596 0.012007458 -0.11355623 -0.015628388 0.076158024 -0.14831807
-0.07546142 -0.17008527 0.12248392 -0.02094795 0.107098214 -0.079601794 -0.15895037 -0.036585893
0.044565544 0.19070828 0.025589384 0.11787608 0.008056163 -0.1777865 -0.050335195 0.19577153
-0.08138398 0.10301477 0.04030995 0.14092419 -0.11258082 0.1513439 0.00059081154 0.18207967
0.06999844 -0.061494816 0.16480468 0.06414381 0.024263417 0.13073766 -0.06285611 0.15148428
-0.17097369 0.1260199 -0.06390162 0.13442491 -0.024760777 0.1727881 0.15773141 0.024383916
0.114500806 -0.14208499 -0.0020524373 0.1527892 -0.1503637 0.07091791 0.020842915 -0.16737394
-0.16476808 0.13676734 -0.04734115 -0.14509463 0.0011187426 0.18770275 -0.14288002 -0.025953336
0.08669169 -0.1827603 -0.09838072 0.10365765 0.14995417 -0.15981954 0.081140034 -0.003175242
-0.0010583705 0.17559372 0.1966845 0.17870891 -0.06812561 0.1325307 0.14408973 -0.17663218
-0.17965426 0.1758027 0.010960233 -0.19544792 0.015846044 -0.13817884 -0.079773135 -0.097781315

weight f4 [1, 32, 1]
00000000: 126c e63d c762 9f3d 0290 0e3e 15a8 0f3d
00000010: 13f0 31be e065 e43c 4dc8 1bbd 22aa 533d
00000020: 392a 86bd e098 383c 04d9 e43c 6e91 293e
00000030: 9cb9 31be e1c9 0b3e e9c8 863d ddf8 0fbe
00000040: 2af5 01be b9de 8d3d 5290 1b3e 1bf6 073e
00000050: 5220 243d e954 31be 9251 f63c e3fa 4e3d
00000060: 6340 7fbc c384 ab3d 8412 0fbd 3bec 863d
00000070: 5447 e33c 6718 653c b88f 15bd 932a 9d3d
0.112510815 0.07782512 0.13922122 0.035072405 -0.17376737 0.027880609 -0.03803282 0.051675923
-0.06551022 0.011266917 0.027935512 0.16559383 -0.1735596 0.1365123 0.06581289 -0.14059778
-0.12691179 0.069272466 0.15191773 0.13277476 0.040069886 -0.17317547 0.030068193 0.050532233
-0.015579316 0.08374932 -0.034929767 0.06588026 0.027743973 0.013982869 -0.036514014 0.07674136

weight f4 [1, 32, 1]
00000000: 4018 303e 9b36 943d 9f74 a73d 854b 06be
00000010: c999 f1bd c359 c2bd 1520 f7bc 2544 ec3d
00000020: 792c 26be 5a0d 083e 0a43 2cbe dfbc 763b
00000030: a093 adbd 7955 d43d 7d64 73bc 5d95 4abd
00000040: 3863 453d a814 ccbd 403d f33d 56c1 883d
00000050: 22ef e6bb 2d0a 63bd f6ee 13bc 267a 203e
00000060: c27a 00bd f3d2 0cbd 0f28 93bd ad07 963d
00000070: 0e3b ed3d e44b 27be 5700 863d 959a 703d
0.1719675 0.07236978 0.081765406 -0.13114746 -0.1179691 -0.09489777 -0.030166665 0.11536435
-0.16227902 0.13286343 -0.16822448 0.0037649197 -0.08475423 0.10367865 -0.014855501 -0.04945885
0.048190325 -0.09964877 0.11876917 0.06677501 -0.00704755 -0.055429626 -0.009029141 0.15671596
-0.03136707 -0.034380864 -0.07185375 0.07325683 0.115835294 -0.16337544 0.065430336 0.05874117

weight f4 [1, 32, 1]
00000000: 1460 24be db50 063e a319 c63d ea3f adbd
00000010: ed9e 6b3c 679f afbc 534c 903d 3860 32bc
00000020: 29ce 35be c19c 08be 7deb 0c3e db6e 1fbd
00000030: d431 11be f67c 32be 28c3 0b3e c6ea 86bd
00000040: 3147 5fbd 8509 22be 8592 fd3d 2ba5 f93d
00000050: 8d6d 153d e6d5 a4b9 b923 84bc c4cc 11be
00000060: 8c43 433d 2769 7dbd 2f5d 023e b6e5 4abd
00000070: 48e9 02bd b1ec e23d 301a 1cbe b7c5 73bd
-0.16052276 0.13116781 0.096728586 -0.08459456 0.014381153 -0.021438314 0.07045808 -0.010887198
-0.17754425 -0.13341047 0.13761707 -0.03892408 -0.14179164 -0.17430481 0.13648665 -0.06587748
-0.054511253 -0.15823944 0.12381462 0.121897064 0.03648143 -0.00031439884 -0.016130315 -0.14238268
0.04767184 -0.06186786 0.12730859 -0.049535476 -0.031960756 0.110803016 -0.15244365 -0.059514727

bias f4 [32]
00000000: 8a92 0d3d 40c3 0b3d 44fe 6ebd 4b6c bcbd
00000010: 3b88 ad3d ff91 acbd f839 3f3d 60d2 09be
00000020: 93ea 0a3c 7655 fc3c e715 1dbe e92d 823d
00000030: ed4e 713d 5d86 09be 83cf 0c3e c0b3 8fbd
00000040: 3a84 c9bd 2f86 263d 0fef c2bd 1314 1fbe
00000050: 7246 0ebe d968 61bc fd8f 943c 5d66 3b3d
00000060: 7574 2e3d ee17 d5bd 309d f43c ad61 823d
00000070: d2da db3c fbb5 863c 3d5c 6b3d 7252 c33d
0.03456358 0.03412175 -0.058347955 -0.09200343 0.084732495 -0.08426284 0.046686143 -0.13459158
0.008478778 0.03080247 -0.15340386 0.06356413 0.05891316 -0.13430162 0.13751034 -0.070167065
-0.09839673 0.04065531 -0.09518253 -0.15535001 -0.1389406 -0.013757908 0.018135065 0.045751918
0.04259153 -0.10404955 0.02986011 0.063662864 0.02683774 0.016444197 0.057461012 0.095372096

weight_orig f4 [32, 43, 1]
00000000: 85ac 05be 9fe1 11bd 991d a53d 62e1 713d
00000010: 0a60 ac3d 0c2c a9bd 559a cd3d 66ad 07be
00000020: d62a f73d 94a1 04be e285 ab3d a7d4 cc3d
00000030: 23a1 bcbd dc51 093e 1b74 1fbd 3de2 8d3d
00000040: 819d 26bc f31c bf3c 0db3 28bd cc77 9ebd
00000050: 054a 9f3d 5269 ebbd 3a20 cebd ed44 123e
00000060: e2c3 093e 8882 4dbd bf90 a43d ea1e 243e
00000070: 0ca2 ba3d 742f 93bc 5c03 083e eb98 f13d
00000080: b058 913d 867b aabd 1b8b 04be abe3 16be
00000090: 4d34 0cbe 5c45 123e f4c8 123c 51d8 c33d
000000a0: 86b1 e73d 516f edbd 5427 cc3d 6b69 db3c
000000b0: 9b44 c33d c0f4 11be dac4 b5bc fdaa cb3c
000000c0: 4395 8a3d bb82 193d 02ff 673d 56b6 61bd
000000d0: 46de 0abe b2cc 9f3d 6051 dc3d c743 3e3c
000000e0: da82 913d 5d50 033e 8981 dfbd 715e 69bd
000000f0: 9a67 fdbd 0989 11be 7359 80bd a3fe e9bc
00000100: 9102 193d 9a62 10be 0831 80bd 809e 433d
00000110: 8c51 cdbd bfcd e23b 9350 0dbe 36c6 1abe
00000120: f817 81bc 0600 86bc 3c5c 46bd d378 05be
00000130: fab5 433d f4c1 3f3d ade5 8fbd 811f d73c
00000140: cf43 b2bd ce0a 413d d6ab d53d 07e2 0abe
00000150: b4fa ffbc 3c9b a9bd 27c8 ecbc 3878 10bc
00000160: 3b14 1d3e 8de9 7c3d c6a5 fe3d 6d8c cb3d
00000170: 6156 b23d a4a7 013e daa8 aebd 6e5b 07be
00000180: 8599 f83d 0d36 98bd 5ff7 b9bd 8aed 9f3d
00000190: 44eb a33d 6f75 fabd bb78 1dbe 58e2 efbd
000001a0: c423 063e 17c6 bc3c 7c3b edbc 54e1 a8bd
000001b0: 5ce6 6cbd 1da3 d13c 88bc ba3d b4f7 fcbd
000001c0: 85f5 dfbc e40e aebd f197 0fbe fe4c 2dbd
000001d0: 5f7d da3d a0aa 71bd 054d 78bd 21aa 6e3d
000001e0: 524d 0cbe a0cf 7bbc 135b 723d c19d 2f3d
000001f0: a5ce 983d d74d bc3d f23f d13d b343 47bd
00000200: 74de 4cbd 1cb9 293d 6546 1c3c b787 0a3e
00000210: 2aa6 96bd b5f6 0f3e 5fe7 1a3e cfb9 643d
00000220: 7443 f0bc defa 0dbb 06f1 053d cb8a c6bb
00000230: cdde 3dbd 1055 f0bd 012a 433d 4ebd f33c
00000240: ecee 113d cfdc 12be a5b2 ba3d f496 1bbd
00000250: c9dd 6cbc 0c55 bcbb cb16 27bd df01 21be
00000260: 8426 bfbd 1011 673d 5eb8 e13d 4707 d53d
00000270: b08f 0cbd 89ec eabd 5856 09bd 9fb0 2b3d
00000280: ad28 14be 13d8 2c3d 61a5 ab3c 3d98 e0bd
00000290: e7b4 d73d 0789 15be 6ece cfbd 508f cb3d
000002a0: 7e7d c2bd 68d7 2f3d 0dff a73d e3e6 14be
000002b0: 173a 92bc 36d5 cc3b a4a5 80bd 2348 a83d
000002c0: b73a 4dbd f32f 44bc 9145 1bbe 1b9d abbd
000002d0: ca78 93bd 23d2 c0bd 6726 a23d 5b58 0fbe
000002e0: 1f5c a9bc 5715 11be 13f0 0d3e 5655 1c3d
000002f0: bca8 83bd a0b3 33bd d3b2 813d 7a93 07be
00000300: 4d88 02be fc72 16bc ac2b 04be d6d0 7abd
00000310: 9d91 fd3c 0db5 0dbd b87c f3bd da91 0fbe
00000320: a7fc 8e3d 8f92 b3bd 6d64 14be 1069 cbbc
00000330: c7ce 6bba 53b8 f4bd 03c9 14bc c1f6 0b3e
00000340: a66a 07be 24cf 7dbd 94d1 dabd 75e1 76bd
00000350: 9610 f73d ebcf a1bd c505 d7bd 9ae5 703d
00000360: 30f0 cd3d 7929 ed3c 2133 f9bd d7e2 c4bd
00000370: b175 1dbd ee77 0fbd 69e3 bbbd 0d4c d4bd
00000380: 7910 a1bd 2801 21be 9709 0abc f5b8 22bd
00000390: dfd7 ee3d 8ba8 813d e3b7 b4bd 6f98 bd3d
000003a0: d960 86bd 726f 7cbd 6c7f b9bd 7924 223e
000003b0: 32fe 0c3e a41b ec3d 806d 65bc c65b 0dbe
000003c0: 88b2 c9bd 38e7 90bc cb17 a43d 7d60 923d
000003d0: e879 21be bb16 003e fe44 3bbc 6afa ccbd
000003e0: 31e3 15be 09be dcba a325 993c 62f7 983d
000003f0: 956f 99bd 58c1 b03b 7c67 903d 1b6f 843d
-0.13054092 -0.03561556 0.08062286 0.059052832 0.084167555 -0.082603544 0.10039202 -0.1324974
0.12068717 -0.12952262 0.083751455 0.10001498 -0.09210422 0.13410133 -0.038929086 0.06927917
-0.010169388 0.023329234 -0.04118638 -0.07737693 0.0777779 -0.11494698 -0.100647405 0.14284106
0.1345363 -0.050173312 0.080354206 0.16027418 0.09112939 -0.017966963 0.13282531 0.11796745
0.07096994 -0.083243415 -0.1294369 -0.14735286 -0.13691826 0.14284271 0.008959044 0.095627435
0.11313157 -0.115934975 0.09968439 0.026783666 0.0953457 -0.14253521 -0.022188593 0.024861807
0.06766751 0.03747819 0.05663968 -0.05510553 -0.13561353 0.078027144 0.107577085 0.011612839
0.07105036 0.12823625 -0.10913379 -0.056974832 -0.12373276 -0.14212431 -0.06267061 -0.028563803
0.037355963 -0.14100114 -0.06259352 0.04775858 -0.100253195 0.0069214995 -0.13800268 -0.15114674
-0.0157585 -0.016357433 -0.048427805 -0.13034372 0.04778097 0.046815827 -0.07026229 0.02626014
-0.0870434 0.047129445 0.10433166 -0.13562785 -0.031247474 -0.08281562 -0.028904034 -0.008817725
0.15339749 0.06174617 0.124339625 0.099388935 0.08707882 0.12661606 -0.085283 -0.13218471
0.121386565 -0.07432184 -0.090803854 0.07808979 0.08003858 -0.1222943 -0.15378086 -0.117130935
0.13099581 0.023043675 -0.028959028 -0.08246103 -0.057836875 0.025590474 0.09117991 -0.12351933
-0.027338753 -0.08498934 -0.14022805 -0.042309754 0.10668444 -0.05900061 -0.060620327 0.058267716
-0.1370137 -0.015369326 0.059168886 0.042875055 0.07461289 0.09194534 0.10217275 -0.048648547
-0.050016835 0.0414363 0.009538268 0.13528334 -0.07355912 0.14058955 0.15127324 0.055841263
-0.02932904 -0.002166442 0.03270056 -0.006059026 -0.046355058 -0.117349744 0.04764748 0.029753353
0.035628244 -0.14342044 0.09116105 -0.037985757 -0.014457175 -0.005747443 -0.04079322 -0.1572337
-0.09333518 0.056412756 0.110214934 0.10401779 -0.03431672 -0.11470897 -0.03352961 0.041916486
-0.14468642 0.042198252 0.020952882 -0.10966537 0.10532551 -0.14603053 -0.10146795 0.09939444
-0.09496592 0.042930037 0.08202944 -0.14541201 -0.017849965 0.0062510027 -0.062815934 0.08216884
-0.050104823 -0.011974323 -0.15163256 -0.08379575 -0.07200773 -0.094150804 0.07917481 -0.13998549
-0.02067381 -0.14168297 0.13861112 0.03816732 -0.06428668 -0.043872476 0.06332936 -0.13239852
-0.12747307 -0.009182688 -0.12907284 -0.061234318 0.030953223 -0.03459649 -0.118890226 -0.14020482
0.06981783 -0.08768188 -0.14491434 -0.024830371 -0.0008995351 -0.119492196 -0.009081128 0.13668348
-0.13224277 -0.061965123 -0.10684505 -0.060273606 0.120637104 -0.07900985 -0.10499147 0.058812715
0.10055578 0.02895044 -0.12167955 -0.09613579 -0.038442317 -0.035026483 -0.091742344 -0.10366068
-0.0786447 -0.15723097 -0.008425138 -0.03972717 0.11662268 0.06330975 -0.08824136 0.0925759
-0.06561441 -0.06162972 -0.09057507 0.15834226 0.13768843 0.115287095 -0.014003158 -0.1380454
-0.09848505 -0.017688379 0.08012351 0.0714731 -0.1576916 0.12508671 -0.011430023 -0.100087
-0.14637448 -0.0016841303 0.018694704 0.074690595 -0.07491986 0.005394142 0.07050988 0.06466504

weight_u f4 [32]
00000000: 83a8 81be c09f d33d f311 003e 9bbe 323e
00000010: bee2 333e 9352 87be 89ce ce3c ee4b eebc
00000020: dfc2 663e 2e20 ffbc 8aff a33c bd76 043e
00000030: 2a1d b5be 4c59 973d abf0 f63d 46ba 253d
00000040: 72e0 77be a874 df3d 55fb 89bd 7a5a 7e3e
00000050: 068d 5a3e 8958 933d 9a6d e0bd 1554 55bc
00000060: a830 0dbe 4fba 0cbd 7fc9 103e 4132 5abe
00000070: 4aff a33e 300a 623e 7070 f33a f8c6 b4be
-0.25323877 0.10333204 0.12506847 0.17455523 0.17566964 -0.26430187 0.025244968 -0.02908894
0.22535275 -0.031143274 0.020019311 0.1293592 -0.35373813 0.07390079 0.120576225 0.040460847
-0.24206713 0.10910922 -0.06737391 0.24839202 0.21342859 0.07194621 -0.10958405 -0.013020535
-0.13788092 -0.034357365 0.14139365 -0.21308233 0.32030708 0.22074199 0.0018572938 -0.3530805

weight_v f4 [43]
00000000: 4a21 303e 4e56 713d 64ba 343e f65f 143c
00000010: 9dcf 033e d156 5d3e 5f98 83bd 3757 1f3e
00000020: f78f 8dbd 3abc 353d de8b 473e 129b 8fbe
00000030: ecc1 50bd d375 0a3c 13b1 1e3e b94b a73d
00000040: 4d48 a2be c51f 4c3e d8b0 98bc 777c 413d
00000050: 7cc7 5abe 7cb5 b5bc 585f 11bd 4df7 fabd
00000060: f0ad 0c3e 7ed6 aebc 08e2 c3bd e148 a7be
00000070: 67c0 02bd 5db1 8b3e aaa0 afbe 49f0 bf3c
00000080: fbad adbd fe27 4e3e f184 cc3d 7752 0b3d
00000090: a932 b4bb bba6 96bd 9fc9 2dbe 4bdf 2ebd
000000a0: e675 a4bd 7c53 e33d cfa3 4bbe
0.17200199 0.058920197 0.17649227 0.009056082 0.12872167 0.21615149 -0.06425547 0.15560614
-0.06912225 0.04436896 0.19486949 -0.28047997 -0.05096619 0.008450943 0.15497236 0.0816874
-0.31695786 0.19933994 -0.018639013 0.04723784 -0.2136516 -0.022181265 -0.035491318 -0.122542
0.13738227 -0.021342512 -0.095645964 -0.3267279 -0.03192177 0.27283755 -0.34302264 0.023430007
-0.0848045 0.20132443 0.09986294 0.03401419 -0.005499203 -0.0735602 -0.16971444 -0.042693418
-0.080303 0.11099908 -0.19886707

weight f4 [32, 43, 1]
00000000: c81b f5bd 26ca 05bd 6e62 973d 3cc3 5d3d
00000010: 0e01 9e3d 401b 9bbd 2477 bc3d 8dc5 f8bd
00000020: 3298 e23d 5e31 f3bd 5737 9d3d e2cb bb3d
00000030: 73e7 acbd 88bf fb3d f534 12bd aa0e 823d
00000040: 2c85 18bc 7922 af3c a399 1abd fe4a 91bd
00000050: 0e0d 923d 9dd3 d7bd ccf1 bcbd 9012 063e
00000060: d38e fc3d 6456 3cbd 43d6 963d f676 163e
00000070: 5a17 ab3d ace2 86bc 0f65 f93d 4473 dd3d
00000080: 5137 853d 2249 9cbd 8e09 f3bd 5553 0abe
00000090: 018b 00be 771a 063e 7c55 063c 1783 b33d
000000a0: c860 d43d 4ea3 d9bd d12c bb3d 573e c93c
000000b0: aefd b23d 1ad1 05be c5ce a6bc 64d0 ba3c
000000c0: 8b14 7e3d 11a5 0c3d 88b3 543d 9bf9 4ebd
000000d0: cfa1 febd 0774 923d 7bf0 c93d ad31 2e3c
000000e0: 5e5c 853d 4bbb f03d 92e4 ccbd b6fd 55bd
000000f0: 7a50 e8bd 8a6f 05be 155f 6bbd dbae d6bc
00000100: 163b 0c3d f759 04be b119 6bbd 2f46 333d
00000110: c032 bcbd e463 cf3b 0c8f 01be b0e6 0dbe
00000120: 7ef7 6cbc 05cf 75bc 29e7 35bd 3ebe f4bd
00000130: f857 333d 34b4 2f3d 3ef3 83bd 223e c53c
00000140: 0667 a3bd dbf7 303d 94d6 c33d 609a febd
00000150: 0e95 eabc c381 9bbd 8af4 d8bc 7d3f 04bc
00000160: aa00 103e 32e6 673d 7a77 e93d c39e ba3d
00000170: 357f a33d 17be ed3d c623 a0bd 1824 f8bd
00000180: 11ec e33d 3a8f 8bbd 9478 aabd b89d 923d
00000190: 2647 963d 1894 e5bd 315f 10be eae1 dbbd
000001a0: 10e9 f53d 8625 ad3c 9392 d9bc 5fca 9abd
000001b0: b01d 59bd b317 c03c 5535 ab3d 6fdf e7bd
000001c0: f54c cdbc 6797 9fbd d5a4 03be 44d3 1ebd
000001d0: 3448 c83d c57e 5dbd 34a5 63bd 73d3 5a3d
000001e0: e99e 00be 2d12 67bc 153a 5e3d 4af4 203d
000001f0: 911e 8c3d eea5 ac3d 64c6 bf3d 3eb1 36bd
00000200: 59dd 3bbd 53a3 1b3d 4676 0f3c 27fd fd3d
00000210: da1f 8abd 87f8 033e 8703 0e3e 0d9d 513d
00000220: 222d dcbc 73cd 02bb c2af f53c 310a b6bb
00000230: ba18 2ebd a155 dcbd 19f2 323d 877b df3c
00000240: e0d4 053d 7aa4 06be c52c ab3d b998 0ebd
00000250: c542 59bc 3ec0 acbb 3f20 19bd e19c 13be
00000260: 793d afbd b1dc 533d dce4 ce3d 044c c33d
00000270: b2e7 00bd 185c d7bd 18b7 fbbc 7357 1d3d
00000280: 65cf 07be 6579 1e3d 963d 9d3c 3fe6 cdbd
00000290: d6c5 c53d ba11 09be ac78 bebd b29f ba3d
000002a0: 6447 b2bd a323 213d 4c01 9a3d 6883 08be
000002b0: be26 86bc aa4a bb3b 2ced 6bbd ae37 9a3d
000002c0: cd28 3cbd 75a4 33bc 9a5b 0ebe c058 9dbd
000002d0: 7b34 87bd e1c9 b0bd 13a8 943d c96b 03be
000002e0: 5c5c 9bbc c5fd 04be 2f1a 023e ef40 0f3d
000002f0: 266c 71bd a8b0 24bd a1bc 6d3d 4c98 f8bd
00000300: 005a efbd 9d2e 0abc 7659 f2bd 31f9 65bd
00000310: e785 e83c c5f5 01bd 7934 dfbd ee9f 03be
00000320: 890d 833d 2ba7 a4bd e00b 08be 2868 babc
00000330: 4092 55ba e84e e0bd ba34 08bc 114d 003e
00000340: a741 f8bd 7eaa 68bd e090 c8bd 4845 62bd
00000350: b474 e23d aa4e 94bd 1723 c5bd f6c8 5c3d
00000360: 29c4 bc3d 1972 d93c c078 e4bd 6f82 b4bd
00000370: 9364 10bd 9193 03bd 3243 acbd 2696 c2bd
00000380: c0ab 93bd 7d9b 13be 06cc fcbb 0f2e 15bd
00000390: 4eef da3d a9b0 6d3d d2ae a5bd 92d3 ad3d
000003a0: 2e6c 76bd 4871 67bd a612 aabd a4a6 143e
000003b0: 463d 013e 7a78 d83d 5989 52bc 1c99 01be
000003c0: 03e8 b8bd deea 84bc 7773 963d 7a29 863d
000003d0: f608 14be d3dd ea3d ebde 2bbc d0ef bbbd
000003e0: fd65 09be c1ac cbba 6950 8c3c f532 8c3d
000003f0: 75a1 8cbd a1a2 a13b 215a 843d 24c2 723d
-0.119681895 -0.032663487 0.07391821 0.054141268 0.07715045 -0.07573557 0.09202412 -0.12147055
0.11064185 -0.118746504 0.07676571 0.09169747 -0.08442583 0.12292391 -0.035695035 0.06350453
-0.009309094 0.021378743 -0.037744176 -0.07094382 0.07131396 -0.10538409 -0.092258066 0.13093019
0.12331929 -0.045980826 0.07365086 0.14693817 0.08354063 -0.016465507 0.121774785 0.10813001
0.065046914 -0.076311365 -0.11867057 -0.13508351 -0.12553026 0.13096033 0.008199092 0.08765238
0.10370022 -0.10626851 0.091394074 0.024565859 0.08739792 -0.13068047 -0.020362267 0.022804447
0.06203131 0.034337107 0.051929027 -0.05053101 -0.12433206 0.07151037 0.09860321 0.010631961
0.06511758 0.11754473 -0.10004534 -0.05224391 -0.11343475 -0.1303083 -0.057463724 -0.026206424
0.034236036 -0.12924944 -0.057397548 0.043768104 -0.09189367 0.0063290466 -0.12652224 -0.13857532
-0.014463304 -0.015002971 -0.044409905 -0.11950348 0.043785065 0.042896464 -0.06442879 0.024077479
-0.079786345 0.043205123 0.09562412 -0.124317884 -0.028635528 -0.075931095 -0.026483793 -0.008071777
0.14062753 0.056616016 0.113997415 0.09112313 0.07983247 0.116085224 -0.07819323 -0.12116259
0.111290105 -0.06814428 -0.0832378 0.07158989 0.07337789 -0.11209887 -0.14098813 -0.10736449
0.12007344 0.021136057 -0.02655915 -0.075581305 -0.053006828 0.0234488 0.08359782 -0.113219135
-0.02506111 -0.077925496 -0.12855847 -0.038775697 0.09779397 -0.054075975 -0.05557747 0.05342431
-0.1256062 -0.014103455 0.05425461 0.039295472 0.068417676 0.08430086 0.09364012 -0.044602625
-0.04586539 0.037997555 0.008756226 0.124018006 -0.067443565 0.12887774 0.13868533 0.051175166
-0.02687699 -0.0019958883 0.029991034 -0.005555414 -0.04250405 -0.1075852 0.043687914 0.027280582
0.032673717 -0.1314868 0.083581485 -0.034813616 -0.013260548 -0.0052719405 -0.037384268 -0.14415313
-0.08556647 0.05172414 0.10102245 0.09535983 -0.031470962 -0.10515612 -0.030726954 0.038413476
-0.13262708 0.03868999 0.019194406 -0.100536816 0.09656875 -0.13385668 -0.0930036 0.09112491
-0.08705023 0.039340626 0.075197786 -0.13331378 -0.016375896 0.0057156878 -0.05759923 0.07530151
-0.04593735 -0.010964503 -0.1390213 -0.07682943 -0.06601807 -0.08632255 0.0725862 -0.12834086
-0.018964939 -0.1298743 0.12705301 0.034974035 -0.05894103 -0.040207535 0.05804122 -0.12138423
-0.11687088 -0.008433965 -0.118334696 -0.05614585 0.028384162 -0.031728525 -0.1089868 -0.12853977
0.06399066 -0.08039697 -0.1328578 -0.022754744 -0.0008147098 -0.1095255 -0.008313352 0.12529399
-0.12121897 -0.05680322 -0.09793258 -0.055241853 0.110574156 -0.072415665 -0.096258335 0.05390259
0.09217102 0.026543664 -0.11155844 -0.08813941 -0.035252165 -0.032123152 -0.08411254 -0.09501295
-0.07210493 -0.14414783 -0.007714751 -0.036420878 0.10690175 0.058029804 -0.08089985 0.084876195
-0.060161762 -0.056504518 -0.08304338 0.14516693 0.1262103 0.10569854 -0.012850129 -0.12656063
-0.09028628 -0.016225275 0.07346242 0.0655088 -0.14456543 0.11468091 -0.0104901595 -0.091766
-0.13417812 -0.0015539156 0.017128186 0.06845657 -0.06866733 0.004932717 0.06462503 0.05926718

weight f4 [1, 32, 1]
00000000: da9e 4dbd 4f67 8fbd 9176 ec3c 271e 343e
00000010: 9c1d 953c 01a4 cabc 41f7 0fbe 5922 0d3e
00000020: 5d81 1c3e 1bf2 fc3c 1278 efbd b803 34be
00000030: 9960 c53d 33bc ddbd 0153 01be c2c3 95bd
00000040: 73a6 e1bc cb10 b8bb d423 27be 8409 273d
00000050: bee9 f4bd da30 153d 3b43 c3bc 38f4 2cbe
00000060: 1dd4 c43c fb05 43bd 43ea b33d b775 c8bd
00000070: dd34 ca3d d14f 773d aef3 0cbd 90c0 5a3d
-0.05020032 -0.070021264 0.02886513 0.17589627 0.018202595 -0.024736406 -0.14059164 0.13782634
0.15283723 0.030877164 -0.116928235 -0.17579544 0.09637565 -0.10826912 -0.1262932 -0.073127285
-0.02754519 -0.0056172363 -0.16322261 0.04078056 -0.11958645 0.03642354 -0.023835769 -0.16890037
0.024026925 -0.047613125 0.08784916 -0.09788077 0.09873364 0.060378853 -0.03441208 0.0534063

weight f4 [1, 32, 1]
00000000: df08 16be 50e0 1dbe 0114 a53c 7d5c 053e
00000010: e52a c73d f9d8 1bbe f456 24be 784a b83d
00000020: e65b 15be 5c26 c4bd 6cd3 5f3d d90d e63d
00000030: 3bc1 d33d 45c2 c13d 90a5 b5bd 037b 31be
00000040: 799a 463d 346d bbbd c021 24be c69f fcbd
00000050: 3c6d 483d 2af6 8abd 78ec 1abe 9e33 f7bd
00000060: b18f 863d 5cd0 54bd 3a5d 3fbc 9f4c 39bd
00000070: 0433 af3d 0799 10be da11 e4bc f83f eebc
-0.14651822 -0.154176 0.02015114 0.13023563 0.09724978 -0.15219487 -0.16048795 0.08998579
-0.14585838 -0.09577629 0.054644987 0.1123311 0.1033959 0.09460882 -0.08869469 -0.17332081
0.04848716 -0.09151688 -0.160285 -0.12335162 0.0489323 -0.06785233 -0.15129268 -0.12070392
0.06570376 -0.05195652 -0.011679942 -0.045239087 0.08554652 -0.14120875 -0.027840544 -0.029083237

weight f4 [1, 32, 1]
00000000: f96f 23be 52f8 19be 8bfa f3bd 057f 56bd
00000010: 7eb1 403e f061 3b3e a0e4 273d bc99 153e
00000020: ce96 07be 1578 9bbd a67f 1d3e 5821 b13c
00000030: c71d 093e dd52 e03d 4ed3 efbd 6cf4 b93d
00000040: 9f18 0abe 1a76 0b3d 569b 983d 0791 233d
00000050: 03e6 e33d 3578 8bbd b197 153e 8885 353c
00000060: 1b23 3f3e 4653 263d 5a0c 8dbd d7c5 b93c
00000070: 6c99 9fbd 23be ecbd 04f9 3c3e f4bb eb3d
-0.15960683 -0.15036133 -0.11913022 -0.05236723 0.18817708 0.18299079 0.04098952 0.14609426
-0.13241121 -0.07591263 0.15380725 0.021622345 0.13390265 0.10953305 -0.11710225 0.09079823
-0.13485955 0.034048177 0.07451503 0.03993323 0.11127856 -0.06810037 0.14608647 0.0110792
0.18665735 0.04060676 -0.068871215 0.022677345 -0.07792935 -0.11559703 0.18454367 0.115104586

bias f4 [32]
00000000: 5ef3 abbd 56f2 d2bd 172a 8c3b f276 48bd
00000010: 98ef fcbd 233d 4c3d f5a2 943d e3fa 00be
00000020: 4a54 01be 24ca c5bd b419 e0bc cf96 8d3d
00000030: 8611 01be db3b e33c 32d5 d03c babf cd3d
00000040: 6f53 6d3c 87c5 9c3c eea7 d83d aaa1 77bd
00000050: 2934 183e b84c 953d cb39 19bd 3fc4 1bbd
00000060: bb74 12be 1dd7 cebd 3218 dc3d 8102 393d
00000070: c082 3abd 8723 cf3c a614 fa3d 366c a73d
-0.08396028 -0.10300128 0.0042774784 -0.04894156 -0.123503864 0.049862992 0.07257644 -0.12595706
-0.1262981 -0.09657696 -0.027356006 0.0691353 -0.12604341 0.027738502 0.025492284 0.100463346
0.014485224 0.019137157 0.10578905 -0.06045691 0.14863648 0.072900236 -0.03740863 -0.03802895
-0.14302342 -0.10099623 0.107468024 0.045168404 -0.04553485 0.025285495 0.122109696 0.081749365

weight_orig f4 [32, 43, 1]
00000000: 8362 0fbd a466 bfbd 6a7d 96bc 149d 643d
00000010: ca24 033e 0452 033d 5cba 383d 56f9 88bd
00000020: 537b 04bd 4f4e af3c 474f 2a3d 3ac3 57bd
00000030: db91 353d 8051 13be 1204 01be dc38 b8bd
00000040: 85ef 3a3c 61fa a2bd 8ca0 113e 6c87 04be
00000050: 216b 18bd 4985 a8bd 2efb 0e3e 2fcf d1bd
00000060: db43 6dbd ced5 0fbe b948 12be ac05 0f3e
00000070: d99b 9d3d 84cb 553d d420 e2bd 7914 22bc
00000080: 053f 543d 3691 9d3d fb0c e7bc 00c0 f23d
00000090: 4c1d 18bd 37d4 283d e5d9 c7bd aed7 a13d
000000a0: b507 c33c 06ea f1bd f907 293e 5449 2dbc
000000b0: 60fb d8bd 08b2 4c3d d743 28bd 372a c93d
000000c0: 9b74 133e 2d37 a6bd b186 04be 6ede 11be
000000d0: 0a90 e33d 56f1 703d e206 003e dfdf 613d
000000e0: 2283 42bc d6e2 98bd b430 a8bd 2bd9 90bd
000000f0: 719b 19be 05dc c7bd 3c05 a73d f3cd 6abc
00000100: 35b8 90bd ae82 083e 7a30 20bd 9767 14be
00000110: f6ef 4abd ae69 a2bd a433 0a3e a244 7b3d
00000120: 1eea d6bd d89e 0d3e 563c 02be 950e d9bd
00000130: 6164 48bd 67f9 913d 4952 063e 4aa2 9b3d
00000140: f322 f0bd dc82 283d cad6 fe3c f783 aebd
00000150: 6c4b 4e3a 60a3 25be 809e ed3b aef8 92bd
00000160: fa74 d33d 704a e8bb e3de a4bd a723 6b3c
00000170: 4791 dc3b c95a e53d 31f9 c1bd e30c 143e
00000180: f1cd 7c3b cb9a 1bbd 2be1 0dbc 49ae 0b3e
00000190: 9b44 273d 697f bd3d 0746 13be 20a1 783b
000001a0: 2abf dfbd 3614 ac3d 456c f7bd 7ccf 4cbd
000001b0: c0ed be3d c015 8d3d 7958 c6bd a5b0 bcbd
000001c0: cbcb 03be 94a7 9bbc 7fb5 c9bd 7e1c 503d
000001d0: 2ad4 0dbe c108 003d 9ab9 003e de15 adbd
000001e0: 985a 3a3d e8a2 943d e590 ffbd d853 e4bd
000001f0: 9e2e 18bd d4f8 bd3d 7dea 17be 6751 7ebc
00000200: 2476 95bd 6d32 593d 99ef 84bd c4f9 8a3d
00000210: c88f 163e 0298 07be 902c 9fbd a5bd 83bd
00000220: 8ea6 01be d08e b23d b854 9dbc e52e 9e3d
00000230: f591 113e c465 d3bd 1d56 2ebd 6a39 f0bd
00000240: fb50 97bd b17c 0a3e 8e5f 18be 3e63 a63d
00000250: f072 f9bd 6890 e43d 8954 1c3e 7242 a73d
00000260: 2781 693c 75da 04bd be4c d8bd 33fe d23c
00000270: dde6 55bd 8d66 07be 957d a93d a352 103e
00000280: 440b 3a3d 5071 643d 93ff 0cbe ccf1 9d3c
00000290: fa77 c23d 951e 82bc 56c7 74bd c060 9fbd
000002a0: 4bd0 fbbd efab 1f3d df71 983c 374e ed3c
000002b0: d60d 99bd dcc9 e1bd 3661 2abd 5821 f23d
000002c0: b8cc 3c3d 986a 9a3d 276d 8b3d 32bc 4b3d
000002d0: 597b d33d 261f 123d 5101 b43c 76fc 433c
000002e0: 6e26 023e 3ba1 f8bd c346 ccbc 94d7 9e3d
000002f0: 6c69 803d e674 ffbd c602 073d 501f 4abb
00000300: dde1 143e 9389 a23d e682 f1bd 417b 0a3a
00000310: 4a3b 06bd 0fdd 783d a5c7 48bd defd 2b3e
00000320: 22d6 8bbd 5982 95bd 0cce cbbd c622 8dbd
00000330: f9ba 8d3d 9640 ff3d 643c 08be 845c f4bb
00000340: 2a11 4d3d 9fbc 113e 9b56 003e 58eb 0dbe
00000350: 9ed7 1bbe 01bf d93d f47b 5a3d 2624 adbd
00000360: e96c 003e be83 13bb 2eba bebd a865 3ebc
00000370: 0c84 a93d 266a 663d b8ae 7ebd 70b9 0e3e
00000380: a6cc 3b3c c320 75bd 0540 eebd 30a1 e53d
00000390: 84ae 143c 3a2c 7b3d 650e e43d 38bf e53d
000003a0: 65bc fb3d e919 c0bd 4863 19bb 7ff6 a6bd
000003b0: f6e2 813d 06aa 82bd ddba f13d ee6a a0bd
000003c0: fbf1 f1bd 6f44 9b3d 2c42 023e 12ac b9bd
000003d0: a3f9 12be 52c3 b43c eeb6 c13d e842 043e
000003e0: 9967 863d 3dd2 433d 2138 23bd 2a04 8f3b
000003f0: bbc9 183e 1d6b efbd cd58 bbbd ed76 883c
-0.035006057 -0.09345749 -0.018370349 0.055813864 0.12807003 0.032060638 0.0450996 -0.06688182
-0.032344174 0.021399645 0.04157951 -0.052676417 0.04432855 -0.14386559 -0.12599209 -0.0899522
0.011409645 -0.07957912 0.142214 -0.12942284 -0.03721154 -0.08228547 0.13963005 -0.10244595
-0.05792604 -0.14046404 -0.14285554 0.13967007 0.07695741 0.05219604 -0.11041418 -0.009892576
0.051817913 0.076937124 -0.028204432 0.11853027 -0.037137315 0.04121801 -0.09758357 0.07902466
0.023807386 -0.118122146 0.16506948 -0.010576565 -0.10594821 0.04997447 -0.041080322 0.09822505
0.1439995 -0.08115993 -0.12942006 -0.14245006 0.11111458 0.058823906 0.12502626 0.05514514
-0.011872085 -0.074651405 -0.082124144 -0.070726715 -0.15000702 -0.09758762 0.08155295 -0.014331329
-0.07066385 0.133311 -0.03910873 -0.14492641 -0.04954525 -0.07930313 0.13496262 0.06134475
-0.10493873 0.13830125 -0.12718329 -0.105984844 -0.048923854 0.07127648 0.13117327 0.075993136
-0.11725416 0.041140422 0.031108279 -0.08521264 0.0007869515 -0.16175604 0.0072515607 -0.07176338
0.10325046 -0.0070889518 -0.08050325 0.014351762 0.0067311856 0.111989565 -0.094713576 0.14458041
0.00385749 -0.03798942 -0.008659641 0.13640703 0.04083691 0.09252817 -0.14382182 0.0037937835
-0.109251335 0.084022924 -0.12081198 -0.05000256 0.09322691 0.06888914 -0.096848436 -0.0921338
-0.1287071 -0.019000806 -0.09849071 0.050808422 -0.13850465 0.03125835 0.12570801 -0.084514365
0.045496553 0.072576344 -0.12478808 -0.111488044 -0.037153833 0.09275976 -0.14835544 -0.0155223375
-0.07297924 0.053026605 -0.06491012 0.0678592 0.14703286 -0.1324158 -0.077721715 -0.06432656
-0.12661192 0.087186456 -0.019205436 0.07723788 0.14215834 -0.10322145 -0.042562593 -0.11729701
-0.07388493 0.13524128 -0.14880201 0.08124398 -0.12180126 0.11160356 0.15266623 0.0816697
0.014251984 -0.0324349 -0.105615124 0.025755977 -0.05222212 -0.13222714 0.08275906 0.14094023
0.0454209 0.055772126 -0.13769369 0.019280337 0.0949554 -0.015883723 -0.059760414 -0.077821255
-0.12295588 0.038982328 0.018608985 0.02896796 -0.07473342 -0.1102483 -0.041596614 0.11822766
0.046093673 0.075398624 0.068079285 0.049740024 0.10326261 0.035674237 0.021973284 0.011962047
0.12709972 -0.12140127 -0.024936086 0.07755962 0.062701076 -0.124734685 0.03296163 -0.0030841418
0.14539285 0.079363964 -0.11792545 0.00052826485 -0.032771386 0.060757693 -0.04901852 0.16796061
-0.06827952 -0.073002525 -0.0995141 -0.06891398 0.06920428 0.12463491 -0.13304287 -0.007457318
0.050065197 0.1423211 0.12533037 -0.13859308 -0.1521897 0.10632134 0.053340867 -0.084541604
0.12541546 -0.0022508944 -0.09312855 -0.011620916 0.08277139 0.056253575 -0.062178344 0.13937926
0.011462366 -0.059845697 -0.116333045 0.11212385 0.009074811 0.061321475 0.11135558 0.11218113
0.12291793 -0.09379942 -0.0023405124 -0.08152484 0.063421175 -0.06380086 0.118032195 -0.07832895
-0.11813732 0.07581412 0.12720555 -0.09066023 -0.14353041 0.022065792 0.09458719 0.12916148
0.065627284 0.04780792 -0.03984845 0.00436451 0.14920704 -0.11690352 -0.09147797 0.01665827

weight_u f4 [32]
00000000: 58aa 283e 0174 6c3e e60a 5bbd fce3 313e
00000010: d609 80be ad85 92be a594 d6bd b92e 6a3e
00000020: ea10 2a3e 60f1 893c 49d6 cc3d b214 2dbe
00000030: bb5e 4fbd f1a6 17bc e1a2 58be e00f 17be
00000040: bca2 b53e 7b5b b6bc 1c8c 6d3c 3e42 a63b
00000050: 7864 65bd 700b 083d b6c9 4fbe 8349 acbd
00000060: 662a 553d 154c 1ebe 0e9f 89be e419 04be
00000070: 6e36 a43e b8b4 3d3e 2dcf a83e 0ac5 55bd
0.16471231 0.23091127 -0.05347719 0.17372125 -0.25007504 -0.28617612 -0.104775704 0.22869386
0.16608015 0.01683873 0.10001809 -0.16902426 -0.05062745 -0.0092561105 -0.21155883 -0.1475215
0.3547572 -0.022260418 0.014498737 0.0050738147 -0.056004018 0.033214033 -0.2029179 -0.08412459
0.052042387 -0.1545871 -0.26879162 -0.12900501 0.32072777 0.1852597 0.32970563 -0.052189864

weight_v f4 [43]
00000000: da37 213d 6213 42bd 1b67 e03d 82fc 743d
00000010: de4c 78b8 7768 2fbd f879 06be c77b febd
00000020: 5bb9 08be d8f3 17bc faef 043e 7f3d 8c3e
00000030: 9643 5ebd 0136 47be 555c 14be 89ff 41be
00000040: 6c01 04be d539 eabd ccb7 b03d 9633 3fbe
00000050: c998 8bbb 0a5e 75be 7974 e63c f92c 033c
00000060: 972f c03d 0660 80be daef 72bc 790f fbbc
00000070: 36e2 cfbc b12a 543e 53eb 663e ac20 42be
00000080: 151d 8cbe 038c 08bd 70f2 013e 08fa 663d
00000090: 60e1 e83d 86a9 9bbe 16ba 5abd ff70 b33e
000000a0: 1a38 843e dc8c d4bd 2784 163d
0.039359905 -0.047381766 0.10957166 0.059811123 -5.9199396e-05 -0.042824235 -0.13132465 -0.124259524
-0.13351957 -0.0092744455 0.12982169 0.27390668 -0.054263674 -0.19454195 -0.14488347 -0.18945135
-0.12891167 -0.11436812 0.086288065 -0.18672022 -0.004260157 -0.23961654 0.02813171 0.008006328
0.09384077 -0.2507326 -0.014827693 -0.030647026 -0.02537642 0.2071941 0.22550707 -0.18957776
-0.27365938 -0.03333665 0.12690139 0.056390792 0.11371112 -0.30402774 -0.05340012 0.35047147
0.25824052 -0.10378429 0.036747124

weight f4 [32, 43, 1]
00000000: 42c9 0bbd 44a6 babd 82a8 92bc d904 5f3d
00000010: 89d1 ff3d 6105 003d 6a36 343d 9c9d 85bd
00000020: a625 01bd 5819 ab3c 6028 263d 6c62 52bd
00000030: ec20 313d 15b1 0fbe ec9f fbbd 68b2 b3bd
00000040: a116 363c 43eb 9ebd 070a 0e3e 7344 01be
00000050: 09b0 14bd e460 a4bd 1776 0b3e ee98 ccbd
00000060: 7c57 67bd 564b 0cbe 6fa8 0ebe 7880 0b3e
00000070: 29be 993d 3e8b 503d 5d83 dcbd 0c4b 1ebc
00000080: 9cf1 4e3d efb0 993d 2279 e1bc d9c7 ec3d
00000090: 405f 14bd 7ca3 243d 70ed c2bd 5edf 9d3d
000000a0: 8051 be3c e8f3 ebbd 54dd 243e a0db 28bc
000000b0: 8ea4 d3bd 22b1 473d 2a0d 24bd 0129 c43d
000000c0: 36cc 0f3e 9722 a2bd 8243 01be 9e46 0ebe
000000d0: 30e9 dd3d d40a 6b3d 6bc0 f93d a144 5c3d
000000e0: d9ed 3dbc ec22 95bd cd0d a4bd 4d4b 8dbd
000000f0: 7dd2 15be 13e4 c2bd 24dd a23d f81a 65bc
00000100: 7b2b 8dbd 9124 053e a93f 1cbd bbb9 10be
00000110: 08fa 45bd ea6b 9ebd 13c5 063e daff 743d
00000120: ef92 d1bd 1722 0a3e 2e0f febd 7eb8 d3bd
00000130: ee66 43bd 3254 8e3d 6cfd 023e 25c1 973d
00000140: ef32 eabd 704c 243d 74ad f83c 7c31 aabd
00000150: 3a2b 4b3a 8389 21be c148 e73b 8f5a 8fbd
00000160: ac34 ce3d 69fb e2bb 75c6 a0bd b323 653c
00000170: 5db3 d63b bda8 df3d 3d28 bdbd cc60 103e
00000180: 81a2 753b 5acc 17bd 3096 0abc 203e 083e
00000190: d914 233d 5fd6 b83d 089e 0fbe 69d0 713b
000001a0: d93e dabd 8fdb a73d ee53 f1bd e4ce 47bd
000001b0: 912e ba3d 6fa0 893d ae78 c1bd fc03 b8bd
000001c0: 668d 00be c9eb 97bc d0bf c4bd 62eb 4a3d
000001d0: b054 0abe c29f f93c 760e fb3d c4d7 a8bd
000001e0: 88b2 353d 4ef0 903d 483f f9bd 5ea8 debd
000001f0: 787a 14bd 4140 b93d 0d29 14be ec36 78bc
00000200: b0c9 91bd 9fcd 533d 2aae 81bd 7091 873d
00000210: 87da 123e 7d3c 04be 6b40 9bbd 1b81 80bd
00000220: abeb fcbd f91d ae3d 5b6a 99bc 374d 9a3d
00000230: 40fc 0d3e 9233 cebd 6916 2abd da4d eabd
00000240: ce9a 93bd a20c 073e 149e 14be ea4c a23d
00000250: be4f f3bd 2de3 de3d 9973 183e db21 a33d
00000260: e9dd 633c 1f84 01bd fefb d2bd c3b1 cd3c
00000270: a2ab 50bd a210 04be 2253 a53d 98c4 0c3e
00000280: 1565 353d 1abe 5e3d 7183 09be e912 9a3c
00000290: aead bd3d 00d0 7dbc 67c9 6ebd 1d6a 9bbd
000002a0: 3790 f5bd 43c5 1b3d 27ae 943c 388f e73c
000002b0: 564c 95bd 462d dcbd 2938 26bd ad1e ec3d
000002c0: f725 383d e7a0 963d d303 883d f0c1 463d
000002d0: 0a49 ce3d 6175 0e3d 5971 af3c faea 3e3c
000002e0: a4d7 fd3d 1674 f2bd b74a c7bc 0df2 9a3d
000002f0: db88 7a3d 892a f9bd 6d9e 033d b336 44bb
00000300: a836 113e cb8c 9e3d 9591 ebbd 9660 043a
00000310: 77f5 02bd c2c4 723d 51e2 43bd f1bd 273e
00000320: 3c67 88bd ebd6 91bd feca c6bd 139f 89bd
00000330: 993b 8a3d 1cf3 f83d 73db 04be 83b9 eebb
00000340: 06f2 473d c924 0e3e ab4c fa3d 086e 0abe
00000350: 86f9 17be d453 d43d fe07 553d d0e2 a8bd
00000360: ac80 fa3d bac9 10bb 4d08 babd 00e4 39bc
00000370: 135b a53d ebaa 603d f353 78bd dc34 0b3e
00000380: f0e0 363c 0a20 6fbd e963 e8bd 55ee df3d
00000390: cb37 113c bce5 743d 1d72 de3d 3418 e03d
000003a0: 1983 f53d a860 bbbd 6db9 14bb a0db a2bd
000003b0: 2b69 7d3d 0dec 7ebd dbb7 eb3d 837a 9cbd
000003c0: dced ebbd 7166 973d bf0d fe3d e21a b5bd
000003d0: 015b 0fbe 4c2d b03c f4f3 bc3d 41ff 003e
000003e0: 1e13 833d f8eb 3e3d 9b42 1fbd 54cc 8a3b
000003f0: e804 153e b079 e9bd d2c2 b6bd ffff 843c
-0.03412748 -0.09113744 -0.017902616 0.054447982 0.124911375 0.03125513 0.043997206 -0.06524202
-0.031530045 0.020886108 0.04056585 -0.051363394 0.043244287 -0.14032395 -0.12286362 -0.08774263
0.011113794 -0.07759716 0.13871013 -0.12623768 -0.036300693 -0.08026293 0.13619266 -0.099901065
-0.056479916 -0.13700613 -0.1393144 0.13623226 0.07506973 0.05091404 -0.10767243 -0.009661447
0.050523385 0.075044505 -0.027523581 0.115615554 -0.03622365 0.040194973 -0.09517944 0.077086195
0.023232222 -0.11521131 0.16100055 -0.010306269 -0.10334121 0.04875291 -0.040051617 0.095781334
0.14042744 -0.07916754 -0.12623408 -0.13894126 0.108354926 0.057383373 0.12194904 0.053776387
-0.011592352 -0.072820514 -0.08010445 -0.06899128 -0.14631076 -0.09516158 0.079523355 -0.013983481
-0.06893059 0.1300223 -0.03814665 -0.1413335 -0.04833415 -0.07735427 0.13161115 0.05981431
-0.102331035 0.13489567 -0.12405239 -0.103379235 -0.047705583 0.06949653 0.12791985 0.07409886
-0.11435496 0.04011196 0.030356146 -0.0831022 0.0007750277 -0.15775113 0.0070582335 -0.069996946
0.1006864 -0.006926943 -0.07850353 0.013985562 0.0065521435 0.10920856 -0.092361905 0.14099425
0.0037480893 -0.03706012 -0.008458659 0.13304949 0.039814804 0.09025263 -0.14025128 0.0036897904
-0.106565185 0.08196174 -0.117835864 -0.04878129 0.09090913 0.067200534 -0.09446846 -0.08985135
-0.12553939 -0.018545048 -0.09606898 0.049540885 -0.13508868 0.030471686 0.122586176 -0.08244279
0.044359714 0.070770845 -0.12170273 -0.10871957 -0.036249608 0.090454586 -0.14468785 -0.015149813
-0.07118547 0.051709767 -0.06332047 0.06619537 0.14341174 -0.129137 -0.07580646 -0.06274625
-0.123496376 0.085018106 -0.018727472 0.07534259 0.13865757 -0.1006843 -0.04152528 -0.1144063
-0.07207261 0.13188413 -0.14513427 0.079248264 -0.11880444 0.10883174 0.14887847 0.07965442
0.013907888 -0.03162014 -0.1030197 0.025109177 -0.05094493 -0.1289697 0.08072497 0.1374687
0.044285852 0.054380514 -0.13429047 0.018807845 0.092616424 -0.015491486 -0.05829754 -0.07588599
-0.119903974 0.03802992 0.018149449 0.028266534 -0.072899505 -0.10750823 -0.040580902 0.115292884
0.04495808 0.073549084 0.066413544 0.048524797 0.10072525 0.03477991 0.021416353 0.011652702
0.12394646 -0.11838548 -0.024327619 0.07565699 0.06116567 -0.12166316 0.03213351 -0.002993983
0.14181006 0.07741698 -0.11502377 0.0005049793 -0.031972375 0.059269674 -0.047823254 0.1638105
-0.066603154 -0.071210705 -0.097066864 -0.06719794 0.067496486 0.121557444 -0.12974338 -0.0072852983
0.048814796 0.1388122 0.122216545 -0.13518536 -0.1484128 0.103675514 0.052009575 -0.08246386
0.122315735 -0.0022092895 -0.090836145 -0.011345863 0.08074012 0.0548505 -0.060626935 0.13594383
0.011162028 -0.058380164 -0.11347181 0.1093413 0.0088634 0.059789404 0.10861609 0.109421164
0.119878955 -0.09149295 -0.002269353 -0.079520464 0.061867874 -0.062236834 0.11509677 -0.07640555
-0.115199775 0.07392586 0.124049656 -0.08843018 -0.13999559 0.021505974 0.09226218 0.12597372
0.06400131 0.046611756 -0.03888188 0.0042357836 0.14552653 -0.11400163 -0.08923878 0.01623535

weight f4 [1, 32, 1]
00000000: 82fb 1c3d 80ca 033e da58 f3bd c068 d4bd
00000010: bd2d a73d 95f5 b23c 858f b3bd 15aa 1bbe
00000020: 21d4 c63d 5437 7c3d 47fb 2f3e edde 61bd
00000030: 1437 e93d f96d 34be 75e6 04be 413a f9bc
00000040: f130 21be d696 e53d 5dd1 753d 98bc 2bbe
00000050: faf2 57bd 141f 083e 5dc7 283e ba4c 953d
00000060: 79ee d13d 80aa e6bd 617d d43d 87f0 0cbd
00000070: 90da 1a3e ac78 18be 733d 2f3e 1fd1 c1bd
0.038325794 0.12870216 -0.118821815 -0.10371542 0.08163021 0.021845618 -0.087676086 -0.152016
0.09708429 0.061576203 0.17185698 -0.05514424 0.113874584 -0.17620076 -0.12978537 -0.030423285
-0.15741326 0.1121041 0.060014118 -0.16771162 -0.052721955 0.13293105 0.16482301 0.07290025
0.10250563 -0.11262989 0.10375477 -0.034409072 0.15122437 -0.14889783 0.17113285 -0.09463715
