Models/M4/wo_fade/wo_fade_discriminator.pt (torch, 119437 bytes, 68 tensors)

weight f4 [121, 10]
0.9335291 -0.69770706 -0.45817554 0.156466 0.2020046 -0.16287135 -0.3015708 -1.8828888
0.34473598 -2.0190668 -1.0516354 1.1283826 0.27533862 0.098504804 -1.4385521 1.6164647
-0.4444873 1.8547025 -0.21195935 0.71548474 -1.3016472 -0.71428025 0.5396345 0.5530787
0.9075438 1.3895054 -0.9902943 -0.5929523 -1.8027568 -0.35564545 -2.4704146 -1.1004952
2.0513127 2.0612986 -1.2671733 -0.5680454 2.944184 -0.4039486 -0.7000081 -0.49773332
0.0998308 -0.34995067 -1.6384251 -0.23793124 -1.0176772 -0.010768629 2.237371 0.8939828
1.9767078 -0.5601209 1.2824411 1.3365326 1.1341996 0.29616952 0.5129252 -0.004852928
1.9186367 -0.98173237 0.4664487 0.15094052 0.4343504 2.0440414 -0.25246212 -0.30638778
-0.85309774 1.3340691 0.1969122 1.0800167 1.0197212 -1.266353 0.43378165 0.60782343
0.023046933 -0.73396647 -0.35960525 0.71463674 -0.95492846 -1.4881814 -0.6586425 -0.84006774
0.37256414 0.30842525 -0.49557436 1.6979028 1.2672007 -0.79752314 -0.7251233 0.20662121
1.0266013 0.091506064 -1.6259824 0.6935301 0.035984542 -0.97538525 1.0441067 1.9662095
-0.6756845 -0.3042042 1.0564293 2.915561 0.5452454 -0.8362621 -1.171699 -0.7650343
-0.086660676 -0.9419075 -0.67442024 -1.2074952 0.2886237 -0.3356771 1.2066543 0.9655284
-0.35718256 -0.93836683 0.41425303 0.19498424 0.32612526 1.3793203 1.6295568 0.94821674
-0.19810645 0.2400564 1.0005987 0.6937646 -0.33469403 0.82376593 -0.28515247 0.5388222
-0.9324419 -1.5941715 0.7194018 2.1635158 0.8046345 -2.3309336 0.4179991 -0.41898704
-1.3578997 1.254702 -0.3026054 0.48052916 0.43593046 0.77603894 -2.0195699 -1.3379419
0.05620506 -0.244784 0.41512623 -0.22023368 -0.16784333 1.2726606 -1.4058292 0.9632699
-0.5387441 -0.29300702 0.78948265 -0.53867745 1.5299127 -1.4565854 0.8267827 0.83109117
0.22302432 1.333512 -0.7731162 1.6492491 -0.9458778 -0.63186306 -1.0327266 -1.6753519
0.032064263 0.51194036 1.4212016 -1.350619 -0.801604 0.8146502 -0.64397544 -2.092668
0.69703585 -0.19384147 1.5435395 0.38694933 -1.765202 1.8715816 0.53808194 -0.90368384
0.0050658393 0.7051339 -0.73483783 1.4535581 -0.8505563 0.11051582 -0.30674303 -1.2125543
-2.2355342 2.0082989 1.6627134 0.12834696 -0.97315836 -0.99613905 -1.919672 -0.4783081
1.3542709 -0.13021454 -1.7978114 -0.6674288 -0.5710686 -0.34328732 0.04101337 -0.285021
-0.7566275 0.49155936 1.3979604 0.015766136 -1.171415 -0.3472663 0.8464129 -0.7415567
0.47809938 -1.8100585 -0.39915806 -0.10649676 0.32717487 1.0331614 0.90315974 0.122341126
-0.100901894 -2.3362858 -0.55254894 -0.86275554 -0.58098 1.0592642 -1.9427569 0.8107415
0.066915214 -0.5025588 0.72062826 2.0999255 0.89353067 -0.59528553 -1.8823346 -0.06615669
3.188324 1.1775674 0.39957824 1.6248207 -0.4848441 -1.4722039 0.7156025 -0.5412049
-0.6777299 0.3740594 0.40906364 -0.81746304 0.11910343 0.0058254856 -1.6028025 1.3464525
00000000: c3fb 6e3f ee9c 32bf fc95 eabe a038 203e
00000010: 4bda 4e3e bfc7 26be 7d67 9abe 8002 f1bf
00000020: 3c81 b03e 6438 01c0 fd9b 86bf d76e 903f
00000030: 2ff9 8c3e e3bc c93d 7a22 b8bf 51e8 ce3f
00000040: d793 e3be e466 ed3f df0b 59be 022a 373f
00000050: 609c a6bf 12db 36bf 7d25 0a3f 9196 0d3f
00000060: ca54 683f 50db b13f ed83 7dbf b9cb 17bf
00000070: bcc0 e6bf 2917 b6be 461b 1ec0 07dd 8cbf
00000080: b548 0340 51ec 0340 bc32 a2bf 6c6b 11bf
00000090: 836d 3c40 5ad2 cebe bb33 33bf e7d6 febe
000000a0: 1774 cc3d bc2c b3be eab7 d1bf 3fa4 73be
000000b0: 3f43 82bf e76e 30bc 1631 0f40 0fdc 643f
000000c0: c304 fd3f 1564 0fbf 0827 a43f 8013 ab3f
000000d0: 742d 913f 88a3 973e 114f 033f 5005 9fbb
000000e0: e395 f53f d052 7bbf 5dd2 ee3e 2790 1a3e
000000f0: 2d63 de3e 93d1 0240 b742 81be dcde 9cbe
00000100: 9d64 5abf c7c2 aa3f 5aa3 493e fd3d 8a3f
00000110: 3986 823f db17 a2bf a118 de3e 519a 1b3f
00000120: eccc bc3c 3ae5 3bbf 2e1e b8be 6ff2 363f
00000130: 3176 74bf ba7c bebf cb9c 28bf ae0e 57bf
00000140: bac0 be3e eae9 9d3e ecbb fdbe e154 d93f
00000150: a233 a23f 7a2a 4cbf aea1 39bf 8394 533e
00000160: ac67 833f 8867 bb3d 3120 d0bf 308b 313f
00000170: 8764 133d d9b2 79bf 4aa5 853f c1ac fb3f
00000180: a9f9 2cbf a7c0 9bbe 1339 873f 8d98 3a40
00000190: 3495 0b3f 4615 56bf 3cfa 95bf 4ad9 43bf
000001a0: 277b b1bd da20 71bf cea6 2cbf 348f 9abf
000001b0: 7cc6 933e dedd abbe a673 9a3f df2c 773f
000001c0: a2e0 b6be cf38 70bf f918 d43e f3a9 473e
000001d0: e4f9 a63e 918d b03f 5195 d03f 55be 723f
000001e0: 6bdc 4abe 58d1 753e 9e13 803f 8f9a 313f
000001f0: 045d abbe 53e2 523f 81ff 91be 40f0 093f
00000200: 83b4 6ebf d00d ccbf b72a 383f 0b77 0a40
00000210: 87fc 4d3f 042e 15c0 fa03 d63e 7885 d6be
00000220: a8cf adbf 139a a03f 18ef 9abe eb07 f63e
00000230: 4732 df3e 7daa 463f a240 01c0 ae41 abbf
00000240: 4737 663d a8a8 7abe 6d8b d43e f084 61be
00000250: 1fdf 2bbe 8be6 a23f 36f2 b3bf db98 763f
00000260: 22eb 09bf 0405 96be 891b 4a3f c4e6 09bf
00000270: 2ed4 c33f 6471 babf 08a8 533f 64c2 543f
00000280: 7d60 643e 85b0 aa3f f1ea 45bf 981a d33f
00000290: 0c25 72bf c7c1 21bf 6330 84bf ee71 d6bf
000002a0: d155 033d 860e 033f efe9 b53f 15e1 acbf
000002b0: eb35 4dbf ea8c 503f 93db 24bf 46ee 05c0
000002c0: f170 323f 617e 46be b492 c53f 391e c63e
000002d0: 24f2 e1bf fc8f ef3f bdbf 093f d357 67bf
000002e0: 57ff a53b a883 343f 551e 3cbf 310e ba3f
000002f0: 0fbe 59bf 1e56 e23d 6c0d 9dbe fb34 9bbf
00000300: fe12 0fc0 f887 0040 cbd3 d43f 636d 033e
00000310: e820 79bf f802 7fbf d0b7 f5bf cde4 f4be
00000320: c058 ad3f f656 05be af1e e6bf 9ddc 2abf
00000330: 8d31 12bf 5bc3 afbe a3fd 273d 46ee 91be
00000340: 57b2 41bf abad fb3e 5ef0 b23f fc27 813c
00000350: edf0 95bf e3cc b1be 84ae 583f a9d6 3dbf
00000360: 71c9 f43e ffaf e7bf 725e ccbe f91a dabd
00000370: 7783 a73e a23e 843f 7a35 673f fc8d fa3d
00000380: a7a5 cebd b585 15c0 d973 0dbf 8cdd 5cbf
00000390: 1bbb 14bf f895 873f 42ac f8bf c18c 4f3f
000003a0: d80a 893d b2a7 00bf 187b 383f 2e65 0640
000003b0: 6dbe 643f a264 18bf 57f0 f0bf 297d 87bd
000003c0: 800d 4c40 87ba 963f 8595 cc3e 20fa cf3f
000003d0: 7c3d f8be 2d71 bcbf ba31 373f 688c 0abf
000003e0: b57f 2dbf b784 bf3e ca70 d13e 4245 51bf
000003f0: 80ec f33d b7e3 be3b a228 cdbf 8e58 ac3f

bias f4 [32]
0.39346364 -0.1351865 0.3348662 0.052584045 -0.026419317 -0.092168495 0.026223885 0.40632352
-0.10860731 0.08300427 0.22919141 -0.15993282 0.34182194 0.20538892 -0.14479513 0.3259408
-0.04687268 0.3614141 0.16773996 0.30603546 0.014571417 0.31161213 -0.050416205 0.43210024
0.14839272 0.1451563 -0.066180855 0.41163388 -0.03759514 -0.043590706 -0.029327027 0.17916162
00000000: 1174 c93e 546e 0abe 9573 ab3e 5e62 573d
00000010: 536d d8bc d6c2 bcbd 79d3 d63c a309 d03e
00000020: 826d debd 25fe a93d 27b1 6a3e 6ec5 23be
00000030: 4903 af3e 7951 523e 2d45 14be b6e1 a63e
00000040: 91fd 3fbd 450b b93e 06c4 2b3e aeb0 9c3e
00000050: f4bc 6e3c a08b 9f3e 3981 4ebd 3e3c dd3e
00000060: 43f4 173e daa3 143e d489 87bd adc1 d23e
00000070: 5dfd 19bd 2b8c 32bd 3c3f f0bc 2576 373e

weight_orig f4 [32, 12, 1]
-0.03671747 -0.13014467 0.00904797 0.27930045 0.02637346 -0.1807703 -0.09944523 -0.33934698
0.06872773 -0.3141533 0.13147807 0.21712193 -0.14430037 0.17752685 0.12926447 -0.01277668
-0.17238633 -0.15095264 -0.13518102 -0.035762183 0.17594992 0.11814948 -0.032577615 0.2355173
0.3020129 0.05373325 0.012174259 -0.19841978 0.074970484 -0.05652842 0.16926828 -0.09989006
0.30814567 0.0950681 0.09034097 -0.19425634 -0.211025 -0.07369048 0.11016127 0.18516132
0.1397888 0.23520048 0.039525792 0.00521501 0.055097587 0.03729631 -0.14322977 -0.12529798
-0.10209885 0.12394696 -0.047432367 -0.17672452 -0.1932067 -0.3122336 -0.0995674 -0.10682999
-0.026184604 -0.035340488 0.08256814 0.19919996 -0.07424802 0.06808172 -0.19548488 0.18200746
-0.20601627 -0.23560673 0.18564388 0.1325687 -0.22312255 0.060525175 0.22058527 -0.1199314
-0.20863599 0.0036286928 0.17597026 0.021428145 -0.111838244 0.00891617 0.06304291 0.036972463
-0.07911606 0.0886066 0.21541071 0.1265595 -0.0073091458 0.22845274 -0.021100521 0.2175408
0.10764656 0.33501485 -0.06368658 -0.098788075 0.20524609 0.09606901 -0.03651769 0.111852
0.110340364 0.10807177 0.07614265 0.05407614 -0.24292664 -0.09530436 -0.12843868 -0.01651614
0.15500595 -0.23991561 0.20958152 -0.08356964 -0.026725017 -0.044582963 -0.12144883 -0.18076281
0.21406539 0.15899591 -0.0799751 -0.21330686 -0.31858417 -0.21818927 0.116491 0.06758642
0.20175587 -0.1875789 -0.11977947 0.05962448 -0.25237393 0.19068693 -0.19043492 0.27929685
0.1522927 -0.14500074 0.14991172 0.048779882 -0.11014021 -0.11037325 -0.21853162 0.15094158
0.18725598 0.27847365 0.22035794 0.036916606 0.16709833 -0.19035476 -0.12854943 0.0013697039
0.32768226 0.08726802 0.16592953 0.014833925 -0.0032376072 0.108739585 0.17919958 -0.12733687
-0.014568443 -0.11677521 0.123179235 0.2820966 -0.23871142 0.21052496 -0.058767736 -0.015250735
0.11105051 0.19737977 -0.33016616 0.2664334 -0.06852096 -0.16494101 0.13486364 0.17962351
-0.056590468 0.05559279 0.12523149 -0.05029424 -0.20100626 -0.02649697 0.11003411 -0.1359887
0.19079657 0.12488324 0.04500357 0.12938723 -0.2578767 0.20284474 0.17259765 -0.24483502
-0.06541752 0.120003656 -0.054424107 -0.35572767 0.16655147 0.107398964 0.158698 -0.11856295
0.06348585 -0.003582518 -0.25435898 0.13546784 0.014076622 -0.24257015 0.19917077 -0.29621884
-0.14630412 0.20580295 -0.12487557 -0.007458966 0.11414396 0.263758 -0.21857326 -0.04291368
0.09744895 0.15423505 0.13358803 0.038961455 -0.21508591 -0.09974332 0.12701201 -0.0817318
0.15824293 -0.29100317 0.05965658 -0.023509817 -0.030710155 -0.19027223 0.11086 -0.03910774
0.25491697 -0.22925815 0.145328 0.1004773 0.13865815 0.27089068 0.041122254 -0.10593665
0.30078062 -0.11171391 0.23424377 0.2629459 0.037616033 0.18669392 0.02063623 0.092738144
0.1674005 0.28376016 0.24801148 0.28010935 0.24206096 -0.1751638 -0.22596028 0.22755417
0.09480562 -0.014266639 -0.0047681015 -0.18816708 0.113150425 0.15800895 -0.048936542 0.25506946
00000000: 0f65 16bd a544 05be f03d 143c 7800 8f3e
00000010: 280d d83c d91b 39be f1a9 cbbd e3be adbe
00000020: 20c1 8c3d b4d8 a0be 30a2 063e 3655 5e3e
00000030: 7ac3 13be 99c9 353e e85d 043e 4855 51bc
00000040: 0b86 30be 5493 1abe e56c 0abe 5e7b 12bd
00000050: 372c 343e 5bf8 f13d 1b70 05bd 722b 713e
00000060: 6fa1 9a3e 6517 5c3d 8b76 473c 8e2e 4bbe
00000070: 208a 993d 588a 67bd aa54 2d3e 2993 ccbd
00000080: 45c5 9d3e 10b3 c23d b004 b93d 22eb 46be
00000090: f016 58be 09eb 96bd 3b9c e13d ee9a 3d3e
000000a0: cc24 0f3e 65d8 703e cce5 213d ade2 aa3b
000000b0: 02ae 613d 04c4 183d d3aa 12be 1d4e 00be
000000c0: 3419 d1bd e7d7 fd3d 7148 42bd 46f7 34be
000000d0: fad7 45be 15dd 9fbe fee9 cbbd afc9 dabd
000000e0: 1881 d6bc 30c1 10bd 7c19 a93d 13fb 4b3e
000000f0: 590f 98bd 6e6e 8b3d 302d 48be 2a60 3a3e
00000100: eef5 52be e442 71be 6e19 3e3e 17c0 073e
00000110: 3d7a 64be 3fe9 773d 1be1 613e 989e f5bd
00000120: aca4 55be 5dcf 6d3b 8c31 343e 148a af3c
00000130: 730b e5bd 2115 123c a41c 813d 7070 173d
00000140: 9a07 a2bd 6177 b53d a094 5c3e d098 013e
00000150: 8f81 efbb 84ef 693e 00db acbc 04c3 5e3e
00000160: cd75 dc3d 1187 ab3e 1c6e 82bd 6751 cabd
00000170: 082c 523e d4bf c43d 9393 15bd a912 e53d
00000180: 21fa e13d bb54 dd3d adf0 9b3d f17e 5d3d
00000190: c3c1 78be ef2e c3bd 6e85 03be db4c 87bc
000001a0: e1b9 1e3e 70ac 75be 8a9c 563e 8f26 abbd
000001b0: 6cee dabc a09c 36bd 2aba f8bd e319 39be
000001c0: f533 5b3e d3cf 223e fcc9 a3bd 1d6d 5abe
000001d0: 771d a3be 026d 5fbe d592 ee3d c06a 8a3d
000001e0: 1799 4e3e af14 40be f04e f5bd cc38 743d
000001f0: 2837 81be 6f43 433e 5f01 43be ffff 8e3e
00000200: 9ef2 1b3e 137b 14be 7582 193e 6acd 473d
00000210: 3191 e1bd 5f0b e2bd c1c6 5fbe 6e90 1a3e
00000220: 08c0 3f3e 1994 8e3e 83a5 613e de35 173d
00000230: d31b 2b3e 5cec 42be 76a2 03be a387 b33a
00000240: f8c5 a73e 93b9 b23d 6ee9 293e fe09 733c
00000250: 092e 54bb dcb2 de3d 1880 373e 9964 02be
00000260: 7bb0 6ebc d727 efbd 6545 fc3d f76e 903e
00000270: c470 74be db93 573e 70b6 70bd 38de 79bc
00000280: 736e e33d ec1d 4a3e 8a0b a9be f569 883e
00000290: b854 8cbd 4ce6 28be b219 0a3e 3aef 373e
000002a0: 68cb 67bd 44b5 633d af3c 003e 5501 4ebd
000002b0: 96d4 4dbe 2c10 d9bc 9059 e13d 9f40 0bbe
000002c0: 2d60 433e c9c2 ff3d aa55 383d 167e 043e
000002d0: 6a08 84be 88b6 4f3e 70bd 303e 08b6 7abe
000002e0: 9ff9 85bd 7ac4 f53d d0eb 5ebd f021 b6be
000002f0: 788c 2a3e fdf3 db3d ba81 223e 22d1 f2bd
00000300: df04 823d aec8 6abb 573b 82be 15b8 0a3e
00000310: a2a1 663c 4f64 78be 6cf3 4b3e ffa9 97be
00000320: bfd0 15be 02be 523e c3be ffbd 586a f4bb
00000330: 4fc4 e93d 4a0b 873e abd1 5fbe 41c6 2fbd
00000340: 5193 c73d cbef 1d3e 4dcb 083e 0c96 1f3d
00000350: 7b3f 5cbe 3a46 ccbd 700f 023e 0163 a7bd
00000360: 6f0a 223e 5efe 94be 755a 743d a997 c0bc
00000370: dd93 fbbc b9d6 42be 910a e33d 702f 20bd
00000380: 7a84 823e a6c2 6abe ddd0 143e 0bc7 cd3d
00000390: 67fc 0d3e 2fb2 8a3e cf6f 283d 50f5 d8bd
000003a0: ebff 993e 43ca e4bd 99dd 6f3e d8a0 863e
000003b0: 4513 1a3d b12c 3f3e 500d a93c 7fed bd3d
000003c0: 096b 2b3e 0349 913e b9f6 7d3e 7e6a 8f3e
000003d0: d4de 773e 245e 33be 2262 67be f603 693e
000003e0: 7329 c23d 9fbe 69bc bc3d 9cbb dfae 40be
000003f0: 69bb e73d 19cd 213e af71 48bd 7798 823e

weight_u f4 [32]
-0.14150608 -0.14608313 -0.052404717 0.01765951 -0.13831422 -0.1601723 -0.20578043 0.0964691
0.07550767 0.14938639 0.2422527 0.06861296 -0.05179346 0.2614552 -0.21905626 -0.10188645
-0.2189347 0.17604695 -0.16392316 -0.10142221 0.14652902 -0.11681202 -0.40907827 -0.2619066
-0.21529369 0.15094432 0.003711341 0.11551828 0.2695075 0.2762722 -0.12996429 0.05326183
00000000: f8e6 10be d196 15be 54a6 56bd adaa 903c
00000010: 3ea2 0dbe 3504 24be 1bb8 52be 9791 c53d
00000020: c4a3 9a3d bff8 183e 1711 783e f484 8c3d
00000030: 6125 54bd 75dd 853e 4950 60be d8a9 d0bd
00000040: 6b30 60be a745 343e 79db 27be 73b6 cfbd
00000050: b40b 163e 243b efbd b572 d1be 9f18 86be
00000060: f375 5cbe 2691 1a3e f839 733b d994 ec3d
00000070: e3fc 893e 8d73 8d3e 5c15 05be 1429 5a3d

weight_v f4 [12]
0.30200276 0.18905713 -0.21170743 -0.10043444 0.021980653 0.45805934 -0.5304404 0.22855386
-0.124611445 -0.3555077 -0.24179888 -0.27176973
00000000: 1ba0 9a3e 3198 413e d5c9 58be 92b0 cdbd
00000010: c510 b43c c186 ea3e f1ca 07bf 060a 6a3e
00000020: 4934 ffbd 1b05 b6be 209a 77be 6725 8bbe

weight f4 [32, 12, 1]
-0.032398015 -0.114834405 0.0079835635 0.24644344 0.023270877 -0.15950441 -0.087746456 -0.29942608
0.060642578 -0.2771962 0.11601094 0.19157963 -0.12732482 0.15664253 0.11405776 -0.011273627
-0.15210675 -0.1331945 -0.11927828 -0.03155511 0.1552511 0.104250334 -0.028745173 0.20781095
0.266484 0.04741205 0.010742075 -0.1750776 0.066150926 -0.049878396 0.1493555 -0.08813896
0.2718953 0.083884254 0.079713225 -0.17140394 -0.18619993 -0.06502151 0.097201854 0.16337888
0.123344 0.20753141 0.034875963 0.0046015144 0.048615888 0.03290876 -0.12638016 -0.11055788
-0.090087906 0.10936579 -0.041852407 -0.15593459 -0.1704778 -0.27550232 -0.08785425 -0.09426247
-0.023104237 -0.03118302 0.072854795 0.175766 -0.06551346 0.060072564 -0.17248796 0.16059604
-0.18178044 -0.20788987 0.16380467 0.11697327 -0.19687434 0.053404972 0.19463554 -0.10582262
-0.18409197 0.003201812 0.15526906 0.01890733 -0.098681554 0.007867269 0.05562652 0.032623008
-0.06980882 0.07818289 0.19006972 0.11167099 -0.006449295 0.20157747 -0.018618248 0.19194922
0.09498298 0.29560357 -0.056194466 -0.08716661 0.18110086 0.084767416 -0.032221735 0.098693684
0.09735988 0.09535816 0.0671852 0.047714602 -0.21434866 -0.08409272 -0.113329105 -0.0145731745
0.136771 -0.21169184 0.18492627 -0.07373848 -0.023581076 -0.039338205 -0.107161544 -0.15949781
0.18888265 0.14029157 -0.070566796 -0.18821336 -0.28110582 -0.19252141 0.10278695 0.05963553
0.17802124 -0.16551206 -0.105688564 0.052610233 -0.22268458 0.16825445 -0.16803208 0.24644026
0.13437693 -0.1279428 0.13227604 0.0430414 -0.09718328 -0.0973889 -0.19282348 0.13318476
0.16522712 0.2457139 0.19443496 0.032573722 0.14744082 -0.16796136 -0.11342683 0.0012085715
0.2891336 0.07700177 0.14640951 0.013088857 -0.002856734 0.09594742 0.15811847 -0.112356916
-0.012854606 -0.10303773 0.108688384 0.24891065 -0.21062931 0.18575872 -0.05185428 -0.013456633
0.09798649 0.17415994 -0.2913253 0.23509006 -0.06046013 -0.14553729 0.11899824 0.15849254
-0.049933143 0.049052835 0.11049921 -0.044377606 -0.17735982 -0.023379857 0.097089656 -0.11999094
0.16835119 0.110191934 0.039709333 0.114166066 -0.22753999 0.178982 0.15229319 -0.21603253
-0.05772178 0.10588638 -0.048021633 -0.31387973 0.14695829 0.09476451 0.1400287 -0.10461516
0.056017354 -0.0031610692 -0.22443609 0.119531356 0.012420643 -0.21403411 0.17574024 -0.26137155
-0.12909284 0.18159221 -0.11018516 -0.006581491 0.100716025 0.23272942 -0.19286022 -0.0378653
0.08598502 0.13609079 0.117872685 0.034378015 -0.18978313 -0.08800948 0.11207028 -0.072116844
0.13962717 -0.25676945 0.052638557 -0.020744113 -0.0270974 -0.16788854 0.09781839 -0.034507092
0.22492844 -0.20228814 0.12823156 0.08865711 0.12234636 0.239023 0.036284618 -0.09347422
0.26539668 -0.098571844 0.20668724 0.23201284 0.03319087 0.16473117 0.018208576 0.08182839
0.14770743 0.25037852 0.21883532 0.24715717 0.21358483 -0.15455747 -0.19937824 0.20078461
0.08365265 -0.012588306 -0.0042071803 -0.16603103 0.09983937 0.13942072 -0.043179628 0.225063
00000000: c8b3 04bd 4d2e ebbd 7ecd 023c ab5b 7c3e
00000010: 91a2 be3c 2055 23be 6ab4 b3bd 604e 99be
00000020: 5a64 783d a9ec 8dbe 2597 ed3d 732d 443e
00000030: 7061 02be e666 203e 1d97 e93d 05b5 38bc
00000040: dfc1 1bbe 2464 08be 2c48 f4bd ee3f 01bd
00000050: 25fa 1e3e 3381 d53d ff7a ebbc 65cc 543e
00000060: 9770 883e 2333 423d 87ff 2f3c 8b47 33be
00000070: 237a 873d 4a4d 4cbd a6f0 183e 3382 b4bd
00000080: dc35 8b3e 82cb ab3d b040 a33d 8484 2fbe
00000090: 32ab 3ebe ff29 85bd c411 c73d cb4c 273e
000000a0: c79b fc3d 1d83 543e 19da 0e3d 4dc8 963b
000000b0: 7421 473d 56cb 063d cd69 01be 2b6c e2bd
000000c0: 0280 b8bd 2cfb df3d 6e6d 2bbd 51ad 1fbe
000000d0: bb91 2ebe a40e 8dbe eeec b3bd af0c c1bd
000000e0: 1945 bdbc 8873 ffbc e534 953d 01fc 333e
000000f0: ec2b 86bd a60e 763d afa0 30be 4a73 243e
00000100: a724 3abe 15e1 54be 69bc 273e af8f ef3d
00000110: 6d99 49be 2cbf 5a3d 8a4e 473e 88b9 d8bd
00000120: 9b82 3cbe 7ed5 513b dafe 1e3e 8ce3 9a3c
00000130: 8e19 cabd b8e5 003c a2d8 633d b49f 053d
00000140: edf7 8ebd 5a1e a03d a3a1 423e c3b3 e43d
00000150: 9c54 d3bb 536a 4e3e 4c85 98bc 568e 443e
00000160: 7086 c23d 5a59 973e 2b2c 66bd 6884 b2bd
00000170: 8172 393e 8a9a ad3d f0fa 03bd ea1f ca3d
00000180: 9e64 c73d 244b c33d 6598 893d 6370 433d
00000190: 377e 5bbe ce38 acbd 1719 e8bd 53c4 6ebc
000001a0: b20d 0c3e bfc5 58be 505d 3d3e 3304 97bd
000001b0: 1a2d c1bc 1921 21bd 8377 dbbd 6553 23be
000001c0: 746a 413e 98a8 0f3e 5385 90bd 01bb 40be
000001d0: 1aed 8fbe 5524 45be f781 d23d 6344 743d
000001e0: 334b 363e fe7b 29be 3f73 d8bd d47d 573d
000001f0: 6d07 64be e54a 2c3e 9a10 2cbe d65a 7c3e
00000200: 1b9a 093e 7003 03be 5f73 073e 2e4c 303d
00000210: 0708 c7bd d573 c7bd 8573 45be 9661 083e
00000220: 4c31 293e 6d9c 7b3e f519 473e 066c 053d
00000230: bafa 163e 10fe 2bbe 534c e8bd ee68 9e3a
00000240: 5209 943e 1bb3 9d3d 60ec 153e a572 563c
00000250: 0b38 3bbb 1580 c43d cfe9 213e 621b e6bd
00000260: 209c 52bc 7205 d3bd 0498 de3d 6fe2 7e3e
00000270: 36af 57be 8937 3e3e 2765 54bd 3679 5cbc
00000280: 24ad c83d fc56 323e 9728 95be 73bb 703e
00000290: 0ba5 77bd ba07 15be 59b5 f33d de4b 223e
000002a0: b286 4cbd a0eb 483d 694d e23d 4bc5 35bd
000002b0: d09d 35be 1d87 bfbc f1d6 c63d cfbd f5bd
000002c0: 4164 2c3e 4fac e13d 41a6 223d e6cf e93d
000002d0: 3e00 69be 0f47 373e bff2 1b3e a237 5dbe
000002e0: ac6d 6cbd f5da d83d 55b2 44bd d8b4 a0be
000002f0: 3c7c 163e e513 c23d af63 0f3e 7940 d6bd
00000300: 7472 653d f129 4fbb 93d2 65be dbcc f43d
00000310: f47f 4b3c c22b 5bbe 40f5 333e 7ed2 85be
00000320: ea30 04be 4ff3 393e c2a8 e1bd 8ca9 d7bb
00000330: 3444 ce3d 9f50 6e3e 267d 45be a518 1bbd
00000340: ea18 b03d 625b 0b3e 3c67 f13d f6cf 0c3d
00000350: 8256 42be 503e b4bd 1a85 e53d ffb1 93bd
00000360: 6dfa 0e3e 4977 83be 879b 573d 8fef a9bc
00000370: 5efb ddbc f9ea 2bbe 0255 c83d 4f57 0dbd
00000380: a453 663e 9f24 4fbe 224f 033e dc91 b53d
00000390: ba90 fa3d 72c2 743e 2e9f 143d 696f bfbd
000003a0: 13e2 873e 09e0 c9bd d2a5 533e c694 6d3e
000003b0: 26f3 073d 4aaf 283e 272a 953c a595 a73d
000003c0: 9e40 173e 9d31 803e 5e16 603e c516 7d3e
000003d0: fbb5 5a3e 5044 1ebe cf29 4cbe 7b9a 4d3e
000003e0: 1552 ab3d 2f3f 4ebc 63dc 89bb 0a04 2abe
000003f0: 9578 cc3d 4ec4 0e3e 1fdd 30bd ea76 663e

bias f4 [32]
0.09871571 0.05078341 0.067345396 0.059506416 0.11437337 -0.056117646 -0.06919231 -0.14486286
-0.070233844 -0.01177372 0.09805898 0.1546499 -0.03436418 -0.16205625 -0.09732457 -0.14706384
-0.0406754 -0.10421569 -0.105216764 -0.11242844 -0.13912198 0.14897572 0.063718736 -0.02190797
0.10365079 -0.17226204 -0.02332659 0.08963208 0.17336036 -0.15784211 0.1750554 -0.105468296
00000000: 762b ca3d 4402 503d 62ec 893d 00bd 733d
00000010: 963c ea3d 9edb 65bd b3b4 8dbd ee56 14be
00000020: c3d6 8fbd 90e6 40bc 26d3 c83d 8b5c 1e3e
00000030: 74c1 0cbd 13f2 25be 1b52 c7bd e797 16be
00000040: 409b 26bd 096f d5bd e37b d7bd e240 e6bd
00000050: fe75 0ebe 178d 183e f87e 823d 5878 b3bc
00000060: de46 d43d 7665 30be 6817 bfbc 0691 b73d
00000070: 6185 313e 5da1 21be b941 333e c3ff d7bd

weight_orig f4 [32, 32, 1]
-0.09276064 0.041286647 -0.13545692 -0.067659855 -0.13091475 0.075533375 -0.17659454 -0.08254106
0.16188 0.010175288 0.022824854 0.1194032 -0.003410235 -0.13721597 0.16518383 0.17153369
-0.031779736 0.17249094 0.1671805 0.11087094 -0.16245411 -0.06984156 -0.07368645 -0.1051449
-0.15800959 -0.10642817 0.008106381 0.11276479 0.05951947 0.111188486 0.1281008 0.14753471
-0.112365164 -0.16563542 0.12738614 -0.04223843 0.1050853 -0.061503395 -0.0035526901 0.038721293
0.046053857 0.002925247 0.12427269 0.05526662 0.09088178 -0.025987938 0.12040694 -0.08183268
0.036401182 0.02528347 -0.049729586 -0.0028238446 0.06787847 -0.008840829 0.13453494 0.07333286
-0.1480863 -0.15208822 0.098778024 -0.05601529 -0.069746666 0.069071606 -0.047070652 -0.064297
0.063307494 0.13108541 -0.16214482 0.16450523 0.080647334 0.07064849 0.15681957 0.16697834
-0.14632286 0.05809538 0.019484743 -0.1735795 0.022465676 -0.13078281 0.053344637 0.11463232
0.001291424 0.038240403 0.010695443 -0.11880602 -0.0872099 -0.12667844 0.08761181 0.16308619
-0.017417878 0.015463829 -0.12974863 -0.17437124 0.02103892 -0.038397968 -0.16170765 0.16880672
-0.055952936 0.10235031 0.17582773 0.16547747 -0.04635878 -0.09177514 0.0143138915 -0.05008553
-0.11676704 0.13867523 0.0945261 0.16393225 -0.044818223 -0.13275102 0.14998086 0.011640176
0.07284434 -0.07770644 0.15474586 -0.02119653 0.16234352 0.026711792 -0.03726186 0.07528697
0.11978875 -0.14599591 0.080050185 0.045342967 0.14054473 0.01221399 -0.116816014 0.029139325
0.12012769 -0.14546117 -0.045385882 -0.05147332 0.043429166 -0.114343114 -0.16671434 -0.16450138
-0.17592199 0.005953923 0.115860924 0.15446578 -0.16738021 0.037545323 -0.1345428 0.0051930994
0.05299233 0.16617046 -0.06871418 0.12773876 0.006068617 -0.054443844 0.114849105 0.11142962
-0.103081346 0.042918816 0.08257626 -0.015807822 0.09588562 0.040607244 -0.17038177 0.052423403
0.12548403 -0.083474 -0.10173351 0.087633654 0.102136806 0.061256066 0.10469268 0.09353642
-0.11064359 0.15906446 -0.024554864 0.06660083 -0.08716229 -0.019213438 -0.040195674 -0.14772847
-0.15905477 -0.14949283 -0.125704 -0.117693216 -0.035628095 -0.12693672 -0.08261718 -0.12674278
0.13243236 -0.15649858 -0.1693007 0.066131756 0.17115943 0.020219028 0.0087714195 0.14604129
-0.141327 -0.06562635 -0.040823877 0.07599725 0.06642489 -0.1745848 -0.15766868 0.024782091
0.1019939 -0.15298837 -0.1521544 -0.15398109 -0.13360694 0.05349447 0.07124592 0.012993529
-0.10693075 -0.14905469 -0.13222179 0.030781 0.110896185 -0.15995006 0.06478618 -0.02168879
-0.024527967 -0.012904242 0.080876485 -0.15769477 -0.029517904 -0.03929974 -0.041000366 -0.07666881
0.054460645 -0.028659433 0.059856504 -0.112162896 -0.058068514 0.10297589 -0.021217108 0.078707084
0.13723542 0.083784625 -0.09535385 0.07542656 -0.059502393 -0.10181631 0.17147674 -0.1638101
-0.020452261 -0.0017964691 -0.14216214 0.05388038 0.16526066 -0.055917278 0.047076717 -0.07112575
-0.01141718 0.07953073 0.036062494 -0.1710865 0.024182513 -0.11738017 -0.017033115 -0.111866035
00000000: 4af9 bdbd 301c 293d 38b5 0abe 4091 8abd
00000010: 840e 06be 3eb1 9a3d 33d5 34be 4a0b a9bd
00000020: dfc3 253e 40b6 263c 30fb ba3c aa89 f43d
00000030: 407e 5fbb 5882 0cbe f325 293e 87a6 2f3e
00000040: 782b 02bd 77a1 303e 5d31 2b3e 4e10 e33d
00000050: 5f5a 26be 1809 8fbd ece8 96bd 3656 d7bd
00000060: 44cd 21be 03f7 d9bd a0d0 043c 3af1 e63d
00000070: b0ca 733d cab6 e33d db2c 033e 5713 173e
00000080: b51f e6bd 559c 29be 8371 023e 3402 2dbd
00000090: f636 d73d fcea 7bbd 40d4 68bb 389a 1e3d
000000a0: f8a2 3c3d 80b5 3f3b ae82 fe3d 405f 623d
000000b0: 3a20 ba3d a8e4 d4bc ea97 f63d e497 a7bd
000000c0: 6819 153d 481f cf3c 40b1 4bbd 4010 39bb
000000d0: de03 8b3d 20d9 10bc 87c3 093e 8a2f 963d
000000e0: efa3 17be 04bd 1bbe 224c ca3d 4a70 65bd
000000f0: 57d7 8ebd 6a75 8d3d 28cd 40bd 25ae 83bd
00000100: 5ca7 813d 413b 063e 4b09 26be 0f74 283e
00000110: 6e2a a53d 28b0 903d 4f95 203e 5ffc 2a3e
00000120: a9d5 15be 6cf5 6d3d 789e 9f3c d3be 31be
00000130: f009 b83c eeeb 05be e87f 5a3d 5ac4 ea3d
00000140: 0045 a93a f8a1 1c3d f03b 2f3c 9250 f3bd
00000150: 1b9b b2bd feb7 01be d26d b33d 1100 273e
00000160: f0af 8ebc 005c 7d3c d3dc 04be 608e 32be
00000170: d059 ac3c 3047 1dbd b196 25be abdb 2c3e
00000180: e82e 65bd 0a9d d13d 2f0c 343e ed72 293e
00000190: b4e2 3dbd 9bf4 bbbd d084 6a3c 7c26 4dbd
000001a0: 8f23 efbd e100 0e3e e696 c13d dbdd 273e
000001b0: 5093 37bd e2ef 07be 9594 193e 70b6 3e3c
000001c0: 6a2f 953d 8e24 9fbd b375 1e3e 58a4 adbc
000001d0: 613d 263e b0d2 da3c e49f 18bd 0e30 9a3d
000001e0: ce53 f53d f47f 15be 5af1 a33d 8cb9 393d
000001f0: f5ea 0f3e 301d 483c 3c3d efbd 98b5 ee3c
00000200: 8205 f63d c6f3 14be 8ce6 39bd b0d5 52bd
00000210: c8e2 313d b92c eabd 2ab7 2abe 0d73 28be
00000220: e524 34be 2019 c33b 7e48 ed3d 472c 1e3e
00000230: b865 2bbe 20c9 193d 96c5 09be e02a aa3b
00000240: 7c0e 593d 9728 2a3e 05ba 8cbd f3cd 023e
00000250: 40db c63b 8200 5fbd 0236 eb3d 3635 e43d
00000260: 501c d3bd a4cb 2f3d be1d a93d 687f 81bc
00000270: ae5f c43d c853 263d 8f78 2ebe ecb9 563d
00000280: e37e 003e 6bf4 aabd a959 d0bd 4679 b33d
00000290: 1a2d d13d a4e7 7a3d 1e69 d63d 0690 bf3d
000002a0: 1b99 e2bd cbe1 223e 4827 c9bc 0466 883d
000002b0: 2582 b2bd 8065 9dbc 38a4 24bd 2246 17be
000002c0: 41df 22be a614 19be 8db8 00be 2409 f1bd
000002d0: c4ee 11bd b3fb 01be 3233 a9bd dcc8 01be
000002e0: 599c 073e 2a41 20be 2a5d 2dbe 1670 873d
000002f0: 6b44 2f3e 60a2 a53c 00b6 0f3c d98b 153e
00000300: 06b8 10be 1c67 86bd f036 27bd 72a4 9b3d
00000310: c609 883d 5cc6 32be e673 21be d003 cb3c
00000320: 2ee2 d03d fca8 1cbe 5dce 1bbe 38ad 1dbe
00000330: 42d0 08be 041d 5b3d 62e9 913d d0e2 543c
00000340: 82fe dabd cba1 18be 2665 07be 7028 fc3c
00000350: 8a1d e33d f3c9 23be 9eae 843d b0ac b1bc
00000360: e0ee c8bc 506c 53bc 92a2 a53d bd7a 21be
00000370: 88cf f1bc c4f8 20bd 00f0 27bd 8904 9dbd
00000380: 2012 5f3d 30c7 eabc 182c 753d a9b5 e5bd
00000390: 40d9 6dbd 06e5 d23d 80cf adbc 2e31 a13d
000003a0: 7187 0c3e 4697 ab3d e148 c3bd 3e79 9a3d
000003b0: c8b8 73bd 1285 d0bd 9997 2f3e d6bd 27be
000003c0: 808b a7bc 8077 ebba f492 11be acb1 5c3d
000003d0: 173a 293e 8409 65bd 84d3 403d 61aa 91bd
000003e0: 200f 3bbc 02e1 a23d 44b6 133d 4d31 2fbe
000003f0: 681a c63c 0465 f0bd 0889 8bbc 051a e5bd

weight_u f4 [32]
0.03928169 -0.2283148 -0.058892317 -0.3512347 0.0757861 0.20444095 -0.1502996 -0.005226576
0.33584204 0.25411564 -0.05868075 0.09868429 0.19736986 -0.048040524 -0.44106054 -0.08802257
-0.06353686 -0.0377365 -0.054209806 -0.008798391 0.2363476 -0.27155152 -0.24244487 -0.17588882
-0.20214945 -0.0837642 -0.061114293 0.07941319 -0.09924998 0.06167621 -0.02375125 -0.12373996
00000000: d6e5 203d 5bcb 69be 1239 71bd 09d5 b3be
00000010: be35 9b3d f858 513e 23e8 19be b243 abbb
00000020: 7df3 ab3e 721b 823e 3a5b 70bd fd1a ca3d
00000030: 531b 4a3e 24c6 44bd b0d2 e1be 2d45 b4bd
00000040: 9d1f 82bd 9791 1abd 1a0b 5ebd 2027 10bc
00000050: 1b05 723e cd08 8bbe 7843 78be 331c 34be
00000060: 4400 4fbe 918c abbd fb52 7abd 62a3 a23d
00000070: 9343 cbbd 32a0 7c3d fb91 c2bc 606b fdbd

weight_v f4 [32]
0.43063322 -0.29504657 -0.09161765 -0.17447604 0.19878018 -0.2171587 0.19956578 0.2702723
-0.1637953 -0.16411097 0.1160541 0.07207418 -0.06565985 -0.0007856512 -0.08639913 -0.36852276
-0.10476592 -0.0016989361 0.021202143 0.030881872 -0.09264476 -0.11997973 0.018754484 0.18632834
-0.06479385 -0.16755912 -0.16076104 -0.18461685 0.11375952 -0.23052527 -0.119397685 -0.16168068
00000000: f57b dc3e 5810 97be 09a2 bbbd d9a9 32be
00000010: 088d 4b3e da5e 5ebe f95a 4c3e 2261 8a3e
00000020: f5b9 27be b50c 28be c6ad ed3d a19b 933d
00000030: ac78 86bd 29f4 4dba 07f2 b0bd 04af bcbe
00000040: 848f d6bd d6ae deba 1eb0 ad3c fbfb fc3c
00000050: 89bc bdbd efb7 f5bd 01a3 993c dbcc 3e3e
00000060: a3b2 84bd 9e94 2bbe 8b9e 24be 330c 3dbe
00000070: c0fa e83d d10e 6cbe c686 f4bd 9f8f 25be

weight f4 [32, 32, 1]
-0.09276064 0.041286647 -0.13545692 -0.067659855 -0.13091475 0.075533375 -0.17659454 -0.08254106
0.16188 0.010175288 0.022824854 0.1194032 -0.003410235 -0.13721597 0.16518383 0.17153369
-0.031779736 0.17249094 0.1671805 0.11087094 -0.16245411 -0.06984156 -0.07368645 -0.1051449
-0.15800959 -0.10642817 0.008106381 0.11276479 0.05951947 0.111188486 0.1281008 0.14753471
-0.112365164 -0.16563542 0.12738614 -0.04223843 0.1050853 -0.061503395 -0.0035526901 0.038721293
0.046053857 0.002925247 0.12427269 0.05526662 0.09088178 -0.025987938 0.12040694 -0.08183268
0.036401182 0.02528347 -0.049729586 -0.0028238446 0.06787847 -0.008840829 0.13453494 0.07333286
-0.1480863 -0.15208822 0.098778024 -0.05601529 -0.069746666 0.069071606 -0.047070652 -0.064297
0.063307494 0.13108541 -0.16214482 0.16450523 0.080647334 0.07064849 0.15681957 0.16697834
-0.14632286 0.05809538 0.019484743 -0.1735795 0.022465676 -0.13078281 0.053344637 0.11463232
0.001291424 0.038240403 0.010695443 -0.11880602 -0.0872099 -0.12667844 0.08761181 0.16308619
-0.017417878 0.015463829 -0.12974863 -0.17437124 0.02103892 -0.038397968 -0.16170765 0.16880672
-0.055952936 0.10235031 0.17582773 0.16547747 -0.04635878 -0.09177514 0.0143138915 -0.05008553
-0.11676704 0.13867523 0.0945261 0.16393225 -0.044818223 -0.13275102 0.14998086 0.011640176
0.07284434 -0.07770644 0.15474586 -0.02119653 0.16234352 0.026711792 -0.03726186 0.07528697
0.11978875 -0.14599591 0.080050185 0.045342967 0.14054473 0.01221399 -0.116816014 0.029139325
0.12012769 -0.14546117 -0.045385882 -0.05147332 0.043429166 -0.114343114 -0.16671434 -0.16450138
-0.17592199 0.005953923 0.115860924 0.15446578 -0.16738021 0.037545323 -0.1345428 0.0051930994
0.05299233 0.16617046 -0.06871418 0.12773876 0.006068617 -0.054443844 0.114849105 0.11142962
-0.103081346 0.042918816 0.08257626 -0.015807822 0.09588562 0.040607244 -0.17038177 0.052423403
0.12548403 -0.083474 -0.10173351 0.087633654 0.102136806 0.061256066 0.10469268 0.09353642
-0.11064359 0.15906446 -0.024554864 0.06660083 -0.08716229 -0.019213438 -0.040195674 -0.14772847
-0.15905477 -0.14949283 -0.125704 -0.117693216 -0.035628095 -0.12693672 -0.08261718 -0.12674278
0.13243236 -0.15649858 -0.1693007 0.066131756 0.17115943 0.020219028 0.0087714195 0.14604129
-0.141327 -0.06562635 -0.040823877 0.07599725 0.06642489 -0.1745848 -0.15766868 0.024782091
0.1019939 -0.15298837 -0.1521544 -0.15398109 -0.13360694 0.05349447 0.07124592 0.012993529
-0.10693075 -0.14905469 -0.13222179 0.030781 0.110896185 -0.15995006 0.06478618 -0.02168879
-0.024527967 -0.012904242 0.080876485 -0.15769477 -0.029517904 -0.03929974 -0.041000366 -0.07666881
0.054460645 -0.028659433 0.059856504 -0.112162896 -0.058068514 0.10297589 -0.021217108 0.078707084
0.13723542 0.083784625 -0.09535385 0.07542656 -0.059502393 -0.10181631 0.17147674 -0.1638101
-0.020452261 -0.0017964691 -0.14216214 0.05388038 0.16526066 -0.055917278 0.047076717 -0.07112575
-0.01141718 0.07953073 0.036062494 -0.1710865 0.024182513 -0.11738017 -0.017033115 -0.111866035
00000000: 4af9 bdbd 301c 293d 38b5 0abe 4091 8abd
00000010: 840e 06be 3eb1 9a3d 33d5 34be 4a0b a9bd
00000020: dfc3 253e 40b6 263c 30fb ba3c aa89 f43d
00000030: 407e 5fbb 5882 0cbe f325 293e 87a6 2f3e
00000040: 782b 02bd 77a1 303e 5d31 2b3e 4e10 e33d
00000050: 5f5a 26be 1809 8fbd ece8 96bd 3656 d7bd
00000060: 44cd 21be 03f7 d9bd a0d0 043c 3af1 e63d
00000070: b0ca 733d cab6 e33d db2c 033e 5713 173e
00000080: b51f e6bd 559c 29be 8371 023e 3402 2dbd
00000090: f636 d73d fcea 7bbd 40d4 68bb 389a 1e3d
000000a0: f8a2 3c3d 80b5 3f3b ae82 fe3d 405f 623d
000000b0: 3a20 ba3d a8e4 d4bc ea97 f63d e497 a7bd
000000c0: 6819 153d 481f cf3c 40b1 4bbd 4010 39bb
000000d0: de03 8b3d 20d9 10bc 87c3 093e 8a2f 963d
000000e0: efa3 17be 04bd 1bbe 224c ca3d 4a70 65bd
000000f0: 57d7 8ebd 6a75 8d3d 28cd 40bd 25ae 83bd
00000100: 5ca7 813d 413b 063e 4b09 26be 0f74 283e
00000110: 6e2a a53d 28b0 903d 4f95 203e 5ffc 2a3e
00000120: a9d5 15be 6cf5 6d3d 789e 9f3c d3be 31be
00000130: f009 b83c eeeb 05be e87f 5a3d 5ac4 ea3d
00000140: 0045 a93a f8a1 1c3d f03b 2f3c 9250 f3bd
00000150: 1b9b b2bd feb7 01be d26d b33d 1100 273e
00000160: f0af 8ebc 005c 7d3c d3dc 04be 608e 32be
00000170: d059 ac3c 3047 1dbd b196 25be abdb 2c3e
00000180: e82e 65bd 0a9d d13d 2f0c 343e ed72 293e
00000190: b4e2 3dbd 9bf4 bbbd d084 6a3c 7c26 4dbd
000001a0: 8f23 efbd e100 0e3e e696 c13d dbdd 273e
000001b0: 5093 37bd e2ef 07be 9594 193e 70b6 3e3c
000001c0: 6a2f 953d 8e24 9fbd b375 1e3e 58a4 adbc
000001d0: 613d 263e b0d2 da3c e49f 18bd 0e30 9a3d
000001e0: ce53 f53d f47f 15be 5af1 a33d 8cb9 393d
000001f0: f5ea 0f3e 301d 483c 3c3d efbd 98b5 ee3c
00000200: 8205 f63d c6f3 14be 8ce6 39bd b0d5 52bd
00000210: c8e2 313d b92c eabd 2ab7 2abe 0d73 28be
00000220: e524 34be 2019 c33b 7e48 ed3d 472c 1e3e
00000230: b865 2bbe 20c9 193d 96c5 09be e02a aa3b
00000240: 7c0e 593d 9728 2a3e 05ba 8cbd f3cd 023e
00000250: 40db c63b 8200 5fbd 0236 eb3d 3635 e43d
00000260: 501c d3bd a4cb 2f3d be1d a93d 687f 81bc
00000270: ae5f c43d c853 263d 8f78 2ebe ecb9 563d
00000280: e37e 003e 6bf4 aabd a959 d0bd 4679 b33d
00000290: 1a2d d13d a4e7 7a3d 1e69 d63d 0690 bf3d
000002a0: 1b99 e2bd cbe1 223e 4827 c9bc 0466 883d
000002b0: 2582 b2bd 8065 9dbc 38a4 24bd 2246 17be
000002c0: 41df 22be a614 19be 8db8 00be 2409 f1bd
000002d0: c4ee 11bd b3fb 01be 3233 a9bd dcc8 01be
000002e0: 599c 073e 2a41 20be 2a5d 2dbe 1670 873d
000002f0: 6b44 2f3e 60a2 a53c 00b6 0f3c d98b 153e
00000300: 06b8 10be 1c67 86bd f036 27bd 72a4 9b3d
00000310: c609 883d 5cc6 32be e673 21be d003 cb3c
00000320: 2ee2 d03d fca8 1cbe 5dce 1bbe 38ad 1dbe
00000330: 42d0 08be 041d 5b3d 62e9 913d d0e2 543c
00000340: 82fe dabd cba1 18be 2665 07be 7028 fc3c
00000350: 8a1d e33d f3c9 23be 9eae 843d b0ac b1bc
00000360: e0ee c8bc 506c 53bc 92a2 a53d bd7a 21be
00000370: 88cf f1bc c4f8 20bd 00f0 27bd 8904 9dbd
00000380: 2012 5f3d 30c7 eabc 182c 753d a9b5 e5bd
00000390: 40d9 6dbd 06e5 d23d 80cf adbc 2e31 a13d
000003a0: 7187 0c3e 4697 ab3d e148 c3bd 3e79 9a3d
000003b0: c8b8 73bd 1285 d0bd 9997 2f3e d6bd 27be
000003c0: 808b a7bc 8077 ebba f492 11be acb1 5c3d
000003d0: 173a 293e 8409 65bd 84d3 403d 61aa 91bd
000003e0: 200f 3bbc 02e1 a23d 44b6 133d 4d31 2fbe
000003f0: 681a c63c 0465 f0bd 0889 8bbc 051a e5bd

weight f4 [1, 32, 1]
-0.08813199 0.1228122 -0.17308824 0.126788 0.08563484 0.08481072 0.05179009 -0.09082595
0.033652678 -0.15631491 -0.08936992 -0.13369836 0.16889937 0.14178036 -0.13943674 0.06152703
-0.1677313 -0.017457545 -0.062230326 0.03667608 0.1731139 -0.0010352135 -0.13442488 0.0038029253
-0.005256653 0.07955067 -0.13150114 0.16340499 0.1575151 -0.12586685 0.16335775 0.06188187
00000000: 8b7e b4bd f684 fb3d 0b3e 31be b7d4 013e
00000010: 5261 af3d 3eb1 ad3d d821 543d f502 babd
00000020: 64d7 093d 0411 20be 9407 b7bd 39e8 08be
00000030: f5f3 2c3e df2e 113e 81c8 0ebe c403 7c3d
00000040: c1c1 2bbe 2003 8fbc 3ae5 7ebd a839 163d
00000050: c544 313e 00b0 87ba ada6 09be 803a 793b
00000060: 0040 acbb 76eb a23d 3ca8 06be a353 273e
00000070: a34b 213e 3de3 00be 4147 273e d877 7d3d

weight f4 [1, 32, 1]
-0.06414904 -0.09527636 -0.059911087 0.13488047 0.10232611 -0.06943211 -0.07610262 -0.09542678
-0.17222239 0.14125432 -0.15378985 0.11788173 -0.16561851 -0.057181723 0.117232814 0.05705905
-0.1575239 -0.026160449 0.00062067807 0.13576971 0.1625792 0.13375752 -0.023984015 -0.03565374
0.0940557 0.09953828 0.052644357 0.06675741 0.12759273 -0.0090957135 0.10968296 0.067023754
00000000: 9260 83bd 4120 c3bd 5465 75bd 1b1e 0a3e
00000010: 5a90 d13d 6c32 8ebd b1db 9bbd 1e6f c3bd
00000020: 115b 30be f9a4 103e 167b 1dbe fa6b f13d
00000030: e697 29be 6237 6abd c217 f03d c0b6 693d
00000040: f24d 21be 704e d6bc 00b5 223a 3707 0b3e
00000050: 297b 263e bbf7 083e 207a c4bc a809 12bd
00000060: 46a0 c03d bada cb3d 9ca1 573d 1cb8 883d
00000070: aba7 023e 3006 15bc 76a1 e03d c043 893d

weight f4 [1, 32, 1]
0.017558306 -0.11090738 0.12891455 0.027951345 0.05624412 -0.088005565 0.061189428 -0.06583258
0.060203105 -0.11172217 -0.1328262 -0.12322621 0.072805434 0.13747133 0.15521963 0.08046086
0.16051911 0.1454878 -0.053483382 -0.13053298 -0.06948333 -0.12883516 0.013592735 0.027968735
-0.057816453 -0.063868724 0.117960766 -0.07315394 -0.0043969452 -0.038585752 -0.16249582 0.096025184
00000000: 70d6 8f3c 6923 e3bd 2d02 043e 38fa e43c
00000010: 3c60 663d 433c b4bd c4a1 7a3d 3bd3 86bd
00000020: 8897 763d 98ce e4bd 9703 08be 065e fcbd
00000030: 041b 953d 49c5 0c3e e5f1 1e3e aac8 a43d
00000040: 1f5f 243e c1fa 143e 6411 5bbd 70aa 05be
00000050: 474d 8ebd 5ded 03be 10b4 5e3c b01e e53c
00000060: f2d0 6cbd 9bcd 82bd 6a95 f13d bcd1 95bd
00000070: 4014 90bb 180c 1ebd 4e65 26be daa8 c43d

bias f4 [32]
0.099014536 -0.08728989 0.16554461 0.05160241 0.013629109 -0.08600151 -0.12703449 0.12074824
-0.16967474 -0.08717745 -0.024548784 -0.1300405 -0.008926004 -0.15697183 0.04353559 0.099708036
-0.13786188 0.03190109 0.035814345 0.09111221 0.021614 -0.07504455 -0.17244697 0.07237221
-0.13842456 -0.047749877 0.12128873 0.11966233 0.068163544 0.15951549 -0.07038218 -0.07019806
00000000: 22c8 ca3d 0bc5 b2bd 8784 293e 0c5d 533d
00000010: a04c 5f3c 8f21 b0bd 5415 02be da4a f73d
00000020: 37bf 2dbe 178a b2bd 881a c9bc 5629 05be
00000030: 603e 12bc 39bd 20be 6052 323d ba33 cc3d
00000040: aa2b 0dbe b8aa 023d 10b2 123d 0a99 ba3d
00000050: d80f b13c f5b0 99bd f095 30be e237 943d
00000060: 2bbf 0dbe 6095 43bd 3a66 f83d 8611 f53d
00000070: 5499 8b3d 0758 233e 8824 90bd 00c4 8fbd

weight_orig f4 [32, 32, 1]
-0.053628236 0.05936262 -0.09313328 0.14997844 -0.15706527 -0.014344722 -0.0884535 0.008558199
0.00811021 0.16974692 0.02978596 0.10329123 -0.030784696 0.13236485 -0.14930701 -0.04372698
-0.079706036 -0.14001116 0.03628184 -0.008998096 -0.01826942 -0.051352665 -0.021732047 0.13015307
0.07830195 -0.10491459 0.065935776 -0.073294446 -0.12541097 -0.05769939 0.037131622 0.07069515
0.14699186 -0.14372787 -0.014703691 -0.065114036 0.020831794 -0.13739958 -0.07458548 0.16783877
-0.17406717 -0.1379633 -0.039211065 -0.082028195 0.13978575 0.11344679 0.15635218 -0.17331073
-0.051393554 0.16806872 0.10967077 0.107823506 0.13656543 -0.13075684 -0.17403732 0.07295349
-0.010759085 0.08067183 0.055753514 0.023752302 -0.12483431 -0.16542739 -0.074489035 0.15356947
0.14564477 0.12623893 -0.04752913 0.14687069 0.071114 0.1701899 -0.16080251 0.0863439
-0.02212359 -0.09749424 0.009054974 -0.105816446 0.105510846 -0.06486421 -0.104257815 -0.0918991
0.06335451 0.010373428 0.15271126 0.11798565 -0.098019235 0.08662839 -0.05090347 -0.16884415
-0.10579599 -0.13360015 -0.13875008 0.08182423 -0.08966032 0.125951 0.024463639 0.062471285
-0.010283008 -0.084489554 0.06521213 0.0069805533 -0.14266124 -0.09953762 -0.1399011 -0.003594488
0.14161782 0.1028748 -0.005745232 0.025531441 -0.045668304 -0.09528957 -0.16619447 0.071723565
0.09071876 0.061657846 0.11168824 0.006066531 0.04978755 -0.016672045 0.019534469 -0.11018288
-0.037987888 -0.0143594295 -0.17529525 0.03414662 0.00068870187 -0.07142609 0.025646776 -0.114664465
0.15441488 -0.13264687 0.15885599 0.027926415 0.099273935 0.00737907 0.13282104 0.05064401
-0.14909926 0.02557157 0.090077415 0.07173908 -0.0064594 0.15381162 0.020830467 0.11026855
-0.060131498 0.08877103 0.018108621 0.06634228 -0.107905075 -0.17133051 -0.15543517 -0.010935694
-0.029560268 -0.074591614 0.15123613 0.11943735 0.062015668 0.10170029 0.17043526 0.16659017
0.13959737 -0.14711232 -0.07593075 -0.06995045 0.09282465 -0.016905367 0.0641367 0.10230087
-0.07923641 -0.015556887 -0.024417415 0.08912645 0.04606609 0.033625215 -0.1591693 -0.041253924
-0.021124482 -0.04418412 0.07362829 -0.10610161 0.035046265 -0.021850929 -0.074860685 0.14778696
0.016665384 0.018407717 0.012658045 0.13662024 0.13032217 0.010881767 -0.15529743 0.090012684
0.0584099 -0.032401457 0.06386356 -0.13863875 0.12163024 -0.17497304 -0.15004608 0.020026475
-0.16580743 0.03008899 0.07511638 -0.01245901 -0.15600535 0.040851146 -0.11376741 0.09417243
-0.028588519 0.090367064 -0.06916825 -0.048017696 0.10143311 0.051318973 0.13040422 0.017083928
0.038720787 0.08589782 -0.09062923 -0.10116192 0.04744111 0.14158942 0.04058872 -0.109742954
0.017131299 -0.16438828 0.053625524 0.16245209 -0.15401645 -0.089085184 0.17575742 0.07365294
-0.12562668 0.013043061 0.017946914 0.02580908 -0.05947101 -0.118092075 0.03333065 0.065901905
0.080736175 -0.048248157 -0.11261469 0.16830905 0.013080403 0.08176096 -0.03885977 -0.015497312
0.061303124 -0.09597486 0.16265513 -0.060853347 0.12336986 -0.14769672 0.07263158 -0.01811944
00000000: 48a9 5bbd 3826 733d a9bc bebd f393 193e
00000010: b8d5 20be 2006 6bbc 1c27 b5bd b037 0c3c
00000020: b0e0 043c 23d2 2d3e b001 f43c 5a8a d33d
00000030: 3030 fcbc a78a 073e f0e3 18be 101b 33bd
00000040: eb3c a3bd 165f 0fbe 449c 143d c06c 13bc
00000050: c0a9 95bc 2c57 52bd 6807 b2bc d946 053e
00000060: c65c a03d 76dd d6bd 5609 873d 661b 96bd
00000070: bc6b 00be 3256 6cbd 5417 183d 9ec8 903d
00000080: 0985 163e 662d 13be c0e7 70bc 825a 85bd
00000090: 70a7 aa3c 7ab2 0cbe 46c0 98bd eddd 2b3e
000000a0: aa3e 32be 4046 0dbe c89b 20bd 66fe a7bd
000000b0: ff23 0f3e ca56 e83d c91a 203e 5e78 31be
000000c0: 0c82 52bd 351a 2c3e 129b e03d 92d2 dc3d
000000d0: cfd7 0b3e 1fe5 05be d736 32be a468 953d
000000e0: e046 30bc 4637 a53d cc5d 643d 3094 c23c
000000f0: 21a9 ffbd cc65 29be b58d 98bd 5141 1d3e
00000100: e723 153e c744 013e e8ad 42bd 4565 163e
00000110: 38a4 913d 4346 2e3e 6aa9 24be 12d5 b03d
00000120: 883c b5bc 0fab c7bd 505b 143c 4bb6 d8bd
00000130: 1216 d83d 87d7 84bd 1f85 d5bd 9835 bcbd
00000140: 02c0 813d 50f5 293c 5760 1c3e 76a2 f13d
00000150: 4fbe c8bd 3a6a b13d 2880 50bd 7be5 2cbe
00000160: 91ab d8bd 7ace 08be 8014 0ebe 7693 a73d
00000170: d49f b7bd 4df9 003e f867 c83c e4e1 7f3d
00000180: 107a 28bc dc08 adbd f08d 853d 20bd e43b
00000190: ca15 12be 61da cbbd 3c42 0fbe 8091 6bbb
000001a0: 4304 113e 06b0 d23d 8042 bcbb 5027 d13c
000001b0: b00e 3bbd 2e27 c3bd e22e 2abe cee3 923d
000001c0: c2ca b93d f08c 7c3d cebc e43d c0c9 c63b
000001d0: 08ee 4b3d d093 88bc c006 a03c 90a7 e1bd
000001e0: 3099 1bbd d043 6bbc 9980 33be 54dd 0b3d
000001f0: 008a 343a d847 92bd 3019 d23c 34d5 eabd
00000200: ef1e 1e3e 95d4 07be 25ab 223e f0c5 e43c
00000210: 2250 cb3d 20cc f13b 3d02 083e 1870 4f3d
00000220: 7aad 18be 787b d13c 827a b83d f0eb 923d
00000230: 60a9 d3bb cb80 1d3e a8a4 aa3c 7ad4 e13d
00000240: 724c 76bd 96cd b53d 8858 943c 76de 873d
00000250: 56fd dcbd 4471 2fbe 662a 1fbe a02b 33bc
00000260: 6028 f2bc 7dc3 98bd a5dd 1a3e 929b f43d
00000270: 2404 7e3d 3e48 d03d 9586 2e3e 9d96 2a3e
00000280: 9df2 0e3e 9da4 16be 9581 9bbd 2e42 8fbd
00000290: da1a be3d 207d 8abc 1a5a 833d 1e83 d13d
000002a0: b346 a2bd 50e2 7ebc 0807 c8bc ee87 b63d
000002b0: ccaf 3c3d 98ba 093d 47fd 22be e0f9 28bd
000002c0: 400d adbc 68fa 34bd 6eca 963d cd4b d9bd
000002d0: ac8c 0f3d b800 b3bc 8f50 99bd 7755 173e
000002e0: d885 883c c8cb 963c b063 4f3c 2de6 0b3e
000002f0: 2d73 053e 7049 323c 4a06 1fbe 9258 b83d
00000300: 383f 6f3d 64b7 04bd e6ca 823d 51f7 0dbe
00000310: 4619 f93d 222c 33be aea5 19be 900e a43c
00000320: 6cc9 29be 307d f63c 9ed6 993d e020 4cbc
00000330: debf 1fbe 8853 273d e3fe e8bd 7add c03d
00000340: 7832 eabc 5e12 b93d 15a8 8dbd 34ae 44bd
00000350: 2abc cf3d d833 523d af88 053e 98f3 8b3c
00000360: b099 1e3d 32eb af3d d19b b9bd fb2d cfbd
00000370: 9c51 423d d1fc 103e 5c40 263d eac0 e0bd
00000380: f056 8c3c 6755 28be 70a6 5b3d d759 263e
00000390: 7db6 1dbe 4b72 b6bd c1f9 333e 5ad7 963d
000003a0: 48a4 00be 90b2 553c 6805 933c 906d d33c
000003b0: e097 73bd 42da f1bd b885 083d 94f7 863d
000003c0: 0259 a53d dc9f 45bd 88a2 e6bd 3559 2c3e
000003d0: 304f 563c 4a72 a73d 6c2b 1fbd 70e8 7dbc
000003e0: fc18 7b3d 788e c4bd 118f 263e 5c41 79bd
000003f0: 56a9 fc3d cf3d 17be debf 943d 386f 94bc

weight_u f4 [32]
-0.39364293 0.019867882 0.28703877 -0.0891835 -0.046318766 0.20588635 0.29952794 0.23137346
0.13582309 -0.28756186 -0.06991761 -0.26514187 -0.14526191 0.1460803 -0.035989862 -0.07756664
0.08878914 -0.17303425 0.23724054 -0.19652112 -0.26040366 -0.21586435 -0.020536428 0.116044335
0.025843356 0.11783279 0.015949301 0.016407523 0.056088913 0.14486942 0.16485617 -0.114146076
00000000: 918b c9be f8c1 a23c bff6 923e d7a5 b6bd
00000010: bfb8 3dbd dfd3 523e ba5b 993e 2aed 6c3e
00000020: 3515 0b3e 4f3b 93be f730 8fbd adc0 87be
00000030: 8abf 14be 1396 153e 1b6a 13bd 42db 9ebd
00000040: 15d7 b53d e42f 31be 2fef 723e d53c 49be
00000050: a153 85be 8b0b 5dbe 033c a8bc a7a8 ed3d
00000060: 72b5 d33c 5152 f13d 1ca8 823c 1269 863c
00000070: 7dbd 653d a658 143e 0ed0 283e 6bc5 e9bd

weight_v f4 [32]
0.2420257 -0.37595353 0.120384805 -0.11578178 0.069103524 -0.30891275 0.010924134 0.23061168
-0.018005954 -0.11736932 -0.14410466 0.07524849 0.00424352 -0.15357378 -0.16612175 0.28805923
0.15216206 0.2263858 0.00722871 0.24270715 -0.18903679 0.16020562 0.14468406 -0.1563702
0.23731686 0.13916355 -0.088022344 0.030996194 -0.2711925 0.10253845 0.14614862 -0.118377656
00000000: 96d5 773e fb7c c0be 4f8c f63d ff1e edbd
00000010: 2686 8d3d d029 9ebe 24fb 323c 7825 6c3e
00000020: 3981 93bc 535f f0bd 2c90 13be e11b 9a3d
00000030: 3a0d 8b3b 7242 1dbe d21b 2abe 807c 933e
00000040: 5fd0 1b3e aed1 673e d1de ec3b 3988 783e
00000050: dc92 41be f10c 243e 0f28 143e 821f 20be
00000060: 3103 733e e480 0e3e 0f45 b4bd bbeb fd3c
00000070: bed9 8abe aeff d13d fca7 153e fc6f f2bd
