Models/M4/wo_ml_fade/wo_ml_fade_discriminator.pt (torch, 119871 bytes, 68 tensors)

weight f4 [121, 10]
00000000: 4059 4fbd e8f3 c83f 0801 f03e 0c7a d83f
00000010: c413 b83e cae7 243f e26f 0e3f a931 25bf
00000020: d74c 1abf 85ad 5b3e a0fc ab3f ba93 e13e
00000030: b592 ff3d eaa2 bdbf f683 8b3e c6c2 9ebe
00000040: 9ca6 8b3e 8f1d 35bf 02a0 01bf 64b2 ecbf
00000050: f000 35bf 6bb5 0abb da76 723e eff8 d3bf
00000060: 648b 773f e323 aabf 6d90 be3e 61e5 acbf
00000070: 9faa 06bf 38f1 ebbf d42f 63bf 2584 7dbe
00000080: 383f eb3f c60e 24c0 b8c2 163e e15c eebe
00000090: fb57 ac3e c6a4 61bf 43fc 4dbf d6bc c03d
000000a0: e51f 19be cb68 8f3f 43ad c83e e0e6 4cbe
000000b0: 348e 1440 4190 3fbe 2ce4 8fbf 47da a0bf
000000c0: 1146 033f 8c37 fa3c e005 9c3f 53bf c03f
000000d0: 828c a3be 57d6 c03e ba48 cfbf 4b61 443d
000000e0: 5d74 1a3f 88f2 5fbf 9021 b7bf 9c9a 6cbf
000000f0: 0909 733f bd51 0fbf c200 723e 6cdc 6ebe
00000100: 1121 0a3f 42b7 54bf 799f 923e 82dc a53e
00000110: 21b3 fa3e e4ab 0240 1dca 43bf ac8c 4cbe
00000120: b6ed af3e 05f6 b3bf 7bc0 6b3f 6725 82bf
00000130: fae9 9a3f 0e9a 83bd 42d1 07be afab 9dbf
00000140: a853 24c0 cb89 60be 0e7b 0240 1781 a73e
00000150: d39e 073f 1baf ab3e 4286 1040 3181 9d3d
00000160: 077d 02bf 94a5 f53e bae6 95bf 10b0 26bf
00000170: fef9 1bc0 1810 db3f 248f 323f 25b1 c93e
00000180: 8431 38bf 6238 d6bf 479b babe 2085 92bf
00000190: 94a1 14c0 a7af 9c3e f034 b7be a5f5 b03f
000001a0: 93da a7bf 3730 7c3f 35f9 08c0 c621 233f
000001b0: 4b45 1a3f bdb2 053f b2a9 6c3e f177 a6be
000001c0: df04 f13e dad3 0b3d 10eb e13f 3a05 96be
000001d0: ea64 d83b 638e 99bf 57ba 25c0 8197 043f
000001e0: 5618 ad3e edf2 753e 6c4e 913f d8b0 803f
000001f0: 63f1 db3e 25a5 d5bf d8f9 d83e d67a b13f
00000200: 16e8 7dbf eef0 21bf 2537 1ebf 9a77 973f
00000210: d680 3940 c7b2 e73e 697b 03bf 200a 253f
00000220: 218f 0c3f 1fc9 a2bf ce8b 553e 64ad 343f
00000230: c993 64be 051d 5c3d 7987 4f3e 5913 70be
00000240: 45a1 ce3f 2964 a9bf a1f0 d23e c392 7e3f
00000250: bf5e 4fbf 6cfd f3be dcd3 7ebf 9ce7 edbe
00000260: 5d9f 07bf 93c0 41bf bb00 4b3f 3378 f03f
00000270: 4aba 2fbf 7bee 22bf 849c a6bf 417a acbc
00000280: 0c7b ed3e cb09 de3f ba51 b5be 9ebc 09bf
00000290: fe99 083f cf93 88bf f37b f8bf 588c 98bf
000002a0: 70be 8cbe d935 01c0 f1b7 5f3f 3140 bd3e
000002b0: bc60 20bf 496f cd3e 0cb6 9fbe d50a f2bf
000002c0: aded dcbf e7b0 853f de6b a03f d407 693f
000002d0: c612 103f e1ba b0bf 1cc5 0f3f b259 13be
000002e0: b24b 33bf 9e37 b0bf 0f8c 04bd f492 043f
000002f0: 905e 383f 42c3 31bf 3ad8 bcbf 72fd 26be
00000300: c0c6 87bf 5d29 4bbf 7f9b b0bf a600 be3f
00000310: bc42 80bd 1bc1 b1bf 6fe5 203f b610 65be
00000320: c4a7 7bbf 5826 643f 9dbb d03f 95b6 06bf
00000330: 7c21 24c0 59af a6be 591f f8bc b3bc 1b3f
00000340: a9c9 c93e 4d3e a5be 0b30 2140 48fa e83f
00000350: 908e 8c3f d260 893e f194 e4bc febc 423e
00000360: e75e 7d3f b920 9a3f dc0d 5e3f df6c a63f
00000370: f70a c2bf d44b c93f 086a 17bf 56e9 713f
00000380: 0656 33bf 7d09 dcbf 0ad2 3abf 3ff1 a53e
00000390: d7df 893d bcd8 0bbf 6caf a73f af1c f3bd
000003a0: 0884 ba3e 97f9 e3bf 1602 87bb ec03 60bf
000003b0: 19eb 83be 8b9e 213f 0896 d6be fc2e a3bf
000003c0: cc39 70bf 3c30 44bc 5c34 23be b0ce 3fbf
000003d0: 1e82 103f b7d3 793f b1c7 7f3d c412 633f
000003e0: f319 4d40 7bf8 dcbe 1164 993c 5c72 973f
000003f0: 8f96 7dbf 0bf1 aabf 166f 04bf 411f 533f
-0.050622225 1.5699434 0.46875787 1.6912246 0.3595258 0.6441618 0.5563947 -0.645289
-0.602735 0.21452911 1.343647 0.4405802 0.12479154 -1.4815342 0.27249116 -0.31007975
0.2727555 -0.7074823 -0.5063478 -1.849194 -0.70704556 -0.0021165262 0.23678151 -1.6560344
0.9669707 -1.3292202 0.37219563 -1.3507501 -0.526041 -1.8432989 -0.88744855 -0.2475744
1.8378668 -2.5634017 0.14722717 -0.46555236 0.33660874 -0.8814205 -0.80463046 0.094110176
-0.14953573 1.1203855 0.39194688 -0.20009947 2.3211794 -0.18707372 -1.1241508 -1.2566613
0.5127879 0.030544065 1.2189293 1.5058388 -0.31943136 0.37663528 -1.6194069 0.04794435
0.60333806 -0.8747945 -1.4307117 -0.92423415 0.9493566 -0.559841 0.23633102 -0.23326272
0.53956705 -0.8309213 0.28637293 0.32394797 0.4896479 2.0417414 -0.76480275 -0.19975537
0.34361047 -1.4059454 0.92090577 -1.0167664 1.2102654 -0.06425868 -0.1326342 -1.2318019
-2.567606 -0.21927564 2.0387607 0.32715675 0.5297672 0.33532032 2.2581944 0.07690657
-0.50972027 0.4797789 -1.1711037 -0.651124 -2.4371333 1.7114286 0.69749665 0.39392963
-0.71950555 -1.6735957 -0.36446592 -1.1446877 -2.322362 0.30602762 -0.35782576 1.3824965
-1.3113579 0.9851107 -2.1402104 0.6372341 0.6026198 0.5222586 0.23111609 -0.32513383
0.4707403 0.034137584 1.764986 -0.29300863 0.006603827 -1.1996578 -2.5894983 0.51793677
0.3380763 0.2401845 1.1352057 1.0053968 0.429576 -1.6691023 0.42378116 1.3865612
-0.9918226 -0.63258255 -0.61802894 1.1833375 2.8984885 0.45253584 -0.51360184 0.64468575
0.549059 -1.2717627 0.20854113 0.70577073 -0.22322 0.053738613 0.20266522 -0.2344488
1.6142966 -1.3233691 0.4119921 0.9944269 -0.81003946 -0.47654283 -0.9954202 -0.46465766
-0.52977544 -0.7568447 0.7929799 1.8786682 -0.6864363 -0.6364514 -1.3016515 -0.021054389
0.4638294 1.7346739 -0.35413915 -0.5380343 0.53359973 -1.0670108 -1.9412826 -1.191783
-0.27489042 -2.0189116 0.8739005 0.36963037 -0.62647605 0.40123966 -0.31193578 -1.8909556
-1.7260033 1.0444611 1.2532918 0.9102757 0.56278646 -1.3807031 0.5616014 -0.14389685
-0.70037377 -1.3766973 -0.032360133 0.5178673 0.7201929 -0.69438565 -1.4753487 -0.16307619
-1.0607529 -0.7935999 -1.3797454 1.4843948 -0.062627286 -1.3887056 0.6285009 -0.22369656
-0.98302865 0.8912101 1.6307255 -0.5262235 -2.5645437 -0.32555655 -0.030288385 0.6083481
0.39411667 -0.32274094 2.5185573 1.820138 1.0981007 0.2683168 -0.027903052 0.19017407
0.98972934 1.2041236 0.867399 1.3001975 -1.5159596 1.5726266 -0.59146166 0.9449667
-0.70053136 -1.7190396 -0.72976744 0.3241062 0.06732147 -0.54627585 1.310041 -0.11870705
0.36428857 -1.7810544 -0.0041201217 -0.87505984 -0.25765303 0.6313254 -0.4191134 -1.2748713
-0.9383819 -0.011974391 -0.15937942 -0.74924755 0.56448543 0.97588676 0.0624463 0.8870051
3.2047088 -0.43158326 0.018724473 1.1831775 -0.9905786 -1.335481 -0.51732004 0.82469565

bias f4 [32]
00000000: 54c8 093e 9155 81be eecd 7abc a674 723e
00000010: 7c4d 8d3e ba2f 41be 6e16 69be 7cce 953e
00000020: 9048 c33d 0458 803d c3d0 d43d f121 8e3e
00000030: 628d adbd 1004 043d acd0 2d3e cc56 71bc
00000040: 96dc e33d 0e5b a3be 8903 763e 9e9d c6bd
00000050: e50a 76be 8066 60bd 65d4 6ebd 6351 863e
00000060: a942 373d 767d 89be 604f 743e 9e5f 60be
00000070: 1014 843e b4d6 a63e 8b4a c6bd 0649 023d
0.13455325 -0.25260594 -0.0153078865 0.2367731 0.27598178 -0.18865862 -0.22762462 0.29259098
0.095353246 0.06266788 0.10391381 0.2776027 -0.08474232 0.032230437 0.16974133 -0.014730167
0.11126058 -0.31905407 0.24024786 -0.09698032 -0.24027593 -0.05478525 -0.058308024 0.26233968
0.044741306 -0.26853532 0.23858404 -0.21911475 0.25796556 0.3258568 -0.09682187 0.03180792

weight_orig f4 [32, 12, 1]
00000000: 9027 91be 0d4b f7bd 4982 cb3d 8343 35be
00000010: 4d3e 55be 6a8c 813e aa09 33be d0c9 733e
00000020: 0337 993e 3cdf 18bd e984 763e 8dd4 293c
00000030: 3b09 263e 8999 f03d 3427 1fbe 1557 17be
00000040: 59f7 633e 72e6 d73d 3e92 76bd 9f67 fb3d
00000050: 1f32 8f3e f105 2a3e 1dd5 5fbe 1ff5 6bbe
00000060: ca84 80bc 909f 95bb d5f8 96bd 3ca8 66be
00000070: f5cb ed3d a5f6 e93c ab9e ba3d 078d 163e
00000080: f2ea 983d 26fd 1fbd 3ddd 083e e8a6 37be
00000090: 768c 0dbe f815 bfbc 61d4 313d 1d73 82bb
000000a0: ec6d 6abe 15ad 103e 8425 de3d 1652 073e
000000b0: e653 17be 6f70 45be 729b 36be ab97 973e
000000c0: 4dda 51ba 4f54 96bb fecf 36bd 609d aebc
000000d0: f2af 8c3e 1adb 85be ed7d 973e 3921 903e
000000e0: 0893 4ebe 99e9 41be ff31 893e e669 813d
000000f0: 2a7e 103e 321d 1d3e 4214 f6bd 6327 873e
00000100: f546 c8bd a13f 043e 1a97 3abe 9078 37be
00000110: 8424 423e d49f 92bd abc3 1a3e b117 5ebe
00000120: 43e7 93bd 9b42 553d 492b b43c 0c7e d33c
00000130: 3d5d 0a3d f664 6abe addc 58be db8b 2e3e
00000140: 4c50 813d ad29 4fbe e231 0e3e c073 363e
00000150: 2155 b23d 4a01 b03d 5fd0 56be 7790 833e
00000160: 50d2 89be 9d60 73be c9f0 91be 9651 183e
00000170: a242 51bd e95b 83be 0fb8 9f3c 025e 65bd
00000180: 7e10 cf3d e04c 03ba 7c97 a0bd f16a a83e
00000190: 6ace 7abe 9c26 e33d d7d7 8d3e b383 083e
000001a0: af59 8c3e 7209 3bbe 6fc1 c43d 09ca 513e
000001b0: 4aa8 48be 325a f63d dc7d 7cbe 762a 153e
000001c0: b8f6 ccbd ef0e b7bd f4e8 f73d d78a 4ebe
000001d0: 3771 183e ed61 74bd 061d 763e 7f13 9c3c
000001e0: ce2b ecbd e3c5 7fbc 1ea7 263d 8055 873d
000001f0: 29fe b1bd 64b9 163e 4f4d bf3d 3bdf 05be
00000200: fb78 0ebe fd31 a9be f1b8 7c3c 7f00 c23c
00000210: 5480 00bd 49a4 10bd af35 57be 957c 93bd
00000220: 0d17 75be 769f 263e b4c2 78bd dfe3 673e
00000230: 8b5d 02bd fa12 8e3e 350e 9abd dfab 94be
00000240: 4d2f 58be 9f68 0e3e c980 9d3b aa71 8b3d
00000250: fc1c 42bd a8c8 24be 17eb d4bc 92a0 81be
00000260: b4a9 4e3e 3c3c 81be 009e 643d 322c 803e
00000270: 0430 6f3e 5001 643d 3192 a53d 22e8 833d
00000280: 9170 073e bc10 2e3d bf34 58be bc13 20be
00000290: 42bf acbb e4f4 44bd dbdc 24bc ef97 ef3d
000002a0: 27fc 913e 3030 cfbc 0aac 99bd 900d 36be
000002b0: 6023 123e a0c2 1a3e de01 0bbe 174a c03d
000002c0: 67db 103e 7ef1 a53d a211 8e3e e9e9 46bd
000002d0: 2dee 453e 0081 84be c023 df3d dcab fe3d
000002e0: fd84 b4bd 4eb6 393e 84ca e33d 827d bfbd
000002f0: 3147 83bc fdce a53c 2ec2 6e3e 5c80 9dbe
00000300: 36b6 9d3d b5da b93d 34ca 8cbe 39db 3b3e
00000310: af89 6fbe f2e5 0f3e 7d6c 1d3c c22c ddbd
00000320: bff4 363d 5191 353e 7044 30be a8dd a53e
00000330: 5536 18bd 0f26 043d 0062 e8bd fe35 fb3d
00000340: 4f33 273e adba a5bc 99c1 afbd 71b3 16be
00000350: 2ace ebbc fc69 6a3e 2941 18be 36f0 aabd
00000360: c220 293e 4b5e 4f3e b5b6 993e 6420 d13c
00000370: 6c22 23be f37f c8bd 16d9 383e 7d68 94be
00000380: 24b2 88be 9923 593e c3de b1bd e232 32be
00000390: 77ca e3bc 63f1 90be f3c4 173e ee39 353e
000003a0: e26a 213e 9cfb b63d c6dd 4b3d ee1f 84be
000003b0: 2d13 5bbd 7b85 163e 7f3b 413e 740d d33d
000003c0: febd d83d af97 54be 7649 89be b8d0 adbd
000003d0: db6a 52bd 6c24 1f3e f9d3 5e3c 1c3b 5e3e
000003e0: 899c 50be 6bb0 533e 5606 0c3e 0db1 6ebe
000003f0: 4341 5d3e 32e0 3b3e b0b3 a73e d781 0bbe
-0.28350496 -0.12074862 0.09936959 -0.17701535 -0.20824547 0.2530244 -0.17484155 0.23807454
0.29924783 -0.037322268 0.24074139 0.010365617 0.16214459 0.117480345 -0.15542299 -0.14779313
0.22262324 0.10542001 -0.06019806 0.122756235 0.27967927 0.16603829 -0.2185864 -0.23042725
-0.015688319 -0.0045661405 -0.0737168 -0.22525114 0.11611167 0.028559992 0.09112295 0.14702235
0.07466687 -0.03905978 0.13365646 -0.17934763 -0.13823113 -0.023325905 0.04341543 -0.0039810077
-0.22893494 0.14128526 0.10846999 0.13214907 -0.14778098 -0.19281171 -0.17832735 0.296079
-0.00080052466 -0.004587687 -0.04463195 -0.021315277 0.27477986 -0.26143724 0.2958826 0.28150347
-0.20173275 -0.18936767 0.26795956 0.06319027 0.14110628 0.15343168 -0.120155826 0.26397237
-0.09779159 0.12914898 -0.18221703 -0.17917085 0.18959242 -0.07159391 0.15113704 -0.21688725
-0.07221844 0.052065473 0.021993296 0.02581694 0.033780325 -0.22890076 -0.21177931 0.17045538
0.063141435 -0.20230742 0.13886216 0.17817593 0.08707643 0.08593996 -0.20977925 0.25696155
-0.26918268 -0.23767324 -0.28504017 0.14874873 -0.051088937 -0.2565606 0.019496946 -0.055997856
0.101105675 -0.00050087087 -0.07841393 0.3289409 -0.24492803 0.110913485 0.27703735 0.1333149
0.27412173 -0.18265322 0.09607207 0.20487227 -0.19595447 0.12028922 -0.24657387 0.14566979
-0.10007995 -0.08938395 0.12104979 -0.2017015 0.14886938 -0.0596637 0.24034509 0.019052265
-0.115317926 -0.015611145 0.04068672 0.06608105 -0.08691055 0.14719158 0.09340917 -0.13073437
-0.13913338 -0.3304595 0.015424953 0.023681877 -0.031372383 -0.035312925 -0.21016572 -0.072014965
-0.23934574 0.16271767 -0.06073256 0.2264552 -0.03182749 0.27748853 -0.07522241 -0.29037377
-0.21111794 0.13907097 0.004806612 0.06808789 -0.047390923 -0.1609217 -0.025991006 -0.25317818
0.20181924 -0.25241268 0.055814743 0.25033718 0.2335816 0.055665314 0.080845244 0.0644076
0.13226534 0.042496428 -0.21113871 -0.15632528 -0.005271823 -0.04808511 -0.010062422 0.11698901
0.2851269 -0.025291532 -0.07503517 -0.17778611 0.14271307 0.15113306 -0.13574931 0.093891315
0.14146195 0.081027016 0.27747828 -0.048562918 0.19329138 -0.2587967 0.10895491 0.12435123
-0.08814428 0.1813595 0.11122611 -0.093501106 -0.016025158 0.020240301 0.23316261 -0.30761993
0.077007696 0.09074918 -0.2749802 0.18345346 -0.23392366 0.14052561 0.009608385 -0.107995525
0.044667 0.17731215 -0.17213607 0.32395673 -0.03716119 0.032262858 -0.11346817 0.122661576
0.16328166 -0.020230616 -0.08581848 -0.14716889 -0.02878483 0.22891992 -0.14868607 -0.08346598
0.16516402 0.20250814 0.30022207 0.02552814 -0.159311 -0.097900294 0.18051562 -0.28985968
-0.2669841 0.21204986 -0.086850666 -0.17402223 -0.027806504 -0.28309163 0.14821224 0.1769788
0.15763429 0.089347094 0.049772047 -0.2580561 -0.053485084 0.14699356 0.18870352 0.103053
0.10583113 -0.20760988 -0.2681386 -0.084870756 -0.051371437 0.15541238 0.013600343 0.21702236
-0.20372213 0.20672767 0.13674292 -0.23309727 0.21606927 0.18347242 0.32754278 -0.13623749

weight_u f4 [32]
00000000: aa1b 62be 8ea8 2fbe 114e 31be 0ed8 063e
00000010: fca3 5cbb 7f29 b83d a190 d33d a258 3f3e
00000020: 05e9 2a3e 5ab7 863d 390d 203e c58e 93be
00000030: 704e 863e c404 113e 9efb 34be 28bc ecbd
00000040: 2dcc d53d c18d 5fbd 4b96 1d3e f898 72bd
00000050: 734f abbe 3de2 633e 41be edbd 7771 bc3c
00000060: a924 223e 2ea1 2dbe 4d9c 873d 3c5c 04be
00000070: 64b6 a0be 3eac 91be ddce 8cbe 8791 073d
-0.22080866 -0.17154142 -0.17314936 0.13168356 -0.0033667078 0.0899229 0.1033032 0.18686154
0.16690452 0.0657794 0.15630044 -0.28819862 0.26231718 0.14161974 -0.1767411 -0.115593255
0.10439334 -0.054578546 0.15389363 -0.059227914 -0.33459052 0.22254272 -0.11608554 0.023003323
0.15834297 -0.16956016 0.06621609 -0.1292581 -0.31389153 -0.28451723 -0.27501574 0.03309777

weight_v f4 [12]
00000000: b12d 5f3e 7670 de3e 0bf2 613e b3b3 a93e
00000010: 0ee4 24be 2411 68be 522d 113d 89ad a0be
00000020: fa54 5dbd bf1e 07bf dd75 4ebe 48b5 a63e
0.21794774 0.43445176 0.22064988 0.33144912 -0.16102621 -0.22662789 0.03544361 -0.31382397
-0.054036118 -0.5278129 -0.20162149 0.32560182

weight f4 [32, 12, 1]
00000000: b994 57be 41a3 b7bd ba1f 973d d69a 06be
00000010: 465a 1ebe 3367 403e acf3 04be f908 353e
00000020: 528d 633e f50a e3bc 1e10 373e 9a3a fc3b
00000030: 0498 f63d d0aa b23d 155f ecbd 8ac4 e0bd
00000040: 2249 293e 5853 a03d 041a 37bd e2b0 ba3d
00000050: feab 543e f583 fc3d 4d37 26be 4f38 2fbe
00000060: abdf 3ebc c637 5ebb 8f38 60bd b248 2bbe
00000070: f295 b03d 3bbd ad3c 0c95 8a3d 7398 df3d
00000080: 591c 633d d59c edbc af44 cb3d da60 08be
00000090: c039 d2bd 0de6 8dbc 000e 043d d5bd 41bb
000000a0: ce15 2ebe d1de d63d ccf6 a43d d0f9 c83d
000000b0: cfbf e0bd d99d 12be 3d9a 07be 7624 613e
000000c0: b4d5 1bba 3744 5fbb 42c1 07bd d8aa 81bc
000000d0: 3ef2 503e e4cc 46be 3bfe 603e 1a0f 563e
000000e0: 7866 19be 69ff 0fbe 91c2 4b3e f033 403d
000000f0: 2399 d63d ce57 e93d 76bc b6bd 65ba 483e
00000100: 5cb9 94bd c869 c43d 6d8f 0abe 703e 08be
00000110: 2a2b 103e 8cc3 59bd 6eda e53d 88ec 24be
00000120: d8a9 5bbd 785d 1e3d beca 853c 670d 9d3c
00000130: ff7e cd3c 270f 2ebe 310a 21be d69d 013e
00000140: ea0d 403d 56d6 19be 6e2f d33d c37c 073e
00000150: 9c6d 843d 25b3 823d d984 1fbe a165 433e
00000160: aab0 4cbe dbba 34be 93bf 58be 9538 e23d
00000170: 1465 1bbd 9317 43be 3836 6d3c 7953 2abd
00000180: a3c3 993d 3f01 c3b9 0c82 6ebd 8c21 7a3e
00000190: 1d3f 3abe 21ae a83d b3a9 523e b4bf ca3d
000001a0: 2172 503e 56e4 0abe e51b 923d a0c9 1b3e
000001b0: a301 15be 66f0 b63d 807f 3bbe db89 dd3d
000001c0: 4a34 98bd 00f0 87bd 8318 b83d 6360 19be
000001d0: 8f67 e23d ee79 35bd f9c2 363e 32cd 673c
000001e0: ea60 afbd 4cef 3dbc 8182 f73c e2fe 483d
000001f0: 072d 84bd 57da df3d 250f 8e3d 06d3 c6bd
00000200: 0699 d3bd 2b49 7bbe 60ab 3b3c 6a10 903c
00000210: 0bd9 bebc c1d1 d6bc 15d0 1fbe 680b 5bbd
00000220: 6f00 36be 2277 f73d 36ba 38bd 1633 2c3e
00000230: cb9d c1bc 8801 533e edcc 64bd d9cd 5cbe
00000240: 7289 20be ba80 d33d b7eb 693b 8a19 4f3d
00000250: 9225 10bd e7bb f4bd 7b1c 9ebc 2385 40be
00000260: 4e77 193e 1ef0 3fbe e4c4 293d 175c 3e3e
00000270: 5a9e 313e 8950 293d 38e7 753d d5e7 433d
00000280: 1527 c93d 6842 013d 7d8d 20be 60be edbd
00000290: cd47 80bb 1b42 12bd e7d9 f4bb 85eb b13d
000002a0: 75d0 583e 2cdb 99bc 213b 64bd e130 07be
000002b0: b60a d93d e1d8 e53d 8073 cebd dcca 8e3d
000002c0: 9d23 d73d c274 763d 89ff 523e 29b6 13bd
000002d0: 39fb 123e deca 44be 97b3 a53d de1d bd3d
000002e0: 5b0d 86bd 7ee8 093e d827 a93d f032 8ebd
000002f0: cef8 42bc 8441 763c ca4c 313e 15eb 69be
00000300: 103b 6a3d 8703 8a3d 3e19 51be 1e80 0b3e
00000310: f0e0 31be 10b7 d53d 92cd e93b 133e a4bd
00000320: 8ddc 073d 9dd4 063e 02e5 02be 4d57 763e
00000330: 1b10 e2bc ce43 c43c bf90 acbd 088c ba3d
00000340: b752 f83d 5923 76bc d983 82bd 81d1 dfbd
00000350: 611b afbc e212 2e3e 3020 e2bd e4df 7dbd
00000360: 942f fb3d 69fd 193e f94a 643e a64b 9b3c
00000370: cf48 f2bd aee3 94bd 3844 093e c569 5cbe
00000380: ad04 4bbe db3e 213e b615 84bd 2e54 04be
00000390: ce27 a9bc 4344 57be b667 e13d b993 063e
000003a0: 03bc ef3d a6e1 873d aa63 173d b33a 44be
000003b0: dfae 22bd 3e8d df3d 207e 0f3e cbb9 9c3d
000003c0: 68f3 a03d 8cde 1dbe 6ae5 4bbe de12 81bd
000003d0: 0d41 1cbd f45a ec3d 5978 253c d506 253e
000003e0: bce9 1abe cf32 1d3e 58f6 cf3d 1240 31be
000003f0: 4d4d 243e cf83 0b3e 6211 793e 9031 cfbd
-0.21052827 -0.08966685 0.07379098 -0.13145003 -0.15464124 0.18789367 -0.12983578 0.17679204
0.22221878 -0.027715186 0.17877242 0.0076974155 0.120407134 0.08723986 -0.11541573 -0.10974987
0.16531804 0.078283966 -0.044702545 0.09115769 0.20768735 0.12329856 -0.16232033 -0.17111324
-0.011650006 -0.0033907755 -0.05474144 -0.1672695 0.0862235 0.021208396 0.0676671 0.10917749
0.055446956 -0.029005447 0.0992521 -0.13318196 -0.10264921 -0.01732161 0.032239914 -0.0029562612
-0.17000505 0.104917176 0.08054885 0.09813273 -0.109740846 -0.14318027 -0.13242431 0.21986565
-0.0005944625 -0.0034067759 -0.03314329 -0.015828535 0.20404908 -0.19414097 0.21971981 0.20904198
-0.14980495 -0.14062275 0.1989844 0.04692453 0.10478427 0.113937005 -0.08922665 0.19602354
-0.07261917 0.09590489 -0.13531275 -0.13305068 0.14078966 -0.053165004 0.11223303 -0.16105855
-0.053628772 0.038663357 0.016332027 0.01917143 0.02508497 -0.16997968 -0.15726544 0.12657866
0.04688827 -0.15023169 0.10311781 0.13231187 0.06466219 0.06381825 -0.15578021 0.19081737
-0.19989267 -0.17649405 -0.2116683 0.110459484 -0.037938192 -0.19051962 0.014478259 -0.041583512
0.07508018 -0.00037194227 -0.05822949 0.2442686 -0.18188138 0.082363375 0.20572548 0.09899846
0.20356037 -0.13563666 0.07134227 0.15213633 -0.14551406 0.08932571 -0.18310356 0.108173095
-0.07431848 -0.06637573 0.0898905 -0.14978175 0.110549085 -0.044305734 0.17847814 0.0141480435
-0.08563407 -0.011592697 0.030213596 0.0490712 -0.06453901 0.10930317 0.06936482 -0.09708218
-0.10331921 -0.2453963 0.011454433 0.017585952 -0.023296854 -0.026223065 -0.15606721 -0.053477675
-0.17773603 0.1208327 -0.04509946 0.16816363 -0.023634812 0.20606053 -0.055859495 -0.215629
-0.15677431 0.10327287 0.0035693476 0.050561465 -0.03519208 -0.11949902 -0.01930069 -0.18800788
0.14986917 -0.18743941 0.041447535 0.18589817 0.17345563 0.04133657 0.06003496 0.047828514
0.098219074 0.03155747 -0.15678973 -0.11608577 -0.0039148093 -0.035707574 -0.007472265 0.086875
0.2117327 -0.018781267 -0.055720452 -0.1320224 0.10597746 0.11223007 -0.100806236 0.06972286
0.105048396 0.060169943 0.20605291 -0.036062393 0.14353646 -0.19218013 0.08090895 0.09234212
-0.06545516 0.13467595 0.08259553 -0.06943309 -0.01190014 0.015030269 0.17314449 -0.22843583
0.057185233 0.06738954 -0.20419785 0.13623092 -0.17370963 0.10435307 0.0071351016 -0.08019652
0.033169318 0.13167043 -0.12782672 0.2405674 -0.02759557 0.023958113 -0.084260456 0.0910874
0.121251516 -0.015023076 -0.06372804 -0.109286316 -0.02137536 0.1699939 -0.110412955 -0.061981097
0.12264934 0.15038075 0.22294225 0.01895697 -0.118302934 -0.07269989 0.1340493 -0.21524723
-0.19826002 0.15746634 -0.064494535 -0.12922737 -0.020648863 -0.21022134 0.110061094 0.13142289
0.11705782 0.06634836 0.03696028 -0.19163017 -0.03971755 0.10915612 0.14012957 0.07652625
0.07858926 -0.15416926 -0.19911733 -0.06302427 -0.038147975 0.115407854 0.010099494 0.16115887
-0.15128225 0.15351413 0.10154408 -0.17309597 0.16045113 0.136245 0.24323037 -0.10116875

bias f4 [32]
00000000: b7d9 2dbe 3468 34be bc25 003d 00f9 273d
00000010: 05bd 003e 330b 2d3e 30c1 213d bf4a 203e
00000020: c307 c7bd 324f e73d 9b38 1b3e b6c1 fc3d
00000030: dee3 f33d 0c34 5d3d c07f bcbc 84ad 213d
00000040: cc4c 1ebd 7461 513d 92cd 25be 0acd dfbd
00000050: 2ef6 fa3d 9047 103c e2a0 c63d 5851 743d
00000060: 1f2e 88bd a1e3 02be 00a4 9eba 7901 323e
00000070: 00dc ba3b 44d5 23bd dc0c 31bd d811 c6bd
-0.16977583 -0.17617875 0.031285986 0.04100895 0.12572105 0.16898803 0.03949088 0.15653513
-0.09718277 0.11294402 0.15158312 0.12341635 0.119086966 0.054004714 -0.023010135 0.039472118
-0.038647458 0.05111833 -0.161917 -0.1092778 0.12253986 0.008806124 0.09698655 0.059647888
-0.06649422 -0.12782146 -0.0012103319 0.17383374 0.0057024956 -0.039998308 -0.043225154 -0.09671372

weight_orig f4 [32, 32, 1]
00000000: 482f bc3c 1011 803d 4023 0c3c dc61 083d
00000010: 3ef2 09be 2a4e 10be a026 873d b0ee 20bc
00000020: 3b04 223e 731d e0bd b432 e5bd 066b 2ebe
00000030: 76b3 d23d bc2a 28bd c8f4 db3c 45c7 89bd
00000040: f346 073e 70b5 8fbd 4023 7dbc 5a98 69bd
00000050: ae75 d93d ea95 27be 76d6 eb3d 824d e83d
00000060: 206c f83b ddc6 29be 082f 06be d016 903c
00000070: 40f7 013d d74f 04be a0b1 3f3c 2c01 843d
00000080: 1660 8a3d c452 25bd 26c3 fc3d 50c7 6fbc
00000090: 5cbe 763d e81f 3dbd e41b 1fbd 4943 e5bd
000000a0: cafc e73d 489c 8e3c 306f 823c 844a 4cbd
000000b0: e454 743d 5019 603c 9076 49bd 83c5 00be
000000c0: 4584 bcbd c534 11be 4828 393d 3ec7 31be
000000d0: c012 f4bc 2af0 ea3d 0052 5bba e9d9 0abe
000000e0: 9ff5 243e 700b 1abd e8f5 adbc 9947 82bd
000000f0: 0aa4 f33d 570d 0d3e a8a5 07bd 18e6 d5bc
00000100: c261 853d 1656 bb3d 5b7b 263e 027a cf3d
00000110: a059 a8bb c04d 27bb 5a96 963d 9538 0d3e
00000120: 2024 a43b a083 eb3b 2f04 29be 9053 e9bc
00000130: eef7 03be 3cc0 473d 2026 06bc 227b e33d
00000140: 5640 f13d 127e 16be be0e 00be af39 8bbd
00000150: 91c5 94bd b7d0 85bd 7f7e 2e3e b3b1 30be
00000160: 34fc 7a3d 03ad 0e3e 4c01 533d d824 c7bc
00000170: 57c0 14be 3818 493d b05e 5abc 6a45 0dbe
00000180: 821d d83d 38dc f43c d3ba 05be 0a4b c2bd
00000190: d812 af3c cd5b 283e 6416 abbd 3a85 e73d
000001a0: 0eab e83d 6215 1abe 44da 32bd 274a 0b3e
000001b0: ef4d 1e3e 025e fe3d 1282 2ebe 76f0 f13d
000001c0: 980f 7f3d 6dca 90bd 0814 17be 00fd 12be
000001d0: b14d 133e 93fc 023e b059 303c d2bc 57bd
000001e0: 4861 ddbd 26d9 cb3d 8d41 11be fa80 cbbd
000001f0: 5969 91bd b0f4 503c b569 cdbd d6c6 a5bd
00000200: 48ee dbbc f840 f93c 0367 debd 733d 1e3e
00000210: eb9a 093e fc40 5fbd c8b3 eebc 633a babd
00000220: 6e84 f1bd c858 b3bc 107b c6bc 1575 263e
00000230: 00a6 7b3a 01b3 20be 800d b4ba 254a 1bbe
00000240: ac42 c9bd 20ef 7abc b05b aebc 93b0 1f3e
00000250: 2df2 333e f0cb 923c 366f fa3d e599 cabd
00000260: b622 31be 1685 c13d a87d d7bc 851a 16be
00000270: d29e 1cbe 225c d43d 5d71 b4bd e4c7 0fbd
00000280: 8c79 a4bd 1331 17be 4270 c23d 9897 db3c
00000290: e00e 8dbb ace7 06bd 7925 02be 56e1 bbbd
000002a0: 349e 163d 3dcb 073e b7dd 0c3e 400d 51bd
000002b0: beef 05be e0a5 a53b e738 2bbe 6091 b8bc
000002c0: d519 173e 6005 b7bb 92a1 ad3d 5a29 d03d
000002d0: 047f 05bd 3e1e d83d 8011 693c 8aad fdbd
000002e0: b47c 2abe 99c3 023e 0228 c73d 1838 0abe
000002f0: 90f4 0c3c d2e1 943d bd0f 1dbe a16b a7bd
00000300: 365c 80bd ce26 70bd d3f0 103e 986f 66bd
00000310: 0176 323e c235 ec3d ae7c 29be 2a4a d73d
00000320: de6f 80bd 40a3 d0bb 52ec ef3d c0dd e6bb
00000330: 8f4a 0e3e 2895 a6bc 315c bbbd 18d6 25be
00000340: a476 84bd 38fc d93c 7ef6 f33d 28c3 7ebd
00000350: 59c4 033e 8a9b 20be f735 aabd 6542 2bbe
00000360: 18da 613d 6b30 103e 4d7d 113e 505b 4f3c
00000370: 16a7 87bd 6662 8dbd 4705 1abe b067 aebc
00000380: d642 c13d 5116 0dbe f8e1 983c 27dd 043e
00000390: 42f9 acbd 404e 5fbc 9578 163e 8fa2 0c3e
000003a0: 9005 eb3c 06a6 9a3d 788d f6bd b856 93bc
000003b0: 0aa7 1bbe 2977 123e d0d3 243c c289 c83d
000003c0: 0088 3bbb 9892 d53c 8308 1f3e 6a56 d33d
000003d0: 8035 92bb 3dec 253e b6ab e03d 80af 493c
000003e0: 9cf8 fdbd f868 cebc 5517 96bd f899 47bd
000003f0: 9082 01be 36bc a73d d5e0 d8bd fa98 64bd
0.022971764 0.062532544 0.008553326 0.03329645 -0.13471314 -0.14092317 0.06599164 -0.009822533
0.15821926 -0.10943117 -0.111913115 -0.17033014 0.10288136 -0.04105638 0.02685012 -0.06727461
0.13210659 -0.07017028 -0.015450299 -0.05703006 0.10618149 -0.16365781 0.115155146 0.113429084
0.007581249 -0.16579767 -0.13103878 0.017589003 0.031729937 -0.12921081 0.011700064 0.06445536
0.06756608 -0.040362135 0.12341909 -0.014634922 0.060240135 -0.046173006 -0.038844958 -0.11194474
0.113275126 0.017408505 0.015922159 -0.04987575 0.05965127 0.01367791 -0.049185336 -0.12575345
-0.09204916 -0.14180286 0.04520443 -0.17361161 -0.029794097 0.11471589 -0.0008366406 -0.13559689
0.16109322 -0.037608564 -0.021235421 -0.063613124 0.11896522 0.1377462 -0.033116966 -0.026110694
0.065127864 0.09147279 0.16257994 0.10130693 -0.0051376373 -0.002552852 0.07352896 0.13791116
0.0050091892 0.007187322 -0.16505502 -0.028482229 -0.12887546 0.048767313 -0.008187801 0.1110747
0.11779849 -0.1469653 -0.12505624 -0.06798112 -0.07264245 -0.0653395 0.17040442 -0.17255287
0.061275676 0.13933186 0.05151491 -0.02430956 -0.14526497 0.049095362 -0.013328239 -0.1379601
0.10552503 0.029890165 -0.13059549 -0.09486969 0.02137129 0.16441269 -0.0835388 0.11304708
0.11360751 -0.1504722 -0.043665186 0.13602506 0.15459417 0.12420274 -0.17041805 0.118134424
0.06227073 -0.0706986 -0.14753735 -0.14354324 0.14385106 0.12791662 0.010763571 -0.052670307
-0.108095706 0.09953527 -0.14185162 -0.0993671 -0.071001716 0.012753651 -0.10029928 -0.080945656
-0.02684702 0.030426487 -0.10859492 0.15453129 0.13438003 -0.054505333 -0.02913846 -0.09093168
-0.11792837 -0.02189292 -0.024228603 0.16255601 0.0009599626 -0.15693285 -0.0013736933 -0.15165003
-0.0982717 -0.015315801 -0.021283954 0.15594701 0.17572851 0.01791951 0.12228243 -0.09892634
-0.17298397 0.09449212 -0.026305035 -0.14658554 -0.1529496 0.103691354 -0.08810685 -0.03510274
-0.08030996 -0.14764814 0.09494068 0.026805684 -0.0043047518 -0.032935783 -0.12709607 -0.09173839
0.036771968 0.13261123 0.13756453 -0.051038027 -0.13079736 0.005055174 -0.16720925 -0.022530258
0.14755948 -0.0055853575 0.08478083 0.10164137 -0.032591835 0.10552643 0.014225364 -0.123866156
-0.16649133 0.12769927 0.09724428 -0.1349796 0.00860323 0.07269634 -0.15338035 -0.081748255
-0.06267588 -0.058630757 0.14154367 -0.056258768 0.17427827 0.11533691 -0.16551468 0.105121925
-0.06271337 -0.006367117 0.117149964 -0.0070454776 0.1389563 -0.020334795 -0.091484435 -0.16194952
-0.064679414 0.026609525 0.11912249 -0.062197834 0.1286787 -0.15684333 -0.08311074 -0.16724546
0.05513963 0.1408097 0.14207955 0.012656048 -0.06623666 -0.06903534 -0.15041076 -0.021289676
0.09436576 -0.13778044 0.018662438 0.12974988 -0.0844598 -0.013629496 0.14694436 0.13733886
0.028689176 0.07551198 -0.12038702 -0.017985687 -0.15200439 0.14303268 0.010060266 0.097919
-0.0028614998 0.026070878 0.1553059 0.103192165 -0.004461944 0.16203399 0.10970251 0.012309909
-0.12400934 -0.025196537 -0.07328669 -0.04873082 -0.12647462 0.08190195 -0.10589758 -0.055809952

weight_u f4 [32]
00000000: 94e5 1e3e ee46 dabc 8798 133e 9724 2cbe
00000010: cfcb c93e 5c6e 183e ef5a 9ebd 19b1 14bd
00000020: 44da 913b 57c3 d93d 7950 08bd c2fe b4bc
00000030: 7608 9a3d 064e ce3b c432 6a3e 4c28 213e
00000040: de67 cd3d eb09 413e 4f76 d73e 523b 153e
00000050: 1ae6 2fbe c929 203d e44e f4bd fad3 d0be
00000060: 2526 823e 60fc 1abe 07e2 aa3c 5120 20bd
00000070: baeb b9bd aacd 7b3e ebc2 4cbd f8b1 2fbe
0.15517265 -0.02664515 0.14413653 -0.16810833 0.39413306 0.14885849 -0.07732188 -0.036301706
0.004451068 0.10632961 -0.03327987 -0.022094134 0.07521145 0.006295922 0.22870928 0.15738028
0.10029577 0.1885144 0.4208245 0.1457341 -0.1717762 0.03910235 -0.1192911 -0.40786725
0.25419727 -0.15135336 0.020859731 -0.03909332 -0.090781644 0.24590173 -0.049990576 -0.17157733

weight_v f4 [32]
00000000: b08b c33c e49a 823e 1c6d 773e 6313 ac3d
00000010: 44cc bfbe f039 c5bd 2f7e 5c3d 1501 203e
00000020: fb14 f83d 47b0 a93e aa9b 2cbe 86f2 f8bd
00000030: e0d6 bd3e 600c 16bd dd19 c4bd 925d 1bbd
00000040: 1758 84be 4175 183e 9fce bcbd 3e43 6c3d
00000050: c561 42bb 2602 2f3e cd4f 0cbe ea1a a23e
00000060: d452 1fbe 32c5 8b3d 385f c6bd 963c 843e
00000070: 7378 093e 46dc 523d 90b1 493c 64fa e33b
0.02387032 0.25508797 0.24162716 0.08402135 -0.3746053 -0.09630191 0.053831276 0.15625413
0.12113377 0.331423 -0.16856256 -0.12155633 0.37078 -0.036632895 -0.095752455 -0.037931032
-0.25848457 0.14888479 -0.09219097 0.057681315 -0.0029660326 0.17090663 -0.13702317 0.3166116
-0.1555894 0.068247214 -0.0968613 0.25827473 0.13424854 0.0514796 0.012310401 0.006957339

weight f4 [32, 32, 1]
00000000: 482f bc3c 1011 803d 4023 0c3c dc61 083d
00000010: 3ef2 09be 2a4e 10be a026 873d b0ee 20bc
00000020: 3b04 223e 731d e0bd b432 e5bd 066b 2ebe
00000030: 76b3 d23d bc2a 28bd c8f4 db3c 45c7 89bd
00000040: f346 073e 70b5 8fbd 4023 7dbc 5a98 69bd
00000050: ae75 d93d ea95 27be 76d6 eb3d 824d e83d
00000060: 206c f83b ddc6 29be 082f 06be d016 903c
00000070: 40f7 013d d74f 04be a0b1 3f3c 2c01 843d
00000080: 1660 8a3d c452 25bd 26c3 fc3d 50c7 6fbc
00000090: 5cbe 763d e81f 3dbd e41b 1fbd 4943 e5bd
000000a0: cafc e73d 489c 8e3c 306f 823c 844a 4cbd
000000b0: e454 743d 5019 603c 9076 49bd 83c5 00be
000000c0: 4584 bcbd c534 11be 4828 393d 3ec7 31be
000000d0: c012 f4bc 2af0 ea3d 0052 5bba e9d9 0abe
000000e0: 9ff5 243e 700b 1abd e8f5 adbc 9947 82bd
000000f0: 0aa4 f33d 570d 0d3e a8a5 07bd 18e6 d5bc
00000100: c261 853d 1656 bb3d 5b7b 263e 027a cf3d
00000110: a059 a8bb c04d 27bb 5a96 963d 9538 0d3e
00000120: 2024 a43b a083 eb3b 2f04 29be 9053 e9bc
00000130: eef7 03be 3cc0 473d 2026 06bc 227b e33d
00000140: 5640 f13d 127e 16be be0e 00be af39 8bbd
00000150: 91c5 94bd b7d0 85bd 7f7e 2e3e b3b1 30be
00000160: 34fc 7a3d 03ad 0e3e 4c01 533d d824 c7bc
00000170: 57c0 14be 3818 493d b05e 5abc 6a45 0dbe
00000180: 821d d83d 38dc f43c d3ba 05be 0a4b c2bd
00000190: d812 af3c cd5b 283e 6416 abbd 3a85 e73d
000001a0: 0eab e83d 6215 1abe 44da 32bd 274a 0b3e
000001b0: ef4d 1e3e 025e fe3d 1282 2ebe 76f0 f13d
000001c0: 980f 7f3d 6dca 90bd 0814 17be 00fd 12be
000001d0: b14d 133e 93fc 023e b059 303c d2bc 57bd
000001e0: 4861 ddbd 26d9 cb3d 8d41 11be fa80 cbbd
000001f0: 5969 91bd b0f4 503c b569 cdbd d6c6 a5bd
00000200: 48ee dbbc f840 f93c 0367 debd 733d 1e3e
00000210: eb9a 093e fc40 5fbd c8b3 eebc 633a babd
00000220: 6e84 f1bd c858 b3bc 107b c6bc 1575 263e
00000230: 00a6 7b3a 01b3 20be 800d b4ba 254a 1bbe
00000240: ac42 c9bd 20ef 7abc b05b aebc 93b0 1f3e
00000250: 2df2 333e f0cb 923c 366f fa3d e599 cabd
00000260: b622 31be 1685 c13d a87d d7bc 851a 16be
00000270: d29e 1cbe 225c d43d 5d71 b4bd e4c7 0fbd
00000280: 8c79 a4bd 1331 17be 4270 c23d 9897 db3c
00000290: e00e 8dbb ace7 06bd 7925 02be 56e1 bbbd
000002a0: 349e 163d 3dcb 073e b7dd 0c3e 400d 51bd
000002b0: beef 05be e0a5 a53b e738 2bbe 6091 b8bc
000002c0: d519 173e 6005 b7bb 92a1 ad3d 5a29 d03d
000002d0: 047f 05bd 3e1e d83d 8011 693c 8aad fdbd
000002e0: b47c 2abe 99c3 023e 0228 c73d 1838 0abe
000002f0: 90f4 0c3c d2e1 943d bd0f 1dbe a16b a7bd
00000300: 365c 80bd ce26 70bd d3f0 103e 986f 66bd
00000310: 0176 323e c235 ec3d ae7c 29be 2a4a d73d
00000320: de6f 80bd 40a3 d0bb 52ec ef3d c0dd e6bb
00000330: 8f4a 0e3e 2895 a6bc 315c bbbd 18d6 25be
00000340: a476 84bd 38fc d93c 7ef6 f33d 28c3 7ebd
00000350: 59c4 033e 8a9b 20be f735 aabd 6542 2bbe
00000360: 18da 613d 6b30 103e 4d7d 113e 505b 4f3c
00000370: 16a7 87bd 6662 8dbd 4705 1abe b067 aebc
00000380: d642 c13d 5116 0dbe f8e1 983c 27dd 043e
00000390: 42f9 acbd 404e 5fbc 9578 163e 8fa2 0c3e
000003a0: 9005 eb3c 06a6 9a3d 788d f6bd b856 93bc
000003b0: 0aa7 1bbe 2977 123e d0d3 243c c289 c83d
000003c0: 0088 3bbb 9892 d53c 8308 1f3e 6a56 d33d
000003d0: 8035 92bb 3dec 253e b6ab e03d 80af 493c
000003e0: 9cf8 fdbd f868 cebc 5517 96bd f899 47bd
000003f0: 9082 01be 36bc a73d d5e0 d8bd fa98 64bd
0.022971764 0.062532544 0.008553326 0.03329645 -0.13471314 -0.14092317 0.06599164 -0.009822533
0.15821926 -0.10943117 -0.111913115 -0.17033014 0.10288136 -0.04105638 0.02685012 -0.06727461
0.13210659 -0.07017028 -0.015450299 -0.05703006 0.10618149 -0.16365781 0.115155146 0.113429084
0.007581249 -0.16579767 -0.13103878 0.017589003 0.031729937 -0.12921081 0.011700064 0.06445536
0.06756608 -0.040362135 0.12341909 -0.014634922 0.060240135 -0.046173006 -0.038844958 -0.11194474
0.113275126 0.017408505 0.015922159 -0.04987575 0.05965127 0.01367791 -0.049185336 -0.12575345
-0.09204916 -0.14180286 0.04520443 -0.17361161 -0.029794097 0.11471589 -0.0008366406 -0.13559689
0.16109322 -0.037608564 -0.021235421 -0.063613124 0.11896522 0.1377462 -0.033116966 -0.026110694
0.065127864 0.09147279 0.16257994 0.10130693 -0.0051376373 -0.002552852 0.07352896 0.13791116
0.0050091892 0.007187322 -0.16505502 -0.028482229 -0.12887546 0.048767313 -0.008187801 0.1110747
0.11779849 -0.1469653 -0.12505624 -0.06798112 -0.07264245 -0.0653395 0.17040442 -0.17255287
0.061275676 0.13933186 0.05151491 -0.02430956 -0.14526497 0.049095362 -0.013328239 -0.1379601
0.10552503 0.029890165 -0.13059549 -0.09486969 0.02137129 0.16441269 -0.0835388 0.11304708
0.11360751 -0.1504722 -0.043665186 0.13602506 0.15459417 0.12420274 -0.17041805 0.118134424
0.06227073 -0.0706986 -0.14753735 -0.14354324 0.14385106 0.12791662 0.010763571 -0.052670307
-0.108095706 0.09953527 -0.14185162 -0.0993671 -0.071001716 0.012753651 -0.10029928 -0.080945656
-0.02684702 0.030426487 -0.10859492 0.15453129 0.13438003 -0.054505333 -0.02913846 -0.09093168
-0.11792837 -0.02189292 -0.024228603 0.16255601 0.0009599626 -0.15693285 -0.0013736933 -0.15165003
-0.0982717 -0.015315801 -0.021283954 0.15594701 0.17572851 0.01791951 0.12228243 -0.09892634
-0.17298397 0.09449212 -0.026305035 -0.14658554 -0.1529496 0.103691354 -0.08810685 -0.03510274
-0.08030996 -0.14764814 0.09494068 0.026805684 -0.0043047518 -0.032935783 -0.12709607 -0.09173839
0.036771968 0.13261123 0.13756453 -0.051038027 -0.13079736 0.005055174 -0.16720925 -0.022530258
0.14755948 -0.0055853575 0.08478083 0.10164137 -0.032591835 0.10552643 0.014225364 -0.123866156
-0.16649133 0.12769927 0.09724428 -0.1349796 0.00860323 0.07269634 -0.15338035 -0.081748255
-0.06267588 -0.058630757 0.14154367 -0.056258768 0.17427827 0.11533691 -0.16551468 0.105121925
-0.06271337 -0.006367117 0.117149964 -0.0070454776 0.1389563 -0.020334795 -0.091484435 -0.16194952
-0.064679414 0.026609525 0.11912249 -0.062197834 0.1286787 -0.15684333 -0.08311074 -0.16724546
0.05513963 0.1408097 0.14207955 0.012656048 -0.06623666 -0.06903534 -0.15041076 -0.021289676
0.09436576 -0.13778044 0.018662438 0.12974988 -0.0844598 -0.013629496 0.14694436 0.13733886
0.028689176 0.07551198 -0.12038702 -0.017985687 -0.15200439 0.14303268 0.010060266 0.097919
-0.0028614998 0.026070878 0.1553059 0.103192165 -0.004461944 0.16203399 0.10970251 0.012309909
-0.12400934 -0.025196537 -0.07328669 -0.04873082 -0.12647462 0.08190195 -0.10589758 -0.055809952

weight f4 [1, 32, 1]
00000000: a9b6 073e bd39 0ebe 705b 25bd 6193 1cbe
00000010: 7051 d23c 7708 05be f0df eabd c7ac 22be
00000020: 68ea f8bd 7c5c 03be eeb3 f1bd 91a0 263e
00000030: 8402 85bd c807 09be d0de 383c 18e4 5ebd
00000040: 7e38 2cbe a014 1b3d 8715 9bbd d0bf 12bc
00000050: c631 cd3d f4a5 1ebd f0f0 88bd d84a 01bd
00000060: f088 493d 400b 853c 3371 203e 1f43 203e
00000070: 6efe 02be 117c 333e 3306 263e 04cb 603d
0.13253273 -0.13889213 -0.040370405 -0.15290596 0.025673598 -0.1299151 -0.11468494 -0.15886222
-0.121540844 -0.12828249 -0.11801897 0.16272189 -0.064946204 -0.13381875 0.011283591 -0.054416746
-0.16818425 0.037861466 -0.075724654 -0.0089568645 0.10019259 -0.038732484 -0.0668658 -0.031565517
0.04920286 0.016240716 0.15668182 0.15650605 -0.1279237 0.17527796 0.16213302 0.05488111

weight f4 [1, 32, 1]
00000000: 4099 1fbd c557 2a3e 9e9b ed3d ecf9 1b3d
00000010: 9c09 173d f05c ffbc 2e11 1dbe 9b66 0d3e
00000020: ef4a 0d3e f9fb 293e 6aef 883d 7a4f d6bd
00000030: c570 e2bd 2763 143e 8045 67bc 859a c5bd
00000040: 1448 363d 88c4 203d e9dc 293e 8e2a a9bd
00000050: f0f2 d4bc 72b9 56bd bf94 32be 08cc 09bd
00000060: b928 a0bd bd42 243e e74d f4bd c47b 10be
00000070: 32c4 883d ce32 b0bd 05be 093e 66c1 9c3d
-0.03896451 0.16635044 0.11601947 0.03808014 0.0368744 -0.031172246 -0.15338585 0.13808672
0.13798116 0.16600026 0.066862896 -0.10464378 -0.11056665 0.14490949 -0.014115691 -0.09648613
0.044502333 0.039249927 0.16588177 -0.0826007 -0.025994748 -0.05242295 -0.17439555 -0.033641845
-0.07820267 0.16041084 -0.11928921 -0.14109713 0.06678046 -0.0860344 0.13451393 0.07654075

weight f4 [1, 32, 1]
00000000: 3201 11be e4f4 713d f0af 5e3c a483 0abe
00000010: 7886 983c d246 f33d 3b95 a0bd a8aa 633d
00000020: 4f85 1f3e 0660 e43d aaf2 7ebd 2001 85bd
00000030: 9398 1d3e e182 8dbd 8a5a e8bd e064 fe3b
00000040: f5a7 d7bd b5d9 c0bd ce40 32be f4d4 9dbd
00000050: d035 c3bc cc8b 4dbd 3e94 cc3d 38af 263d
00000060: 405f 25bb 3390 06be 8b32 2a3e cf6d 0d3e
00000070: 007e af3b f0ff 2fbd 32bb bbbd b64a c73d
-0.14160612 0.059071437 0.013591751 -0.1352678 0.018618807 0.11878742 -0.078409635 0.055582672
0.15578197 0.111511275 -0.06224314 -0.06494355 0.15390234 -0.06909729 -0.11345394 0.00776349
-0.10530082 -0.09416524 -0.17407534 -0.07706633 -0.02382937 -0.05018215 0.099892125 0.040694445
-0.0025233775 -0.13140945 0.16620843 0.1381142 0.0053555965 -0.04296869 -0.09166564 0.09731047

bias f4 [32]
00000000: 6057 dabb 824b e3bd 10b9 4cbc c127 263e
00000010: 64d8 2ebe 3788 2b3e b000 693c 5c21 083d
00000020: fd56 88bd 0ef5 a0bd d0f4 eb3c ce20 7abd
00000030: 1860 543d 34d2 1cbe 5167 d6bd 5076 fe3c
00000040: d019 083c fecf bb3d 6eee ccbd 10b3 bfbc
00000050: 90c9 dfbc 6d86 003e a667 a83d 64a4 2ebd
00000060: be14 ad3d bdbb 03be 2673 f0bd 2ba7 8abd
00000070: c746 293e 28b9 9f3c 8891 463d d16d 9dbd
-0.006663248 -0.11098386 -0.012495294 0.16226102 -0.17074734 0.1675118 0.014221355 0.03323494
-0.06657217 -0.078592405 0.02880326 -0.06106644 0.051849455 -0.15314561 -0.10468925 0.031062275
0.008306935 0.09170531 -0.10006414 -0.023400813 -0.027317792 0.1255128 0.08222894 -0.042637244
0.08451222 -0.12864585 -0.11740713 -0.06770166 0.16530906 0.019497469 0.048478633 -0.076869614

weight_orig f4 [32, 32, 1]
00000000: 8239 e23d 5b56 103e 00fe 2e3d eeda ad3d
00000010: 23fe 173e 5c2a 313d bfb1 92bd 309a 373d
00000020: b1cf 093e 10f3 a3bd c6d1 10be e6c9 12be
00000030: 57cd 0e3e 3613 ddbd b55e 0c3e d016 9b3c
00000040: 2542 2b3e 7448 303d 7079 24bc fac6 a13d
00000050: ad94 103e e964 0b3e 9448 f2bd 28d2 e3bd
00000060: 45ca 33be a3a6 e7bd c8a4 c13c c9d4 2c3e
00000070: c0d7 65bc 2859 de3c 1bfb a7bd 6c42 0f3d
00000080: 49df bcbd b056 e13c b8ed 6c3d 6e70 b93d
00000090: 489f 523d b573 313e 0851 403d 0298 db3d
000000a0: 0145 233e d58a 94bd 40b6 7e3d 3a0d c23d
000000b0: 8c63 703d 33db 293e 8c46 553d 5072 e93c
000000c0: ff03 babd fdf5 133e 4cf6 44bd 5006 7fbc
000000d0: 007d 76ba d85f 2e3d f617 d53d f85f c33c
000000e0: 7507 2f3e 70b3 583c e0dd ebbc 112f 303e
000000f0: 6425 633d 0159 173e 29b0 1f3e 9ea9 ee3d
00000100: e98d 203e c098 57bb 358d f7bd 8b6e ebbd
00000110: da48 d63d 9c20 5c3d 00ed 113c 80b2 983c
00000120: dfab 2f3e ea5e 6ebd e578 2abe 5c83 3e3d
00000130: 949b 0d3d 9eaf c03d 4c0d 443d 54c4 04bd
00000140: 88f1 2ebd a0bc a8bb dd06 a6bd e618 2abe
00000150: 7007 32bc 0a2e eb3d d760 21be 0cfe 0fbd
00000160: 24c6 573d 1d82 153e fd53 01be ffc1 e6bd
00000170: fe9f fd3d c082 89bc 204c 63bd 1d66 0f3e
00000180: 9653 ea3d 4250 9f3d b473 743d a9b5 203e
00000190: 8387 2dbe 2559 333e 1bfc 013e 881c 903c
000001a0: 7a83 bd3d e7fb 81bd 9aba 8d3d 903b 38bd
000001b0: 676d 2d3e e055 c3bc ddac 303e b31d 97bd
000001c0: 2d8a b0bd 6afd e2bd 9086 67bc 60bc 0f3d
000001d0: a012 5f3c a064 e2bb 531d 333e 80ed b5bc
000001e0: 3013 22be 880e 2ebe 674a 1d3e 11cb 0bbe
000001f0: e1e8 0abe d9c4 23be a19d 243e cb99 89bd
00000200: f873 e93c b0e8 05bc 0aaa d33d 4067 82bd
00000210: 3561 80bd c465 1ebd 8081 90ba 3b9d abbd
00000220: 821a c73d b0fe 7e3d 3e9f d83d 100b c0bc
00000230: b85a 0ebe ab1a 0a3e 71b2 073e 52e1 8b3d
00000240: d069 863d 6cae 8d3d c6f8 9e3d 5039 e0bd
00000250: 90a0 51bd 072a 053e 564c 03be f090 91bc
00000260: 40e5 f3bd 5e1c e73d e85a 803c 7838 4dbd
00000270: 804b 9eba bbf3 c8bd e75a 23be 4d56 f4bd
00000280: 4a9d bbbd 086c 8ebc da98 b63d 7785 1a3e
00000290: 1716 2e3e b097 e3bd 126c e2bd 3090 40bd
000002a0: 2861 a63c 4d75 0cbe fd0d cebd 9867 04be
000002b0: 6840 0d3d aea2 e43d 3cb3 723d caf9 ad3d
000002c0: 68b0 993c 9457 7bbd f054 2dbe 3ec3 d53d
000002d0: 55f5 1c3e 03c5 243e e090 e3bb 6062 eabc
000002e0: 23a8 e5bd 8482 623d 7747 9bbd 7b7c 2d3e
000002f0: 504c 273c fb9d 32be a695 d93d e0fb b9bc
00000300: 77af 1bbe b7af 85bd ccce 503d 3623 8dbd
00000310: 0080 7f3d 919e 18be fb64 1f3e edd0 d3bd
00000320: 303d e33c 7c8d 503d 0436 153d 1472 b0bd
00000330: df3a 30be 2218 f83d be82 bd3d 705e 2abc
00000340: 22c7 b33d a0a3 d13c 68f5 4cbd a03a 4e3d
00000350: c0d6 15bd 0046 b2bc 289c 573d a88a 04be
00000360: 1b35 293e cff9 2bbe d299 fe3d 82b0 d43d
00000370: 00e0 28bd 0555 e9bd 525a b23d 406c 223c
00000380: c45a 28be f08f 33be 8bed 2b3e 4cd7 423d
00000390: 92c5 a23d 8027 aabc 7d78 9dbd 7ac8 f53d
000003a0: fe8e bfbd d443 14bd 8eb5 8ebd 44f9 8fbd
000003b0: e0da 47bc ba1c ccbd 916e 82bd 9ae2 ed3d
000003c0: 49b3 89bd fb89 23be 2247 86bd cecd 03be
000003d0: a0a6 4c3c 62a7 07be b6eb a13d 39e5 abbd
000003e0: 5491 923d 37c3 dbbd d907 2bbe 4a8a 11be
000003f0: 0515 2c3e 3c25 25bd 00b3 0f3b 1212 c83d
0.11046125 0.14095442 0.042722702 0.08489023 0.14843039 0.043253288 -0.071628086 0.04482478
0.13458134 -0.08005345 -0.14142522 -0.1433483 0.13945518 -0.1079468 0.13708003 0.018931776
0.16724451 0.043037847 -0.010038719 0.0789928 0.14119215 0.13612713 -0.118302494 -0.111240685
-0.17557628 -0.1131108 0.023638144 0.16878046 -0.01402849 0.027142122 -0.082021914 0.034975454
-0.09222276 0.027507156 0.057843894 0.090546474 0.051421434 0.17329295 0.046952277 0.107223526
0.15944292 -0.072530426 0.062185526 0.09475179 0.058688685 0.16587524 0.052069232 0.028496891
-0.090827934 0.14449306 -0.04808645 -0.01556547 -0.0009402782 0.042571872 0.10404961 0.023849472
0.17092688 0.013226375 -0.028792322 0.17205454 0.05545558 0.14780046 0.15594544 0.11653446
0.15679134 -0.0032897443 -0.1208748 -0.11495694 0.10463114 0.053742036 0.008906603 0.018639803
0.17155407 -0.058195986 -0.1664768 0.046511993 0.0345722 0.09408496 0.047864243 -0.032413796
-0.04271081 -0.005149439 -0.08106778 -0.1661106 -0.010866031 0.11483391 -0.15759598 -0.035154387
0.052679196 0.14600416 -0.12629695 -0.112674706 0.12384032 -0.01678598 -0.05549252 0.14003797
0.11441724 0.0777898 0.059680656 0.15694298 -0.16946225 0.17514475 0.12693827 0.01759173
0.09253593 -0.06346875 0.06920357 -0.04497868 0.16936265 -0.02384466 0.17253442 -0.073787116
-0.08620105 -0.11083491 -0.014131203 0.035091758 0.01361528 -0.006908968 0.17491655 -0.022207975
-0.15827632 -0.1699773 0.15360413 -0.13651682 -0.13565399 -0.1599306 0.16075756 -0.06718787
0.028497681 -0.008173153 0.10335167 -0.063673496 -0.06268541 -0.03867127 -0.0011024922 -0.08379599
0.09721853 0.062254608 0.10577248 -0.023442775 -0.13901794 0.13486736 0.13251664 0.06830086
0.06563151 0.06918034 0.077622935 -0.109484315 -0.051178515 0.13004313 -0.12822089 -0.017769307
-0.1190896 0.112847075 0.015668347 -0.05010268 -0.0012076944 -0.09812113 -0.15952645 -0.11930523
-0.0916086 -0.017385498 0.08915873 0.15089975 0.17000614 -0.111129165 -0.11055769 -0.047012508
0.02031 -0.13716622 -0.10061262 -0.12930143 0.03448525 0.11163841 0.059252962 0.08494909
0.018760875 -0.061362818 -0.16926932 0.1043763 0.15327962 0.16090779 -0.0069447607 -0.028611362
-0.1121371 0.05530025 -0.0758199 0.16942017 0.010211065 -0.17443077 0.10624246 -0.022703111
-0.15203653 -0.065276556 0.050978467 -0.068914816 0.06237793 -0.14904238 0.15565865 -0.10342584
0.027739137 0.05091618 0.036428466 -0.08615509 -0.17209958 0.12113978 0.09253453 -0.010398492
0.08778216 0.025590718 -0.050038725 0.050348878 -0.036581755 -0.021761894 0.052639157 -0.12943518
0.16524164 -0.16794513 0.12431683 0.10385229 -0.041229248 -0.11393169 0.087086335 0.009913504
-0.16440874 -0.17535377 0.16789834 0.047568604 0.0794784 -0.020770788 -0.07688997 0.120011285
-0.093534455 -0.0361975 -0.069682226 -0.070299655 -0.01219818 -0.09966417 -0.06368745 0.116154864
-0.06723649 -0.15970604 -0.06556536 -0.12871477 0.012490898 -0.13247445 0.079062864 -0.0839333
0.071566254 -0.10730594 -0.16702212 -0.1421291 0.16804893 -0.040318713 0.002192676 0.09769072

weight_u f4 [32]
00000000: 5414 07be 7f65 23bc dd9c 42be dae9 15be
00000010: 369b 5f3d dcec 263e 8db3 3cbe bcf1 b73d
00000020: ba89 b7be ab8a 893e 1c74 37be c4ba cbbb
00000030: 2356 803e 2d1f 05bc 0083 0dbc 6db9 0e3e
00000040: 7bc8 eebe 2fba 13bd 6b8b 713d a898 2ebd
00000050: 3b1c 99bc 251b 0b3d 1ec0 f2bd 0341 2fbd
00000060: 37b4 903e 9273 4d3e 4577 d4bd 707d 6d3e
00000070: 1fa1 96be c122 0cbe 9a16 a1bd 9faa bdbc
-0.13191348 -0.009972929 -0.19005151 -0.14639989 0.05459138 0.16301292 -0.18427868 0.08981654
-0.35847265 0.26863608 -0.17915386 -0.0062173326 0.25065717 -0.008125109 -0.00863719 0.13937922
-0.4663733 -0.03606623 0.05897085 -0.042626053 -0.01869022 0.033961434 -0.1185305 -0.04278661
0.28262493 0.20063618 -0.10374311 0.23192382 -0.294198 -0.13685133 -0.07865639 -0.023152648

weight_v f4 [32]
00000000: d0b2 d73d 408d 8ebd 6f69 3cbd cb3c 07be
00000010: ba74 0b3e dc1c 1ebe 0ce9 81bd a5a0 1b3e
00000020: d373 b03e 818c 4b3c cdae 4b3e 57d0 5b3e
00000030: 6829 003c b7a7 12be 4b98 3dbc a83e 92be
00000040: aae4 723e 5331 bfbd 0d1d 0d3e f3b2 4bbe
00000050: 3857 853d 9a85 563e dbd7 f53d 003e 42be
00000060: f0d6 2cbe 1747 62bd 7634 65be ff31 5bbe
00000070: f838 653e 83c5 2f3e e8f5 20be 76a6 bb3e
0.10532153 -0.06960535 -0.045998987 -0.13206784 0.13618746 -0.15440696 -0.06343278 0.15198
0.34463367 0.012423635 0.198909 0.21466194 0.007822372 -0.1432179 -0.011571954 -0.28563428
0.23720041 -0.0933558 0.13780613 -0.19892482 0.06510776 0.20949402 0.12004062 -0.18968964
-0.16878867 -0.055243578 -0.22383294 -0.21405791 0.22385013 0.17165188 -0.15718806 0.36650437
