Models/M4/wo_ml_fade/wo_ml_fade_generator.pt (torch, 149351 bytes, 70 tensors)

bias f4 [32]
00000000: c987 6b3d bd37 5cbe 3bce 273e 7bd2 413d
00000010: 4f9c 6e3d 7971 933e e739 393e 3d97 e13d
00000020: 6a0f 25be 3c0d 8c3d 53cf a2bc 51a8 923e
00000030: 8951 64be 2a5b 573d b4fd 8b3e 7fb9 bcbd
00000040: 044d 44be 831e c3bd d473 593e dd8b 8d3e
00000050: b2e7 30be 5fe8 2dbc 0213 0c3e 3731 1abe
00000060: 7fee 2b3e 92c4 c9bd 6c4b 9b3e f116 abbd
00000070: df68 fabc be96 28be 8ae3 d3bd 9c34 b6bd
0.05750254 -0.21505637 0.16387264 0.04731987 0.058254536 0.2879751 0.18088494 0.110151745
-0.16119161 0.06838462 -0.01987425 0.2864404 -0.22296728 0.052577175 0.27341998 -0.09215068
-0.19170004 -0.09527304 0.21235591 0.2764577 -0.17275885 -0.010614484 0.13679126 -0.15057836
0.16790198 -0.09851946 0.3033098 -0.08353985 -0.030567585 -0.16463754 -0.10346134 -0.08896753

weight_orig f4 [32, 12, 1]
00000000: 8a66 a93c 60b9 443e 8d3b 69be 9a7a a9bc
00000010: e0e4 7e3e 5af2 f5bc 7a74 f33d 739c 1dbd
00000020: 585e 0d3e 676f 2d3e 1dc4 343e 760a cabd
00000030: 98ce 883e 4f1b 28be b8ad 03be a63c 1ebe
00000040: b581 913c 2542 553d f12d 39be 0fcd b33c
00000050: e48f d6bc 446e e73d 07b6 363e 73f7 93be
00000060: f3b8 19be 684e 36be a1cf a53b 8f6e 0a3e
00000070: 818f 74be 1754 673e d4b0 8e3d abbd 17be
00000080: 2446 03bd 862f 863e f34e 59be 9675 323d
00000090: b1e9 743d a765 92be 5cda 61be 12ce 8bbe
000000a0: daa6 48be 3c19 fc3d e259 85bd b04b 3a3e
000000b0: 552d 3a3e d3ed 61be e7bb 99bd ab06 543e
000000c0: cbab a23b e476 c6bd 201b 6d3e 55ce dbbc
000000d0: c2f3 7b3e fd7f 823e 66af 6e3d 5b0d 77be
000000e0: 14cb 563e a8c6 af3c 799e 093e 5556 3dbe
000000f0: 1911 0fbe 8e58 4d3e 7044 22be 408e 9ebe
00000100: 76f9 203e 5ed7 5fbe 06db 8fbe 8ef9 06be
00000110: 417d 63bd be47 2d3e 8411 4c3e 56a2 f6bd
00000120: ee3a 7abe 9d29 b8bd 9016 45bd 0968 bfbd
00000130: 8abe 1fbe 35f7 293e 2af3 053e 3956 4a3e
00000140: f7bc 463e 9184 053e 82e8 683e a7be 293e
00000150: f02d 8f3e 3907 e63d f7b6 30bd 1130 06be
00000160: 83d1 283e 9858 463e 0884 c43d 9a24 cebd
00000170: f466 a7bb ea63 3dbe 282f 1a3e 5431 7d3e
00000180: 576b e5bc 9fee 6fbe d0e1 a23a e2a4 543d
00000190: 199f 953d 6078 6d3e 43fe 7e3e 6076 28be
000001a0: 2fa3 3f3e 3803 babc cedf 543e f531 a63d
000001b0: cad5 ef3d 69f0 a6be dae3 2ebe d66c 95be
000001c0: f43f 8bbc d607 62be fba1 4abd 6d05 03be
000001d0: 7d17 843e f5c3 9cbe 681b 82bd 7309 48be
000001e0: f6c6 75bd 9b69 89be e50b 7dbd 7cae 1a3e
000001f0: b849 783e 1db8 44be 29fe 4cbd d64e 623e
00000200: 19a2 7fbe d889 953c 8e55 a3bd 71e4 aebc
00000210: 778c 353e c4b0 043d f7ff 86bd a50a 84be
00000220: 77e2 eb3d 27d3 203e 5b35 293e 3311 57be
00000230: 8e18 1b3e 1ef5 e6bd a0ae 4dbe 2d06 0a3e
00000240: 0a22 7cbe f8e5 913e a3eb 35be 53df c0bc
00000250: 976b 51be 70fd 8fbd ad8f a0bd ac0c 0bbe
00000260: c090 b93d 7910 35be ed14 3fbc 1ea7 9f3e
00000270: 2d10 44be 0718 033e cb76 58be b70b 033c
00000280: 76d3 8bbd 97c2 3d3e 4874 39bd cdf2 293d
00000290: cbab cbbd 20ba 6fbe 1b6e 533e b24a 43be
000002a0: b6fb 9fbd 327f 95bd 5652 983d a0e8 c73a
000002b0: ddb5 e63d 1a75 863e bcd6 02be d774 83be
000002c0: 33e2 1fbe 0053 a93c 4665 41be af29 8ebd
000002d0: 96ac 573d 113e bfbc 6fd4 eb3c 4d75 08bd
000002e0: e1f7 133e 9edb 0f3e 5c21 36bb 9c34 483e
000002f0: e9df 6f3d 6ed5 fb3d 225d c3bd f5a9 103e
00000300: 87a8 6e3e 0921 cb3c 11bf 323e f84b 4fbe
00000310: 026f bcbd f887 acbd 20d7 bf3d b4b0 3b3d
00000320: c7d5 263e 77de 0cbe f89e 81bd a65d 3ebe
00000330: 5505 a9bd c7de 363d ee8e 8b3c b045 1cbd
00000340: f72f fdbd 7ba6 993e 5422 c1bd 2df8 3bbe
00000350: 0aab 983d 0f05 8c3e 3a23 d1bd a618 123d
00000360: 7464 43bd 9833 debc ce0c 87bd 1297 88be
00000370: 06e9 6b3e 20fc a63d 83ba 06be a212 a53e
00000380: 9ce8 6d3e 09e8 e7bd d2ae 543e b100 68bc
00000390: 90bf d83b 5904 29be dadb ff3d a549 e33d
000003a0: 4fb6 153b d6b6 b0bc ad7b d0bc def2 803e
000003b0: 0d98 96be 7f72 593d 6e55 a93c e5a6 b63d
000003c0: f6c8 6d3e 580c 78bc c9b8 063e 8d1f 1fbd
000003d0: bde1 353e f2e1 b53d 5c3d d03c 6091 933e
000003e0: d160 f5bd 6bcd fcbd 8ec9 0abc 9bb8 9ebd
000003f0: fbe5 22be 0a40 58be e748 973e 2981 8abc
0.020678777 0.1921134 -0.22776623 -0.020688344 0.24891996 -0.030022789 0.118874505 -0.03847928
0.1380552 0.16937028 0.17652936 -0.098652765 0.2672012 -0.16416667 -0.12859237 -0.15452823
0.017762044 0.052065033 -0.18083932 0.021948365 -0.02619166 0.113003284 0.17842875 -0.28899726
-0.15011959 -0.17803347 0.0050601517 0.13518737 -0.23882867 0.22590671 0.06967321 -0.14818446
-0.032049313 0.26208133 -0.21221523 0.04356917 0.059793178 -0.2859318 -0.22055954 -0.27305657
-0.19594899 0.123095006 -0.065112844 0.18192935 0.18181355 -0.22063379 -0.07506543 0.20705669
0.004964327 -0.09690645 0.23154879 -0.026831785 0.24604705 0.25488272 0.05827274 -0.24126188
0.20975906 0.021457031 0.13439359 -0.18489964 -0.13971366 0.20053312 -0.1584642 -0.30967903
0.15720162 -0.218595 -0.2809679 -0.13181135 -0.055539373 0.16921899 0.19928557 -0.12042682
-0.24436542 -0.08992312 -0.04811722 -0.09346015 -0.15600029 0.16598208 0.13081041 0.19759454
0.19408022 0.13038851 0.22744945 0.16576634 0.27964735 0.11231846 -0.04314324 -0.13104273
0.16486172 0.19369733 0.095954955 -0.10065575 -0.0051087085 -0.18495145 0.15057051 0.24725848
-0.028005285 -0.2343087 0.0012426917 0.051915057 0.07305736 0.2319045 0.2490168 -0.16451406
0.18714593 -0.022706613 0.207885 0.08114997 0.11710699 -0.32605293 -0.17079106 -0.29184598
-0.016998269 -0.22073302 -0.049470883 -0.12795039 0.2579917 -0.30618253 -0.063528836 -0.19534855
-0.060004197 -0.26838383 -0.06177892 0.15105623 0.24246871 -0.19210859 -0.050047074 0.22100386
-0.24964179 0.018254206 -0.07975303 -0.021349164 0.17729364 0.03239514 -0.0659179 -0.2578937
0.11517804 0.15705548 0.1652426 -0.21002655 0.15146086 -0.11277221 -0.20086145 0.13478918
-0.2462236 0.28495765 -0.1776567 -0.02354399 -0.20451199 -0.07030761 -0.07839904 -0.13579053
0.09060812 -0.17682065 -0.011662704 0.31182188 -0.19146796 0.12802134 -0.21139066 0.0079983985
-0.06827442 0.18531261 -0.04527691 0.04149132 -0.09944876 -0.23410845 0.2064747 -0.19071463
-0.07811682 -0.07299651 0.07437579 0.0015251823 0.112651564 0.26261216 -0.12777227 -0.2567508
-0.15613632 0.02066946 -0.18886289 -0.06941544 0.052654825 -0.023345025 0.02878782 -0.03331499
0.14450027 0.14048621 -0.002779088 0.19551319 0.058563147 0.12296568 -0.09539248 0.14127333
0.23306476 0.024796026 0.17455699 -0.20243824 -0.092008606 -0.084243715 0.09367204 0.045822814
0.16292487 -0.13756739 -0.06329149 -0.18590412 -0.0825297 0.04464605 0.017035928 -0.038152397
-0.12362664 0.30009827 -0.09430376 -0.1835639 0.07454498 0.2734761 -0.10211797 0.035668038
-0.04770322 -0.027124211 -0.06594239 -0.26677758 0.2303811 0.08153558 -0.13157086 0.32240778
0.23233265 -0.11323554 0.20769814 -0.014160321 0.006614633 -0.16505565 0.12493105 0.11098031
0.002284426 -0.021571558 -0.025449598 0.25185293 -0.2941288 0.053087708 0.020670619 0.08918551
0.23221192 -0.015139662 0.13156427 -0.03884845 0.17761894 0.08880986 0.025419883 0.2882185
-0.11981357 -0.12343868 -0.008470906 -0.077500544 -0.15908043 -0.21118179 0.29547808 -0.016907291

weight_u f4 [32]
00000000: 5deb d83d b818 183e 6c45 8fbe ebd8 613e
00000010: 5cd5 05bd d412 9f3d ea95 7b3d 5413 e03d
00000020: ff59 123d 6dae a33e 80a4 59bb e881 463d
00000030: ec15 93bb 605f 023e 8238 5dbe e3c7 17bd
00000040: c6ab 1e3e 2581 64be 7485 8e3e 2d05 98bd
00000050: f5e8 c63d 64b8 9cbe 728c 033e d3d2 5b3e
00000060: 48e6 cbbd c4e4 a13e 08d2 383d 530a 933e
00000070: 8d9f 22be 8c21 86be fe40 26be ea85 c93d
0.10591767 0.1485318 -0.27982652 0.22055404 -0.03267418 0.07767263 0.061422266 0.109411865
0.03573036 0.31969014 -0.0033209622 0.048463732 -0.0044886973 0.12731695 -0.21603587 -0.03705586
0.15495214 -0.2231489 0.27836192 -0.07422862 0.09712402 -0.3060943 0.12846544 0.21467142
-0.09956032 0.31619847 0.045122176 0.28718814 -0.15881176 -0.2619747 -0.1623573 0.09839995

weight_v f4 [12]
00000000: aaf1 603e 14c4 a9bd d22f bebe f177 b9be
00000010: 6f91 6e3d 8382 73be fa6b 013e fc99 a53e
00000020: fa4e 923e 321a f3be 1660 c73e e35f 43be
0.21967188 -0.08289352 -0.3714586 -0.3622432 0.058244165 -0.23780255 0.12638846 0.32344043
0.2857588 -0.47480923 0.38940495 -0.19079547

weight f4 [32, 12, 1]
00000000: 281b 6d3c 666b 093e 0df2 22be 7218 6dbc
00000010: 2d13 323e b812 acbc b211 aa3d 9c4d dcbc
00000020: 2589 c53d ca4e f23d aab2 fc3d 3e3b 8dbd
00000030: fb38 3f3e fafc eabd 4018 b8bd ee31 ddbd
00000040: c535 4b3c beea 143d 7f63 01be e9c2 7b3c
00000050: 8c9e 95bc c0a7 a13d ae6d ff3d 26d5 4ebe
00000060: 5edc d6bd 52bd febd d041 693b 0784 c13d
00000070: fbe1 2abe aaa7 213e d649 473d bc12 d4bd
00000080: ee7e b7bc c08c 3b3e e7e0 17be 8ab9 f93c
00000090: 631d 2b3d 2c95 4cbe 9bd9 1dbe f25e 43be
000000a0: 6231 0cbe 232a b03d da5d 3abd 652e 023e
000000b0: 3f1e 023e 9ae0 1dbe 17bb 56bd 6c1e 143e
000000c0: 2052 643b b5a0 8abd 22ac 253e 25a3 99bc
000000d0: d60d 303e 6260 363e 77bd 263d 7ca3 2cbe
000000e0: f915 163e 0dac 753c 4c4d c03d 134c 04be
000000f0: b8dd c7bd 4774 0f3e 7bd7 e2bd 5391 5dbe
00000100: 55ff e03d ea6e 1cbe d802 49be b0a0 bcbd
00000110: 3ade 1ebd 8b23 f23d d99d 0e3e 4e61 acbd
00000120: acd3 2ebe 37b1 80bd 67a4 09bd bebf 85bd
00000130: c639 dfbd ce7d ed3d 3f31 bb3d 365e 0d3e
00000140: 93de 0a3e a895 ba3d 0dc6 223e 982e ed3d
00000150: d915 483e 8dbe a03d bf3c f7bc 6382 bbbd
00000160: eee8 eb3d ad99 0a3e f053 893d fc09 90bd
00000170: fdc1 68bb 8c57 04be cc88 d73d e8e7 303e
00000180: 3954 a0bc c5a8 27be 9532 623a 3a90 143d
00000190: 4628 513d 2dee 253e d02f 323e 1b71 ebbd
000001a0: d7e8 053e 6828 82bc a4c3 143e 5e3d 683d
000001b0: d8a2 a73d e84b 69be 3f78 f4bd 39d7 50be
000001c0: 9b42 42bc e4f6 1dbe 3080 0dbd 2b1a b7bd
000001d0: 86a0 383e b71a 5bbe b2b1 35bd b3d1 0bbe
000001e0: 11ab 2bbd 2907 40be 03bb 30bd 1130 d83d
000001f0: 2a7b 2d3e db72 09be 614a 0fbd b21e 1e3e
00000200: 829e 32be c5e5 503c 034b 64bd 6b67 74bc
00000210: fab7 fd3d 6544 b93c 43ab 3cbd c77e 38be
00000220: 21d2 a43d 96c4 e03d fb64 ec3d 7548 16be
00000230: 27cc d83d 8d5c a1bd 0db7 0fbe bbe0 c03d
00000240: 052a 30be 4edd 4b3e 0535 febd 9a82 86bc
00000250: 1053 12be a25e 49bd 7984 60bd d753 c2bd
00000260: 97a4 813d 3904 fdbd 4ba0 05bc 751e 5f3e
00000270: 1d04 09be 2930 b73d c747 17be f4e7 b53b
00000280: 3c91 43bd 4e9e 043e f975 01bd ed93 ed3c
00000290: b265 8ebd 508c 27be 80c7 133e 7d81 08be
000002a0: 1575 5fbd d3e0 50bd 1b08 553d 79f1 8d3a
000002b0: 0d35 a13d cee5 3b3e dcd0 b6bd a1bb 37be
000002c0: d873 dfbd 7ff5 6c3c af2b 07be 8b86 46bd
000002d0: 8a9e 163d 286d 85bc 6ccf a43c 4695 bebc
000002e0: 40df ce3d 4d1f c93d 7561 00bb 35e8 0b3e
000002f0: 38b6 273d 7806 b03d e78e 88bd 0433 ca3d
00000300: 2dc5 263e f9c0 8d3c 02bd f93d 00dc 10be
00000310: 62a4 83bd b033 71bd ef09 863d 5a2f 033d
00000320: aa32 e93d c5e6 c4bd 3202 35bd 810f 05be
00000330: 3333 6cbd c971 ff3c 794b 433c ae45 dabc
00000340: 7bea b0bd 09b3 563e 31ee 86bd dd59 03be
00000350: 4147 553d e9ae 433e 5832 92bd 436f cc3c
00000360: 5e71 08bd b670 9bbc 94d3 3cbd e8dd 3ebe
00000370: 46d1 243e 5549 693d 9a47 bcbd a0ab 663e
00000380: 383f 263e 4615 a2bd 26a5 143e b8b1 22bc
00000390: 7abb 973b 9035 ecbd dfbb b23d eadf 9e3d
000003a0: 887c ce3a 2909 77bc a2da 91bc 622f 343e
000003b0: 7675 52be dcfb 173d 0e3a 6c3c b851 7f3d
000003c0: f522 263e c146 2dbc 333a bc3d d331 debc
000003d0: f225 fe3d fa20 7e3d c153 913c 5937 4e3e
000003e0: 606e abbd ffa1 b0bd d048 c1bb a1e8 5dbd
000003f0: 12b0 e3bd 671a 17be 5b6f 533e 953b 41bc
0.014471807 0.13419876 -0.15912648 -0.01447116 0.17390127 -0.02100502 0.08304156 -0.026892476
0.09645299 0.11831434 0.12338765 -0.06896065 0.1867408 -0.11474033 -0.08989 -0.10800539
0.012402956 0.03635668 -0.12635611 0.015366294 -0.018264078 0.07893324 0.124720916 -0.20198497
-0.104912505 -0.12438454 0.0035592206 0.0944901 -0.16687767 0.15786615 0.0486544 -0.10355136
-0.022399392 0.1831541 -0.14831887 0.03048398 0.041776072 -0.1997878 -0.15415041 -0.19079188
-0.13690713 0.08601787 -0.04549966 0.1271301 0.1270685 -0.1541771 -0.052424517 0.1446473
0.003483899 -0.06768934 0.16178945 -0.018754551 0.17192778 0.17810205 0.04070803 -0.1685924
0.1465682 0.014994633 0.09389743 -0.12919645 -0.09759086 0.140092 -0.11076256 -0.21637468
0.10986201 -0.15276685 -0.19629991 -0.09210336 -0.03878615 0.118231855 0.13927402 -0.08416997
-0.17072934 -0.06283801 -0.033604052 -0.065307125 -0.10899691 0.11596261 0.09140252 0.1380547
0.13561468 0.09110576 0.15895863 0.11581153 0.19539584 0.07848845 -0.030180333 -0.09155729
0.11519037 0.13535185 0.06705463 -0.07033154 -0.0035516017 -0.12924021 0.10524139 0.17275965
-0.01957141 -0.16372974 0.0008628753 0.036270358 0.0510638 0.16204138 0.17401052 -0.114961825
0.13077103 -0.015888408 0.14527756 0.05669915 0.08185357 -0.22782862 -0.119369976 -0.20394601
-0.0118567 -0.15426213 -0.034546077 -0.08940538 0.18029985 -0.2139691 -0.044358917 -0.13654213
-0.04191119 -0.18752731 -0.0431471 0.10556043 0.16941515 -0.1342272 -0.034983043 0.15441397
-0.17443278 0.012750094 -0.0557356 -0.014917235 0.12388606 0.02261562 -0.046061765 -0.18017112
0.080478914 0.10974996 0.11542698 -0.14676078 0.10585814 -0.07878981 -0.14034672 0.09417864
-0.17203529 0.1990864 -0.124124564 -0.016419698 -0.14289498 -0.049162515 -0.054813836 -0.094886474
0.06330221 -0.12354321 -0.008155893 0.21788962 -0.13380475 0.08944733 -0.14773475 0.0055513326
-0.04774593 0.12951013 -0.031606648 0.0290012 -0.069529906 -0.16362119 0.14431572 -0.13330646
-0.054555018 -0.05099566 0.052009683 0.0010829411 0.07871447 0.18349382 -0.089265555 -0.17942668
-0.10910767 0.014462828 -0.13200258 -0.048468154 0.03677229 -0.016287401 0.020118438 -0.023264538
0.10101175 0.09820423 -0.001958934 0.13662799 0.04094526 0.08594984 -0.066678815 0.09873012
0.16286154 0.01730393 0.121942535 -0.14146423 -0.06427838 -0.058887184 0.065448634 0.03202758
0.113866165 -0.09614328 -0.044191547 -0.12994196 -0.057666015 0.031182187 0.01191985 -0.026644554
-0.086384736 0.20966734 -0.065884 -0.12827249 0.052069906 0.19109692 -0.071385086 0.024955397
-0.03331124 -0.018974643 -0.046100214 -0.18639338 0.16095456 0.0569547 -0.091933444 0.22526407
0.16235054 -0.07914214 0.14516124 -0.009930067 0.0046305032 -0.11533654 0.0872724 0.07757552
0.0015753666 -0.015077868 -0.017804448 0.175962 -0.2055262 0.037105426 0.014418138 0.062333792
0.16224273 -0.010575951 0.09190788 -0.027123367 0.12409581 0.062043168 0.017740132 0.20138301
-0.08370662 -0.08624648 -0.0058985725 -0.05417693 -0.11117567 -0.14756165 0.20647947 -0.011793991

weight f4 [1, 32, 1]
00000000: ef35 043d c123 fb3d 146f 95bc d03a 573c
00000010: a35b 14be 5887 3fbd 7ff8 06be 7376 2a3e
00000020: 8238 bebd 21da debd 6cc9 09be 4aab d9bd
00000030: eb1f da3d b301 1f3d 8ae7 b5bd bd54 b0bb
00000040: a53a bdbd cfd5 2f3c 8591 8abd f4e7 b5bc
00000050: 4e59 e5bd 5e3f 89bd b067 ffbc fb35 18be
00000060: 1eea 87bc 1851 243d f965 8d3d 0e5e 2ebe
00000070: f8d8 8f3c 3786 05be a20f a93d 4ec5 d0bd
0.032277998 0.12262679 -0.018241443 0.013136581 -0.14488082 -0.046759933 -0.13180731 0.16646747
-0.09288122 -0.108814485 -0.13455743 -0.10628374 0.10650619 0.03881998 -0.08882053 -0.0053811953
-0.09239701 0.010732128 -0.06766037 -0.02220533 -0.11198674 -0.067015395 -0.031177372 -0.14864342
-0.016591128 0.0401164 0.06904215 -0.17028067 0.017559513 -0.1303948 0.08254935 -0.10193883

weight f4 [1, 32, 1]
00000000: 3f05 213e 9b92 2bbe 6f27 e5bd 8238 dcbd
00000010: 4cf4 13be 5403 403d b520 333e 75fb 263d
00000020: 8a5e 083e 3e5d dc3d fa86 a2bd 5960 d53d
00000030: 0518 063e aa37 4ebb b6b2 0fbb d29c 32be
00000040: 77ac a53d bb4a a9bc cdc5 ecbd f551 aebc
00000050: dd9d a23d bd09 513d b462 e1bb 0010 273e
00000060: c542 6b3d 2507 2cbe 8af2 5e3d eee8 4b3d
00000070: bad0 9fbc 44f0 3d3c ba29 dcbd 790b 17bc
0.15724657 -0.16755144 -0.11189162 -0.107529655 -0.1444866 0.046878174 0.17492945 0.04076715
0.13317314 0.10759972 -0.07935901 0.104187675 0.130951 -0.0031466284 -0.0021926588 -0.17442635
0.08089536 -0.020665517 -0.11561165 -0.021279315 0.07940266 0.051034678 -0.0068782214 0.16314697
0.057436723 -0.167996 0.054430522 0.049782686 -0.019508708 0.011592928 -0.10750146 -0.009219044

weight f4 [1, 32, 1]
00000000: 5ff1 423d b96e 1dbe 2971 edbc a83f b13d
00000010: 813c 003e 6e09 803d f2e2 1cbe 2bae 4bbe
00000020: 6576 f43b d6b7 da3d 09dc c73c f4f8 03be
00000030: 3096 133e ed7c b23b 38fc b2b9 59b5 793d
00000040: c5dd ed3d 1a50 e9bd 2893 56be 82b8 b73d
00000050: 12c7 0fbb 2370 9a3d 4a61 3bbe 9b25 533c
00000060: 9cdb 003d c056 6dbd 1f7e a0bb b925 b5bd
00000070: 1395 103d 721d 513c 166d acbc 4144 b2bd
0.04759347 -0.15374269 -0.028984623 0.086547196 0.1252308 0.062517986 -0.15320948 -0.19890659
0.007460403 0.10679595 0.024396913 -0.12887937 0.1441276 0.005447021 -0.00034138723 0.060963962
0.11614565 -0.11392231 -0.20954573 0.08970739 -0.0021938724 0.0754092 -0.18298832 0.012887384
0.031459436 -0.05794406 -0.0048978473 -0.08845086 0.03529842 0.012763368 -0.02104811 -0.08704425

bias f4 [32]
00000000: b12a 153e ccf2 85bd fdb4 c5bc 5dfa f4bb
00000010: 49f0 04be ad7d 15bd 77ed 0abe fd2b ec3d
00000020: 658e 553d cc43 8abd cedc 1e3e e5c9 153e
00000030: a9b2 3abb 66b4 7dbc 8217 003e a801 c93d
00000040: 6391 e3bd a838 acbd 4d9a ccbb e246 3c3d
00000050: b185 ff3a 2701 17bd 41f6 af3c 05fc 0a3e
00000060: 7cd5 b83d 46de 293d e633 a53d 1db0 183e
00000070: e45e 3e3d 1cda 5e3d 5235 cc3d 2f0d 71bd
0.14567067 -0.065404505 -0.024134154 -0.0074761347 -0.12982287 -0.036496807 -0.13567148 0.115318276
0.05213775 -0.067512125 0.15513918 0.14627798 -0.0028487837 -0.015484905 0.12508968 0.09814769
-0.11111715 -0.08409244 -0.00624398 0.045966037 0.0019494799 -0.036866333 0.021479728 0.135727
0.09025094 0.041471742 0.080665395 0.14910932 0.046477214 0.054407224 0.099711075 -0.058850463

weight_orig f4 [32, 43, 1]
00000000: 17b5 033e 91e2 11be 10cb 273d 15d7 ebbb
00000010: aa66 d7bd e1e3 4b3e 881c bcbd 6834 203e
00000020: 5583 e73d 8a31 78bd 6b17 27bd d4b8 42bd
00000030: 1c32 033e 6aaa 1ebe c3c0 04be a517 51bd
00000040: 3368 89bc cf44 243e 5812 1e3d 1e80 703d
00000050: 4738 e5bc 6dd8 0c3e d7f0 4cbc 82e8 bcbc
00000060: 273b 153e 2e21 c53d 453b debd c35d a63d
00000070: e174 d53c d7d8 d13d 341c a5bd a052 a73d
00000080: ad95 403e 2af0 3a3e d26e 133e 1103 17bd
00000090: 15df debd 14bf d3bd fe6f 10be 91bc 4e3d
000000a0: 9075 1d3e 5d1a be3b 1a02 083e 71d7 1d3d
000000b0: 74c2 12be c76a 7f3c bae3 213e 0326 b93d
000000c0: d684 babb c0fc a0bd 589b b2bd 97e6 aa3d
000000d0: 983f f73d c76c cabd a832 b6bd 364f 85bc
000000e0: 67d5 c9bd 0f94 80bd a8c4 5c3b 6078 d83b
000000f0: 1db5 ca3c 1d72 eebc 0fc7 d13d 46f9 5dbc
00000100: 2b18 e9bb 4114 2abc b2dd 81bc 05a6 a6bd
00000110: b528 323e 9d2b 9e3d 4d6d 62bc 30e4 0a3e
00000120: 9c95 e13d 599f 2f3e cfd6 b13c 75ab ffbc
00000130: 902a 1dbe 51b0 ca3d ad15 c13c 0102 bebc
00000140: aa55 673d 144e 0b3d 078f 263e 8438 8cbd
00000150: 28ea e43d 8c34 ec3d 3ff1 643b 6c4b dfbd
00000160: 14c5 6b3d 5c88 cc3c 8168 f9bd 234b c63d
00000170: decf dc3c 21ac 733d 5349 023e d285 edbd
00000180: 9537 5fbd 04b3 a3bd e046 22be 57a6 d93d
00000190: d907 61bd 8ee5 523e 0808 433d 373e 26bd
000001a0: 259e 8f3b 65f1 edba a407 2a3e 5e58 b43d
000001b0: 41ec d1bd 6402 8e3d b861 ed3d fbc3 79bd
000001c0: 7a4c 6bbd 733f 2abe 3fef 5f3b c845 d6bd
000001d0: 1c4e f33d f40e d7bc 1e2e a73b 7a93 10be
000001e0: 5e3a 123b 84cc 42be ca7e bcbd 7f15 9b3d
000001f0: 8c74 553d 1b4a a43d 82ae b93d 9929 523d
00000200: b2b6 163e 0ce3 cc3d 4eb3 1b3d 973f 303d
00000210: ab1a cdba 5f5c e7bd 1940 fe3d 6136 013e
00000220: 4b8c 7d3c d079 b33d 4202 80bb 596e fe3d
00000230: 700b c03d 0847 733c d471 87bc efb4 cd3d
00000240: 024b 39b9 8dbf 6bbd 2c23 823d cf44 7d3d
00000250: 68d7 793d f22b 7cbd c2ce c43d 0159 5ebb
00000260: 5ea9 493c 8cd3 6cbd 3800 05be 3397 0ebd
00000270: 255f a83d ddd7 ba3d db51 a33b 0d30 413d
00000280: 22cb 4c3d a145 c03c 99a5 763a c803 c33d
00000290: 54db 703d f6ba 74bd d3de d63d c59e d83d
000002a0: 08bc 5d3d ddcc 433d a6a0 083d 93d3 2bbd
000002b0: 3406 4fbd 29dd 15be 7654 05bd f029 173a
000002c0: bdb0 d4bd a520 b5bd e046 d33d b05c 9a3d
000002d0: 7294 233e c565 83bd 9685 80bd d52c 753c
000002e0: aab0 463c e4c3 c3bd 50d2 a7bd 2c23 883d
000002f0: 3a99 ad3d 8a3b 1a3e 8583 d7bd 5564 e4bd
00000300: 5cc0 2f3d 27ba 003d 6649 edbc 44fa 80bd
00000310: 4bcc 983d 20e2 393d 4de5 b2bc f548 c6bd
00000320: da23 8ebd c821 8fbd f499 d13d 4d1d ca3d
00000330: 718c 603d 6797 26bd a3b1 efbd 8c26 1fbe
00000340: 9e8b 4cbd 2bfe 17bd a3ba e73c 53ab b3bd
00000350: 5150 ec3d 847d bdbc f417 ab3d 9d9a 1f3e
00000360: 4664 17be e919 8c3d a0aa 073e 40d0 883d
00000370: 7cf6 0a3e 41c0 0dbd 573e 0abe 11bd 063e
00000380: c2b3 e7bc 442e 2e3e f158 a3bc 0791 1b39
00000390: 6100 babd 58cf d8bd 7be9 46b9 b716 a63d
000003a0: 34d7 293d f73b 3c3d 7c40 2e3d 4783 4f3d
000003b0: e820 c63d 12b5 13be 18b1 df3d cadd f73d
000003c0: 8de2 c83d 341e ea3d 3aa0 10be 906a 4ebc
000003d0: f600 1fbd 1264 8abd cd65 da3d a854 7bbd
000003e0: a631 563d f6bb 6ebd 65c8 3e3d a1ba 42be
000003f0: 1abf 073d 4592 2fbc 0772 b1bd ac52 a63d
0.12862049 -0.14246584 0.04096514 -0.0071972706 -0.105176285 0.19911148 -0.091851294 0.15644991
0.113043465 -0.06059412 -0.040793817 -0.047539547 0.12812084 -0.15494695 -0.12964158 -0.05104794
-0.016773319 0.16041873 0.038591713 0.058715932 -0.027980937 0.13754435 -0.012508593 -0.023060087
0.14573346 0.09625469 -0.108511485 0.081233524 0.026056709 0.10246437 -0.0806202 0.08170056
0.18807097 0.18255678 0.14397743 -0.03686816 -0.10882393 -0.1033918 -0.14105222 0.0504728
0.15376878 0.0058014826 0.13282052 0.03853554 -0.1433199 0.015589423 0.15809527 0.09040453
-0.005692105 -0.07860708 -0.08721036 0.08344763 0.120726764 -0.09884029 -0.08896381 -0.016273122
-0.098551564 -0.0627824 0.0033686552 0.0066061467 0.024744565 -0.029107148 0.102430455 -0.013548201
-0.0071134767 -0.0103808055 -0.015852783 -0.081371345 0.17398341 0.07723162 -0.013820005 0.13563609
0.11014864 0.1715063 0.021708874 -0.031209687 -0.15348268 0.09896911 0.023569906 -0.023194315
0.05647818 0.034010008 0.16265498 -0.06846717 0.11177474 0.1153346 0.0034933833 -0.109030575
0.057560995 0.024967365 -0.12178136 0.096823 0.026954588 0.059490327 0.12723283 -0.1159779
-0.054496367 -0.07993129 -0.15847349 0.1062743 -0.054939125 0.2059538 0.04761508 -0.040586676
0.004382866 -0.0018153606 0.16604477 0.08805917 -0.1025014 0.0693405 0.11590904 -0.060977917
-0.05744598 -0.16625766 0.0034169701 -0.104625285 0.118801326 -0.026252247 0.005101933 -0.14118758
0.0022312622 -0.19023329 -0.092038706 0.075724594 0.0521131 0.08021947 0.09066488 0.051309202
0.1471813 0.10004243 0.038012795 0.043029394 -0.0015648206 -0.11296915 0.124145694 0.126184
0.015475343 0.08763468 -0.003906519 0.12423391 0.093771815 0.014848478 -0.01653377 0.10044276
-0.00017670917 -0.057555724 0.06354365 0.0618332 0.060996443 -0.061565347 0.096097484 -0.0033927562
0.012308447 -0.057818934 -0.12988365 -0.034812164 0.082212724 0.09123204 0.004984123 0.047164965
0.04999841 0.023470702 0.0009408831 0.095222056 0.058802918 -0.059748612 0.10491719 0.10577158
0.0541344 0.047802795 0.03335633 -0.04194982 -0.050543025 -0.14635147 -0.03255125 0.0005766442
-0.10385273 -0.08844117 0.10316253 0.0753721 0.15974596 -0.064158954 -0.062754795 0.014964302
0.012127081 -0.095588475 -0.08194411 0.066473335 0.08476491 0.15061775 -0.10523132 -0.11151949
0.042908058 0.03142753 -0.028965663 -0.062977344 0.07460841 0.045381665 -0.021837855 -0.09681884
-0.06940432 -0.06988865 0.10234442 0.0986887 0.054821435 -0.040671732 -0.117038034 -0.15542048
-0.049937837 -0.037107628 0.028287238 -0.08772912 0.11538757 -0.02313114 0.08354178 0.15586324
-0.14784345 0.068408795 0.13248682 0.066803455 0.13570589 -0.034607176 -0.13500343 0.1315806
-0.028283957 0.17009836 -0.019939872 0.00014835979 -0.090821035 -0.10586423 -0.0001896973 0.08109801
0.041465 0.045955624 0.042541966 0.050662305 0.09674245 -0.14424542 0.1092245 0.1210285
0.09808836 0.11431542 -0.14123622 -0.012598649 -0.038819276 -0.06757368 0.10663948 -0.06136003
0.052293442 -0.058284722 0.04657783 -0.19016506 0.033141233 -0.010716026 -0.08664327 0.08121237

weight_u f4 [32]
00000000: c93a 533e a778 c33d 431e 873e a2ed 913d
00000010: f799 543e b512 aa3e b80b 99be e84e 063e
00000020: 8c90 543e 2dd1 843e 0e39 433e 5bbc 1f3c
00000030: da00 4ebd 2a98 f03d 083d 563e c771 ecbd
00000040: a585 863e fc8c 3e3c 4bfe 35be 3985 b33d
00000050: 443d afbd d8cc 793e 259b 213d a0ae 84bc
00000060: f75a 723d b2f2 383e 3128 433e 2114 7a3e
00000070: 1ffb 1c3e 6c0b 3dbd 0a47 513e cdad 043e
0.20627894 0.09544497 0.26390275 0.07125403 0.20761858 0.33217397 -0.29891753 0.13116038
0.20758265 0.25940838 0.19064733 0.009749497 -0.05029378 0.11747773 0.20921719 -0.11545139
0.26273838 0.011630293 -0.17772786 0.087656446 -0.08556607 0.24394548 0.039454598 -0.016196549
0.059168782 0.18061331 0.190583 0.24421741 0.1533017 -0.04615347 0.20437256 0.12956925

weight_v f4 [43]
00000000: c842 1f3e 3e9c 8fbe 200f 0d3e eff6 3d3e
00000010: 0c4c fbbd 54aa 713e 0672 603d f239 73bc
00000020: d5f3 0d3e 497e ebbb de3f e93d 4426 a63d
00000030: c8a7 35bd a621 80be 1f81 c5bd 0970 f63d
00000040: 7246 293e 6294 833e 3865 cbbc 656e 933b
00000050: 8a7a cc3d 7e5b 633e 7855 73be c516 8c3e
00000060: 32bd 013e 067f cd3d 7ce7 f73d 8ec8 00be
00000070: 110f 9abc ffbe 46be ce4a 183d abf8 f43d
00000080: 4d01 9fbc 6c25 e3bd 64c2 093e 03d4 84be
00000090: 058c f7bd b124 af3d 0062 8d3d 301d e7bd
000000a0: 6392 463e 713f 953b e4e4 893e
0.15552819 -0.2804889 0.13775301 0.18551229 -0.12270364 0.23600131 0.05479624 -0.014845358
0.13862546 -0.007186685 0.11389135 0.08112767 -0.04434946 -0.25025672 -0.096437685 0.12033088
0.16530779 0.25699145 -0.024828538 0.004499244 0.0998431 0.2220287 -0.23763072 0.27361122
0.12669829 0.100339934 0.12104699 -0.12576506 -0.018806012 -0.19408797 0.037180714 0.11961492
-0.0194098 -0.11091122 0.1345306 -0.25943002 -0.120872535 0.0855192 0.06903458 -0.11284864
0.1939178 0.004554682 0.26932442

weight f4 [32, 43, 1]
00000000: 334a c43d db71 d9bd 7c24 fa3c 075e afbb
00000010: 228b a0bd f8ea 173e 9629 8cbd 4bae ee3d
00000020: b285 ac3d 65f6 38bd e7df f8bc 1f20 11bd
00000030: c776 c33d b77e ecbd 69e5 c5bd acba 1bbd
00000040: 726a 4cbc 85d4 f43d 1b70 eb3c a920 333d
00000050: a0b6 aabc d3e9 d13d 0741 19bc e688 8cbc
00000060: e45d de3d 3ae2 923d 3699 a5bd 32cc 773d
00000070: 17d6 9e3c ed45 9c3d 7c10 76bd 1b5d 793d
00000080: d57b 0f3e 173f 0b3e 97a2 db3d f50c e1bc
00000090: 9217 a6bd f0c1 9dbd 953e d7bd 7903 1a3d
000000a0: e1b2 ea3d ad20 8e3b f5b7 ca3d 4efd ea3c
000000b0: b1bc dabd 67e1 3d3c 7b31 f13d dce5 893d
000000c0: 62f2 8bbb 4901 70bd 9720 85bd 9f9b 7e3d
000000d0: 6d2e b83d 98df 96bd 74cd 87bd 45eb 46bc
000000e0: 446d 96bd 0cb8 3fbd 48ca 223b 54a0 a03b
000000f0: f0eb 963c 73e3 b1bc 993d 9c3d 0bd1 25bc
00000100: 8e90 aebb b51d febb 39b1 41bc 4171 78bd
00000110: a8b7 043e 5f95 6b3d 641d 29bc b7e8 ce3d
00000120: 5305 a83d e7d3 023e 564c 843c d53e bebc
00000130: f929 eabd 63f0 963d 9115 903c 82a5 8dbc
00000140: 4d4e 2c3d 465e cf3c a021 f83d e2d8 50bd
00000150: f28e aa3d 4bfe af3d 1a97 2c3b d96f a6bd
00000160: 1acc 2f3d fca0 983c 5de2 b9bd 04ce 933d
00000170: a0a7 a43c 4282 353d 1c33 c23d 92f4 b0bd
00000180: e030 26bd 68e4 73bd f9e2 f1bd c01c a23d
00000190: 4fbe 27bd e82c 1d3e 196e 113d 2978 f7bc
000001a0: 182e 563b 2dec afba 726d fd3d 8d6e 863d
000001b0: 6b76 9cbd 2ac1 533d 66ea b03d 2800 3abd
000001c0: fe3b 2fbd ddbe fdbd a855 253b 3bb8 9fbd
000001d0: f653 b53d ae0a a0bc 57d5 773b a484 d7bd
000001e0: 29a1 d93a 1227 11be 0c7d 8cbd ed1b 673d
000001f0: a50b 1f3d 05c7 743d 0a67 8a3d 548f 1c3d
00000200: 8da6 e03d 489f 983d 2ade e73c c53d 033d
00000210: d9a1 9aba 0568 acbd 9a61 bd3d 0d7e c03d
00000220: dfb5 3c3c 7abc 853d 7d41 3fbb b88e bd3d
00000230: 0b11 8f3d cbf0 343c 5024 4abc 253d 993d
00000240: e046 19b9 2cae 2fbd d4e1 413d a797 3c3d
00000250: 7c14 3a3d aaed 3bbd 5ea1 923d f12a 26bb
00000260: b927 163c d086 30bd eb2f c6bd 5ca3 d4bc
00000270: dacb 7a3d 9926 8b3d 0a63 723b afdf 0f3d
00000280: 7c8d 183d 0075 8f3c 386a 313a 3d4a 913d
00000290: 1c91 333d 6d57 36bd ab11 a03d 676e a13d
000002a0: 4d15 253d 8ad5 113d 9771 cb3c 71fe ffbc
000002b0: 0820 1abd 2d63 dfbd a170 c6bc db88 f039
000002c0: de84 9ebd 22e5 86bd 0d77 9d3d 521f 663d
000002d0: ddcf f33d e5b7 43bd 1d71 3fbd ea2c 373c
000002e0: 6695 133c 9bec 91bd d626 7abd d000 4b3d
000002f0: 616b 813d f9e5 e53d 968f a0bd ae25 aabd
00000300: f20e 033d 8115 c03c 7ef3 b0bc a00c 40bd
00000310: c6d6 633d 599e 0a3d b40e 85bc d7c3 93bd
00000320: 51c7 53bd d572 55bd 2238 9c3d d5a8 963d
00000330: 6e73 273d 285e f8bc 818b b2bd 103a edbd
00000340: 0b8c 18bd 1258 e2bc d3f2 ac3c 48e9 85bd
00000350: 9318 b03d 1a77 8dbc 5217 7f3d 12d9 ed3d
00000360: 00a9 e1bd 7aa9 503d d129 ca3d 05b8 4b3d
00000370: 900f cf3d 4e84 d3bc 1d18 cebd dbce c83d
00000380: 4bed acbc 73c7 013e 11f2 73bc 3b0a 8838
00000390: 3aa8 8abd 89a1 a1bd 6119 f5b8 5297 773d
000003a0: 6839 fd3c 231a 0c3d 50a8 013d ecac 1a3d
000003b0: 68a1 933d a02e dcbd 8bb7 a63d b59e b83d
000003c0: d7ab 953d a05d ae3d 3199 d7bd cf7a 1abc
000003d0: a241 edbc 185a 4ebd fbb5 a23d d219 3bbd
000003e0: 6469 1f3d 68d4 31bd 771a 0e3d f910 11be
000003f0: 4d21 ca3c 9759 03bc 4643 84bd 86f9 773d
0.09584465 -0.10617419 0.030534975 -0.005351785 -0.078390375 0.14835727 -0.068438694 0.116543375
0.08423938 -0.045156855 -0.030380202 -0.035431024 0.09544139 -0.115476064 -0.09662897 -0.03801982
-0.01247655 0.119545974 0.02873998 0.04373232 -0.020839036 0.102496766 -0.009353883 -0.017155122
0.10857752 0.071720555 -0.08085863 0.06049747 0.019389195 0.07630525 -0.060074314 0.060879808
0.14012082 0.13598286 0.10724371 -0.027471999 -0.081099644 -0.07703006 -0.105099835 0.037600968
0.114599 0.0043373914 0.09898368 0.028685238 -0.10680521 0.011589385 0.11777016 0.06733295
-0.0042708376 -0.058594976 -0.06500357 0.06216013 0.0899323 -0.07366866 -0.06630984 -0.012141054
-0.073450595 -0.04680638 0.0024839807 0.004901925 0.01842305 -0.021714902 0.07628936 -0.0101206405
-0.005327291 -0.007755006 -0.011822038 -0.060654882 0.12960684 0.0575155 -0.010321949 0.101029806
0.082041405 0.12776147 0.016149681 -0.02322332 -0.11433787 0.07370069 0.017588409 -0.017290834
0.04206686 0.025313508 0.121157885 -0.050988086 0.08328046 0.085934244 0.002633518 -0.08126802
0.042919256 0.01863145 -0.090763785 0.07217029 0.020099461 0.044313677 0.094824046 -0.08640398
-0.040573955 -0.059543997 -0.1181087 0.0791564 -0.040952977 0.15349162 0.035505388 -0.030208664
0.0032681283 -0.0013421826 0.12374391 0.06564055 -0.07639774 0.051697887 0.08638458 -0.045410305
-0.042781822 -0.1238992 0.0025228057 -0.07798811 0.08853905 -0.019536342 0.003781637 -0.10523346
0.0016603816 -0.1417506 -0.06859788 0.056423116 0.038829464 0.059760112 0.067579344 0.038222626
0.10969267 0.074522555 0.028304178 0.03204133 -0.0011797502 -0.08418278 0.09247132 0.09399042
0.011517971 0.0653009 -0.0029183321 0.09255737 0.069856726 0.011043738 -0.012337759 0.074823655
-0.0001461762 -0.042890713 0.047334507 0.046043064 0.04542969 -0.04588095 0.071596846 -0.0025355185
0.009164744 -0.043097317 -0.096771084 -0.025956802 0.061229564 0.06794471 0.0036985301 0.03512543
0.037244305 0.017511845 0.0006767842 0.07094238 0.04383956 -0.04451697 0.0781587 0.07882386
0.040303517 0.035604037 0.024834437 -0.031249257 -0.037628204 -0.10907588 -0.024223628 0.00045878332
-0.07740186 -0.06586672 0.07688723 0.056182213 0.11904881 -0.047782797 -0.046738733 0.011180142
0.009007787 -0.07125207 -0.061072193 0.04956132 0.06319309 0.112255044 -0.07839887 -0.08307968
0.031996675 0.023447754 -0.021600481 -0.04688704 0.055624746 0.03384242 -0.016242363 -0.07215088
-0.051703755 -0.052111465 0.07627894 0.07356421 0.040881567 -0.030318335 -0.087180145 -0.1158334
-0.03724293 -0.027629886 0.021111881 -0.065386355 0.08598437 -0.017268706 0.0622781 0.116136685
-0.11018562 0.050942875 0.09871257 0.04973604 0.1011039 -0.025819924 -0.10063193 0.098050795
-0.021109244 0.1267374 -0.014889256 6.486891e-05 -0.06770368 -0.078921385 -0.000116872376 0.060447045
0.030911162 0.034204613 0.031654656 0.037762567 0.0720852 -0.107510805 0.08140477 0.09014646
0.073081665 0.08513951 -0.10527266 -0.009428694 -0.02896196 -0.05037889 0.07944866 -0.04567892
0.038918868 -0.043415457 0.034693208 -0.14166631 0.024674082 -0.008016965 -0.06458144 0.0605407

weight f4 [1, 32, 1]
00000000: 5019 2d3e 3d42 183e 53e1 c93d 68bf 743c
00000010: e6e0 18bd ce61 8c3d 7b8a 213e e37c 8bbd
00000020: af32 223c e438 cdbd 778c aebd b759 ccbc
00000030: 599f ef3d 78f6 173e 3650 f83d 3c42 94bc
00000040: c93d 1e3e eddc af3d 0883 0bbe 125f 063e
00000050: 305d 0c3e 817b 9b3d 8292 5cbd e7d1 9e3d
00000060: 7f27 34be 6dbc 1fbe 5344 2c3e 4ac3 dbbb
00000070: 2329 94bd 7a81 853d 786e d63d e6e7 c53d
0.16904187 0.14869018 0.0985743 0.014938213 -0.037323855 0.06854592 0.15775482 -0.068109296
0.009899779 -0.10020617 -0.08522885 -0.024945123 0.11700315 0.14840114 0.12124674 -0.01809799
0.15453257 0.0858706 -0.13624203 0.13122204 0.13707423 0.07591916 -0.05385066 0.077548794
-0.17593192 -0.15599222 0.16822939 -0.00670663 -0.07234409 0.06518836 0.10470289 0.09663372

weight f4 [1, 32, 1]
00000000: 7074 173e 64e4 7a3d c8f8 853d 8109 eabd
00000010: e3c4 07bd e4cc ef3d 9d0b d6bc a082 cdbd
00000020: 84b0 b4bc c26c abbc 5f19 e2bc 2fc8 56bc
00000030: b087 283e d337 d93d 3c7e 2e3e 72cd a93d
00000040: 9e96 073e a47e 1d3e 0142 e03d 3708 19be
00000050: 1006 b7bc e3fc f13d fb6e a7bc 2399 1bbd
00000060: 9ec5 303e a07c 19be de3d ae3d fb86 d83c
00000070: bbce 0abe a0d4 b13d c572 b8bc 5fc9 89bd
0.14790511 0.061252967 0.06541592 -0.11427594 -0.03314675 0.11709002 -0.026128585 -0.1003468
-0.022056825 -0.020925883 -0.027599989 -0.013109251 0.1645801 0.10606351 0.17040342 0.08291139
0.1324105 0.15380341 0.10950089 -0.1494454 -0.022341758 0.118158124 -0.020438662 -0.03798784
0.17262885 -0.14988947 0.08507894 0.026431551 -0.13555424 0.08683133 -0.022515664 -0.067278616

weight f4 [1, 32, 1]
00000000: 2913 11be da60 40be c2e3 2dbe 71d1 a23d
00000010: cc7e 05be 95de af3d 848f 49be d6a2 153c
00000020: 3864 6a3d 71fd acbc a7a9 34be f4cf 7c3d
00000030: 72a2 0a3e 36c3 74ba 6e6d d13d 0224 0cbd
00000040: 920f 6d3c d594 04bd b876 183d cf42 263e
00000050: 91a6 2c3e 2d63 393d 1484 d2bd 7710 babd
00000060: df67 eebd 9c2e 4abe a54e b03d 355c c53d
00000070: 8c50 b1bd fe10 f0bb d5ed d83d 4262 99bd
-0.14167465 -0.18786946 -0.16981414 0.07950104 -0.1303665 0.08587376 -0.19683653 0.009133061
0.057224482 -0.021116944 -0.17642842 0.061721757 0.1353853 -0.000933695 0.1022595 -0.034214027
0.014469044 -0.0323685 0.037222594 0.16236423 0.16860415 0.045260597 -0.10279098 -0.09085172
-0.116409056 -0.19744343 0.0860875 0.09636728 -0.08657941 -0.0073262444 0.10592238 -0.07489444

bias f4 [32]
00000000: daa6 0f3e ce94 293e 9059 b6bc 54fe 103e
00000010: 99bf 583d aaa2 b43d 1218 8f3b a0f9 b53d
00000020: 9bc3 6cbd ab0b e83d 0956 a8bd 0682 3c3d
00000030: 16bb 593b b5b5 f8bd 1bff 333d e689 d2bd
00000040: 52ba 333e 9c38 183e 4fe6 233e 811b da3d
00000050: 54d3 05be 63ba f2bd 0a31 25bd 069e ad3d
00000060: 59fc 19be 1e77 26bd bfb3 ccbd 127c e6bd
00000070: 0b38 5b3b 85c1 bf3d 7732 863c 18ad 53bd
0.14028493 0.1656067 -0.022259504 0.14159518 0.052917097 0.08820088 0.004366883 0.08885503
-0.05780373 0.113303505 -0.08219535 0.046022438 0.0033223084 -0.12144033 0.04394446 -0.10280208
0.17551544 0.14865345 0.16005825 0.10649777 -0.13068897 -0.11851957 -0.04032997 0.08477406
-0.15037669 -0.040640943 -0.09995221 -0.11254133 0.0033450152 0.09363083 0.016381485 -0.051678747

weight_orig f4 [32, 43, 1]
00000000: 0e82 123e 48de 7e3d bf81 3cbd 809a 8a3c
00000010: 8eb8 7fbd 7758 3dbc 1c1d 813c 39fd 29be
00000020: c009 cf3d 74ee 933d d961 373c 6483 aa3c
00000030: 2cfa b83d 5e38 2a3c 808c 86bd d425 efbd
00000040: 6053 11be aadc ec3d 095f a43c 7d83 073e
00000050: c4bf 9c3d 273a 40bd 71f4 0b3e 9452 05bc
00000060: 668a 4bbd 6b1f 263d c2da 46bd 439c f5bd
00000070: ca6c 293d 259c c3bd 5974 53bd 30ec f03d
00000080: 22ed 593d 8c76 23bd 7093 393e a5a1 16be
00000090: 0536 eb3b 5acd f83d 9ba8 45be 78b5 a23d
000000a0: 4f59 663d 9d7c d4bd 95c9 32bd 85d5 14be
000000b0: fe00 35be 973d 39bc 37d7 113e b91d bd3d
000000c0: 8693 12be 6026 97bd 2d60 fa3d 22e4 b23d
000000d0: 9030 11bd e6c3 9cbc 5a1a a8bd 6ee8 8b3d
000000e0: 3423 083d 98fb cebc b03b c4bd 14fb df3d
000000f0: e176 a93d 0206 243c 631e b83d 9967 3a3e
00000100: fc3e 7cbd eeef 21bd a9b7 ed3d cb5c c53d
00000110: d9ec b93d 559e 2abe 0c3b 16be 6e51 38bd
00000120: 2cd6 393d aa08 fcbd 426a a5bb 199c 08be
00000130: a46c 933d b67f ccbd 09ee c8bd b1b0 003d
00000140: 81c6 8a3d 0cff 073e 0747 e0bc 97a8 7cb9
00000150: a3b2 743c 06be d2bc 928c 843d e3a9 df3d
00000160: b5e9 bebd 3706 f03d 177e 833c 8df6 4abd
00000170: 4606 efbd 0eb6 cdbd 7c16 c03d b90d 053d
00000180: e171 cb3d c8a0 c8bd e655 103c b48f a93d
00000190: afb2 d8bc 17fa e7bd c17b 11be 7c4c 473d
000001a0: 64fc 173e 45db b83d d85d 91bd 9cef 4f3d
000001b0: fb64 e7bc 8553 f93d 8600 b4bc 76e7 963b
000001c0: 1d22 04bd b80b dabd ef43 413d ea95 a73d
000001d0: f8cb 1e3d 44cc 0a3e faa6 a33c 344e cf3d
000001e0: f10a 2a3b aa43 683d edd3 b93d 8df7 32be
000001f0: 33d3 eebd 2496 3c3c ebaa bebd d49c c53c
00000200: 38c4 a5bc 151c 523d a441 413e 1436 df3d
00000210: fdb4 ec3d fc5b 05be b797 1c3d f91b cc3d
00000220: 9905 d73d 7119 17be 3be5 a43b 2e68 82bd
00000230: 7d75 f8ba a269 113d ce21 893d 1a03 173e
00000240: 8eb3 11be 9b15 83bd 105f cf3d d0ae fe3d
00000250: cbac 533d ca22 733d 6880 1ebd 0b46 abbd
00000260: ed1b 2f3c 4858 d7bd 5c1a e73d d766 2e3e
00000270: b574 aa3d cdff 83bb 324c b13d 696f c4bd
00000280: e432 a8bd 0dd8 1bbd 7fcb e5bd 6741 80bc
00000290: 632f 2abe 880c 19bd 13e7 673d 88a2 1d3e
000002a0: f7a7 1a3e 237e a0bd 9680 31bd 80e9 223e
000002b0: 4c3d e83d 0240 95bd 6029 623c 1ba2 38bd
000002c0: 6b4e e0bd cb6e 5d3d aac9 093e c649 adbd
000002d0: c1b3 e23d 515d 96bd 2c84 183d 5584 ec3d
000002e0: bf89 293e 9b72 92bb 96cb 623d 1980 5d3c
000002f0: 4689 dc3d f834 103e 20eb b7bd c4ae 6ebd
00000300: ac72 b9bd 0073 d93d 520f 833d 34ce 0dbd
00000310: 6547 f63d 8d72 dabd 0bf9 2dbd 2a71 2d3e
00000320: 77ff d6bd e994 b5bd 7daa dbbd 7f23 b9bc
00000330: 88f8 343e 99f6 063d c2bc 283e ef8e 8abd
00000340: 5f78 b23b 4ac6 c83c 9eaa 223e a66e d43d
00000350: 8958 f13d 22ac 2e3d 709e 8d3d 0a6e 69bd
00000360: 9433 80bd d0be b13d aaed 1b3e c98d f93c
00000370: 73e2 d6bc 9055 ad3d 36a2 473d 2009 f23c
00000380: 6004 f9bd 9cd4 2a3e f9a9 273e 915e 423d
00000390: 77ac 5b3d f1ed 583d 90bb a5bd 955e 12bb
000003a0: 6215 8e3d 5c55 aebb 96a1 903c f660 a4bd
000003b0: feac e6bb de51 c23b fdd0 8fbc 6f9c 283d
000003c0: 15af 823d 1dce febc abbe cc39 8252 743d
000003d0: bd9f a03d 509b 58bd 47bd 013e 6618 d93d
000003e0: 3e5b d1bd c562 f73d 02ad 693c a46c 7dbd
000003f0: 8c6e ef3d ea2b 89bd fcdd d03c aab2 283e
0.14307424 0.062223703 -0.046022173 0.016919374 -0.062431864 -0.011556736 0.01576095 -0.16600503
0.101092815 0.07223216 0.011192762 0.020814605 0.090320915 0.010389416 -0.06569767 -0.11677137
-0.14191961 0.11565526 0.020064848 0.13233753 0.07653764 -0.04693046 0.13667466 -0.008137364
-0.049692534 0.040557306 -0.048548467 -0.11992695 0.041363515 -0.095512666 -0.05162463 0.11763799
0.053204663 -0.039907977 0.18122649 -0.147101 0.0071780705 0.12148543 -0.19302599 0.07944769
0.056237515 -0.103753306 -0.043649275 -0.14534576 -0.1767616 -0.011306188 0.14242254 0.09234185
-0.14314088 -0.07380366 0.12225375 0.08734919 -0.035446703 -0.01913638 -0.08208151 0.06831442
0.033236697 -0.025266454 -0.09581697 0.10936561 0.082746275 0.010011198 0.08990171 0.18203582
-0.061583504 -0.039535455 0.11607296 0.096368395 0.09078378 -0.16661961 -0.14670962 -0.044999532
0.045370266 -0.1230634 -0.0050480673 -0.13340797 0.07198456 -0.099852964 -0.098110266 0.031418506
0.06776143 0.13280886 -0.027377618 -0.00024095397 0.014935168 -0.025725376 0.06472124 0.10921075
-0.0932192 0.117199354 0.016051335 -0.049551535 -0.116711184 -0.1004449 0.093792886 0.03248379
0.0993383 -0.097962916 0.008809542 0.08279362 -0.02645239 -0.11326998 -0.14207365 0.048656926
0.14842373 0.09026197 -0.070979774 0.05076562 -0.028246393 0.12174133 -0.021972906 0.004605229
-0.032259095 -0.106467664 0.047183927 0.08182891 0.03876874 0.13554484 0.019977082 0.10122338
0.0025946463 0.056705154 0.09073625 -0.17477246 -0.11661377 0.011510406 -0.09309944 0.024122633
-0.020235166 0.051296312 0.18872696 0.108989865 0.11557958 -0.1302337 0.038230624 0.09966273
0.104991145 -0.14755799 0.005032209 -0.06367527 -0.0018955913 0.03550113 0.06695901 0.14747277
-0.14228651 -0.06400605 0.101255536 0.124356866 0.05167846 0.05935935 -0.038696676 -0.08362969
0.01068781 -0.10514885 0.112843245 0.17031418 0.08323041 -0.0040282966 0.08657111 -0.09591562
-0.082128316 -0.03804784 -0.112204544 -0.015656186 -0.16619639 -0.037365466 0.056616854 0.15394032
0.15103136 -0.07836559 -0.04333552 0.15909386 0.113398165 -0.07287599 0.01380381 -0.04507647
-0.10952457 0.05406074 0.13455835 -0.08461337 0.110694416 -0.073420174 0.037235424 0.11548678
0.16556452 -0.0044692284 0.055369936 0.01351931 0.1076837 0.14082706 -0.089803934 -0.05827214
-0.09055075 0.10617638 0.063994065 -0.03462048 0.12025336 -0.1066638 -0.042473834 0.169377
-0.10497945 -0.08866293 -0.107258774 -0.022599934 0.17672932 0.032950018 0.16478255 -0.06765544
0.0054464783 0.024508614 0.15885398 0.10372667 0.11784465 0.042644627 0.06914985 -0.056989707
-0.06259838 0.08678973 0.1522738 0.030463116 -0.026231026 0.084635854 0.04873868 0.029545367
-0.121590376 0.16682667 0.16373433 0.047453467 0.053631272 0.052961294 -0.08092415 -0.0022334207
0.06937672 -0.005320234 0.017655175 -0.08026306 -0.0070396652 0.0059301695 -0.017555708 0.04116481
0.063810505 -0.031104142 0.0003905197 0.059648998 0.07842968 -0.052882493 0.1266986 0.10600357
-0.10222481 0.12079386 0.01426244 -0.061871186 0.11691007 -0.06697829 0.025496475 0.16474405

weight_u f4 [32]
00000000: 9bbc 3ebe caec 013e 31e7 80bc c91e 11be
00000010: 54c0 7bbe d390 1fbe 91ee 8e3e 1d60 5b3d
00000020: 47c8 b03d 11b2 443e 7ce7 dfbc 8bc2 f73c
00000030: d6d7 84bd e551 633c 31c8 90be de8c a9be
00000040: c081 5abe 118b af3d eb30 173e bcd4 5fbe
00000050: a730 adbd 5c10 103b b540 663e ec0d 6fbe
00000060: 5846 823e 7f3a 6bbe 512d 713e d958 a9be
00000070: 3da4 cd3c 571c 853b 4407 82bd 20c8 22bd
-0.18626635 0.12687984 -0.01573524 -0.141719 -0.24585086 -0.1558259 0.27916387 0.053558458
0.0863195 0.19208552 -0.02733206 0.030244133 -0.0648648 0.013874506 -0.28277734 -0.33115286
-0.21338558 0.08571447 0.14764754 -0.21858495 -0.08456545 0.0021982407 0.22485621 -0.23345155
0.25444293 -0.22971533 0.23552443 -0.33075598 0.025102729 0.0040622163 -0.06349042 -0.039741635

weight_v f4 [43]
00000000: 91e6 9d3d ce0f 9fbe 5ab7 98bd 811c 9ebe
00000010: 42ec f53d ca0c 9ebd b386 66be 31fa be3c
00000020: 7acd 9dbd aa29 f1bd 4671 10be 2391 e7bd
00000030: 5a98 7bbe a4cc a4bd 7993 39bd 30e1 453e
00000040: 8296 fabd 8b09 ccbd 9dab 363e b17d 88bd
00000050: ccc8 433e adeb f7bc f35f 20be 827e b73d
00000060: 95ec eebd ed78 973d e960 14be 597a b0bd
00000070: 8177 c83d afee 623e e2ae bcbc 330a 4cbe
00000080: 416f 39be 7347 5b3d 280e 7bbe fa3d 0f3e
00000090: aa1c bd3d b25c 1b3d 1692 d23d c13e aabe
000000a0: 25eb 9cbd 3223 bc3d 7122 2bbe
0.07709993 -0.31066746 -0.074568465 -0.30881122 0.12007953 -0.07717283 -0.22512321 0.02331266
-0.07705207 -0.11775525 -0.1410571 -0.113069795 -0.24569836 -0.080468446 -0.045306657 0.19324183
-0.12235738 -0.09962758 0.17838903 -0.06664599 0.19119567 -0.030263746 -0.15661602 0.08959676
-0.11666218 0.07396112 -0.14490093 -0.08617086 0.097884186 0.22161363 -0.02303261 -0.19925766
-0.18108846 0.053534936 -0.24517119 0.13988486 0.09233983 0.037930198 0.1028177 -0.33251002
-0.07662038 0.091864005 -0.16712357

weight f4 [32, 43, 1]
00000000: 6d42 ed3d 806f 4e3d 8cc2 18bd a379 603c
00000010: c443 4fbd 2d88 19bc 4fa9 513c 9fb8 09be
00000020: b69a a73d 0997 6f3d 9612 143c 75de 893c
00000030: bec9 953d da9b 093c 1016 5abd 9fc9 c1bd
00000040: 406e ebbd b9d2 bf3d 50de 843c 7073 db3d
00000050: cebd 7d3d efdd 1bbd 6eab e23d 450a d9bb
00000060: 77fa 24bd 386b 063d 3f31 21bd 3101 c7bd
00000070: ae1b 093d a580 9ebd f373 2bbd 671c c33d
00000080: 82a4 303d 946b 04bd d849 163e 89ee f3bd
00000090: b325 bd3b 286a c93d 1319 20be 1cc2 833d
000000a0: e3be 3a3d 4212 acbd 36bf 10bd 9f0a f1bd
000000b0: e899 12be ccd3 15bc 7246 ec3d 2738 993d
000000c0: 1a66 edbd e8f0 74bd 74d8 ca3d a6f4 903d
000000d0: 490c ebbc e389 7dbc bb1b 88bd 32ac 623d
000000e0: 5a9d dc3c d769 a7bc 24dc 9ebd 9b6d b53d
000000f0: c649 893d d14c 053c c32c 953d 5704 173e
00000100: 2430 4cbd 9d18 03bd c398 c03d bae8 9f3d
00000110: 94a6 963d 3a2b 0abe 8b4b f3bd be37 15bd
00000120: 98a7 163d 1713 ccbd 8176 85bb 3e5d ddbd
00000130: 48fa 6e3d 7398 a5bd c4cc a2bd 16a1 d03c
00000140: a8ec 603d 6f5f dc3d 8ed9 b5bc 8d4e 79b9
00000150: 0a32 463c 06b3 aabc 81d0 563d 9534 b53d
00000160: 289f 9abd a775 c23d 00e9 543c 2044 24bd
00000170: d290 c1bd 9192 a6bd 65a8 9b3d 09a8 d73c
00000180: 80d5 a43d e973 a2bd 66ef ea3b 345f 893d
00000190: d95e afbc 39ce bbbd f89d ebbd de71 213d
000001a0: 6e44 f63d 63c8 953d d05f 6bbd e983 283d
000001b0: c627 bbbc 6c03 ca3d 5688 91bc c0ff 743b
000001c0: c7d5 d5bc bf88 b0bd 5e9a 1c3d 79ce 873d
000001d0: 1bbf 003d 8de4 e03d f23e 843c 0efd a73d
000001e0: 4609 053b 105a 3c3d 7e98 963d 0ff4 10be
000001f0: eb7b c1bd 7d46 193c d97a 9abd 734c a03c
00000200: 9513 86bc 430c 2a3d 6388 1c3e 39c2 b43d
00000210: 1eb5 bf3d 2211 d8bd d7a6 fd3c f75c a53d
00000220: d415 ae3d 76d7 f4bd 34fb 843b e468 53bd
00000230: d3b8 cdba c158 eb3c 8c11 5e3d fb8e f43d
00000240: 9818 ecbd cf54 54bd 68ee a73d 453d ce3d
00000250: cf53 2b3d 0ed5 443d f090 00bd e3c6 8abd
00000260: d76e 0d3c ce7d aebd 1020 bb3d 5237 0d3e
00000270: 09fe 893d ba91 56bb 488f 8f3d a328 9fbd
00000280: c23c 88bd f835 fcbc 412f babd 85d8 4fbc
00000290: 6ec9 09be 0453 f8bc bfcb 3b3d d954 ff3d
000002a0: 9f7b fa3d 5bf4 81bd 8ecb 0fbd edf4 033e
000002b0: 2b03 bc3d 3ebb 71bd d505 373c 3396 15bd
000002c0: 33c1 b5bd 9f4c 333d 6e47 df3d 3b70 8cbd
000002d0: 3985 b73d 79a5 73bd e4bb f63c 267e bf3d
000002e0: c349 093e 1f31 6ebb 5f84 373d af9a 323c
000002f0: 1aaa b23d 2091 e93d 500c 95bd f671 41bd
00000300: 714d 96bd 1208 b03d 082b 543d e70d e6bc
00000310: f865 c73d af01 b1bd 9a11 0dbd ca6e 0c3e
00000320: 9c37 aebd 822a 93bd 8804 b2bd 171c 96bc
00000330: f292 123e 4327 da3c 85a2 083e bb48 60bd
00000340: e5ff 8e3b 4b65 a23c c6b1 033e 7a10 ac3d
00000350: 5a93 c33d 569f 0d3d ba70 653d 4d03 3dbd
00000360: 5589 4fbd 1401 903d dda4 fc3d c00e ca3c
00000370: 15dc adbc ae74 8c3d a4c5 213d ee41 c43c
00000380: aea6 c9bd a263 0a3e 9dd2 073e f08c 1d3d
00000390: 1aff 313d a5cb 2f3d 4634 86bd 9599 e9ba
000003a0: da3a 663d 6192 8dbb 88b3 6a3c 6220 85bd
000003b0: 340f babb cf31 9e3b 03b9 68bc 7ea8 083d
000003c0: 11c0 533d da33 cebc 9f3e b439 65e9 453d
000003d0: 2a20 823d 855c 2fbd 2538 d23d 52d2 af3d
000003e0: 2a7e a9bd 9b69 c83d d5e9 3c3c 0b2a 4dbd
000003f0: 9afc c13d 4a1a 5ebd 2f73 a93c 2da8 083e
0.11584935 0.050399303 -0.03729491 0.013700875 -0.050601736 -0.009370846 0.012796714 -0.13449334
0.08183806 0.058493648 0.009037634 0.016829709 0.0731387 0.008398974 -0.053243697 -0.09462284
-0.11495638 0.09366364 0.016219288 0.10715377 0.06194859 -0.03805345 0.11067854 -0.0066235387
-0.040277924 0.032817096 -0.039353605 -0.09717024 0.033473663 -0.07739381 -0.041858625 0.09526902
0.043125637 -0.032329157 0.14676607 -0.11910731 0.0057723164 0.09834701 -0.15634565 0.06433508
0.0455922 -0.0840192 -0.035338603 -0.11769604 -0.14316523 -0.009144735 0.11536874 0.07481413
-0.1159174 -0.05980006 0.099045664 0.07077913 -0.028692381 -0.015474769 -0.06645914 0.05534
0.0269305 -0.02043621 -0.07756832 0.08858796 0.06703524 0.00813599 0.07283928 0.1474775
-0.049850598 -0.032005895 0.09404137 0.07808061 0.07355991 -0.13493052 -0.11879643 -0.036430113
0.036780924 -0.099645786 -0.0040729647 -0.108088 0.058344156 -0.08085718 -0.07949212 0.025467437
0.054913193 0.1076039 -0.022198465 -0.00023775753 0.012096891 -0.020837318 0.05244494 0.0884792
-0.07549888 0.09495097 0.012995005 -0.04010403 -0.094514504 -0.08133424 0.07600478 0.026325243
0.080485344 -0.07932264 0.007169652 0.06707612 -0.021407532 -0.09170193 -0.115047395 0.039415233
0.12024771 0.07313611 -0.05746442 0.041141424 -0.022846114 0.09863934 -0.017765205 0.0037383884
-0.026102914 -0.08619832 0.038233154 0.066311784 0.031432252 0.109810926 0.016143296 0.08202563
0.0020299717 0.045984328 0.07353304 -0.14155601 -0.094474636 0.009355185 -0.075429626 0.019567704
-0.01636676 0.0415156 0.15286402 0.088261075 0.09360717 -0.10550143 0.030963344 0.08074372
0.08500257 -0.119551584 0.004058266 -0.051613703 -0.0015695341 0.028728845 0.054215953 0.11941334
-0.115281284 -0.051838692 0.08199769 0.1007028 0.041827973 0.048054747 -0.031388223 -0.06776216
0.008632383 -0.08520089 0.09136975 0.13790634 0.067379065 -0.0032740668 0.070097506 -0.07771423
-0.06652214 -0.030787453 -0.09091044 -0.0126859 -0.13455746 -0.030313022 0.045848604 0.12467355
0.1223061 -0.06345435 -0.035106234 0.128864 0.09180292 -0.05901646 0.011170824 -0.036520194
-0.088747405 0.043774243 0.10902296 -0.06857344 0.08960957 -0.05948398 0.03011889 0.09350233
0.13407044 -0.0036345196 0.044803973 0.010901137 0.087238505 0.114046335 -0.07277739 -0.047227822
-0.073389895 0.08595289 0.05179885 -0.028082801 0.09736246 -0.08642899 -0.034440614 0.13714138
-0.085067004 -0.07185842 -0.086922705 -0.018323941 0.14313868 0.02663005 0.13343246 -0.05475686
0.004364001 0.01982369 0.12860784 0.0840158 0.095495895 0.034575783 0.056015708 -0.046145726
-0.05066808 0.07031456 0.12336133 0.024665236 -0.021223107 0.068581924 0.039495125 0.023957219
-0.09846245 0.1351457 0.13263936 0.038464487 0.043456174 0.04291882 -0.06552939 -0.001782226
0.05620847 -0.0043204282 0.01432503 -0.06500317 -0.005678082 0.004827715 -0.0142042665 0.03336381
0.05169684 -0.02517121 0.00034378932 0.048318285 0.06353791 -0.042812843 0.10264615 0.08585037
-0.08276017 0.09785768 0.011530359 -0.050088923 0.09472008 -0.05422429 0.020684807 0.13345404

weight f4 [1, 32, 1]
00000000: 2ddc bbbd c8bf 303d 2eaf 42bd 64d6 023e
00000010: 10ae 79bd c25d e7bd 9640 edbd 5dd5 d63c
00000020: f4eb ac3c 1af4 bebd 9ddc 13be 2560 093e
00000030: 86f8 7e3d 20ec 03be 7ab6 223e f8f4 24bd
00000040: 5ef0 0e3e 4e59 813c a7a3 6ebd 3e2a 073e
00000050: e311 ea3d f38b 053e 2d1e d1bd 129e 993d
00000060: c2a7 08be ac00 423d 058e edbd 2659 2f3e
00000070: 5eb5 0cbe 41a2 383d 4195 0cbe 5eca 0c3e
-0.091728546 0.043151647 -0.047530346 0.12777096 -0.060957015 -0.1129718 -0.115845844 0.026224786
0.021108605 -0.093239024 -0.14439626 0.13415582 0.06224873 -0.12883043 0.15889922 -0.040272683
0.1395888 0.015789654 -0.05826154 0.13199708 0.11429193 0.13041668 -0.10210834 0.07500853
-0.13345245 0.047363922 -0.11599354 0.17123851 -0.13741061 0.045076612 -0.13728811 0.13749072
