Models/M4/15model/15model_generator.pt (torch, 149045 bytes, 70 tensors)

bias f4 [32]
00000000: 0e0e 30be 34ad 853d 9eff 88bd e06c 66be
00000010: 127d 55be f64b 833d 0f1a 7b3c b0fd eb3d
00000020: b383 813d 0c1c 13bd 413c 8c3d fbd5 e7bd
00000030: 46ca 8ebe fc15 493e ab01 e9bd 2f1a 523d
00000040: 114a 113e fb35 793e acae bf3d dc28 973e
00000050: 9de2 83be 27b6 853e 6cc0 8abe 02ab 213d
00000060: e860 7dbd 0352 f8bc c55d d4bb 5197 8b3e
00000070: 81f7 63be 10db 88bd 69b7 0ebe 6192 883b
-0.17192861 0.065271765 -0.0668938 -0.2250247 -0.20848492 0.06410973 0.015326037 0.115229964
0.06323948 -0.03591542 0.0684743 -0.113201104 -0.27888697 0.19637293 -0.11377271 0.051294502
0.1418841 0.24336998 0.09359488 0.2952336 -0.2575883 0.26115534 -0.2709993 0.039469726
-0.061859995 -0.030312544 -0.0064809048 0.27263883 -0.22262384 -0.06682408 -0.13937153 0.0041678404

weight_orig f4 [32, 12, 1]
00000000: b294 7d3e 3f26 b43d 84e7 b83d 9f0a 4e3e
00000010: 5c26 f03d 8180 7b3e 9c4f 02be 32a7 29be
00000020: 4351 f83c 87ae 453e 14ed 903d e70a af3d
00000030: 92b9 ccbc c545 ec3c 9c8f ce3c f398 263e
00000040: 129f b5bd 9bc7 c8bd b518 7e3e 8750 8d3e
00000050: 92fa 7e3e 9d55 633e 0239 263e df77 6c3d
00000060: e61f 2abe 9596 0d3e 0ac4 d0bd a827 363e
00000070: 96ff 9bbd 5f87 3c3e 7ae4 773e 91ea 14be
00000080: b72c 7abd 0761 e0bd abd0 8c3e 01d8 b23c
00000090: b671 1bbe 61d8 7bbe dd22 8f3d 1d5f 24be
000000a0: 7f7d 1c3e febd 7d3e 0b48 b03d ba4d e13d
000000b0: 954d 2ebe 9f2d cb3d 7518 78be de85 5d3e
000000c0: b4fa 2c3d 0287 f2bc b2e3 0abe 3c14 7d3c
000000d0: f50e a93c b321 ebbd 764b 6c3d fa36 8cbe
000000e0: f49a 653e 8abd 003e de14 953d ba61 59be
000000f0: 1bba 27be 99f2 e33c 9a0b 8bbe b52d 803e
00000100: 85b2 413e 411c 06be 9fdb 78be 2b1c 9d3e
00000110: 84b7 c8bd 108c c03d 33cc 8e3e b2cb 72be
00000120: 2e08 173e 7ed1 52be 48ec 9e3e 9613 6a3e
00000130: 8524 863d 6a33 d33d 2ad1 10be efeb be3d
00000140: d276 1abe 539c f2bd 8007 b4bd 5b5e 743e
00000150: f66f 483c 0015 373e 5a0e 04be 907e 2ebe
00000160: d41b 67be 294e 11be 3a73 00be 0c08 95be
00000170: 178f efbd 2109 94be 5ed3 223e a4ca 8cbe
00000180: c06a c63d ce64 ae3d c2d7 08be bfb4 6bbe
00000190: 3514 42be a1f6 833d 1ef7 313e a924 863e
000001a0: eb22 8c3e 87b0 043e d248 46be c5f4 8a3e
000001b0: 3d0b 1e3e 7830 993d 8670 823e 10a7 dbbd
000001c0: 715d 22bd f68b 753e 607f 85be 575a 5fbe
000001d0: 9d80 b1bc 65ae fa3d adae 993d aa51 92be
000001e0: f251 353d fb0c 083e fb9a 153d 2a77 91be
000001f0: 1f5b 4ebe db03 433d d042 5fbb c5bf a6bd
00000200: 1693 80be 920c 4dbe a3a7 a23b 46a7 733e
00000210: f31f 71be 1908 863e 5636 933e 9315 ec3d
00000220: 9cbf e3bd 0d45 33bd 3d8f 3abe 837c 293e
00000230: 34d7 febd 458d 8cbe 7f01 053e f929 6abe
00000240: 4a04 8c3d 37c7 40be a218 66be 16e9 883e
00000250: 5abb debd 65aa 10be 83f6 aabd 5ca7 7fbe
00000260: 999e 493d 5972 053d d045 1bbe 9833 3d3e
00000270: 027c ad3c 213f 103e fb95 513d 5326 17be
00000280: 110a 503d 61f5 6fbe bfa3 3b3d 8045 63bd
00000290: 0b81 0f3e 4198 2b3e 1b8e 6dbd 263e 943d
000002a0: f4cd 70bc cf3d 293e d4af 6cbd 128f 4dbe
000002b0: efaa 85bd 19b7 20bd ca40 76bd eab6 2bbe
000002c0: e365 363e 2ba1 363e 8de0 0c3d 8ef8 7bbe
000002d0: d0e0 6cbe ccf4 853e de7f 7fbe 6d2e 3a3e
000002e0: 7154 3ebe aecb 9fbc 53f7 5f3d 4be2 0a3e
000002f0: 1831 9f3d 7695 813e dc2d c53d b36e 23be
00000300: 4e7d 8a3b 2ce4 4abe 0dd3 56be b474 363e
00000310: 1881 39bc 882b 31be fac9 1abe cd68 65bd
00000320: 1ee9 c93d 7d7f 0cbe 7e25 2f3e 83ec 3dbd
00000330: feae f83d d724 fa3d 8c7c 49bd 41fb 7dbe
00000340: 7428 86be 7c3a 2f3e 2283 5dbe 3b8a eebb
00000350: 81a0 29be b040 b63d cbbf 253e 5bc0 883e
00000360: af48 383e 5789 44bd 4d30 3c3d 42e8 783e
00000370: 577a 6a3d 335f 87bd 6853 06be acab 873e
00000380: 9900 e5bd 4368 7abe bacc 013c 6e59 79be
00000390: 35dc 39bd 21d6 a3bd 3250 47be 98e8 07be
000003a0: 834d 893e 9682 ab3d 8f29 fa3d 7399 88be
000003b0: 9817 133c 6009 5bbe d74d 0b3e 7677 223e
000003c0: 70cb 4a3e fd65 083e e7e7 033e 8396 ac3d
000003d0: deea 4fbe 2004 8d3e 2bf1 333d b7a5 aa3d
000003e0: 3f80 6f3e 48b1 95be 3286 a4bd b8b5 e7bd
000003f0: 6d77 b2bd 1ebe d43d 2d15 1bbe ee12 22bd
0.24763754 0.08796357 0.09028533 0.20121239 0.117260665 0.24560739 -0.12725681 -0.16567686
0.030312186 0.19304858 0.07076469 0.08547001 -0.02499083 0.028841862 0.025214963 0.16269283
-0.08868231 -0.09803697 0.24814112 0.276005 0.24900272 0.22200628 0.16232684 0.057731505
-0.16613731 0.13826974 -0.101936415 0.17788565 -0.076171085 0.18411015 0.2420825 -0.14542605
-0.0610778 -0.109560065 0.2750295 0.021831514 -0.15180096 -0.24594261 0.069890715 -0.16051908
0.15282248 0.24779508 0.08607491 0.11001153 -0.17021783 0.09920811 -0.2422808 0.21633098
0.042231277 -0.029605392 -0.13563421 0.015446719 0.020637015 -0.11481037 0.057689153 -0.27385694
0.22422391 0.12572303 0.07279371 -0.21228686 -0.16379587 0.02782564 -0.2715729 0.25034872
0.18915756 -0.13096716 -0.24302529 0.30685553 -0.09800628 0.09401715 0.27890167 -0.23710516
0.14749214 -0.20587727 0.31039643 0.22859034 0.06549934 0.10312541 -0.1414229 0.093223445
-0.15084389 -0.11846223 -0.08790493 0.23864119 0.012233725 0.17879105 -0.128961 -0.17040467
-0.2256921 -0.14189972 -0.12543955 -0.29107702 -0.11697214 -0.28913215 0.15900943 -0.27498353
0.0968833 0.08515321 -0.13363555 -0.23018168 -0.18953021 0.06443525 0.17379424 0.26199844
0.2737039 0.12957965 -0.19363716 0.2713987 0.15433975 0.07479948 0.25476474 -0.10725224
-0.039639894 0.23979172 -0.26073742 -0.21811806 -0.021667773 0.12240294 0.0750402 -0.2857793
0.044267602 0.13286202 0.036524754 -0.28411227 -0.20151947 0.0476111 -0.0034066923 -0.08142046
-0.25112218 -0.20024326 0.0049638315 0.23794279 -0.23547344 0.26178053 0.28752393 0.115275525
-0.11120531 -0.043767024 -0.18218704 0.16551404 -0.124433905 -0.2745153 0.12988852 -0.22867574
0.068367556 -0.18825994 -0.22470334 0.2674033 -0.10875578 -0.141275 -0.083478 -0.24966186
0.049223516 0.032579754 -0.1516335 0.18476713 0.021177296 0.14086582 0.051168423 -0.14760713
0.05079085 -0.23433448 0.045810457 -0.055486202 0.1401407 0.16757299 -0.05799685 0.072384164
-0.014697541 0.16527484 -0.05778487 -0.20074108 -0.065267436 -0.039237116 -0.06012038 -0.16768995
0.17812304 0.17834918 0.034393836 -0.24606535 -0.23132634 0.26163328 -0.24951121 0.18181773
-0.185869 -0.019506302 0.054679226 0.13562886 0.07773036 0.25309342 0.096278876 -0.15960197
0.0042263633 -0.19813603 -0.20978947 0.17817956 -0.011322282 -0.17301762 -0.1511611 -0.05600815
0.09858917 -0.13720508 0.17104146 -0.046368133 0.12142752 0.12214058 -0.049191043 -0.24802877
-0.26202738 0.17112154 -0.21632054 -0.007279662 -0.16565134 0.08899057 0.16186444 0.26709256
0.17996477 -0.04798254 0.0459445 0.2430735 0.05724558 -0.06609955 -0.13117754 0.26498163
-0.111817546 -0.24453835 0.007922346 -0.24350521 -0.04537602 -0.07999826 -0.19464186 -0.13272321
0.2681695 0.08374517 0.12214958 -0.26679572 0.008977793 -0.21390295 0.13603912 0.15865883
0.19804168 0.13320155 0.12881432 0.08427145 -0.20304438 0.2754221 0.043931168 0.08332389
0.23388766 -0.29236817 -0.08033408 -0.11313957 -0.08714185 0.103878245 -0.15144797 -0.039568834

weight_u f4 [32]
00000000: 7a9f 323d 4466 d73d dad3 a33d 3161 c3be
00000010: 0162 4f3e 5e62 be3e ed71 17be baf6 3f3e
00000020: d943 73be 5592 ca3d 540c 88be 624f 513e
00000030: 5cc3 fd3c 22c4 01bd 7ebd 0d3e 4edc 853e
00000040: 1694 573e c73c 3bbe e10c 623e 9c15 02be
00000050: 7c4e 623d 60bd fb3c 9ae2 bfbd 4ecb 073e
00000060: f308 b33c a7ce 47be 6ce4 c33d a907 5d3e
00000070: abae 9abd 16ff 293e dbfb 1e3c 2b5b 313e
0.04360912 0.105175525 0.07999392 -0.3816009 0.2025223 0.37184423 -0.14789553 0.18746462
-0.2375635 0.09891192 -0.26571906 0.20440438 0.030976944 -0.031681187 0.13841817 0.26144642
0.21052584 -0.18284903 0.22075225 -0.12703556 0.05525063 0.03072995 -0.09369393 0.13261148
0.021854853 -0.19512425 0.095650524 0.21584953 -0.075528465 0.16601214 0.009703602 0.17319934

weight_v f4 [12]
00000000: b759 073d e918 443e 75a8 2abe 0b83 023f
00000010: 31dc f5bc 6a19 7ebe 13df 4cbe 5729 3abc
00000020: d366 5a3e 5e2e bf3c f89c ac3e 365d 24bf
0.033044543 0.19150127 -0.16665824 0.50981206 -0.030012222 -0.24814382 -0.20006971 -0.011362395
0.21328287 0.02333754 0.33713508 -0.6420473

weight f4 [32, 12, 1]
00000000: bfa3 473e 02d4 8d3d 0e92 913d 3536 223e
00000010: 5e0f bd3d f0ff 453e ec2d cdbd 4590 05be
00000020: 427c c33c 57a1 1b3e eb31 643d 22ce 893d
00000030: 7f31 a1bc 7c06 ba3c 30a1 a23c 8b28 033e
00000040: 93fc 8ebd 1912 9ebd cb0b 483e b381 5e3e
00000050: a6bc 483e 9ef9 323e 26dd 023e e029 3a3d
00000060: 25ef 05be 5fef de3d 755a a4bd 8e68 0f3e
00000070: c59f 75bd 046d 143e 2c29 433e 1e7b eabd
00000080: 3ff3 44bd 06a5 b0bd 11b9 5d3e 32cb 8c3c
00000090: 3ec4 f4bd 7b45 46be df60 613d d467 01be
000000a0: f866 f63d b0c3 473e 27c9 8a3d 525f b13d
000000b0: 8a39 09be 07f6 9f3d 2552 43be 9c66 2e3e
000000c0: ef2f 083d c5ef bebc 1ab2 dabd 193f 473c
000000d0: 7717 853c fa1d b9bd 1d06 3a3d dcc5 5cbe
000000e0: cdc2 343e 2cb5 ca3d 04bd 6a3d eb23 2bbe
000000f0: 590c 04be 7f75 b33c e7ee 5abe 37d3 493e
00000100: d87d 183e d42a d3bd f3eb 43be f960 773e
00000110: 3b06 9ebd 7197 973d f7d7 603e f025 3fbe
00000120: f7ce ed3d f3f8 25be d83b 7a3e e948 383e
00000130: 8835 533d 2646 a63d 4005 e4bd d84e 963d
00000140: 9137 f3bd 8300 bfbd a8bb 8dbd 0263 403e
00000150: 75db 1d3c 9623 103e 03ef cfbd f15f 09be
00000160: e7f2 35be 12cc e4bd ba3f cabd 70a8 6abe
00000170: cc99 bcbd 2d17 69be c830 003e 43af 5dbe
00000180: 8d35 9c3d 374c 893d 8b77 d7bd e890 39be
00000190: 0dcb 18be 65c9 4f3d 431c 0c3e 9f37 533e
000001a0: 29a6 5c3e 1fed d03d 071b 1cbe 83cb 5a3e
000001b0: 91d8 f83d ff33 713d 5c62 4d3e fceb acbd
000001c0: d9a7 ffbc 5c50 413e d332 52be e1d6 2fbe
000001d0: 09be 8bbc 175a c53d a8fb 713d 6363 66be
000001e0: e7bd 0e3d bd36 d63d 6f8d eb3c 1b0b 65be
000001f0: 7e75 22be 1c8c 193d 38da 2fbb d545 83bd
00000200: a671 4abe f36e 21be 8704 803b cdd2 3f3e
00000210: a6d4 3dbe ca09 533e 81cb 673e e1dd b93d
00000220: 634c b3bd df21 0dbd 25e0 12be e86e 053e
00000230: 46a0 c8bd 3d4f 5dbe 326d d13d 495a 38be
00000240: 7c73 5c3d 32c5 17be f525 35be 4192 573e
00000250: dc59 afbd 26c9 e3bd 0b99 86bd dd44 49be
00000260: f2b8 1e3d f018 d23c d57c f4bd 1cf4 143e
00000270: 3a92 883c 6320 e33d 6dfe 243d c8fe edbd
00000280: 63c8 233d 18e9 3cbe f0b8 133d 8aee 32bd
00000290: 8ff5 e13d 3818 073e 7505 3bbd 596b 693d
000002a0: 708c 3dbc 5c3d 053e 7856 3abd 2dd5 21be
000002b0: 7978 52bd 5315 fdbc cfe1 41bd ac2f 07be
000002c0: 9b98 0f3e 5cc7 0f3e 59d2 dd3c 1a5f 46be
000002d0: 977d 3abe 59eb 523e c925 49be c593 123e
000002e0: f5d6 15be 8095 7bbc db50 303d bcae da3d
000002f0: f0a7 7a3d 2c09 4c3e 443c 9b3d d0aa 00be
00000300: 8400 5a3b 9ebb 1fbe 311f 29be a9a4 0f3e
00000310: 6f12 12bc 927b 0bbe 07bb f3bd 849c 34bd
00000320: 48f5 9e3d 8b38 ddbd a5e3 093e 7686 15bd
00000330: 06c9 c33d 25ef c43d dda1 1ebd 6ef4 47be
00000340: b03d 53be fef3 093e 5264 2ebe d0cc bbbb
00000350: 738b 05be d97c 8f3d 9b7d 023e e752 573e
00000360: 8315 113e 7fba 1abd 8c29 143d f6f5 433e
00000370: e998 383d 1724 55bd a481 d3bd e19e 553e
00000380: 7749 b4bd e523 45be 9e68 cc3b c74e 44be
00000390: 9351 12bd b6fd 80bd 62ea 1cbe 48fe d5bd
000003a0: ab30 583e a106 873d a1f2 c43d 4b15 57be
000003b0: cca7 e73b 1d71 2cbe 9c57 db3d 63d0 ff3d
000003c0: b2a7 1f3e 0cc4 d63d 32b1 cf3d a7df 873d
000003d0: f3af 23be 6e09 5e3e 44aa 0d3d 3958 863d
000003e0: be8d 3c3e 49b2 6bbe b886 81bd b96b b6bd
000003f0: 8380 8cbd c77d a73d ed2f f4bd b032 ffbc
0.19496058 0.06925203 0.07107936 0.15840991 0.09231447 0.19335914 -0.100185245 -0.13043316
0.023862962 0.15198265 0.055711668 0.0672877 -0.019676922 0.02270817 0.01985225 0.12808435
-0.069817685 -0.077182956 0.19535749 0.21729164 0.19603214 0.17478034 0.12779674 0.04545009
-0.13079508 0.108855 -0.08025066 0.14004728 -0.05996682 0.14494711 0.19058675 -0.11449264
-0.04808354 -0.08625226 0.21652628 0.017186735 -0.11951493 -0.19362442 0.055024024 -0.12637264
0.120313585 0.19508243 0.06776648 0.08660759 -0.13400856 0.07810598 -0.19074304 0.1703133
0.033248838 -0.02330769 -0.106785014 0.01216104 0.01624654 -0.09038921 0.045415986 -0.21559852
0.17652436 0.09897837 0.057309166 -0.1671292 -0.12895335 0.021906612 -0.21380197 0.19709478
0.14891756 -0.10310903 -0.19132976 0.24158086 -0.07716032 0.07401932 0.21957384 -0.18666816
0.11611741 -0.16208248 0.24436891 0.17996563 0.051564723 0.081188485 -0.11133814 0.07339257
-0.11875833 -0.093262695 -0.06920558 0.18787768 0.009634842 0.14076075 -0.1015301 -0.13415505
-0.17768441 -0.11171736 -0.09875436 -0.22915816 -0.09209022 -0.22762747 0.12518609 -0.21648888
0.076274015 0.0670399 -0.10520848 -0.18121684 -0.14921208 0.050729174 0.13682656 0.20626687
0.2154776 0.10201477 -0.15244685 0.21366696 0.12150682 0.058887478 0.20057052 -0.08443448
-0.031207966 0.18878311 -0.205272 -0.17171814 -0.01705839 0.09636324 0.05907789 -0.2249885
0.034849074 0.10459659 0.028753964 -0.22367518 -0.15865132 0.037487134 -0.002683295 -0.06409804
-0.19769916 -0.1576498 0.0039067897 0.18732758 -0.1853815 0.20609203 0.22636224 0.09075523
-0.08754804 -0.03445613 -0.14343317 0.13030589 -0.09796195 -0.21612258 0.102259055 -0.18003191
0.053821072 -0.14821318 -0.1769026 0.21051885 -0.08562061 -0.111223504 -0.065721594 -0.19655176
0.038750596 0.025646657 -0.11937872 0.14546245 0.016671289 0.11090162 0.0402817 -0.11620861
0.039986026 -0.18448293 0.036065042 -0.04368452 0.11033165 0.13192832 -0.0456595 0.05698714
-0.011569127 0.13011688 -0.04549262 -0.15803976 -0.051384423 -0.030893957 -0.04733449 -0.13201779
0.14023058 0.14040893 0.02707784 -0.19372216 -0.18211971 0.2059759 -0.1964332 0.14314182
-0.14632781 -0.015355468 0.04304586 0.10677859 0.061195314 0.19925374 0.07579854 -0.1256516
0.0033264467 -0.15598914 -0.16515805 0.14027657 -0.008915528 -0.13621357 -0.11900907 -0.044094577
0.077616274 -0.108018 0.13465746 -0.036505185 0.095598266 0.09615926 -0.038728584 -0.19526836
-0.20629 0.13471982 -0.17030457 -0.0057312027 -0.13041477 0.07006235 0.12743227 0.21027718
0.14168362 -0.037775513 0.036172435 0.19136795 0.0450677 -0.05203637 -0.10327461 0.20861389
-0.08803075 -0.19251974 0.0062380573 -0.19170676 -0.035722326 -0.062983915 -0.15323785 -0.10448891
0.21112315 0.06593061 0.0961659 -0.21004216 0.0070695635 -0.16840024 0.107100695 0.124909185
0.15591314 0.10486612 0.10141219 0.06634455 -0.15985088 0.21683285 0.034586206 0.06559796
0.18413445 -0.23017229 -0.06324524 -0.08907265 -0.06860449 0.08178287 -0.119232036 -0.0311521

weight f4 [1, 32, 1]
00000000: 65c1 023e c0c3 263e a477 2a3e 49a2 293e
00000010: 67ca 233e 3d14 c9bd a811 8f3d b594 0e3e
00000020: 1096 b5bc 6549 2ebe cd1b 983d ba5e 563d
00000030: 2aa6 e5bc 6369 d03d c924 813d ceb6 60bd
00000040: 1bc9 1a3e 5512 2abe 9bec ed3d 84dc 1c3d
00000050: 68a6 223d ec2d ba3d 8e34 823d acd9 e53d
00000060: 27ee 193e 44d4 003e 0f8c d53d f3fd 683c
00000070: cf79 313d 814d 543d c3c7 2c3c bf0a b33d
0.12769087 0.1628561 0.16647202 0.16565813 0.15995179 -0.09818313 0.069857895 0.13923915
-0.022166282 -0.17020185 0.074271776 0.052336432 -0.028033335 0.10176351 0.06305844 -0.054861836
0.15115778 -0.16608556 0.116173945 0.038296238 0.03970948 0.0909079 0.0635768 0.11223158
0.15032254 0.12580973 0.10427105 0.014220702 0.043329056 0.051831726 0.010545674 0.08742284

weight f4 [1, 32, 1]
00000000: ab2b 2d3d 6c77 2cbd c254 efbd f804 053e
00000010: debf e6bd e109 973d 3115 eabd b768 c13d
00000020: 6c1f 88bd 5929 163e 4200 233e 85e8 1bbe
00000030: 7efa 32be 5b4d 193e bcf6 d83d 28de 0cbe
00000040: 7c30 053e be2f c0ba 29c9 cf3d f382 9cbb
00000050: e86a dcbb f62e bbbd d31d 003e a771 b0bc
00000060: cc4d 2ebd f76e be3c d867 303e 4d2d e0bd
00000070: b1fe 593d 7877 b43d 0456 213e b80a 203e
0.042277973 -0.042106077 -0.11686088 0.12990177 -0.112670645 0.07374931 -0.11429823 0.09443801
-0.06646618 0.1466421 0.15918067 -0.15225418 -0.17478368 0.14970915 0.10593936 -0.13756621
0.13006777 -0.0014662666 0.1014579 -0.0047763526 -0.0067266114 -0.091398165 0.12511377 -0.021538569
-0.04255466 0.023246272 0.17227113 -0.109461404 0.05322141 0.08811849 0.15755469 0.15629089

weight f4 [1, 32, 1]
00000000: 3ec8 64bd 3aad 073e b307 143c 0a25 2bbd
00000010: b4cf e13d dc0b f4bc 8e5a 003e 4f6c 10be
00000020: 5111 3cbe 5d39 30be e307 d6bd 45a3 2cbe
00000030: 0e50 dd3d c64d e9bd 5565 09bd 64de 473d
00000040: 4b27 de3d 5a53 d33d e7b0 b13c a6c6 05be
00000050: d01a eebd 16d4 c0bc 26df ec3c b564 823d
00000060: ece2 13ba c9fc 24bd e6b1 98bd 2cb6 f03d
00000070: eae7 aabd 51ee 5fbd 2ac0 10bd 594a eebc
-0.05585503 0.13249674 0.009035039 -0.04178337 0.11025944 -0.029790811 0.12534544 -0.14103816
-0.1836598 -0.17209382 -0.10450723 -0.16859157 0.10806285 -0.11391787 -0.033543903 0.048796073
0.10847338 0.103186324 0.021690799 -0.1306406 -0.11626208 -0.02353863 0.028915 0.063668646
-0.0005641419 -0.040280137 -0.074558064 0.117534965 -0.08345015 -0.054670636 -0.035339512 -0.029088186

bias f4 [32]
00000000: 57f5 27bd 7db6 f93d 35c7 ad3c 07ae e4bd
00000010: 2513 3e3c e69c bdbd 67a1 d5bd f807 833d
00000020: 2091 0c3e 2c54 adbd 52ab 783d 1337 daba
00000030: 0aee a13d cd03 c03d 058f 743d c5dd f9bd
00000040: 140a 33bc a7ae 59bd 2322 2d3e 6264 f93d
00000050: e915 20bd 7a1d 98bc 05d1 4dbc ab41 f1bd
00000060: c1f2 883d 86a1 78bd 44e3 d9bd 571d 78bd
00000070: ea84 883d c2ca 873d d11e abbd 903c 6abd
-0.04100546 0.1219301 0.021213153 -0.111660056 0.011601244 -0.092584416 -0.10431176 0.06398004
0.13727236 -0.0846332 0.06071026 -0.0016648493 0.079067305 0.09375725 0.059706707 -0.12200502
-0.010927696 -0.053145077 0.16907553 0.121773496 -0.039083395 -0.018568743 -0.012562041 -0.11780103
0.06686927 -0.060700916 -0.106390506 -0.060574856 0.06665976 0.0663047 -0.08355487 -0.057186663

weight_orig f4 [32, 43, 1]
00000000: ac97 963d fe65 6e3d 463d b2bd 662f a83d
00000010: 13a2 e03d a69f 7e3d 1a2c cc3d acac cc3c
00000020: 1dd9 c13d 57d9 823c 2377 403d f025 b43d
00000030: b82b edbc 9994 1dbc f029 433c c7b9 c1bd
00000040: 4c80 16bd 4bca dc3d f092 053e 6f09 8d3d
00000050: 80a8 08be ff5b 86bb 8f96 9f3d b88a dcbd
00000060: ebbb ef3c 5b64 3ebd d1f5 cbbb 0768 93bd
00000070: 7b84 833d b481 493d 4322 013d 7169 b63d
00000080: 901e 3cbd 4de0 d6bd 9af1 78bc 8aaf aa3d
00000090: 884e 62bc d224 853d ab05 80bc fb90 293d
000000a0: 67ad cdbc 3c3e 733d e31f d0bd b584 0f3e
000000b0: 9ed6 fcbc c950 b8bd 3844 26be f920 0c3d
000000c0: f81e 88bd 950b 17be c0e6 68bd 7cc2 faba
000000d0: ae34 e73d d829 063e 90b2 573d 3857 c13d
000000e0: 11a3 7fbd 4ac2 32bc 2fa7 013d e0d6 c43d
000000f0: 1110 f53d 5951 d9bd deeb 943d 05be 82bc
00000100: 31c4 1f3c f424 8b3d 568d e33d b49a 263d
00000110: 8349 14be e31c 90bd d800 a93d acbc adbd
00000120: 02c7 043e 9585 1fbd 4e2d d0bd 114c 0e3e
00000130: 259e 91bc 80d0 0e3e d886 bfbc 56f5 dbbc
00000140: b45f 2e3d b593 c63d 1b3d ef3d b20f 493a
00000150: 5f61 dc3d 08bd 44bc 1a49 543d 6b5d 103e
00000160: f776 f0bd 5863 b53d ecf6 183e 2a3e 073e
00000170: 23e5 cdbd ea48 f63b d054 61bd 8ed8 bdbc
00000180: 656a b93d ffc9 0c3d 22fd 073c bfff d53d
00000190: 8e93 683b b97b efbd 387d ab3d 6f6c b13d
000001a0: 64f6 e0bd 55a5 7e3d 17fa 8ebb 5c8a bd3d
000001b0: d77a 05be 311a 253d 3921 833d 1490 913d
000001c0: 6c67 70bc d295 2cbd c6ef a13c 41a2 9b3d
000001d0: 80ae 01be 4b09 fdbd b4a1 69bc 8709 67bd
000001e0: f84d cebd 7519 a83d 26af 90bd aa7d 0ebe
000001f0: dd14 433c 7536 3e3d e2fd 3e3d 2d5c d63d
00000200: 8ffc 043e 1ee5 983d ef16 0a3e f829 c73d
00000210: 5ffd 1dbe ca66 96bd 406d f8bd 3039 bc3b
00000220: 432e 303c 8885 173e f401 2a3b d5a7 89bd
00000230: a670 1a3d 67dc bbbd 5e80 063e 12b1 b33c
00000240: dd68 023e 9436 12be 94a9 003e 7015 963d
00000250: 84e3 41bd 53af f4bc d27c 9b3d 0a5a f43d
00000260: 298f 0b3d c107 e1bd 23d8 043d 6b78 c6bd
00000270: f356 ac3d c590 7f3d ede2 26bb 3450 1cbd
00000280: 8d7d 8c3d ee2b ce3c fd8c c2bd e0db b93c
00000290: eeb0 0b3e 2dcf 193d 2ed5 46bd b5cc 953d
000002a0: e24b dbbd c238 15be cba8 053e a742 a13d
000002b0: 5e49 22bd 6126 2e3d e8fe baba c86c 4a3d
000002c0: c7c0 333c b655 13be ad22 a23d d7b9 3ebc
000002d0: 8243 e3bd ca21 ee3d 197c 0b3e 3f46 013e
000002e0: adee 75bd 3f56 943d eb85 2abd e5cf 46bd
000002f0: f696 13bc f912 dbbd 0a5a 4c3c 565f bd3d
00000300: 631e b9bd 99c9 ab3d 0c4a a73d 9bce 97bd
00000310: 14f4 1a3e b034 27bb 2b7f 9ebd 859d f63c
00000320: d78e b53c 3d7b 353d 5455 c6bd 3de2 d2bd
00000330: 92a6 c9ba 55af d53c 7be5 613d da91 cfbd
00000340: 2be2 3b3d f3e6 283e ee94 b4bc 52a5 31be
00000350: 5639 e03d 094b 7dbc 6aef db3d 6cae 01be
00000360: a37a 0ebe 1166 9abd 5426 48bc da5f fa3d
00000370: 09c0 cdbd 19bd 073e 2218 91bd b975 003e
00000380: 05a8 033e 1f1a 4abd 3996 bbbd 99c9 973d
00000390: 6af5 723d 2067 b03d 6ffa 813d adde d7bd
000003a0: 65d7 a83d e6d0 9b3d d980 033d f145 de3d
000003b0: 2322 9cbd 0ae3 a4bd 28e3 10be 356a 823d
000003c0: fe6e d6bd 8d35 f63d d001 073d 1146 a7bd
000003d0: 0977 cebd 62bc 83bb b5c4 833d 64fb dcbd
000003e0: 50e0 9cbd 6709 36bd b1b9 0fbe bdde 923c
000003f0: 7502 59bd 7a2c f3bd 0596 0e3c b465 86bd
0.07353148 0.058202736 -0.08703093 0.082121655 0.10968413 0.06216397 0.09969349 0.02498468
0.09465239 0.015972776 0.046988618 0.087962985 -0.02895151 -0.009617948 0.011911854 -0.09459262
-0.036743447 0.10780772 0.13044333 0.06886565 -0.13345528 -0.0041003223 0.07792389 -0.10768646
0.029264411 -0.046482425 -0.006224372 -0.07197576 0.06421753 0.04919596 0.031526815 0.0890683
-0.045927584 -0.10492001 -0.015194321 0.08334263 -0.013812669 0.065011635 -0.015627703 0.04139803
-0.025107099 0.059385523 -0.10162332 0.14015467 -0.030864056 -0.089997835 -0.16236961 0.034211133
-0.06646532 -0.14750512 -0.056860685 -0.0019131447 0.11289345 0.131019 0.052660525 0.09440464
-0.06241137 -0.01091058 0.03165358 0.09611297 0.11965955 -0.10611219 0.072715506 -0.015959749
0.0097513655 0.067941576 0.11110942 0.04067488 -0.14481167 -0.0703676 0.08252114 -0.08483252
0.1296654 -0.038945753 -0.10164891 0.13896205 -0.017775605 0.13946724 -0.023379728 -0.026850384
0.04257174 0.09696142 0.11681577 0.000766988 0.107607596 -0.012007959 0.051827528 0.14098136
-0.11741441 0.08856839 0.14937943 0.13207307 -0.1005347 0.0075160163 -0.055012524 -0.02317455
0.09053496 0.034372326 0.008300098 0.1044917 0.003548834 -0.1169352 0.08373493 0.0866326
-0.10984495 0.06216939 -0.004363309 0.092549056 -0.13035141 0.04030818 0.06402821 0.07107559
-0.014673095 -0.042135067 0.019767653 0.07599307 -0.12664223 -0.12355288 -0.014259744 -0.05640557
-0.10073465 0.082079805 -0.07064657 -0.13915125 0.01190683 0.046438653 0.04662884 0.104668
0.12986968 0.07465576 0.13485311 0.09724802 -0.15428685 -0.07343824 -0.12130213 0.005744122
0.010753217 0.14797032 0.0025941106 -0.067214645 0.037705086 -0.09172898 0.13134906 0.02193502
0.12735315 -0.14278632 0.12564689 0.07328308 -0.047336116 -0.029868757 0.07592167 0.11931236
0.034072075 -0.10987807 0.032432687 -0.09690937 0.08415022 0.062393922 -0.0025464848 -0.038162425
0.068598844 0.025167432 -0.09499548 0.022687852 0.13641712 0.037551094 -0.048543148 0.073144354
-0.10707833 -0.14572433 0.1305267 0.07874041 -0.03962075 0.04251707 -0.0014266642 0.049420148
0.010971255 -0.14388165 0.0791677 -0.011640987 -0.110968605 0.116275385 0.13621558 0.12624453
-0.060042072 0.07243013 -0.04163162 -0.048538107 -0.00900816 -0.10696978 0.012472639 0.092466995
-0.09038999 0.08388061 0.0816842 -0.07412454 0.15132171 -0.0025513582 -0.07739099 0.030104408
0.022162838 0.044306982 -0.09684244 -0.10297058 -0.0015384725 0.026084581 0.05515049 -0.10135241
0.045869987 0.1649435 -0.022043671 -0.17348221 0.10948436 -0.015459784 0.10739024 -0.12664193
-0.1391397 -0.07538999 -0.012216169 0.122253135 -0.100463934 0.13255729 -0.07084681 0.12544908
0.12857063 -0.049341317 -0.09159512 0.074114986 0.059316076 0.086134195 0.063465945 -0.10540519
0.08244208 0.076082036 0.0321053 0.10853184 -0.076236986 -0.08051117 -0.14149153 0.06367914
-0.10470389 0.12021933 0.032960713 -0.08167661 -0.10081298 -0.0040202597 0.06434003 -0.107901365
-0.07659972 -0.04444256 -0.1403568 0.017928476 -0.05298086 -0.118737176 0.00870276 -0.06562367

weight_u f4 [32]
00000000: 3e16 143e 258d d9bc 98e7 4c3e 20bd 9e3b
00000010: 8359 473d 2050 cbbd 8643 af3c d324 d8be
00000020: 8713 e93d 140c d3be 6a90 123e 2ee4 49be
00000030: 626c 12be b6f5 b53d 14a6 023c ebb5 9e3d
00000040: 286c 813e 3945 ba3d c481 333e d7ac 07be
00000050: 02d5 b3bc 7538 503e af11 55be 4efb 833e
00000060: 2f78 8a3e 8acf 2cbe 8476 513e e567 243d
00000070: a68a df3d 49b1 843c a833 c73d f651 373e
0.1446161 -0.02655656 0.20010221 0.004844323 0.04866935 -0.09927392 0.021394502 -0.42215595
0.11380678 -0.41220152 0.14312902 -0.1971595 -0.14299157 0.08884756 0.007974166 0.07749542
0.2527783 0.090952344 0.1752997 -0.13249527 -0.021952156 0.20334037 -0.20807527 0.25777668
0.27044818 -0.16876045 0.20455366 0.040138144 0.10915117 0.016197817 0.097266495 0.1790236

weight_v f4 [43]
00000000: f6d7 2abe 35fa 683d bbdc 74be c790 37bd
00000010: f9b5 843e 4bf8 a43e c5d5 253e 295a 2cbe
00000020: d591 a5bd e257 87be 5660 fd3c 9aeb f4bd
00000030: f5fb 0fbe 738c 3f3e d2dc 54bd 9f7b 15bd
00000040: 3256 fe3d 9acc 1bbd d0da 9d3e dcb2 543e
00000050: 9dc2 f5bc 1ffd 773d 4dbc fa3d 24cc 163d
00000060: 542b b53d 174f 1c3e aa96 2fbe d58a 923d
00000070: 7f47 c63d 6cad 6cbd e438 dfbd 0594 f9bd
00000080: 4bd0 8d3e 46a5 00be 6bff 6abd 1f08 883e
00000090: afc9 e3bc 9d3c 133e 396a ffbd 6bc4 f23d
000000a0: 2869 833d e760 2d3e 28b8 493d
-0.16683945 0.05687924 -0.23912327 -0.044815805 0.25920084 0.32220683 0.16194828 -0.16831268
-0.08084456 -0.26434237 0.030929726 -0.11959 -0.14060958 0.18705921 -0.051968403 -0.036494847
0.12418784 -0.03803692 0.30831003 0.20771354 -0.030000025 0.06054413 0.12242947 0.036815777
0.08846155 0.15264545 -0.17147318 0.07155386 0.096816055 -0.057782575 -0.10899523 -0.121864356
0.27697977 -0.12563047 -0.05737249 0.26568696 -0.027806131 0.14378591 -0.12471432 0.1185387
0.06416541 0.16931497 0.04924789

weight f4 [32, 43, 1]
00000000: f414 a53d 86ab 823d aa61 c3bd 0e5d b83d
00000010: b43d f63d 1190 8b3d a9d1 df3d e95b e03c
00000020: 4c7f d43d aa74 8f3c dafb 523d a07a c53d
00000030: b3fc 01bd 72b2 2cbc 42f4 553c cb5a d4bd
00000040: 6af8 24bd 7708 f23d df6c 123e 7d9a 9a3d
00000050: a1cc 15be e440 93bb 2ef0 ae3d 90bf f1bd
00000060: 6165 033d 6eb0 50bd 8683 dfbb f793 a1bd
00000070: 482c 903d bbe6 5c3d 828f 0d3d 4bf6 c73d
00000080: a534 4ebd 728b ebbd bb6d 88bc 051c bb3d
00000090: f80f 78bc 60f4 913d 6256 8cbc 09e2 393d
000000a0: 9474 e1bc bc52 853d 8e22 e4bd 5b52 1d3e
000000b0: dd94 0abd 5f0b cabd 0742 36be 839a 193d
000000c0: c536 95bd 0193 25be 1a4f 7fbd 6779 09bb
000000d0: 8d71 fd3d 3b11 133e 4171 6c3d 31ef d33d
000000e0: a11d 8cbd 3cfd 43bc 761e 0e3d 92c5 d73d
000000f0: e750 063e 0539 eebd 0e3e a33d ba4a 8fbc
00000100: 611e 2f3c 8387 983d 4a70 f93d 80a1 363d
00000110: 848c 22be 81fa 9dbd d141 b93d 3671 bebd
00000120: 2a8c 113e d7df 2ebd 3d34 e4bd 21fb 1b3e
00000130: 43a5 9fbc 278d 1c3e bdfa d1bc 2c1e f1bc
00000140: 5127 3f3d d7ac d93d 8b20 033e aaad 5c3a
00000150: 1f93 f13d f6aa 57bc 54b3 683d 583f 1e3e
00000160: 1fcc 03be 25d5 c63d 76ac 273e 1a40 143e
00000170: 12b4 e1bd f509 073c f301 77bd b719 d0bc
00000180: a842 cb3d 1e55 1a3d ce0b 153c ff94 ea3d
00000190: 69f5 7e3b 5c42 03be bbfa bb3d 877e c23d
000001a0: 5d9a f6bd dd90 8b3d 1bb9 9cbb 3fc7 cf3d
000001b0: 1351 12be 2afb 343d d6bc 8f3d 6b8f 9f3d
000001c0: 58c8 83bc 5433 3dbd 2e80 b13c 5599 aa3d
000001d0: e126 0ebe b5b0 0abe 2a10 80bc 363e 7dbd
000001e0: 7926 e2bd d042 b83d ef9b 9ebd ba32 1cbe
000001f0: 39d1 553c 7f81 503d c457 513d 6cf9 ea3d
00000200: a9c6 113e 4c9a a73d 665f 173e b152 da3d
00000210: 002f 2dbe 99dd a4bd cd28 08be ca61 ce3b
00000220: ab26 413c 9418 263e 5871 3a3b 9ee4 96bd
00000230: dd4b 293d 4aee cdbd 8470 133e 8dfd c43c
00000240: 13f4 0e3e 7a46 20be fd09 0d3e f085 a43d
00000250: 8386 54bd f71c 06bd 0372 aa3d 1bee 053e
00000260: 63fc 183d d4ab f6bd 8da1 113d 888e d9bd
00000270: 71eb bc3d e413 8c3d d3ee 36bb c558 2bbd
00000280: 7501 9a3d abff e13c 1644 d5bd 5abe cb3c
00000290: b220 193e 479c 283d 54f4 59bd 2e36 a43d
000002a0: dc63 f0bd 2793 23be fa83 123e 09c6 b03d
000002b0: 2de4 31bd 71ea 3e3d 4d8f ccba 8ae8 5d3d
000002c0: 481d 453c 1e81 21be f5ba b13d 340f 51bc
000002d0: 8c1e f9bd ba84 023e e0e6 183e 7fb5 0d3e
000002e0: 1ccb 86bd 949c a23d 00e9 3abd 26eb 59bd
000002f0: 88c1 21bc 5925 f0bd ed0a 603c 1b98 cf3d
00000300: 8aec cabd 0051 bc3d 2e62 b73d 4668 a6bd
00000310: 10dc 293e 7b29 37bb f0bb adbd 282d 073d
00000320: e506 c73c c8ef 463d fc67 d9bd fd28 e7bd
00000330: 3437 ddba 3d41 ea3c 4f9f 773d 7888 e3bd
00000340: 6af8 4d3d ca25 393e 20ea c5bc 0dbc 42be
00000350: d0cc f53d cdcf 8abc b918 f13d a127 0ebe
00000360: 982e 1cbe 723e a9bd b85a 5bbc e63a 093e
00000370: d588 e1bd 67cb 143e 5d0b 9fbd c0d1 0c3e
00000380: f751 103e 2388 5dbd 57a1 cdbd 0c64 a63d
00000390: ec2a 853d 4460 c13d f97b 8e3d b6a0 ecbd
000003a0: f515 b93d 31ce aa3d 692a 103d c3a6 f33d
000003b0: 2825 abbd 03be b4bd 28d2 1ebe 3ef7 8e3d
000003c0: 600e ebbd 40f3 063e 83ff 133d f75b b7bd
000003d0: 8a52 e2bd 5a62 90bb 3e72 903d b63d f2bd
000003e0: 07f8 abbd 5890 47bd 4f8d 1dbe 1805 a13c
000003f0: a5e3 6dbd d547 05be a64c 1c3c 8b51 93bd
0.08060637 0.06380372 -0.09540112 0.09002124 0.12023488 0.06814588 0.109286614 0.027387576
0.103758425 0.017511684 0.051509716 0.096425295 -0.031735133 -0.010540592 0.013058724 -0.1036888
-0.04027597 0.11818021 0.14299344 0.075489976 -0.14628841 -0.0044938195 0.085419044 -0.11804116
0.032079104 -0.050949506 -0.0068210987 -0.0788955 0.07039696 0.05393098 0.034560688 0.097637735
-0.050343174 -0.115012065 -0.016653886 0.09136204 -0.015140526 0.07126689 -0.017131034 0.04538158
-0.02752141 0.06509921 -0.11139403 0.15363447 -0.033833373 -0.0986545 -0.17798625 0.03750087
-0.07285837 -0.16169359 -0.062331297 -0.0020976902 0.12375174 0.14362042 0.057725195 0.103483565
-0.06841589 -0.011962231 0.03469702 0.105357304 0.131168 -0.11631969 0.0797082 -0.017491687
0.010688395 0.07447722 0.121796206 0.044587612 -0.15873915 -0.077137955 0.090457566 -0.09298937
0.14213625 -0.04269394 -0.11142776 0.15232517 -0.019487983 0.1528822 -0.025632257 -0.029433332
0.046668354 0.1062867 0.12805383 0.0008418212 0.11795639 -0.013163319 0.056811646 0.15453851
-0.12870835 0.09708623 0.16374382 0.14477578 -0.11020674 0.00824212 -0.060304593 -0.025402887
0.09924823 0.03767883 0.009097053 0.114542 0.00389036 -0.12818283 0.091786824 0.094967894
-0.12041161 0.0681474 -0.0047828085 0.10145425 -0.1428874 0.04418484 0.070184395 0.07791027
-0.016086742 -0.04619153 0.021667566 0.08330027 -0.13882019 -0.13543971 -0.015632708 -0.061826907
-0.11042494 0.089971185 -0.07744586 -0.15253726 0.013050371 0.050904747 0.05110909 0.11473355
0.14235939 0.08183727 0.14782485 0.106603034 -0.1691246 -0.08050079 -0.13296814 0.0062982785
0.011789004 0.16220313 0.0028448906 -0.07367824 0.041332114 -0.10055216 0.1439839 0.024046684
0.13960294 -0.15651885 0.13773341 0.08033359 -0.051886093 -0.032742467 0.08322527 0.13079111
0.03735007 -0.12044492 0.035554457 -0.10622889 0.092245944 0.06839731 -0.0027913346 -0.041832704
0.07519809 0.027587732 -0.10413377 0.02487104 0.14953879 0.041164663 -0.053211525 0.080181465
-0.11737797 -0.15974103 0.14308158 0.08631522 -0.043430496 0.0466103 -0.0015606672 0.054176845
0.012030907 -0.1577191 0.08678237 -0.012759972 -0.121640295 0.12745944 0.14931822 0.13838767
-0.06581709 0.07940021 -0.045632362 -0.05320277 -0.009872802 -0.117258735 0.01367448 0.10136434
-0.099083975 0.09195137 0.08954273 -0.08125357 0.16587853 -0.0027948308 -0.08483112 0.03300205
0.02429528 0.048568517 -0.106155366 -0.11287115 -0.0016877414 0.028595561 0.060454663 -0.11110014
0.050285734 0.18080822 -0.024159491 -0.19017048 0.120019555 -0.01694479 0.117722936 -0.13882305
-0.15252149 -0.082638636 -0.013388328 0.13401374 -0.11012427 0.14530717 -0.07765839 0.13751888
0.14093767 -0.05408491 -0.10040539 0.08124551 0.06502327 0.09442189 0.0695724 -0.11554091
0.09037391 0.08340109 0.035196695 0.11897042 -0.08356696 -0.08825304 -0.15509856 0.069807515
-0.11477351 0.1317873 0.036132347 -0.08953088 -0.11050899 -0.0044062557 0.0705304 -0.11828177
-0.08396917 -0.04872164 -0.15385936 0.01965575 -0.058078427 -0.13015683 0.009539759 -0.071932875

weight f4 [1, 32, 1]
00000000: a41e b93c e7e5 353c 939d 28be 1abb c7bd
00000010: 4e86 263d f077 6cbd 9666 ea3d 6be2 0bbd
00000020: cc93 cfbc e5af ffbb bbaa 42bd ee73 9a3c
00000030: 916f 55bd f0c0 b73c 5e53 febd 0672 0bbe
00000040: a50d 81bd 101b 343c bf6b b73d 67b3 aebd
00000050: 3e9e a53d b83a 84bd 72c6 4d3c 1c09 02be
00000060: aad3 06be 79bb 26be 2d24 f83d d6d4 c73c
00000070: 497a 92bd fbfd 04bd a54d 90bd 9eb7 d3bd
0.022597618 0.011102176 -0.1646636 -0.09752484 0.040655427 -0.05773157 0.11445348 -0.034151476
-0.02533903 -0.0078029507 -0.047526103 0.018854108 -0.05210835 0.022430867 -0.12418245 -0.13617715
-0.063014306 0.01099278 0.08956098 -0.08530312 0.08086823 -0.06456512 0.01255952 -0.12698787
-0.13166681 -0.16282453 0.12116275 0.02439348 -0.0715223 -0.032468777 -0.070460595 -0.103377566

weight f4 [1, 32, 1]
00000000: f579 113e efd7 1abd 2813 abbd 34a3 43bd
00000010: 25c6 e1bd c5ac 0ebe 814c 13be eb22 18be
00000020: 9b9a a63d fb10 df39 f7f1 1b3e babd a33b
00000030: c2b3 aebd 099c ebbd 24b3 0abe 0a04 2abe
00000040: 9334 18bd 2728 813c d8d0 c83d af4b 0dbe
00000050: f401 f9bb 1235 123e f09d 20be 5c40 c3bd
00000060: 322d a4bb 4f75 653d f7c1 fcbd a818 44bd
00000070: 6282 07bd 64c2 2ebe 5fc2 0f3e 16bc d63d
0.14206679 -0.037803587 -0.08353263 -0.047763065 -0.11024121 -0.13933094 -0.14384653 -0.1485707
0.081349574 0.00042546526 0.15229021 0.0049969824 -0.0853038 -0.11504371 -0.13544899 -0.16603103
-0.037159514 0.015766216 0.09805459 -0.13798402 -0.00759911 0.14278057 -0.15685248 -0.0953376
-0.0050102705 0.056020077 -0.12341683 -0.047875077 -0.033083327 -0.17066342 0.1403899 0.10485093

weight f4 [1, 32, 1]
00000000: 175a 353e da89 ddbb 9002 e53d f925 31be
00000010: 7c69 4fbd 262e 64bd 13d3 953d 147d 57bd
00000020: 0316 8d3d 0d91 48bb aa6b 0abe 8ba6 3d3d
00000030: 9cc3 a5bd e4f6 c0bd 34b3 d93d 36b4 0e3d
00000040: 9e2b 963d 80be 763a 2e6e 14be c877 98bd
00000050: 0662 ebbd 8da3 28be 75bc bbbd ad2e dcbd
00000060: 43ae 2e3e 5c91 0ebe f9cf a83d 5d77 2fbe
00000070: 6965 d5bd f576 933d 8429 bcbd 0a10 613d
0.17710148 -0.006760818 0.111821294 -0.17299642 -0.050637707 -0.055708073 0.0731565 -0.05260952
0.06888964 -0.0030604035 -0.13517633 0.046301406 -0.0809395 -0.09422091 0.106298834 0.03483983
0.07332538 0.0009412542 -0.14495155 -0.074447215 -0.11493306 -0.1646864 -0.09166805 -0.1075109
0.17058663 -0.13922638 0.08242793 -0.17135377 -0.10419733 0.07200424 -0.09187606 0.054946937

bias f4 [32]
00000000: cd54 e1bd edcc 73bd cba0 d1bb bced 0f3e
00000010: c709 16be 68aa fd3d d1db ee3d 97de 1cbe
00000020: 2a3c 9e3c e51e 94bd bdcd 9e3a b1b5 d9bd
00000030: 2008 133e 24dc 813d 9f26 ad3d d521 253d
00000040: ae62 9ebd ee04 b3bd 3a60 ab3d ff13 0ebe
00000050: 8052 e23d 6145 a33c 13d4 12be efd5 57bd
00000060: 83b9 ecbc 7e72 883d 41b0 99bd c7d4 38bd
00000070: e2a7 c73d 76bb d0bc 3ef1 4dbd 7eef a53d
-0.110025026 -0.059521604 -0.006397342 0.14055532 -0.14652167 0.12386018 0.116630204 -0.15319286
0.019315798 -0.07232455 0.0012115758 -0.10630358 0.14358568 0.063408166 0.08454632 0.040315468
-0.077336654 -0.08741175 0.08367963 -0.13874815 0.11050892 0.019930543 -0.14338712 -0.052694257
-0.028897053 0.06662463 -0.07504321 -0.045124795 0.09748818 -0.025480013 -0.050278895 0.0810232

weight_orig f4 [32, 43, 1]
00000000: 5fae 08bc 0bea dabd 168e b8bd c7dd 90bd
00000010: f638 e0bd 661c 8f3d 4224 093e 03b0 0d3e
00000020: 6868 123e d36d df3d d4ad f83d ef71 99bd
00000030: c684 89bd 7dcc b3bd 194f e83d ea2f 823c
00000040: 8eef 973c 31fa 1f3e c826 b03d b8ba febd
00000050: 14e2 8fbb 43ab bd3d a189 03be 6d44 a33d
00000060: f0a2 043e f686 9fbd 7fe7 e7bb 4281 c5bd
00000070: 153e 603d 3fda c23c 5727 b1bd 4fcb 253e
00000080: 9311 b03d 40f0 c0bd bce9 d83d 3211 dc3d
00000090: 4a69 543d 8cba 28be f414 e7bd 9a41 30bd
000000a0: e726 16be 9aa0 863d fc3a 45bd ce02 d43d
000000b0: e8ff 0d3d 31c7 fcbb 4fde aebd a08c 07be
000000c0: 539e f4bd c014 1abe 2326 8fbd 8b05 1e3e
000000d0: 22d7 083e 73fa 073e a9c1 a23d d586 f23d
000000e0: decf 7e3d 9e28 9e3d 89f8 843d acfd 4abd
000000f0: ebca 8b3b db19 123e 33c0 1e3a f786 dc3d
00000100: 74c5 fa3d e155 073e ed24 82bb defd a9bd
00000110: 8ef4 72bd d877 823d d3a7 883d 7981 b1bc
00000120: 4a45 993c 3857 6cbd 921a 4bbd 89a8 0dbe
00000130: d315 0b3e 3e40 9e3b 8913 be3c 99c8 123d
00000140: 8bb2 803d 7b26 403d 10be 33bd 5c40 99bd
00000150: c70f d6bd b304 473c a21a c83d c1c7 d03c
00000160: 694f f13c 6f63 c03b 240b 273d c26b 00b9
00000170: 4e79 83bd 9789 e03d 8a66 73bd ddef a3bd
00000180: 76f1 57bc 4c46 95bb 049a cbbd e4a5 0f3e
00000190: a8c3 13be 0600 303d ba6b 0b3e 26d8 f13d
000001a0: a0cf 0cbe f9b5 193d 5314 ed3d 6d99 d53c
000001b0: 0213 103e 1b24 08be 9512 8abd f233 4cbd
000001c0: 1f17 2c3d b745 0c3e eb4f 6b3d 76b0 c13c
000001d0: 72d1 16be 2c59 b0ba 1d18 e43c 2b0d a53d
000001e0: 402d 263d 33e3 0a3e 4b3c a23c b44a dd3d
000001f0: f966 c63a ede1 903d a737 04be a0be 07be
00000200: 2299 ffbc 1295 86bc efb0 dcbc ab35 4d3c
00000210: ca1e 2f3e d90f 273e 31d5 ef3d 403c 95bc
00000220: ab78 fa3d 3590 133e 5c31 d73d 0987 783d
00000230: 46cc 14bc 245f 3abc 8fbd c43c 3893 c33d
00000240: 28ff b33d 850c 05be 00a7 f7bd 2f1c 203e
00000250: 6002 323e cc3d f83d 571f d83d 9bdd dd3d
00000260: d3d4 9dbd 55ea b2bd 9bae 353e 2331 a03c
00000270: 3915 b5bd 6554 3abd c2cd 49bd 7976 ebbb
00000280: ee9c 03be 8338 e73d ab52 a7bd 0a15 df3d
00000290: 5359 293d 7a9a 253e bf8e 083e ed36 be3d
000002a0: 1516 b23d 6a42 0ebe f7f2 183e 90c0 243e
000002b0: 71f9 e33d efbf 0b3e c71b fcbd 7cb8 843c
000002c0: ed6c dfbc 8970 30bd 26af f53a 7f4e 573b
000002d0: e345 893d 7266 ea3d cecd 23bb 8edb 113e
000002e0: 3ebd 91bd f8a7 1fbe f714 2bbd 22b3 dbbd
000002f0: ef47 f1bd 151b 0dbe a7a0 b33d 034d f6bd
00000300: 9231 8fbc 60db fe3d 3f09 a13d 1583 023e
00000310: 6587 ae3c 8580 1ebd a597 1cbe bc30 df3c
00000320: ae4a f73d c8d1 5bbd ce25 4bbd 89fb 7e3d
00000330: ed7b 86bc ca29 f43d 153f 06be 05d3 15be
00000340: d298 063e 8dc1 2c3d b5a9 00be 4269 22be
00000350: 115b a1bd 2273 5abd 96a2 443d ed5c febd
00000360: 4798 e4bd cf2c 78bd 59ea 90bd 00c1 003e
00000370: 9276 6abd fbdd e2bd e992 223d e265 cbbd
00000380: 1770 d3bd 3313 cdbd 0e02 f23d a77e afbd
00000390: 06e1 ac3d d1d4 fcbc 238f d83c 6b41 aabd
000003a0: a389 993d ec47 153e 700b e13d 927e 143d
000003b0: 4727 77bc 56d4 243e de92 08be e5f0 193e
000003c0: 0af8 95bd 72b7 813d f17e bebd c753 e33d
000003d0: daff 0e3e feb7 35bd fa44 903d e5ac b0bd
000003e0: 25df bc3d 1de2 053e ffa1 473c 805f 91bd
000003f0: 8b2b 09be e960 7c3d 492f 04bc 92fe 043e
-0.008342355 -0.106891714 -0.09011476 -0.07073551 -0.109483644 0.069878384 0.13392738 0.13836674
0.1429764 0.10909619 0.1214253 -0.07492434 -0.06714778 -0.087792374 0.11343212 0.015891988
0.018546846 0.15622784 0.08601147 -0.124379575 -0.0043909643 0.09261181 -0.1284547 0.079720356
0.1295278 -0.07789414 -0.007077157 -0.096437946 0.054746706 0.023785708 -0.086500816 0.16190837
0.08597102 -0.09420824 0.10591456 0.10745467 0.051858224 -0.16477412 -0.11283293 -0.043031313
-0.14663278 0.06573601 -0.048151955 0.103520975 0.03466788 -0.007714175 -0.08538496 -0.13237238
-0.119442604 -0.15046978 -0.06989696 0.15431802 0.13363317 0.13279133 0.07947094 0.118421234
0.062209956 0.07722591 0.06492717 -0.049558327 0.004266133 0.14267676 0.00060558616 0.1076793
0.122446924 0.13216354 -0.003971687 -0.083003744 -0.059315257 0.06370515 0.06672635 -0.021668183
0.018709797 -0.057700366 -0.049585886 -0.13833822 0.13582544 0.0048294356 0.023202674 0.035835836
0.06284054 0.046911698 -0.04388243 -0.07482979 -0.10452228 0.0121471165 0.09770705 0.025485875
0.029456811 0.0058712284 0.04078211 -0.00012247174 -0.064196214 0.10963743 -0.05942396 -0.08004735
-0.013180127 -0.004555499 -0.099414855 0.14028126 -0.14430106 0.042968772 0.13615313 0.11808805
-0.13751078 0.03752706 0.11576142 0.026074136 0.14069751 -0.13295023 -0.067418255 -0.049854226
0.042014237 0.13698469 0.057449263 0.023643713 -0.14728335 -0.001345431 0.02784353 0.08059152
0.040570498 0.13563232 0.01980414 0.10805264 0.0015136889 0.07074342 -0.12911855 -0.13256311
-0.03120095 -0.016428504 -0.026939837 0.0125250025 0.17101589 0.16314639 0.11710585 -0.018217206
0.12230047 0.1441048 0.105074614 0.060675655 -0.009081906 -0.011375222 0.02401617 0.09549564
0.087889016 -0.12993057 -0.120923996 0.15635751 0.17383718 0.12121162 0.105528526 0.108332835
-0.077066086 -0.087361015 0.17742388 0.01955468 -0.088419385 -0.04549064 -0.04926849 -0.007185754
-0.12852833 0.11290076 -0.081700645 0.10892685 0.04134495 0.1617221 0.13335703 0.0928782
0.08695618 -0.13892522 0.14936434 0.16089082 0.111315615 0.13647436 -0.123099856 0.01620125
-0.02727362 -0.043076072 0.0018744215 0.0032853184 0.06702783 0.11445321 -0.0024994495 0.1424391
-0.07116173 -0.15591419 -0.04176804 -0.10727526 -0.11781298 -0.13779862 0.087708764 -0.120264076
-0.017479692 0.12444186 0.07863092 0.12745316 0.021304796 -0.038696785 -0.15292223 0.027244918
0.12074791 -0.05366686 -0.0495966 0.0622516 -0.016416514 0.11922033 -0.13110001 -0.14631279
0.13144234 0.042176772 -0.12564738 -0.15860465 -0.07878698 -0.053332455 0.048006617 -0.12420068
-0.11161857 -0.060589608 -0.07075948 0.12573624 -0.057241984 -0.11077496 0.039690886 -0.09931542
-0.10324114 -0.100134276 0.11816798 -0.08569079 0.08441357 -0.030863198 0.02643544 -0.08313259
0.07496955 0.14578217 0.1098851 0.03625352 -0.015085048 0.16096625 -0.13337275 0.150333
-0.073227 0.063338175 -0.09301556 0.11099964 0.13964787 -0.04436492 0.07044406 -0.08626727
0.09222249 0.13074537 0.012184619 -0.07098293 -0.13395517 0.06161586 -0.008067914 0.12987736

weight_u f4 [32]
00000000: 9ca4 f7bd d1b3 b53c f931 c2bc 27a8 94be
00000010: 5926 febd 8455 a23e 8e1a 623e 965c e93d
00000020: d71f 1d3c e477 7abd c65e e0bc d87e 8abe
00000030: a88b c03d 7ed9 b5bd e180 1cbd f1c5 2bbe
00000040: 3dcf 4e3e f3e1 8bbe 10d0 913e d392 8ebd
00000050: 5fcf 253e 20ee 06be 4c94 ef3d 6dd1 d83e
00000060: a2a0 e63d d696 423e 4f4e 26bd 04cb 423e
00000070: 32ce 23bd 04a4 eeba 9fe4 cebd 7eb5 7e3e
-0.120919436 0.02218047 -0.02370547 -0.2903454 -0.12409658 0.31705868 0.22080442 0.113946125
0.009590111 -0.061149493 -0.027388941 -0.270499 0.09401637 -0.08879374 -0.038208846 -0.16774727
0.20196243 -0.27320823 0.28479052 -0.06961598 0.16192387 -0.13176775 0.11698207 0.4234728
0.11261107 0.19002852 -0.040602025 0.19022757 -0.039991565 -0.001820684 -0.101022 0.24873921

weight_v f4 [43]
00000000: b263 fb3d 1fe5 5dbe 1d0a e03b 16d1 54bd
00000010: 47ed 5fbc 2d21 3abe cb96 36be f6c3 6bbe
00000020: 4e0e bfbe 4060 b3bd 345a 41bd fd0e 1b3e
00000030: 1600 f23c 539f 14bd 0167 403e 57de 16bd
00000040: cb5a 423d 447c ed3d 8f80 f5bd 4832 5c3e
00000050: ff01 08bd 74f0 c2bd 5ff6 cbba 20f4 4bbd
00000060: 054b b53d 8e99 43bc c850 e33d 30b6 773d
00000070: 61a1 b43d 8842 debc 10bd ed3d bd3b 813e
00000080: 2773 80be 838d 903e b23c 9dbb 131a a53d
00000090: 9788 27be 2001 cbbe 576d 343e 720a 7fbd
000000a0: 65af fc3d 2e31 583c 154c 1f3e
0.12274875 -0.21669434 0.006837143 -0.051957212 -0.013667411 -0.18176718 -0.1783096 -0.23023972
-0.373156 -0.087585926 -0.047205165 0.15142436 0.029541057 -0.036284756 0.18789293 -0.036833134
0.04744987 0.115959674 -0.11987411 0.21503556 -0.03320503 -0.09518519 -0.0015561095 -0.049793363
0.088521995 -0.011938466 0.11099392 0.060476482 0.08819843 -0.027131334 0.116083264 0.2524089
-0.25087854 0.28232965 -0.004798495 0.08061614 -0.16360699 -0.39649296 0.17619835 -0.06226582
0.12338141 0.013195319 0.15556367

weight f4 [32, 43, 1]
00000000: 8a36 10bc 9efd e6bd 4ebe c2bd fdda 98bd
00000010: 9897 ecbd 0802 973d 18b6 103e 7282 153e
00000020: 827c 1a3e e7c3 eb3d 0334 033e c8e9 a1bd
00000030: 2a1b 91bd 3eb8 bdbd 8a20 f53d f05f 893c
00000040: 5653 a03c 23ce 283e fdde b93d 7664 06be
00000050: 4ec2 97bb fc22 c83d 2fcb 0abe ed46 ac3d
00000060: d2f4 0b3e 1854 a8bd 9db1 f4bb 2767 d0bd
00000070: f39d 6c3d 6d9c cd3c 1aed babd 64f1 2e3e
00000080: 45c9 b93d f394 cbbd eae2 e43d d236 e83d
00000090: 961e 603d 8809 32be 29d5 f3bd d0fc 39bd
000000a0: eb70 1ebe 100f 8e3d 631d 50bd 78b6 df3d
000000b0: 4bd6 153d e46f 05bc 6c85 b8bd cd07 0fbe
000000c0: c00f 01be 5295 22be f20d 97bd 7fbd 263e
000000d0: 0d64 103e 947b 0f3e 29ba ab3d 88e8 ff3d
000000e0: a26e 863d 72e2 a63d 9e4f 8c3d 1431 56bd
000000f0: c29d 933b 7329 1a3e a81d 273a e6b2 e83d
00000100: 474e 043e 00cd 0e3e e93f 89bb e25d b3bd
00000110: e52f 80bd 79ac 893d 4d31 903d 624d bbbc
00000120: 32b7 a13c 7560 79bd c64f 56bd 3078 15be
00000130: 7dc2 123e 0d0b a73b 0d9a c83c 4ce3 1a3d
00000140: 3bcd 873d 13be 4a3d f9a8 3dbd 38b5 a1bd
00000150: 7ae0 e1bd cbfc 513c 5425 d33d 864b dc3c
00000160: 9ca0 fe3c f912 cb3b f940 303d bbd3 08b9
00000170: ccb9 8abd b8ee ec3d df69 80bd 67fb acbd
00000180: e0dd 63bc aa6b 9dbb 28d6 d6bd f493 173e
00000190: 38eb 1bbe 62b5 393d 7b1d 133e 4630 ff3d
000001a0: 0395 14be f132 223d bc29 fa3d 845b e13c
000001b0: 8e07 183e 04a8 0fbe 0bb1 91bd 3675 57bd
000001c0: ad95 353d 7303 143e 4c4c 783d fd5f cc3c
000001d0: 5724 1fbe 6505 baba 6ba7 f03c 6a29 ae3d
000001e0: e057 2f3d 3d8d 123e c926 ab3c 497f e93d
000001f0: d3ba d13a 36df 983d f383 0bbe 313c 0fbe
00000200: 33d9 06bd bfff 8dbc f3d9 e8bc bb8e 583c
00000210: 06c9 383e 5648 303e 9912 fd3d a773 9dbc
00000220: da25 043e 86b5 1b3e be13 e33d bd1f 833d
00000230: bbfe 1cbc af9b 44bc d69a cf3c f95e ce3d
00000240: 22ef bd3d bf63 0cbe 67a8 02be a8f2 283e
00000250: 39d5 3b3e aaf8 023e ae0d e43d 7a1c ea3d
00000260: 0a89 a6bd f6c8 bcbd 90b5 3f3e 980b a93c
00000270: e112 bfbd e49a 44bd f1ee 54bd 3e6b f8bb
00000280: cedf 0abe 07fc f33d ab8f b0bd 3a64 eb3d
00000290: 79b2 323d 9cbe 2e3e 3d18 103e 3fb6 c83d
000002a0: a3ea bb3d a21b 16be 8163 213e 1ed8 2d3e
000002b0: 838d f03d b776 133e c403 05be e108 8c3c
000002c0: 0ec0 ebbc 892d 3abd 97ac 013b e716 633b
000002d0: 3fd8 903d a955 f73d 5df2 2cbb 47e7 193e
000002e0: 53c7 99bd cd77 28be c584 34bd 99d2 e7bd
000002f0: 9399 febd dde4 14be d889 bd3d bbf2 01be
00000300: e415 97bc 1477 063e b0eb a93d f2b7 093e
00000310: 322a b83c 3344 27bd bf3b 25be 357d eb3c
00000320: f277 023e b3f5 67bd 085d 56bd 7f86 863d
00000330: c1e1 8dbc 9ad0 003e 61a6 0dbe 8016 1ebe
00000340: 7a07 0e3e 074f 363d 67c3 07be f85e 2bbe
00000350: f340 aabd a583 66bd 967b 4f3d 0533 06be
00000360: a935 f1bd e4ef 82bd 47e9 98bd d5db 073e
00000370: dd67 77bd 6563 efbd f689 2b3d f29f d6bd
00000380: a11a dfbd f264 d8bd 125c ff3d 4d2e b9bd
00000390: a36a b63d 3b66 05bd 7282 e43c 8ea6 b3bd
000003a0: 5202 a23d 8b84 1d3e f075 ed3d d8b0 1c3d
000003b0: c363 82bc e3ec 2d3e 481c 10be a36f 223e
000003c0: 2d3e 9ebd 28e0 883d a202 c9bd 2fdf ef3d
000003d0: d8e3 163e 37be 3fbd 233b 983d a46c babd
000003e0: e44a c73d 3746 0d3e bdac 523c d062 99bd
000003f0: 37bd 10be 0728 853d 2880 0bbc 2855 0c3e
-0.008802066 -0.112788424 -0.09508954 -0.07463644 -0.11552352 0.07373434 0.14131963 0.14600542
0.15086558 0.11511975 0.1281281 -0.07905918 -0.07085259 -0.09263657 0.11969097 0.01676938
0.019570988 0.16484885 0.09075735 -0.1312426 -0.004631317 0.09772298 -0.13554071 0.084119655
0.1366761 -0.082191646 -0.007467462 -0.10175925 0.05776782 0.025099004 -0.09127255 0.1708427
0.09071592 -0.09940519 0.11176093 0.11338581 0.05471667 -0.17386448 -0.119058914 -0.045407116
-0.15472762 0.06936467 -0.050809275 0.10923475 0.03658132 -0.008144353 -0.09009823 -0.1396782
-0.12603664 -0.15877274 -0.07375707 0.16283225 0.14100666 0.14011985 0.083851166 0.12495524
0.0656407 0.0814866 0.06851123 -0.0522929 0.00450489 0.15054874 0.00063749636 0.11362247
0.12920485 0.13945389 -0.004188527 -0.08758141 -0.06259135 0.0672235 0.070406534 -0.022864047
0.019740675 -0.060883004 -0.05232217 -0.14596629 0.14332004 0.005097753 0.02448752 0.037814423
0.066309415 0.049497675 -0.046303723 -0.07895893 -0.11029144 0.012816618 0.10309854 0.026891481
0.031082444 0.00619733 0.043030713 -0.00013048846 -0.06773719 0.115689695 -0.06270193 -0.08446389
-0.01390788 -0.0048040943 -0.10490066 0.14802533 -0.15226448 0.045338996 0.14366715 0.12460379
-0.14509968 0.039599363 0.122149915 0.027509458 0.14846632 -0.14028937 -0.071138464 -0.052602015
0.044332195 0.14454441 0.060619637 0.024948115 -0.15541206 -0.0014192282 0.029376706 0.08503993
0.042808414 0.1431169 0.020892518 0.11401231 0.0016001113 0.07464449 -0.13624553 -0.13987805
-0.03292198 -0.017333863 -0.028424239 0.013217623 0.18045434 0.17215094 0.12357063 -0.019220186
0.12905064 0.15205964 0.1108775 0.06402538 -0.009582217 -0.0120000085 0.025342386 0.10076708
0.092741266 -0.13709925 -0.12759553 0.16498816 0.18343057 0.1279017 0.11135422 0.11431213
-0.08131607 -0.09218018 0.18721604 0.020635411 -0.09329773 -0.047999278 -0.051985685 -0.0075811436
-0.13561937 0.11913305 -0.086211525 0.11493726 0.043627236 0.17064899 0.14071746 0.09800386
0.09175613 -0.14658979 0.15760614 0.16976973 0.11745741 0.14400755 -0.12989718 0.017094078
-0.028778102 -0.045453582 0.001978671 0.0034651102 0.07072496 0.12076885 -0.0026389577 0.15029632
-0.07508721 -0.1645195 -0.04407193 -0.11319465 -0.12431636 -0.1454043 0.09254807 -0.1269025
-0.018443055 0.13131362 0.08296907 0.13449076 0.022481058 -0.040836524 -0.16136073 0.028746227
0.12741068 -0.0566308 -0.052334815 0.06568622 -0.017319562 0.12579575 -0.13833 -0.1543827
0.1387004 0.04450896 -0.13258134 -0.16735446 -0.08313169 -0.05627789 0.05065497 -0.131054
-0.11777813 -0.06393412 -0.07466369 0.13267453 -0.060401786 -0.1168888 0.041879617 -0.10479726
-0.10893751 -0.10566129 0.12468733 -0.09042034 0.08907058 -0.032568198 0.027894232 -0.08772002
0.07910599 0.15382592 0.115947604 0.03825459 -0.01591671 0.16984896 -0.14073288 0.15862899
-0.07726703 0.066833794 -0.09814955 0.11712491 0.14735353 -0.046812262 0.074331544 -0.09102753
0.09731081 0.13796316 0.012858567 -0.0748955 -0.1413468 0.06501775 -0.008514442 0.1370436

weight f4 [1, 32, 1]
00000000: 9f17 843d c0e2 2e3e bff6 7c3c 991b 1abe
00000010: 39df c63b 2217 aebd 37de 31be 0be8 133d
00000020: e51f ee3b 36fe 193e a6ba 8f3c 8da6 3ebd
00000030: e2d4 e3bd feb9 bcbd ed5d 193e 48e2 e63c
00000040: 40ed 803c 6ea1 bdbb 2d23 13be a5c3 de3d
00000050: 9023 d93d 07f2 e9bd 3a89 63bd 6249 c63d
00000060: e59b 5dbc f793 133e 52f7 1fbe 80b1 0ebd
00000070: 0e1d 293e 102d 00bc be9e 19be 4a42 4b3d
0.06449818 0.17078686 0.015439688 -0.1504959 0.0060690907 -0.08500506 -0.17369924 0.036109965
0.0072669857 0.1503838 0.017545056 -0.046545554 -0.111245885 -0.09215163 0.14977236 0.028184071
0.01573813 -0.005787066 -0.14368887 0.1087716 0.10602486 -0.11423116 -0.05555079 0.096819654
-0.013525938 0.14411913 -0.15621689 -0.034837246 0.1651499 -0.007823244 -0.15001962 0.049623765
