Models/M4/15model/15model_discriminator.pt (torch, 119437 bytes, 68 tensors)

weight f4 [121, 10]
00000000: a9ef c6bf d4a1 b7be 43d6 6dbf e9f2 5bbe
00000010: b9e9 4f3e 81ae 263f 7c7f 0abf 02ca cdbf
00000020: 7671 433f a260 033d 8a04 52bf f770 3b3d
00000030: 9c1e 93bf 06ef 60bf 7fc5 2abf b9e3 afbf
00000040: 7f0b 74bf 3cc0 86be c767 48bf 259c 873f
00000050: 579c 3fbf 6c1d 0fbf fbb2 dcbe c019 c2bf
00000060: 748e 553b 89b7 a63f 1441 b8be 918c 58bf
00000070: 941c 92bf 612b af3f fc03 0f3e 3597 a33f
00000080: bac2 14be 54e8 1e3f b373 ffbf df81 293e
00000090: add0 6f3f a03a 90be 48df d5bd 2152 883f
000000a0: 63fa 04bf 0042 86bf 7039 113f 69cb 193c
000000b0: 90a2 a6bf f515 d33e 7c43 65bf 6672 ca3e
000000c0: 784d 04bf 7f81 503f 27c2 8e3f 062f 5dbf
000000d0: 3841 683e 4903 4d3f e1e4 71be 1ac7 9f3f
000000e0: 44b5 aa3e ff8c e73f d22b 8e3e 484c dcbf
000000f0: eead 1dbf 8e81 463f f6cf 9e3e 6ba5 383f
00000100: 6729 d8be 9bb3 5d3f b3ab 1e40 06c2 3f3d
00000110: 0001 55bf f883 4c40 fa94 e4be b16c 823f
00000120: 8a27 2abf 5117 d4bf cc72 23bf 5040 3dbf
00000130: 6398 30be 35d7 313f 79ef a13e 506c 5f3e
00000140: f444 6c3f 2ab1 5c3f 9ef2 f33f b27f b13e
00000150: d992 23bf 4a64 143f 8e05 f7be 6ed3 623f
00000160: 5e2d 8d3f 8008 aabf 340b 5cbf bf35 d0bf
00000170: e146 993f 157b 9a3f 7046 d63e 09b2 223f
00000180: bb51 d23e aa0b 8bbc e118 2740 3b3d b2be
00000190: 063b 50bf 5b3d be3c ade6 a83e 553e 623f
000001a0: 8658 9cbe e501 1cbe 262c bfbf dd41 b03e
000001b0: 1e2c 6c3f 631a 843f 2813 dc3f 1907 ce3f
000001c0: 9b5c 3d3f 7042 06bf 48d6 82bf 073f bb3e
000001d0: 6976 2bbe ddc1 ccbe 5abf 9e3e 8e05 1040
000001e0: b8ae 2b3f 9b02 793e 2b32 2cbf 930c f13e
000001f0: 7bca e53e fa9d c9bc c4b3 43be 7f35 febf
00000200: 4690 b7bf baeb 1c3f 9c70 5b3f 2e7e dcbe
00000210: 9f4e 663f a4c9 a23f d3a0 bc3f 7439 aabe
00000220: 8b8d afbc 34ec b6bf ed8b 88bf 8885 533f
00000230: 39b0 cbbf f24e 2abf d93f 1ec0 5e82 01be
00000240: 9650 1cc0 a93a 99bf c973 aabd 2b3f cabb
00000250: b8ea 9fbf 03c4 9dbe e378 e53d 884d e1be
00000260: 2277 18be fa91 82bf 3ec9 633f 089c 3c3f
00000270: 56df 0fbe 0bdf f7be 4b6d 593f af3c 303c
00000280: fccb e23f 2c5c 693f 9aea 433d e26b e93f
00000290: 0ebe 3c3e 1602 1040 fe59 80bc 5f9c ba3e
000002a0: d65f 08c0 fc24 983f bf8f d0bd 6e86 20bf
000002b0: ca30 75be f4a3 eb3e 01a1 bd3f 54db e3bd
000002c0: 7e82 cd3e 27c9 5f3f f6b4 ea3e e4df 26bf
000002d0: e9c1 c7be 675f bf3f 771b 323f 5b19 9ebf
000002e0: 5fc0 5d3f d4c1 b83f caed a63f 627b 3dbf
000002f0: 9a51 59bf cfbf 973e 0c26 633e 5bdc 23bf
00000300: f06a 823f b2e5 c23f c5c4 c4bf 0bb9 57be
00000310: ef33 d03f 843f 59bf d0cf dabf 3001 dfbe
00000320: ba44 873f 50a1 dcbf 8153 863f 68b7 903f
00000330: d8b1 1c3d 7c58 493f 755c 3dbe ffc3 11c0
00000340: 93cb 3ebf 1369 1dbf 0d78 a63f 3e3f 8a3f
00000350: ef0a 3e3f 05e6 d33e aa76 533f f1b7 66bc
00000360: 472b 593f 02c3 3dbe 85ef 5abf 738f 11bf
00000370: a551 1abf 5212 edbf c743 a3bf 1671 5cbf
00000380: d66d f2be 221a c53e 3cdf 8b3f 5a6e b03e
00000390: a50f 1ebe 5932 d53e d3ff 40be a973 0cc0
000003a0: 4b16 bfbe 9f8e 37be afca 223f 0ea0 433f
000003b0: 5835 be3f 1b52 76be 9420 c4bf 370f 823e
000003c0: f05a c2be 2ee7 a23e 11db d8bf f7ef 943d
000003d0: 8ec2 743f bd8c fbbf 0773 323f 8cf3 8dbf
000003e0: 1740 833f eee2 633f d51d debf 2d70 c5bf
000003f0: 732f 883f f6b5 823d 8c0d 293f 21d9 18be
-1.5541888 -0.35865653 -0.9290506 -0.21479382 0.20304002 0.6511002 -0.54100776 -1.6077273
0.76345 0.032074578 -0.82038176 0.04576203 -1.1493716 -0.8786472 -0.66707605 -1.374137
-0.9533004 -0.26318538 -0.7828335 1.0594527 -0.7484793 -0.5590427 -0.431053 -1.5164108
0.003258613 1.302476 -0.3598715 -0.8458949 -1.1414971 1.3685113 0.13966364 1.278052
-0.14527407 0.62073255 -1.9957184 0.16553448 0.9367779 -0.28169727 -0.10442978 1.0650064
-0.5194456 -1.0488892 0.5672827 0.009386876 -1.301836 0.4122769 -0.895561 0.39540404
-0.5168071 0.81447595 1.1153 -0.8639988 0.22681129 0.8008314 -0.23622467 1.2482636
0.3334142 1.8089904 0.27767807 -1.7210779 -0.6159352 0.77541435 0.31018037 0.7212741
-0.42219087 0.8660218 2.4792297 0.046815895 -0.8320465 3.1955547 -0.4464491 1.018942
-0.6646658 -1.6569616 -0.6384704 -0.7392626 -0.17245631 0.69469005 0.31628016 0.21818662
0.92292714 0.8620783 1.9058416 0.34667736 -0.63895947 0.5796553 -0.48246425 0.88603866
1.102947 -1.3283844 -0.85954595 -1.6266402 1.1974756 1.2068812 0.41850615 0.6355291
0.4107798 -0.016973335 2.6108935 -0.3481234 -0.8134006 0.023222616 0.32988492 0.8837636
-0.30536288 -0.15235098 -1.4935348 0.3442525 0.9225482 1.0320553 1.7193346 1.6095916
0.7396943 -0.52445126 -1.0221643 0.36571524 -0.16744389 -0.39991656 0.31005365 2.250339
0.67063475 0.243174 -0.6726405 0.47079906 0.44881043 -0.024611462 -0.19111544 -1.9860076
-1.4340904 0.6129719 0.85718703 -0.43065017 0.89963716 1.2717786 1.473658 -0.33246958
-0.021429798 -1.4290833 -1.0667702 0.8262563 -1.5913154 -0.6652671 -2.472647 -0.12647387
-2.4424186 -1.1971027 -0.083228655 -0.006172081 -1.2493505 -0.30813608 0.11204698 -0.44004464
-0.14889196 -1.0200799 0.88978946 0.73675585 -0.1405004 -0.48412356 0.8493239 0.010756656
1.7718501 0.9115627 0.047831155 1.8236048 0.18431875 2.2501273 -0.015667912 0.36447427
-2.1308494 1.1886287 -0.101836674 -0.62705123 -0.23944393 0.46023524 1.481476 -0.11125818
0.4013862 0.8741631 0.45841187 -0.6518538 -0.3901513 1.495099 0.6957316 -1.2351488
0.8662166 1.4434152 1.3041317 -0.7401639 -0.8489014 0.29638526 0.22182482 -0.6400811
1.0188885 1.5226347 -1.5372549 -0.21066682 1.6265849 -0.8486254 -1.7094669 -0.43555593
1.0567849 -1.7236729 1.0494233 1.1305971 0.038255543 0.7865064 -0.18492301 -2.2775877
-0.7452938 -0.61488456 1.3005387 1.080055 0.74235433 0.41386428 0.8260294 -0.014081941
0.8483166 -0.18531421 -0.8552173 -0.5685951 -0.6028083 -1.8521216 -1.2755059 -0.86110055
-0.47349423 0.384965 1.0927501 0.34459192 -0.15435655 0.41639975 -0.18847589 -2.1945593
-0.37321696 -0.179255 0.6359052 0.764161 1.4860029 -0.24054758 -1.5322442 0.25402233
-0.37960005 0.31817 -1.6941854 0.07272332 0.95609367 -1.9652325 0.6970677 -1.108995
1.0253934 0.8901814 -1.7352854 -1.5424858 1.063948 0.063823625 0.66036296 -0.14926578

bias f4 [32]
00000000: 1ef2 fc3d ac61 443d 8bf3 c33d d3b0 90be
00000010: 2e9b 81be 53fc 963e 3c06 793e b39b d23d
00000020: b4d2 8b3e 396e 9bbd b076 823b b034 4d3e
00000030: 62b7 7a3e cfcb c23d 13f6 ddbd d44a 073e
00000040: a533 19bd fa60 0ebe 5de0 33be 5293 dfbd
00000050: 0f7f 613e ca9d 16be 862d c13c cf98 073d
00000060: 6580 58be dee7 5a3d 8d00 22bd cbeb 4f3e
00000070: 1064 243e d365 133e aee2 73be 61b8 893e
0.12350868 0.04794471 0.095679365 -0.28259906 -0.25313705 0.29489383 0.24318784 0.102836035
0.2730919 -0.07589383 0.003981434 0.2003963 0.24484017 0.0951153 -0.108379506 0.13212138
-0.037402768 -0.13904181 -0.17566057 -0.10916771 0.22021125 -0.14708629 0.023581278 0.033104714
-0.21142729 0.053443782 -0.039551307 0.20304792 0.16053796 0.14394312 -0.2381694 0.26898482

weight_orig f4 [32, 12, 1]
00000000: f317 443c 186e 823e 031d 76be e742 90bc
00000010: 6bf3 243e 74b3 063e a126 023e 1b6e 293e
00000020: 1b66 81be ff9e c23a d0a7 7f3e af0c a4be
00000030: fad8 673d 7555 a6bc 9cd3 8ebd 041a e1bd
00000040: 92e1 e8bb ca66 78be 70e8 4abe abf7 d4bd
00000050: c492 6b3e 0657 58bc 715f 113e b02b 973e
00000060: 5804 0e3e 057d 92bc d6e8 5cbe 5b7e 40be
00000070: 9e71 973e a6f9 16bc e6cf 3cbe b26b 553e
00000080: bcbf 96be 913a d5bd 5a3d 46be 0790 4b3e
00000090: 1c03 ad3d 829d 5d3c 9896 373e 0073 1cbe
000000a0: ac7b 0d3c 1689 87be 054c 79be 1b7e 693e
000000b0: 4b5f 003e 4074 ec3c 22a0 0abd dc51 033e
000000c0: c47e 193e 63dd 293d 6a92 e33d 019f 373d
000000d0: d0eb 79be 6bfe a03d 9811 f4bd c67f 9d3c
000000e0: 0b1c 0a3e 576f 96bd d4f6 823e b4dd b03d
000000f0: 4e52 383e d3c9 5a3e 6b30 3d3d 8f7d 763e
00000100: 5a8d 90be a8af ffbc 5038 88be 70dc 823d
00000110: 8d3d 2cbe 6baf 87bd 94b3 9d3e b781 0cbe
00000120: 9ed4 a8bd 21ce 26be a154 7fbd 2f27 40bc
00000130: fc21 3dbd 3ba8 d93d 607c a3bd 6351 0a3e
00000140: 2d8f 86be bc33 3c3e 5610 fabd e88b 84bd
00000150: 1c30 98bd cf03 06bd 3bcf 87be d5e7 043c
00000160: e006 c53d 2401 8abe 3f8d ecbd f008 223e
00000170: 0839 573e 0f53 843e 3d7d 153e a44c cfbc
00000180: dd18 7b3e 5718 d43d 6cfe c2bd d21c 153e
00000190: a016 4cbc 7ef2 eb3d 09e4 e6bc 9192 933e
000001a0: 8942 953e 1554 e1bd fd10 8c3e a960 d9bd
000001b0: d9d5 efbb efd9 893e 2191 60be 9709 943e
000001c0: ebe4 4e3d 6c21 81be 5767 34be 095e 16be
000001d0: 7b47 77be 73de 0bbe ea08 39be 242a 3dbe
000001e0: 5f83 313d 2a9e adbd f110 44be 7a58 3bbe
000001f0: 49da 86be 517f 8cbe 2dc3 bd3d eb9d 7b3e
00000200: e992 adbc 4e0d 0bbe fc6b 363d b3af 9dbd
00000210: 8c4c c3bc da42 6b3e c57b 4a3e 86b2 f63d
00000220: 3a84 273e 0509 843e 0e89 99bd 72d5 9d3d
00000230: cd8f 6cbe 3fd7 30be f80b 53be 9d22 023e
00000240: da2f 3bbe d7d0 70be eaf1 65be 5b9b 813e
00000250: cdc3 85be 58f1 27be 71c9 563d cfe3 1f3e
00000260: 37bf abbd d911 9fbe 9b73 a5bc 2863 41be
00000270: 2d2d 663e a24c ff3d 71bd 843e 49d7 40be
00000280: a58c e6bd a887 f23d 8f85 8ebe 9d3e 7ebe
00000290: e284 0ebe 0d10 53bb 74cd 803e c3b3 a4bd
000002a0: cddb 36be 95cb 87be b1a6 0f3c 581f 8b3d
000002b0: 5e57 613e 690c 4fbe ed6b b2bd 4dd6 d1bd
000002c0: e88e 543e 01bb e73d 939f 7bbe 2541 28be
000002d0: 0291 c33d 19ca 7cbe ef45 64be eee8 613e
000002e0: 133c 92bd 09ae 283e 78cd 773e 45cc 1dbe
000002f0: bb83 d03c 2474 9a3e 34b5 773e e679 113c
00000300: ccf8 9dbe bc93 1bbe ac08 0d3e 28b7 35be
00000310: 38a8 693e 153d 643e 74dd 793c 40fc 84bd
00000320: 6b62 12be fabd eb3d 7944 813e ee2f 74bd
00000330: 6a02 74be 071d dfbd b7eb 8ebd bc84 0bbe
00000340: 10c1 5fbd b94d 64be 6754 cdbd fafe f53d
00000350: 96ab 5c3e ecdd cb3d ee7d 8cbe 9e6c cbbc
00000360: ce92 97bd 0e80 a4be fdc3 363e e5f1 8abe
00000370: 5130 083e 4859 a33d 163b 0bbe 0f2f 313e
00000380: 847b 03be a9b3 863c 765a fb3c dcde 8cbe
00000390: 81a3 243e 910d 643e 2dd8 05be adea 363e
000003a0: 72f2 a43d 444b 54be 5a1a 3f3c 9843 93be
000003b0: 451f 48be a80b 03be 918b 86be 799c 7e3c
000003c0: d109 60be 9ed5 fc3d c4f3 75be 96d3 babc
000003d0: d01f b0bd f2e9 9b3e dd8d d93c 946d 5fbe
000003e0: 9420 eb3d 892d 2e3e 4197 193c f41d b7bd
000003f0: f26f 4cbe 3da3 933e d246 21be a996 d13c
0.011968601 0.2547462 -0.24034505 -0.017610027 0.16108482 0.13154393 0.12710048 0.16545908
-0.25273213 0.001484841 0.24966359 -0.32040927 0.05660341 -0.020304421 -0.06973955 -0.1099129
-0.007106968 -0.24257961 -0.1981523 -0.103988014 0.23005205 -0.013204342 0.14196564 0.29525518
0.13868845 -0.01788188 -0.21573195 -0.18798201 0.2957887 -0.009214794 -0.18438682 0.20841864
-0.29443157 -0.10411561 -0.19359341 0.19879161 0.08447859 0.013526322 0.1792854 -0.15278244
0.008635443 -0.26471776 -0.24345405 0.22802012 0.12536351 0.028864026 -0.03384412 0.12824196
0.14989763 0.041470896 0.11111911 0.044829372 -0.24406362 0.078610264 -0.11917418 0.019225966
0.1348726 -0.07345455 0.2557894 0.086360365 0.18000147 0.21366052 0.046188753 0.24071334
-0.28232843 -0.03121169 -0.26605463 0.06389701 -0.16820355 -0.06625255 0.3080107 -0.13721357
-0.082436785 -0.1628957 -0.062336568 -0.011728092 -0.04617499 0.106277905 -0.07982707 0.13507609
-0.2628111 0.1837911 -0.12210147 -0.064719975 -0.07431051 -0.032718476 -0.26525292 0.008111914
0.09620452 -0.26953995 -0.11550378 0.15823722 0.2101785 0.2584462 0.14598556 -0.0253051
0.24521203 0.10356205 -0.09521183 0.14561775 -0.012456566 0.11520861 -0.028184908 0.2882276
0.29152325 -0.110023655 0.2735671 -0.106141396 -0.007319194 0.26924083 -0.21930362 0.28913566
0.050511282 -0.2522081 -0.17617546 -0.14684309 -0.24148361 -0.13659076 -0.18069807 -0.18473107
0.043338176 -0.08477433 -0.19147088 -0.1829547 -0.26338413 -0.27440885 0.092657425 0.2457196
-0.021188216 -0.13579294 0.044536576 -0.076995276 -0.023840211 0.2297472 0.19773777 0.120457694
0.16359034 0.2578813 -0.07496844 0.07706727 -0.2310173 -0.1726961 -0.20610034 0.12708516
-0.18279973 -0.23517166 -0.22455564 0.2531384 -0.26125947 -0.16400659 0.052438203 0.15614246
-0.08386081 -0.31068304 -0.020196727 -0.18885481 0.2247817 0.124657884 0.25925782 -0.18832125
-0.112572946 0.118422806 -0.27836272 -0.24828573 -0.13917878 -0.0032205612 0.25156748 -0.08042099
-0.17857285 -0.26522508 0.00876777 0.06793088 0.22005984 -0.20219578 -0.087119915 -0.10245953
0.2075764 0.11314965 -0.24572591 -0.164311 0.095491424 -0.24686469 -0.22292303 0.22061512
-0.071403645 0.16472639 0.24199474 -0.15409954 0.025453439 0.30166733 0.24190217 0.0088791605
-0.3085388 -0.15193075 0.1377284 -0.1774565 0.22818077 0.22288926 0.015250552 -0.06493425
-0.14295356 0.115108445 0.25247553 -0.05961602 -0.23829046 -0.108942084 -0.06978553 -0.13624853
-0.054627478 -0.22295274 -0.10025864 0.120115235 0.2154983 0.099544376 -0.27439827 -0.024832066
-0.07401048 -0.32128948 0.17848201 -0.27137676 0.13299681 0.079760134 -0.13596758 0.17303108
-0.12840086 0.01644309 0.030682784 -0.27513778 0.16077997 0.222708 -0.13070746 0.17862959
0.08054055 -0.20731837 0.011663998 -0.28762507 -0.19543178 -0.12797415 -0.26278356 0.015540236
-0.21878745 0.12345432 -0.2401877 -0.02280597 -0.08599818 0.30451924 0.026556903 -0.21819144
0.11480823 0.17009558 0.009374441 -0.0894126 -0.19964579 0.28835478 -0.15749672 0.025584536

weight_u f4 [32]
00000000: ac9b 47be 3655 8f3d c58a 8e3d fd69 c13d
00000010: 32da 0ebe cb17 ebbe ab73 babc f510 5e3d
00000020: 80bc e4bd 64e0 9abe 7d59 06bc 65d2 f6bc
00000030: bfef eebd 6db3 79be 82bd 4c3e 4212 bbbd
00000040: fc97 063e 175f 743e ad97 ee3d b76b 3bbe
00000050: 62c8 393b d216 9f3d 6230 733e 0246 863e
00000060: dff8 b43d 22ff 323d a033 8b3d 2584 963d
00000070: 58ae 9a3e 39eb 8bbe 8e8c f4bd 05a3 333e
-0.19492978 0.069986746 0.06960062 0.09444044 -0.13950422 -0.4591659 -0.022760233 0.05421539
-0.11168766 -0.3024932 -0.008200047 -0.03012962 -0.11666822 -0.24384852 0.19994166 -0.09134342
0.13143915 0.23864399 0.116500236 -0.18302809 0.0028348197 0.077680245 0.23748925 0.26225287
0.08836531 0.043700345 0.06796956 0.07349423 0.3021114 -0.27327898 -0.11940871 0.17542656

weight_v f4 [12]
00000000: ef41 b6be a337 91be 27b5 d03d f397 e4be
00000010: b6b9 af3e 0b3c d73c 2ef3 893e 44e4 243e
00000020: 2881 dd3e e219 bb3c ff55 9cbe 636f 953e
-0.35597178 -0.2836276 0.10190802 -0.44647178 0.34321374 0.026273748 0.26943344 0.16102701
0.432626 0.02283949 -0.3053436 0.29186544

weight f4 [32, 12, 1]
00000000: 0058 173c 8654 493e def2 3dbe 12ae 5ebc
00000010: b49d fe3d 38ec cf3d 36e6 c83d dcc3 023e
00000020: 09bd 47be 1235 963a 3450 453e 8c39 7dbe
00000030: 40f0 323d 1960 80bc 1f77 5cbd 64bb adbd
00000040: 76bc b3bb f7b6 3fbe 639a 1cbe ef5d a4bd
00000050: 61d0 353e 44f8 26bc 4865 e03d 5858 693e
00000060: 3037 db3d 191e 62bc 1e7f 2abe b990 14be
00000070: 4ac4 693e 1b0b e9bb 57b9 11be 7bb7 243e
00000080: b6b1 68be 9091 a4bd 0700 19be bb1b 1d3e
00000090: 9987 853d 8f0a 2b3c 37b1 0d3e 377e f1bd
000000a0: 3964 da3b fb35 51be e267 40be 4635 343e
000000b0: 5c27 c63d 687e b63c 08fb d5bc 19b4 ca3d
000000c0: e6ee ec3d bf19 033d 79a3 af3d b5b7 0d3d
000000d0: 36e3 40be 0d82 783d e55e bcbd 171d 733c
000000e0: 232f d53d 9d35 68bd 9627 4a3e 0b81 883d
000000f0: 1742 0e3e 07dc 283e d503 123d 623d 3e3e
00000100: fd20 5fbe 4256 c5bc 7544 52be d9fe 493d
00000110: 1fef 04be 2671 51bd 0e6d 733e 65e2 d8bd
00000120: 664d 82bd 3bbd 00be 0110 45bd 714d 14bc
00000130: b1f8 11bd 85fc a73d cb5a 7cbd 7a81 d53d
00000140: 39b4 4fbe d040 113e 66ff c0bd dc98 4cbd
00000150: 54ea 6abd 19dd cebc 41a2 51be c126 cd3b
00000160: 6710 983d 9d05 55be b291 b6bd 721d fa3d
00000170: 8a1b 263e 1c41 4c3e e9bf e63d 0afe 9fbc
00000180: 90cb 413e 92b1 a33d b87e 96bd 142b e63d
00000190: 9d83 1dbc 421a b63d 3533 b2bc 84ca 633e
000001a0: 4c65 663e 35e8 adbd 6434 583e 48c5 a7bd
000001b0: 781a b9bb 18c9 543e be51 2dbe 3d82 643e
000001c0: fdad 1f3d 0453 47be 023c 0bbe e71a e8bd
000001d0: 39d9 3ebe 61e6 d7bd 07cf 0ebe fdfe 11be
000001e0: e800 093d 44ff 85bd 9852 17be 9797 10be
000001f0: 2928 50be b1de 58be 1975 923d 4032 423e
00000200: 95f6 85bc 8ca3 d6bd c0ca 0c3d 1167 73bd
00000210: 04bb 96bc b392 353e 8446 1c3e 4266 be3d
00000220: c649 013e d3ce 4b3e c8fe 6cbd 55a1 733d
00000230: ab93 36be 0f7c 08be 71e2 22be 03e0 c83d
00000240: 3c78 10be 2fdc 39be 5678 31be 3b0f 483e
00000250: 4b7a 4ebe fd9d 01be 6ac5 253d d2cd f63d
00000260: 9e8d 84bd ba89 75be 9363 7fbc 4f41 15be
00000270: 13a6 313e d509 c53d 52e5 4c3e 5bd5 14be
00000280: c2ef b1bd dc2e bb3d a5fe 5bbe 6f39 44be
00000290: 9afd dbbd 98e5 22bb 67d1 463e 723b 7ebd
000002a0: 0d21 0dbe 9f9c 51be f2bc dd3b 64bf 563d
000002b0: beea 2d3e 77cc 1fbe 63b4 89bd 71f3 a1bd
000002c0: 140d 243e 1ed9 b23d 8833 42be 94db 01be
000002d0: dbef 963d ee19 43be 062e 30be 165b 2e3e
000002e0: d9b9 61bd 9f2f 023e a240 3f3e 2b93 f3bd
000002f0: 23ee a03c a869 6e3e e82d 3f3e 1f8e e03b
00000300: e6d7 73be 9525 f0bd b6b2 d93d 303f 0cbe
00000310: c755 343e 3227 303e 21d8 403c 4546 4dbd
00000320: 09f5 e1bd baf1 b53d 1f89 473e 4f76 3cbd
00000330: 2e53 3cbe 8f32 acbd 559c 5cbd e55b d7bd
00000340: 29b1 2cbd 0934 30be df78 9ebd b0db bd3d
00000350: d94f 2a3e d957 9d3d 8ddc 58be 6700 9dbc
00000360: 84f7 69bd a2eb 7dbe ac0e 0d3e 3c79 56be
00000370: 1d38 d23d 9f24 7c3d 37ea d6bd d5bf 083e
00000380: 66f4 cabd 8aec 4f3c 30fe c13c 2c72 59be
00000390: 5a22 fe3d 8502 303e bf99 cebd 882c 0d3e
000003a0: 349c 7e3d e0d8 23be f67d 133c 9d50 63be
000003b0: f873 1abe bc47 cabd a6ae 4fbe e081 443c
000003c0: 4fe9 2cbe d222 c33d 09d3 3dbe 0731 90bc
000003d0: 7dee 87bd a8aa 703e 2be8 a73c ba70 2cbe
000003e0: 4078 b53d eb6d 063e b314 ed3b 1b54 8dbd
000003f0: 8dc8 1dbe 40e4 633e cff1 f8bd 53c2 a13c
0.009237289 0.1966115 -0.18549678 -0.013591306 0.12432423 0.10152477 0.09809534 0.12770027
-0.19505705 0.0011459908 0.19268876 -0.24728984 0.04368615 -0.015670823 -0.05382454 -0.084830076
-0.005485113 -0.1872214 -0.15293269 -0.08025729 0.17755271 -0.010191027 0.10956818 0.22787607
0.107038856 -0.013801121 -0.16650054 -0.14508332 0.22828785 -0.0071119196 -0.14230858 0.16085617
-0.22724041 -0.08035576 -0.14941417 0.1534261 0.06520004 0.010439529 0.13837133 -0.11791652
0.0066647795 -0.20430748 -0.18789628 0.17598447 0.09675476 0.022277072 -0.026120678 0.09897632
0.11569004 0.032006975 0.08576102 0.034599025 -0.18836674 0.0606709 -0.09197787 0.0148384785
0.10409381 -0.056691755 0.19741663 0.06665238 0.13892399 0.16490184 0.035648186 0.18578103
-0.21789928 -0.024088982 -0.20533927 0.049315307 -0.12981842 -0.051133297 0.2377207 -0.10590056
-0.06362419 -0.12572186 -0.048110966 -0.009051667 -0.03563756 0.08202461 -0.061610024 0.10425086
-0.20283593 0.1418488 -0.094237134 -0.049950466 -0.05735238 -0.025251912 -0.20472051 0.0062607233
0.074250035 -0.20802923 -0.08914508 0.122126475 0.16221443 0.19946712 0.11267073 -0.019530315
0.18925309 0.07992853 -0.073483884 0.11238685 -0.009613899 0.08891727 -0.021752933 0.22245222
0.22499579 -0.084915556 0.21113735 -0.08191925 -0.0056489073 0.20779836 -0.16925713 0.22315307
0.038984288 -0.19465262 -0.1359711 -0.11333256 -0.18637551 -0.10541988 -0.13946162 -0.14257427
0.03344813 -0.06542829 -0.14777601 -0.14120327 -0.2032782 -0.211787 0.07151241 0.18964481
-0.016352931 -0.10480413 0.034373045 -0.059424464 -0.018399723 0.17731743 0.15261275 0.09296848
0.12625799 0.19903116 -0.057860166 0.05948003 -0.17829768 -0.13328575 -0.15906693 0.09808352
-0.14108366 -0.181504 -0.17331061 0.1953706 -0.20163839 -0.12657924 0.04047147 0.12050976
-0.06472324 -0.2397832 -0.015587705 -0.14575695 0.17348509 0.09621016 0.20009354 -0.14534514
-0.08688308 0.09139797 -0.21483858 -0.19162534 -0.1074173 -0.0024856087 0.19415818 -0.06206841
-0.13782139 -0.20469902 0.006766909 0.052428618 0.16984078 -0.15605341 -0.06723859 -0.07907761
0.16020614 0.08732818 -0.1896497 -0.12681419 0.073699676 -0.1905286 -0.17205057 0.17026934
-0.05510888 0.12713479 0.18676999 -0.118933044 0.019644802 0.23282492 0.18669856 0.0068528797
-0.23812827 -0.11725918 0.106297895 -0.13695979 0.17610846 0.17202452 0.011770279 -0.050115842
-0.11033065 0.08883996 0.19485901 -0.046011265 -0.18391106 -0.08408081 -0.053860027 -0.10515574
-0.04216114 -0.1720735 -0.07737898 0.09270418 0.16632022 0.07682771 -0.21177883 -0.01916523
-0.057120815 -0.24796918 0.13775128 -0.20944685 0.10264609 0.061558362 -0.10493892 0.13354428
-0.099098966 0.012690673 0.023680776 -0.2123496 0.12408896 0.17188461 -0.100879185 0.13786519
0.062160686 -0.160007 0.009002199 -0.2219872 -0.15083301 -0.098769635 -0.20281467 0.011993855
-0.16885875 0.09528126 -0.18537535 -0.017601503 -0.06637285 0.235026 0.020496449 -0.16839877
0.088608265 0.13127868 0.0072351336 -0.069008075 -0.15408535 0.22255039 -0.12155496 0.019745981

bias f4 [32]
00000000: c659 a8bd a806 c43d 519e c93d c578 6f3d
00000010: 9dd4 c0bd e548 103e 6351 6e3d 61f1 223e
00000020: bb14 873d 3ea6 6f3c 340f 3bbd d74d 82bd
00000030: b650 343d e735 2a3e 1eb6 40bd 55c6 55bd
00000040: 70ef 64bd bba0 31be 86e8 573c 23a6 b23d
00000050: 4830 0ebe cc2d 1ebe 6c58 24be ba8e ec3d
00000060: 9599 f6bd 5aca cebd cbaa 2e3c a925 dfbd
00000070: 8810 0abe 57a6 50bd 1ad4 3ebe 77b8 18bc
-0.08220248 0.09571582 0.098446496 0.058464784 -0.09415553 0.14090307 0.058183085 0.15912391
0.06595751 0.014627038 -0.045668796 -0.06362503 0.044022284 0.16622125 -0.04704868 -0.052191097
-0.055892408 -0.1734647 0.0131779965 0.08723094 -0.13885605 -0.15447158 -0.16049355 0.115506604
-0.12041012 -0.10097189 0.010660837 -0.10895855 -0.13482869 -0.050939884 -0.18635598 -0.009321324

weight_orig f4 [32, 32, 1]
00000000: 2f5a 2b3c 204f e93c 28ce b4bd 9e6d 9e3d
00000010: 58fb 2fbd 8716 32bd f61e 083c 99cf b7bd
00000020: 08b3 c53d 41ae bb3d 1216 16bd e91d f4bd
00000030: 32bc 153e b408 963b 8a16 b1bd b8f9 0d3e
00000040: 9049 5cbd dd95 133d ed74 0dbe 619d cebc
00000050: 8173 843d cda5 1fbe fce4 2ebd 877b 41bd
00000060: 9877 3fbe ac46 753d 0b65 8bbb 27c8 913d
00000070: 7985 f2bc 26c6 8d3d 7d73 4f3d 6e6d 12bd
00000080: 6210 4cbe f1b5 363d ab22 df3d 39d3 3b3e
00000090: d90a 10bd 8106 f73c 02c2 d63d d75b 263e
000000a0: 28e0 3bbd a217 103d ca0e 80bd 30e1 aabd
000000b0: 00a7 32be 6925 db3d 24a0 48be 9f15 013d
000000c0: e951 0f3d 4b40 17be b4de e03d 70c4 053e
000000d0: d23b 1f3e 6ac6 ce3c b143 e73c 10a7 6a3d
000000e0: 4b38 e4bd 7383 45be 947c afbd 4c63 04be
000000f0: c62e c3bb bafc 583b 696c df3d 2f97 093e
00000100: c869 da3c fac4 41be 8a48 8b3d ff0d bb3d
00000110: 694f 283d 2bc7 913d 5a28 07bc 89d9 47bd
00000120: e3e7 38bd 755f c43d 71dd 8abd e46a efbd
00000130: 893c 163d afc4 b43d c6a8 fc3d 8095 05be
00000140: fe74 03be 6beb b73d 9505 14bd 7cfd edbd
00000150: 4e8c e4bd 85ea b2bd 92a4 2abe b7e9 f93b
00000160: af92 183e 63c2 c83c 7b47 7fbd 4057 58bd
00000170: 7854 333d 973f 1f3d 6a22 0f3e 4b43 273e
00000180: 420d 1a3e f848 933d 1861 9cbd da72 a53d
00000190: df96 5abd 6f70 2abe c019 2f3c a1fb 1abe
000001a0: a477 05be 6bae 853d a15b e3bd 331c 013c
000001b0: eea9 89bd f270 a8bd 42ff 193e 55eb 053e
000001c0: 3155 eebd b58b 15be 205e 043e 4311 b93d
000001d0: f750 07be 8f39 a3bd 0dd6 2b3e 535c e1bc
000001e0: 54fe 253d 4518 28be 870b 02bd 0895 bcbd
000001f0: 67c3 1dbd a5e2 f63d 3c69 9e3d 4191 143e
00000200: e090 543d 9ef3 d4bc 0a02 d3bd 7750 18be
00000210: b299 f9bd 7690 2f3d 9606 023a cd31 33be
00000220: c6d5 833d 8105 28be 172a f9bd 8f25 1b3e
00000230: 02db 13be 9dd1 e73d fb84 173e 323c f53d
00000240: d026 33be 8960 363d 4f49 f0bd bfe6 23be
00000250: a82a 5abd 2107 d73d bcfd 0fbe 3ebc 75bd
00000260: 02d6 183e 3396 e4bd 5c70 733d 571d 9cbd
00000270: 4a4a 693d cc8f 123e b6d2 b33d 8e35 223c
00000280: 5f37 57be 55e7 653e 5c57 433e 391f 19be
00000290: 42c0 e3bd 9a96 b33d a8e6 a93d e434 d5bd
000002a0: 9df4 ffbb 8da9 7d3d 08eb 0c3d f6a2 153d
000002b0: 1358 6c3d 5b77 063e 17ed a3bd 8300 82bd
000002c0: bc7f d4bc 363d 2b3e 5462 b4bc 4080 c63d
000002d0: 42d8 30be 3441 a4bd 8625 46bd f066 413e
000002e0: 2350 67bd e93b 11be bf8b 413e 85a1 d5bc
000002f0: cbc7 913d 7683 d43d b360 843d 65e6 e9bd
00000300: 2172 b23d cec2 14be b6cb 8fbd 9288 10be
00000310: 8429 e13c 5398 413c d96b d3bd 26cc bdbd
00000320: 386f 3b3d 5a41 babd 138d 95bc fc95 553d
00000330: 0f8f c43d 61e6 a43b d5cc 273e b9c3 373a
00000340: 2408 e1bd 82b0 cbbd fc41 95bd 6339 9b3d
00000350: 812e 24bc b854 23bd 3cbd 15be 15cd 993c
00000360: 3c61 18be eda9 06be 55d4 91bd d1a0 0f3e
00000370: d210 bd3d 425b 5abd 1af6 7e3d 84a9 cd3c
00000380: abbb 0a3e 4a83 2ebe 7e8e 0d3e b48d db3d
00000390: 8688 8a3c 614b c0bc 9842 803d c033 983d
000003a0: 63fc e33d 4033 34bd f3e1 8fbd 4149 873d
000003b0: bbeb 18be 9869 3abd f976 5c3c 0f91 59bd
000003c0: 70cd 243e 41e8 d53d 59f5 95bc 77e6 833d
000003d0: b601 f93d 6ea3 443d fe95 ab3d 0045 163e
000003e0: 6220 f5bc 6312 9bbd d246 6c3d 6df3 ee3d
000003f0: 413c 1c3e a03d 66bd 8b13 b9bc fd80 0cbe
0.010458513 0.028480113 -0.08828384 0.077357516 -0.04296431 -0.043478515 0.008308163 -0.08975143
0.09653288 0.09164096 -0.03664214 -0.119197674 0.14622572 0.004578674 -0.08646877 0.13864791
-0.053781092 0.036031593 -0.13814135 -0.025221528 0.06467343 -0.15590592 -0.042698845 -0.047236945
-0.18697965 0.05988185 -0.0042539886 0.07118254 -0.02960466 0.069225594 0.050647248 -0.03574889
-0.19928125 0.044607107 0.10895284 0.18342294 -0.035166595 0.030154468 0.10486223 0.16245972
-0.04586807 0.035178788 -0.06252821 -0.08343732 -0.17446518 0.10700495 -0.19592339 0.03151476
0.034990225 -0.1477062 0.10979977 0.13063216 0.15550163 0.025241096 0.02823052 0.05728823
-0.111435495 -0.19288425 -0.08568683 -0.12928504 -0.0059565036 0.003310962 0.109093495 0.13436578
0.026661769 -0.18922797 0.06800945 0.09133529 0.041091356 0.071180664 -0.008249367 -0.048791442
-0.04514302 0.095885195 -0.06780518 -0.1169031 0.036678825 0.08826577 0.123368785 -0.13045311
-0.12837598 0.08980449 -0.036138136 -0.11620614 -0.111595735 -0.08736137 -0.16664341 0.007626738
0.14899705 0.024506753 -0.06232403 -0.052817583 0.043781728 0.038879003 0.13977972 0.16334264
0.1504412 0.07191652 -0.07635707 0.08078547 -0.053366538 -0.16644453 0.010687292 -0.15135051
-0.1303392 0.06527408 -0.11101461 0.007880258 -0.06721865 -0.082246676 0.1503878 0.13078053
-0.11637343 -0.14604075 0.12926531 0.090364955 -0.1321448 -0.07969963 0.16780873 -0.027509844
0.04052575 -0.16415508 -0.031749275 -0.09208113 -0.03851643 0.12054948 0.077349156 0.14508535
0.051895976 -0.025995072 -0.10303123 -0.14874445 -0.12187518 0.042862378 0.0004960088 -0.17499466
0.064372584 -0.1640835 -0.12166231 0.15151046 -0.14439014 0.113192774 0.14796822 0.11974372
-0.17495275 0.044525657 -0.117327325 -0.16005991 -0.053263336 0.104994066 -0.14061636 -0.059993975
0.14925388 -0.11161461 0.059433326 -0.07622784 0.056955613 0.14312667 0.08780424 0.009900464
-0.21017216 0.22451527 0.19076294 -0.14953317 -0.11120655 0.08768959 0.08295947 -0.10410479
-0.0078111426 0.061929274 0.03440383 0.036532365 0.05770118 0.13131468 -0.08004206 -0.06347754
-0.025939815 0.16722569 -0.022019543 0.096924305 -0.17269996 -0.08020249 -0.04837563 0.18886924
-0.05647291 -0.1418301 0.18900965 -0.026077995 0.071181856 0.10376637 0.064637564 -0.114208974
0.087131746 -0.14527437 -0.07021277 -0.14114597 0.027485617 0.011816102 -0.10323305 -0.09267454
0.045760363 -0.09094496 -0.018255746 0.05214499 0.09597599 0.005032346 0.16386731 0.0007010061
-0.10987881 -0.099457756 -0.07287976 0.07579305 -0.010020853 -0.039875716 -0.14622968 0.018774549
-0.14880842 -0.13150759 -0.07120577 0.1402619 0.09231724 -0.053309686 0.06224642 0.025105245
0.13548152 -0.1704227 0.13823888 0.10720387 0.016910803 -0.023473443 0.06262702 0.074317455
0.11132123 -0.04399419 -0.07025518 0.06605769 -0.14933674 -0.04551086 0.0134561 -0.053116854
0.16093993 0.104446895 -0.018305467 0.06440442 0.121585295 0.04800742 0.08378218 0.14674759
-0.029922668 -0.07571866 0.057684727 0.116675235 0.1525736 -0.056211114 -0.022592327 -0.1372108

weight_u f4 [32]
00000000: 7035 dabd 4cbc 293d 5e12 28be f3ec b63d
00000010: 5f20 dbbd f3ce 9bbc a819 bfbd 5cf1 7b3d
00000020: f7a4 17bd 7495 6f3d ea72 c53d 9fe7 33bc
00000030: c2f7 0fbe ea1b 8cbe 0a0c 33be 5c9e 60be
00000040: c047 1fbe 3e0a f5bd 61f2 f83c 041d f5bd
00000050: a4b3 823e 0213 6f3b 0e6e b83e a778 ec3d
00000060: 5fa1 e53e eac4 01bd 448f 7bbe 763c 8e3e
00000070: 2b06 8e3e 8e21 40be 942a 1abe c84b 773d
-0.10654724 0.04143934 -0.16413257 0.08931913 -0.10699534 -0.01901958 -0.093310654 0.061509475
-0.037022557 0.05849214 0.09641059 -0.010980516 -0.14059356 -0.27365047 -0.17485061 -0.2193541
-0.15554714 -0.11964844 0.030389013 -0.11968425 0.2552768 0.0036479835 0.36021465 0.1154645
0.4484968 -0.031681933 -0.2456637 0.27780503 0.2773908 -0.187628 -0.15055305 0.060375005

weight_v f4 [32]
00000000: 60fa 683e c6fa 6d3e fe45 29bd 73c7 edbd
00000010: fddd 453e 2c8c 67be a099 30be 22a6 163c
00000020: 6687 903c dd38 143d d36c 503d 4c4c 753d
00000030: 9632 92be 20fd 063d 74aa 0abe 4e58 01bc
00000040: eeb6 a03d 45e5 44be 51a1 7e3d 9017 bb3e
00000050: 75e1 023e bd54 953d f5fd 2f3e 8dfe b43e
00000060: 2e41 303e 42f4 743e b579 bf3e 6713 cf3b
00000070: e992 1ebe 40d7 b1bd d26c d53c 6d18 433e
0.2275176 0.23240194 -0.041326515 -0.116103075 0.19322963 -0.22612065 -0.17246103 0.009194883
0.017642688 0.03618704 0.050885033 0.059887215 -0.2855422 0.032956243 -0.13541585 -0.007894589
0.07847391 -0.19228084 0.062165562 0.36541414 0.12781318 0.07291553 0.1718672 0.35350457
0.17212364 0.23921302 0.37397543 0.0063194516 -0.1548573 -0.08683634 0.026052866 0.19052286

weight f4 [32, 32, 1]
00000000: 4f16 203c 83f8 d93c 30eb a8bd 4203 943d
00000010: 8e69 24bd 4a61 26bd 1158 fe3b 0bba abbd
00000020: bcb3 b83d 9257 af3d 1b38 0cbd 6711 e4bd
00000030: 24e4 0b3e 9e2b 8c3b 2272 a5bd 42a4 043e
00000040: 1bce 4dbd fde1 093d 3228 04be 0908 c1bc
00000050: ad7c 773d eb26 15be 7f65 23bd 33c3 34bd
00000060: 2fe1 32be a726 653d 043b 82bb a132 883d
00000070: d193 e2bc 1474 843d 11d0 413d 0bcd 08bd
00000080: f8a5 3ebe e7b2 2a3d 4777 d03d 1c7a 2f3e
00000090: 9a92 06bd 0bc9 e63c 9da3 c83d 026c 1b3e
000000a0: 3186 2fbd 8c9e 063d 2147 6fbd 44a5 9fbd
000000b0: 44e8 26be 29bd cc3d 986f 3bbe 3c32 f13c
000000c0: d2e5 053d b94e 0dbe 1f16 d23d 3ef2 f93d
000000d0: e7c3 143e 5f2e c13c 7d0f d83c d739 5b3d
000000e0: 5537 d5bd 4887 38be 1ff3 a3bd 655e f7bd
000000f0: d559 b6bb d0b8 4a3b 2cbc d03d 868b 003e
00000100: de0d cc3c d207 35be 6320 823d d9c1 ae3d
00000110: bc3e 1d3d b631 883d 468b fcbb 0cb6 3abd
00000120: e8bf 2cbd 7c76 b73d 55bc 81bd 79ad dfbd
00000130: 0b5c 0c3d 56e2 a83d 7f0c ec3d 8a9a f9bd
00000140: 1ea1 f5bd 09d4 ab3d 5d4a 0abd 1758 debd
00000150: d285 d5bd 5827 a7bd a36c 1fbe a87b e93b
00000160: de8a 0e3e 978f bb3c 1c7f 6ebd 371e 4abd
00000170: 548a 273d 6dc7 143d 73b9 053e 3e44 1c3e
00000180: 8dec 0f3e 269a 893d 3719 92bd 5692 9a3d
00000190: fe37 4cbd ed3b 1fbe cb96 233c 41cb 10be
000001a0: bf62 f9bd 19c9 793d 2d69 d4bd 873e f13b
000001b0: 099d 80bd 115e 9dbd 79df 0f3e eb3a fa3d
000001c0: 07aa debd d7b6 0bbe bb54 f73d 8fe6 ac3d
000001d0: 29d7 fcbd 787e 98bd 088a 203e 7c8b d2bc
000001e0: a514 1b3d 380b 1dbe b7fd f2bc 2d2f b0bd
000001f0: 3b64 13bd 8ba7 e63d 29ff 933d dacc 0a3e
00000200: 5f97 463d 9ff3 c6bc c122 c5bd 004d 0ebe
00000210: e630 e9bd b305 243d 7bf4 f239 f169 27be
00000220: f455 763d b0f9 1cbe a1c8 e8bd 6df2 103e
00000230: 9622 0abe 1594 d83d e58e 0d3e de1c e53d
00000240: ad5f 27be 1d63 2a3d 447d e0bd 4520 19be
00000250: e4d2 4bbd 31e4 c83d 5a86 06be 7f94 65bd
00000260: c4c9 0e3e 108f d5bd 436f 633d ebd9 91bd
00000270: fef3 593d 26ed 083e 4600 a83d 8f8b 173c
00000280: 4311 49be 08ca 563e c07f 363e 2a0e 0fbe
00000290: 30c7 d4bd 1dc8 a73d 35bb 9e3d 9b30 c7bd
000002a0: dc20 efbb 64fc 6c3d 5ea7 033d 90cc 0b3d
000002b0: 62ce 5c3d 8e40 fb3d 3326 99bd 22e9 72bd
000002c0: 5b87 c6bc 3efb 1f3e 7386 a8bc 7673 b93d
000002d0: f237 25be c874 99bd b31e 39bd f6af 343e
000002e0: 1e1b 58bd 9caf 07be 5ad2 343e 1796 c7bc
000002f0: 4b32 883d d78a c63d 8a59 773d d685 dabd
00000300: dfb6 a63d 25fb 0abe 9e57 86bd 0f08 07be
00000310: 045c d23c 1ade 343c 9c85 c5bd d751 b1bd
00000320: ae1c 2f3d a802 aebd 1eb8 8bbc 518b 473d
00000330: f5a2 b73d 190f 9a3b bec4 1c3e f3ae 2b3a
00000340: d63c d2bd 654c bebd f671 8bbd f304 913d
00000350: 5063 19bc d897 18bd 1ce5 0bbe 98b0 8f3c
00000360: ab5c 0ebe 0b9f fbbd 023e 88bd 8a2f 063e
00000370: d4a2 b03d 4c00 4cbd 1433 6e3d 3424 c03c
00000380: c79c 013e 390a 23be 1540 043e 991e cd3d
00000390: ff6c 813c 0ca7 b3bc eea7 6f3d 2d32 8e3d
000003a0: 5dff d43d 775a 28bd 646c 86bd c0c8 7c3d
000003b0: 0fde 0ebe 4128 2ebd 88f8 4d3c 6443 4bbd
000003c0: ccf7 193e 2dd8 c73d 8919 8cbc 2575 763d
000003d0: e8a2 e83d fdb5 373d 304e a03d f363 0c3e
000003e0: e202 e5bc 84e0 90bd 43be 5c3d dc3d df3d
000003f0: ccf6 113e a71a 57bd b1e8 acbc 4c44 03be
0.009770944 0.026607757 -0.082479835 0.07227184 -0.040139727 -0.040620126 0.007761963 -0.08385094
0.090186566 0.085616246 -0.034233194 -0.11136132 0.13661247 0.0042776605 -0.0807841 0.12953284
-0.050245386 0.033662785 -0.12905958 -0.023563402 0.060421634 -0.14565627 -0.039891716 -0.04413147
-0.17468713 0.055945065 -0.0039743204 0.06650282 -0.027658375 0.06467453 0.04731757 -0.03339867
-0.18618 0.04167452 0.10179 0.17136425 -0.032854654 0.028172037 0.09796832 0.1517792
-0.042852584 0.032866046 -0.058417443 -0.07795194 -0.1629954 0.09997017 -0.18304288 0.029442899
0.032689877 -0.13799562 0.102581255 0.12204407 0.14527856 0.023581682 0.026374573 0.053521957
-0.10410944 -0.18020356 -0.08005356 -0.12078551 -0.005564908 0.003093291 0.10192141 0.12553224
0.024908956 -0.17678764 0.063538335 0.08533067 0.038389906 0.066501066 -0.0077070324 -0.04558377
-0.042175204 0.08958146 -0.063347496 -0.10921759 0.034267467 0.08246295 0.11525821 -0.12187679
-0.11993621 0.08390052 -0.033762325 -0.108566456 -0.10425915 -0.08161801 -0.15568785 0.0071253367
0.13920161 0.022895617 -0.05822669 -0.04934522 0.040903404 0.036323 0.13059025 0.15260407
0.1405508 0.067188546 -0.071337156 0.075474426 -0.049858086 -0.15550204 0.009984682 -0.14140035
-0.121770374 0.060982797 -0.10371623 0.00736219 -0.06279952 -0.07683957 0.14050092 0.12218269
-0.10872274 -0.13643967 0.12076708 0.08442413 -0.12345726 -0.07445997 0.15677655 -0.025701277
0.037861485 -0.15336311 -0.029661996 -0.08602748 -0.03598426 0.11262425 0.07226402 0.13554707
0.048484202 -0.02428609 -0.096257694 -0.1389656 -0.1138628 0.040044498 0.0004633999 -0.16349007
0.060140565 -0.15329623 -0.11366392 0.14154978 -0.13489756 0.105751194 0.13824041 0.111871466
-0.16345091 0.041598428 -0.109613925 -0.14953716 -0.049761668 0.09809149 -0.13137189 -0.05604982
0.13944155 -0.10427678 0.05552603 -0.07121643 0.053211205 0.13371715 0.08203177 0.009249582
-0.19635491 0.20975506 0.1782217 -0.13970247 -0.103895545 0.081924655 0.07750551 -0.09726068
-0.0072976183 0.057857886 0.032142036 0.034130633 0.05390776 0.12268172 -0.07477989 -0.059304364
-0.024234464 0.15623185 -0.020571923 0.090552256 -0.16134623 -0.074929774 -0.045195293 0.17645249
-0.052760236 -0.13250583 0.17658368 -0.02436356 0.066502176 0.0969445 0.060388125 -0.106700584
0.08140349 -0.13572367 -0.065596804 -0.13186668 0.025678642 0.011039281 -0.096446246 -0.08658188
0.04275196 -0.084966004 -0.017055567 0.048716847 0.089666285 0.004701507 0.15309426 0.0006549202
-0.1026551 -0.09291915 -0.06808846 0.07081022 -0.009362057 -0.037254184 -0.13661617 0.017540261
-0.13902538 -0.122861944 -0.06652452 0.13104072 0.08624807 -0.04980497 0.05815418 0.023454763
0.12657462 -0.15921868 0.1291507 0.10015602 0.015799044 -0.02193024 0.05850976 0.06943164
0.10400269 -0.0411019 -0.065636426 0.061714888 -0.13951896 -0.042518858 0.0125714615 -0.049624816
0.15035933 0.09758029 -0.01710202 0.06017031 0.11359197 0.044851292 0.07827413 0.13710003
-0.027955476 -0.07074073 0.053892385 0.109004706 0.14254302 -0.052515652 -0.02110705 -0.12819022

weight f4 [1, 32, 1]
00000000: 191b 27be 1385 023e 38b0 003d c342 9d3c
00000010: 598f 503d 1a46 1bbe f65d 2bbe 32bd 16be
00000020: 0750 bb3d 89f4 0a3e 1d5d 973c b0f2 be3c
00000030: d0c7 34bd 6546 34be 1ff4 703c 36a6 063e
00000040: 96ee 493c bb63 55bd 7b89 05be 870f 18be
00000050: 466e edbd 0a0f 283e ff7b cebd 0618 113e
00000060: 65ac 963d 42ec 243e f657 ff3d 47a7 1fbe
00000070: a0ef 09be 2451 0cbe 6784 afbd 244b 8c3d
-0.1631893 0.12746076 0.031418055 0.019196874 0.050917957 -0.1516346 -0.16735062 -0.1472061
0.091461234 0.13569845 0.018477017 0.023309082 -0.04413587 -0.17604978 0.0147066405 0.13149342
0.01232495 -0.052097064 -0.13040726 -0.14849673 -0.115932986 0.16411987 -0.10082244 0.1416932
0.073571004 0.1610575 0.12467949 -0.15591155 -0.13470316 -0.13702828 -0.085701756 0.068502694

weight f4 [1, 32, 1]
00000000: 459a e93b 0253 af3a c89b 21bd 5cff 8fbd
00000010: ab01 e93b a04e 023e 0959 9fbc 9e54 a43d
00000020: 91fe b8bc 8ae7 5f3c ae4c 1dbe eed3 b03c
00000030: 9fd2 f53d 57cf b7bd cbca 273e e2ef d3bd
00000040: b564 85bd 81f8 133e 2ea8 c13b 35c0 09bd
00000050: 58c0 193e b8c9 09be c1b0 80bd b849 243e
00000060: 5e9c d23d dcea 2d3e 9dbc a53d 97b0 183d
00000070: e80e fb3d b639 20be d0ee c1bc 6d4a b2bb
0.007128986 0.0013376179 -0.039455205 -0.07031128 0.0071107945 0.12725306 -0.019451635 0.08023952
-0.022582324 0.013666043 -0.15361282 0.021585431 0.120030634 -0.08975094 0.16385953 -0.103484884
-0.06513349 0.14450265 0.005909941 -0.03363057 0.1501478 -0.13455856 -0.06283713 0.16043746
0.10283731 0.16984123 0.08092616 0.037277784 0.122587025 -0.15647015 -0.023673445 -0.005441001

weight f4 [1, 32, 1]
00000000: f87c eb3d 7c00 c23d add7 ce3d b12e 3abe
00000010: 6170 54bc e90d cf3c 1d23 2cbe 7562 1e3e
00000020: 2d3c 103c b505 b0bd 1ead f43c 8d86 5a3d
00000030: 42a0 383d 8b65 853d ee2a a33d 9c51 123e
00000040: fdf2 143e 89ae 6fbd 8c62 b8bd ee22 95bd
00000050: 0cbb 05bd be6b fc3c 523f 04be 8bf2 ad3a
00000060: b795 e43d f0af 1a3e 291a 1a3e ad3f ce3d
00000070: ee90 26be f3a5 febd 3247 053e e55e 94bd
0.11498445 0.09472749 0.10099731 -0.18181874 -0.012966246 0.025275188 -0.1681027 0.15467246
0.0088034095 -0.085948385 0.029867705 0.053350974 0.04507471 0.065135084 0.079671726 0.14288944
0.14545818 -0.05851606 -0.09003171 -0.07282053 -0.032649085 0.030813094 -0.1291478 0.0013271136
0.11161368 0.15106177 0.15049042 0.10070739 -0.16266224 -0.12433996 0.1301544 -0.07244662

bias f4 [32]
00000000: de74 763d aa15 06be 4efb f03d 8692 37bd
00000010: c0d2 05bd c739 613c 7b82 c9bd e680 253e
00000020: e64f d53d da54 443b c621 053e 2bf6 df3d
00000030: efbe 1bbd d57e 01be 3422 75bd 3bc5 53bd
00000040: 446b cf3d 7111 353e 46ad 2cbe 69ad 943c
00000050: 22f4 6abd 72ae 2cbe f276 d4bd b0ac 053d
00000060: eda6 15bc 9f95 3e3d 7bb6 e1bd e382 7f3d
00000070: 5de2 19be f931 10bd 3a55 323e aa6d 6b3b
0.060170047 -0.13094202 0.117666826 -0.04481747 -0.03267169 0.013746685 -0.0983934 0.16162452
0.1041563 0.0029957802 0.13001165 0.10935625 -0.038023885 -0.12646039 -0.05984707 -0.051701766
0.10127881 0.17682435 -0.16862974 0.018149095 -0.05736173 -0.1686342 -0.103742495 0.03263539
-0.0091340365 0.04652941 -0.110211335 0.062380683 -0.15027757 -0.035203908 0.17415324 0.003592352

weight_orig f4 [32, 32, 1]
00000000: 182e cbbd 74f3 c7bd 5506 583d 7c3c c33d
00000010: 9319 3e3e 89c0 3f3d 718d 213e 08f7 a5bc
00000020: 2f2f 92bd 8ee1 bdbc 683c da3d 5a0e 8e3c
00000030: e29b 753d 487e 10be 4ef4 423e 4169 bd3d
00000040: 4847 88bd fdc1 74bd 72ee ccbd 3e24 633c
00000050: 102b f3bd b739 95bd c7ea db3d dbe4 943c
00000060: 1f40 b13d 6081 94bb ec72 3fbd 0efc 05be
00000070: beb5 0d3d bf64 e6bd edfb 283d c1f7 223d
00000080: 5062 22be 7c40 073e e579 943c 174a 303e
00000090: b7fa 943d bd46 bdbd a04e 09be c996 90bd
000000a0: e7f8 8c3d 74c2 353e 9bb1 e3bd e159 98bd
000000b0: 05d4 1e3e a2ca c43b f07b 22bd f347 84bd
000000c0: 1870 9b3c 0684 903b 8c8f 91bd 5333 813c
000000d0: c01c e5bd 3e3a 27be 9aa4 103e b23a 1d3d
000000e0: 4aff 273d 9971 0b3e 47bd fc3b 1fda 353e
000000f0: 21d1 44bd 38ee 8b3d f1d8 e53d f71a 093e
00000100: 2da7 aa3c 2e3a 81bd 2e95 24be 114b 86bd
00000110: 2031 143d 7437 dcbd 57b3 053e e5ec 31be
00000120: 00d7 11be 5a65 b03d 0809 603d 5625 323d
00000130: 951c 393d 6339 983d cee5 b53d f304 42bd
00000140: 007c 08be eb66 0fbd 5ab3 06be bb8c 343d
00000150: 408a 2cbe 40f8 be3d 20ee d0bd b2b7 f3bd
00000160: 708a 883d 0655 843d 298e 393d 5650 5cbd
00000170: 3f65 c43d 0ea1 34be 1d09 643d c462 203d
00000180: 48e7 8b3d 9b1c 003e 443d 973d df8c 263e
00000190: d3a0 9ebd 5419 1f3e e6b1 28bd 175d dc3d
000001a0: e247 283e 53cf 5b3c beb1 583e 18db 0f3d
000001b0: 625a 0a3e fd16 af3c 3d60 303e da04 383d
000001c0: e713 fd3b fbd3 a73d 8fcc 273b 1981 053e
000001d0: 7341 02be 2a5a 2fbd 599d 103e 6f95 85bd
000001e0: e6b8 023e 63a7 0abe 15fc d8bd cdb0 adbd
000001f0: 9ef1 bb3c 8c40 b03d 3b9b 903d 9992 06bd
00000200: fba2 cabb 5afe 25be 1f11 2a3d e47b b9bd
00000210: d941 033d 81ee 1cbe bf05 133e 30f4 8ebd
00000220: 1acb f23d 2beb 0c3e ff48 6cbc e542 9f3d
00000230: 6ef8 5c3d 763a 0f3d e7bd 0bbe ac7f 09be
00000240: fb80 c0bc 26fa ca3d 6f30 d2bc d2b5 bf3d
00000250: cc96 f6bd d73d 293c 71a4 41bc 531c d2bd
00000260: 5dda fbbd 1046 0e3e 293b 8a3d 3075 d1bc
00000270: a174 0a3e d140 d3bc ffd1 b33d 6c7c 8cbc
00000280: 5458 ab3d 4165 0f3e e9fa c93d f655 003d
00000290: 5ee2 023e 19af 883d 4b23 163e 81a7 11be
000002a0: f20d 303c b9cf 133e f5e0 abbd d817 56bd
000002b0: 87ad d9bc 6a79 2d3e d538 023e e22e 9ebc
000002c0: d908 cebd 9177 e13d 3342 37bd 90b9 debd
000002d0: cb01 5dbd b56e 0ebd 03f4 35bc f0a3 41bc
000002e0: ffde 123d 584d 033e 933f 2ebd 351f 55bc
000002f0: 4a51 b13d 16de e1bd ff61 0abc acba debd
00000300: 2872 22bd e61b 353e ae5c 04be bc49 233e
00000310: c1f5 3ebd e4fe 66bd e463 00be 528f 393e
00000320: 6145 47bd 2156 2bbc abe4 163e ce86 213e
00000330: 0fa0 21bd 9e4a 0fbd 334b d83d 6aea c53d
00000340: 9725 243e ea43 283e d53f 9b3d e0ea 053e
00000350: 89a1 233e 6911 a1bd e6f9 10be 779e db3d
00000360: 4ecd 783d e94d b23d 8bbd 3ebd 5502 17be
00000370: bdb4 10be ae4c 8abd 493e 443d a0b5 ac3d
00000380: 87c4 a63d af6d 4ebd b075 24be 322f f03d
00000390: 05d4 323e 9d75 0ebd cef2 d9bd 2aff 253e
000003a0: 667e 0cbe 23b2 fd3c 7225 19be fff8 ffbd
000003b0: d298 d3bd fab6 a23d 2b9c d7bd 9721 053e
000003c0: c50d 393e 5467 953d 2fe9 73bc da4e dd3d
000003d0: 7afc 88bd 74d7 a93b 097e f83d afad bf3d
000003e0: a77c f7bd 0e33 96bd 54fa 46bd 5068 cc3d
000003f0: 7ce2 7e3d 7506 25be 5993 953d f670 e3bd
-0.09920901 -0.09763232 0.052740414 0.09533021 0.18564443 0.046814475 0.15776612 -0.020259395
-0.07137906 -0.023178842 0.10656053 0.017340828 0.059963115 -0.14110672 0.19038507 0.09248591
-0.06654221 -0.059755314 -0.10006417 0.013863621 -0.11873448 -0.07286399 0.107381396 0.018175533
0.08654808 -0.0045320243 -0.046740457 -0.13084432 0.03459715 -0.112496845 0.04125588 0.039787058
-0.15857816 0.13208193 0.01812453 0.17215763 0.072743826 -0.09242008 -0.134089 -0.0706001
0.06883412 0.17749959 -0.1111786 -0.07439018 0.15510567 0.006005601 -0.039668977 -0.06459036
0.018974349 0.0044102697 -0.071074575 0.015771544 -0.11187124 -0.16330811 0.1412529 0.038386054
0.041014947 0.13617553 0.0077129933 0.17758988 -0.048051003 0.06832546 0.11223019 0.13389193
0.020831669 -0.06309925 -0.16072533 -0.065572865 0.03617966 -0.10752764 0.13056694 -0.17375524
-0.14242172 0.08613081 0.054696113 0.043492638 0.045193274 0.07432821 0.088817224 -0.047368
-0.13328552 -0.03501026 -0.13154355 0.044079524 -0.16849613 0.09324694 -0.10201669 -0.119002715
0.0666703 0.064615294 0.04530159 -0.05378755 0.09589624 -0.17639562 0.055672754 0.03915669
0.06831223 0.12510912 0.07384732 0.16264676 -0.077455185 0.15537006 -0.041185282 0.10759943
0.16433671 0.013416129 0.21161553 0.035121053 0.13511041 0.021373266 0.17224212 0.0449265
0.00772332 0.08194729 0.0025604104 0.13037528 -0.1272028 -0.042810597 0.14122523 -0.06522643
0.12765846 -0.13540415 -0.10594956 -0.08480988 0.02294236 0.08606061 0.07060858 -0.03285465
-0.0061839796 -0.16210309 0.041520234 -0.090568334 0.03204522 -0.15325357 0.1435766 -0.06980169
0.11855145 0.13761584 -0.0144217005 0.07776431 0.05394786 0.034967862 -0.13646661 -0.13427609
-0.023499003 0.09910993 -0.02565786 0.09360851 -0.12040481 0.010329685 -0.011818991 -0.10259309
-0.12297509 0.13893914 0.06749565 -0.025568575 0.13521053 -0.025787743 0.08780288 -0.017149173
0.08366457 0.14003469 0.098623104 0.03133198 0.12781665 0.06674022 0.146619 -0.14224054
0.010745512 0.14434709 -0.083925165 -0.052268833 -0.026572002 0.16940847 0.12716992 -0.019309465
-0.10060281 0.110091336 -0.044740867 -0.10875237 -0.053956788 -0.034773547 -0.01110554 -0.011818871
0.035857197 0.12822473 -0.042541098 -0.013007929 0.08658083 -0.11028688 -0.008446216 -0.108754486
-0.03965965 0.17686424 -0.1292598 0.15946096 -0.046621088 -0.056395426 -0.12538105 0.18121079
-0.04865015 -0.010457546 0.14735667 0.1577408 -0.039459284 -0.03498327 0.10561218 0.096638516
0.16029964 0.16432157 0.07580534 0.13077879 0.1597959 -0.07864649 -0.14157829 0.10723584
0.06074267 0.087062664 -0.04656748 -0.14746983 -0.14131446 -0.06752907 0.047910962 0.0843308
0.08142953 -0.05039757 -0.16060519 0.11727752 0.17463692 -0.034780134 -0.106420144 0.16210619
-0.13720092 0.030968731 -0.1495569 -0.12498664 -0.103318825 0.07945056 -0.105278336 0.13001095
0.18071659 0.07295099 -0.014887138 0.10806055 -0.06688781 0.0051831547 0.12133414 0.093592994
-0.120843224 -0.07333957 -0.048578575 0.099808335 0.06222771 -0.16115744 0.07303495 -0.1110553

weight_u f4 [32]
00000000: e86b c73c 4182 87bc fd1d 5b3e 3e3a 26be
00000010: 6562 8b3e 1644 ff3d b746 81be 485a 88bd
00000020: 3c71 7a3e 4850 70be 2927 71be 079e a1bd
00000030: 5c5f 26be 0ee1 473e b1ef d7bd a05b 61bd
00000040: e0fd 37be 3eac a1be 9685 21be acd5 9b3d
00000050: 6f5d b13c 89e1 bbbb 75e7 d13d 1b3e 15be
00000060: 77a1 af3e b39a 0abc 3e92 0c3e 8cba 213e
00000070: 062a 2abd cf8b 86be 52f7 12be f1a6 83be
0.024343446 -0.016541602 0.21398158 -0.16233155 0.27223507 0.12464158 -0.25249264 -0.06657845
0.24457258 -0.23468125 -0.23550095 -0.078914694 -0.16247314 0.19519445 -0.105437644 -0.05501902
-0.1796794 -0.31576723 -0.15773615 0.07609114 0.021650998 -0.005733673 0.10249225 -0.14574473
0.34302875 -0.008459735 0.13727662 0.15793818 -0.041543983 -0.2627854 -0.14352158 -0.25713304

weight_v f4 [32]
00000000: 5374 25bd a4a9 34be 4c07 933e e96c 8ebe
00000010: 7eb6 443d 3d0e 83be c379 da3e bf7e d6be
00000020: 996f ccbd abf6 863e 0bee ac3d 491d 063e
00000030: e409 1c3d fbae 873e c2e0 d0bd be4a 62bd
00000040: 5a6a 953d 4531 c2bd 7888 dd3c 19c9 553c
00000050: c9b2 31be 9b4d ec3d fd50 ea3c 633a 9bbd
00000060: f1cc 6abe 92dc 773c 03a6 c83d 7c41 fc3d
00000070: 81b0 183e cb85 19be 7ba1 0fbd e5b8 873d
-0.04039414 -0.17642838 0.28716505 -0.27817467 0.0480256 -0.255968 0.42671022 -0.41893575
-0.09982223 0.26360068 0.084438406 0.13097109 0.03809537 0.26500687 -0.10199119 -0.05524706
0.072956756 -0.09482054 0.027042612 0.013048434 -0.17353357 0.115382396 0.028603071 -0.07579496
-0.22929741 0.015128272 0.09797289 0.12317178 0.14911081 -0.14992444 -0.03506611 0.06627063
