Models/M4/wo_sa_fade/wo_sa_fade_discriminator.pt (torch, 119871 bytes, 68 tensors)

weight f4 [121, 10]
00000000: a84b 053f 4934 3e3f bb26 ba3f 5682 863f
00000010: 85d1 fbbc 10fe 68bf 34b6 c43f 6f88 2d3f
00000020: 284d 873f 2f7c 963e 7b2b 88bf 745d 20bd
00000030: d3b0 afbe 8a2e a6bf 46f2 b73c cf18 e03e
00000040: 417a c2bd 7ef8 a6be eccd 79be 2319 1b3f
00000050: 919a 28c0 088e 403f b6ab 9b3f 0c74 883e
00000060: 1eae ff3f a1a7 8fbf 44ef 1f3f 59d4 9fbe
00000070: 16cd 27bf c505 c9bf 24f1 fcbe a3a6 95bf
00000080: 7c67 893f 8af1 f03e 4109 323e 4b7f e63d
00000090: 4a8d 72bd f475 c43e 1f1d 19bf f685 363e
000000a0: 7601 d93f 428c 78be 4568 153f 9b5b dcbe
000000b0: 192f b03f a9d5 603d 828c 28bf b0a8 0a3f
000000c0: 7cb9 7f3f c1fa b63e bfa7 ab3e 3449 e2bd
000000d0: 96e7 6e3f 3d45 b2bf 1798 1abf 4af2 c83e
000000e0: 2c34 34bf 1157 e5bd 278d 39c0 50cb 57bf
000000f0: 2e98 663e fbb2 a03f 9e28 14bf dd80 813f
00000100: eda9 c33f 0053 1a3e 626e 2bbd ceb9 ff3e
00000110: a06d b6bf 6135 473e d094 60bf 43df f03e
00000120: 8089 303e a490 913f 29ae bbbf c877 cebf
00000130: 53b5 cabe ff42 90bf a7fc 413e 780b 2fbf
00000140: 834b 0fbe 8581 453d 43c2 5abf 8a58 9c3f
00000150: 08e6 7d3e 630d 34be 8bea 283f 5aa7 d8bf
00000160: d565 bfbd f655 17bf 73f2 d6be 4ab1 19bf
00000170: f671 50bf defb 1dbf ac22 b03f 802c 21be
00000180: 6d81 fbbf 9d7c 433b 1a88 91bf 1e39 0b3e
00000190: c553 d8be 7943 07bf 3fdd 813d e739 cbbe
000001a0: 03af e9bf ec06 c73f 2907 c53e 2785 02c0
000001b0: 2505 8dbd 2833 8dbf fed5 5c3f 2e05 1fbe
000001c0: 9b66 8fbe 6025 ea3e 245d 3b3f 49fc 423f
000001d0: 2950 d3bf 9378 b0bf d510 4e3f 2838 9fbf
000001e0: 7c0d 35c0 9ce2 fa3e 06f9 7f3f c865 233f
000001f0: 038e 3e3f 4073 053f 0026 65bf dbb0 1bc0
00000200: ce2f d13f ca7b 7ebf eb7f a63d 06b3 0fbe
00000210: 4c27 6fbe 94ef a93f da58 db3d aa16 993f
00000220: 197d cbbd a6f0 28be 3d9b 573f 25c5 773f
00000230: 0453 dc3e e135 423f 26e6 0bbf b53f b9bf
00000240: 7aa0 1f40 0739 df3e fa86 323f bb9e abbf
00000250: ad0d fd3f 0337 b93f ab69 c53e 37a1 cabf
00000260: 4f81 723f b751 4bbd fafd 9fbf 4150 923e
00000270: 6ebb dabe e3ee 183e 7ec8 8b3e c52c fdbe
00000280: ad1f 573f 1d6c d1bc 6fc8 12bf 8e4c 9cbe
00000290: 71a2 bebf 5716 d83f 6bf0 963f 0cb8 e3be
000002a0: 0e5f b5bf 4ca6 3c3d 1746 973f b310 a7bf
000002b0: 21a7 aabe 1a7c e83e a2e5 633f e13c edbf
000002c0: c50a 21bf 4fe2 bbbe 821e 77bf 1b86 64bf
000002d0: 0d26 59be 639d 1c3f c8eb a43f df4b 0ebf
000002e0: fb4b 6dbd 0b73 00c0 39e6 033f c42a 53bf
000002f0: 723c 75be b2ec fe3e 44b1 0dc0 c833 a73c
00000300: f1a7 edbf 91d0 96bf 9511 493f 5419 00bf
00000310: 1646 12bf ed68 11bd 85f7 b33f 08e1 a53f
00000320: 0008 773f b512 013f b7af 963d b54f 04be
00000330: b430 ecbe 1e11 813f 4590 19be 0496 4040
00000340: 4ee2 3bbe b939 0cbf 955f eebc 866d 8d3f
00000350: 3dfa 2dbf 6915 49bf 5a14 3bbf 997c 39c0
00000360: f64c ea3e 121c c23e fb24 d3bd 0ada df3e
00000370: 2863 c33f dbd8 9e3f f0b9 ec3c 8d23 a13e
00000380: 2df1 61bf 0692 463f f44d 07be 1af8 27bf
00000390: fe08 883f a25b 5d3e 6ad3 79be 8f5f a3bf
000003a0: 6754 35bf 0d44 84bf fb8b 0a3e f825 58be
000003b0: fafa f33e a28e 14bf ced2 053f e3cd 063f
000003c0: c80e bb3e 7e7f 70bf 145c 303f b618 123e
000003d0: 7029 5c3f c63c d53f 7a95 723f 32da 66be
000003e0: da54 973f e323 643f 9821 adbf 6579 803f
000003f0: 4d82 f83e 6805 f1bf 656f aebd 467a 21bf
0.5206857 0.7429853 1.454307 1.0508525 -0.030739555 -0.9101267 1.5368104 0.67786306
1.0570421 0.2939162 -1.0638269 -0.039151624 -0.34314594 -1.2982953 0.022454392 0.43768927
-0.09495974 -0.3261146 -0.24394959 0.6058523 -2.634434 0.7521672 1.2161777 0.26651037
1.9975011 -1.1223031 0.62474465 -0.31216696 -0.6554731 -1.5704886 -0.49402726 -1.1691478
1.0734706 0.4705928 0.17386343 0.11254748 -0.059216775 0.3837124 -0.5981006 0.1782454
1.6953571 -0.24272254 0.5836223 -0.4303864 1.3764373 0.054891262 -0.658394 0.54163647
0.998924 0.35738185 0.33526418 -0.11049119 0.9332212 -1.392738 -0.6038832 0.39247352
-0.7039211 -0.11198247 -2.8992403 -0.84294605 0.2251899 1.255462 -0.57874477 1.0117451
1.5286232 0.15070724 -0.041853316 0.49946445 -1.4252205 0.19453956 -0.8772707 0.47045335
0.17239952 1.1372266 -1.4662524 -1.6130304 -0.39591464 -1.1270446 0.18944035 -0.68376875
-0.13993649 0.048219223 -0.8545267 1.221452 0.24794781 -0.17583232 0.65982884 -1.6926072
-0.09345595 -0.5911554 -0.4198185 -0.60036147 -0.8142389 -0.61712444 1.3760581 -0.15739632
-1.9648873 0.0029828914 -1.136966 0.13596007 -0.4225141 -0.5283733 0.063410275 -0.39692613
-1.8256534 1.5548987 0.38482025 -2.039377 -0.06885747 -1.1031237 0.86264026 -0.1552932
-0.2800797 0.4573164 0.73188996 0.76166207 -1.6508838 -1.3786796 0.80494434 -1.2439013
-2.828948 0.49001014 0.99989355 0.6382718 0.7443544 0.5212898 -0.8951111 -2.4326694
1.6342714 -0.9940764 0.08129867 -0.14033136 -0.23354834 1.3276238 0.107103065 1.1960042
-0.0993597 -0.1649805 0.8422125 0.96785194 0.43032086 0.7586346 -0.54648054 -1.4472567
2.4941697 0.43598196 0.6973721 -1.3407816 1.9769799 1.4469913 0.3855718 -1.5830449
0.9472856 -0.049638476 -1.2499382 0.28576854 -0.42721123 0.14934878 0.273014 -0.4944822
0.8403271 -0.025564248 -0.5733709 -0.30527157 -1.4893323 1.6881818 1.179212 -0.44476354
-1.4169633 0.04605703 1.1818265 -1.3051971 -0.33330634 0.45407182 0.89022267 -1.8534204
-0.6290706 -0.36696097 -0.96530926 -0.8926713 -0.21205921 0.61177653 1.2884455 -0.5558452
-0.05793379 -2.0070217 0.51523167 -0.8248713 -0.2394884 0.4978996 -2.2139444 0.020410433
-1.8566877 -1.17824 0.78542453 -0.5003865 -0.5713819 -0.035500456 1.4059912 1.2959299
0.9649658 0.5041917 0.07357734 -0.12921031 -0.46130908 1.0083349 -0.1499644 3.0091562
-0.18348047 -0.5477558 -0.029098311 1.1049049 -0.6795996 -0.78548294 -0.7307793 -2.8982298
0.45761842 0.3791204 -0.10309788 0.43721038 1.5264635 1.2409929 0.028897256 0.31472436
-0.8825863 0.77566564 -0.1321333 -0.6561295 1.0627744 0.21616986 -0.24397054 -1.2763537
-0.7083191 -1.0333267 0.13529961 -0.21108234 0.47652417 -0.5803014 0.5227479 0.5265791
0.36534715 -0.9394454 0.688905 0.14267239 0.8600073 1.6659172 0.94759333 -0.22544172
1.182277 0.8911726 -1.3525877 1.0037047 0.48536912 -1.8829775 -0.085173406 -0.630772

bias f4 [32]
00000000: 2fe6 113e bfb5 1dbe fc4e 00be ad82 f4bd
00000010: 1eed 06be 23e7 01be b7dd 71be 4df2 853e
00000020: 3df1 8dbd 7187 6b3e c69f 33be 021e 28be
00000030: d5fa a1be 6f86 e73d 9e23 92be dee4 b7bc
00000040: ddd2 d4bd e239 68be 3877 46be 9d5f 153e
00000050: d2b4 00be 5dc6 abbd 0e59 c3bc d58e 1abe
00000060: 0fe2 57bd ee19 47be 608e bb3d 153a 2dbe
00000070: 8aed 2a3e f321 0ebd 9345 183e 21e2 3ebd
0.14247964 -0.15401362 -0.1253013 -0.11938987 -0.1317639 -0.12685828 -0.23619734 0.26161423
-0.06930778 0.23000886 -0.17541417 -0.16417697 -0.31636682 0.11304938 -0.285428 -0.022448
-0.103917815 -0.2267833 -0.19381416 0.14587255 -0.12568977 -0.08387444 -0.023846176 -0.15093549
-0.05270582 -0.19443485 0.09158015 -0.16916688 0.16692176 -0.034700345 0.1487029 -0.046602372

weight_orig f4 [32, 12, 1]
00000000: 8970 fd3b 1fee 413d 3abc 053e 61e1 173e
00000010: 68b0 8b3c 414c 763e b527 94be 027e 79be
00000020: ccc3 183d b8b9 393e fd4f e7bd 7e87 2cbe
00000030: eb96 34be c3ea 31be 7a7c e43d 7f97 8cbe
00000040: eade 82bd 6069 b6bd 0f3b 923e ba3c 31bd
00000050: 6f35 683e aed7 663e 9a9c 81be 4151 d2bd
00000060: dfe1 8a3e 3b2a 8a3c b4fd ecbd 03bc 58be
00000070: 2054 283e a8c2 133d ef0f 8f3e 866d b73c
00000080: 3ebf 663e 59c6 7abe ee85 913e a4eb ae3c
00000090: 8d55 3abd f895 603e 7636 58be 1b2e a13d
000000a0: 8a32 6fbe 891c 43be 5cf6 19be bbd8 9c3d
000000b0: b60b 993b 0370 08be f750 05be c54e ff3d
000000c0: 73b8 2bbe 0ac4 53be 6824 74be 35fb 313e
000000d0: 34dc 4b3e 76d8 633e d3ce 67be ba6b 053e
000000e0: ffa4 7cbe 3130 78bb 8feb 263e 1fba 9b3e
000000f0: c1cd 233e a450 f4bd 9932 903e b8ec feba
00000100: b635 93be 9d2a 4dbe e4d6 92bc f0c1 313d
00000110: c752 253e a7e9 82be 5510 39bc 5f30 863e
00000120: 9873 3f3e f037 88be 101e d2bc a95a f13d
00000130: 423f 113d 2354 94be acb1 503e 1866 81be
00000140: 8c41 a93d 3bca 91bd a73c af3d 7556 debc
00000150: a791 abbd 3a53 e3bd b9ac 83be 9d7a a1be
00000160: 3d74 843e b24e 293e df94 483d ce22 84be
00000170: 8fcf febd 2e3c 283e ed24 033e 80e0 0e3e
00000180: 3fab 14be 1714 cfbd 328c 663e aaa2 e7bd
00000190: a591 1f3e 8c46 5b3e 458d f4bd eaab 87bb
000001a0: bc2d 3d3e 5fbd 07bd 3972 903c 9cd5 943e
000001b0: 6e97 f5bd 102a 4abc b3e4 3cbe 5aab b23d
000001c0: 7249 9bbd 2fd4 43be 29f9 993d 1113 11bd
000001d0: c6dc ce3b 5706 8f3d 1a32 6a3e d29e b93e
000001e0: e333 923d b8ba 0e3e e4c5 e6bd 6018 97be
000001f0: e1b1 38be f38d 393e c6c9 6abd e510 5abe
00000200: 5981 4b3e 5694 6dbe c070 6a3e 5454 97bd
00000210: 4d15 33be a397 8e3e 4472 8bbe c71d 823e
00000220: e22e 3abe bc53 06be 0a4a 99bd fe6c 663e
00000230: 7b9a 45bd eb5d a0bd 6aea 94bb 362c 49be
00000240: 488d 743e c95b 6c3e 7523 4cbe 8154 20be
00000250: 4322 8ebd 6e13 7e3e c63a 7e3e fb58 ce3d
00000260: 3e6e a9bd 3311 073e 6a32 24be c360 2ebd
00000270: 4f24 ecbd b2a2 edbd 6331 e23d 2e70 c93d
00000280: e214 47be 020d 5d3e ae22 0dbd 79a8 723e
00000290: 266c 943d 6d04 1bbe 7291 57be dd61 823e
000002a0: 52cf c23d d956 803e ec2c adbd 43b6 2f3e
000002b0: 522f b9bd 8fb2 1bbd c481 cdbd 1407 25be
000002c0: 4af7 92bc 0c08 88bd d9bf d2bc 8e4a 7f3d
000002d0: cf02 16be 9fc9 4ebe 4d4a e0bc b2e9 0c3e
000002e0: 1dc0 13be d540 893e 174e 3d3e 63eb 6ebe
000002f0: 8796 e03d 6ee2 d43b 03ed ccbb 7547 483e
00000300: 24cb 8e3d ab9c 603e fa37 42be e5de 7bbe
00000310: e28f 67be 5f37 2b3e fce5 d6bd 4d52 dabb
00000320: 838d 503e 7330 debd 653a 1b3e 2d8f f13d
00000330: 9f3c 5abe 7e7e 463e a3f9 bb3d 1939 443d
00000340: 59c9 08be cfb3 1d3e 57e4 83be a17b 17be
00000350: 9d87 263b d93f 84be ae6a 303e 1d69 1dbe
00000360: 0b8e 8b3e 1ae0 fa3d 217e 09be 168d 993c
00000370: 85e1 153d 7973 4f3e 872e 8dbe d3ec 81be
00000380: 921a 7b3e d5fd 82be 0f05 513c d952 ac3e
00000390: 0825 4a3e 3219 2a3c ad16 5c3e e1f8 783e
000003a0: a4ca a33d d5b3 483e e8d8 d03d a12f 3c3d
000003b0: 19b0 703e 9761 05bd 3418 39be 5426 1cbe
000003c0: 67c8 f83d e7f1 16be 8957 3a3e d027 9d3d
000003d0: b31a 303e 516d aebd 7783 93be 9b04 2f3e
000003e0: 3865 04be a0a6 94bd c852 c4bb 66d2 c53d
000003f0: 0a37 823e 4baa 603e da42 a13d 2320 bebc
0.0077343625 0.04734623 0.13060084 0.14832069 0.01705189 0.24052526 -0.28936544 -0.24364474
0.0372961 0.18137252 -0.112945534 -0.16848561 -0.17635696 -0.1737471 0.111565545 -0.27459332
-0.06390174 -0.089068174 0.28560683 -0.043270804 0.22676633 0.22543213 -0.2531479 -0.10269404
0.2712545 0.01686584 -0.115718275 -0.21165471 0.16438341 0.03607431 0.27941844 0.022391092
0.2253389 -0.24489726 0.28422493 0.021352597 -0.045491744 0.21932209 -0.21114525 0.07870122
-0.23359123 -0.19053854 -0.15035385 0.076585256 0.0046705855 -0.13323979 -0.13019167 0.12466196
-0.1676958 -0.20680252 -0.23842013 0.17380984 0.1990822 0.22250542 -0.22637491 0.13029376
-0.24672316 -0.0037870521 0.16300796 0.30415437 0.15996458 -0.119294435 0.28163603 -0.001944921
-0.28751916 -0.20035787 -0.017924733 0.043397844 0.16144858 -0.25568888 -0.011295398 0.2620878
0.1869644 -0.26605177 -0.0256491 0.1178487 0.035460718 -0.2897044 0.20380276 -0.25273204
0.08264455 -0.071186505 0.085564904 -0.027140835 -0.0837739 -0.110998586 -0.25717714 -0.3153886
0.25869933 0.16533926 0.0489701 -0.25807804 -0.124419324 0.16429207 0.12807055 0.13952827
-0.1451845 -0.10111254 0.22514418 -0.113103226 0.15582903 0.2141363 -0.119410075 -0.004140367
0.18474478 -0.033139583 0.01763259 0.2906922 -0.119917735 -0.01233913 -0.18446617 0.08724089
-0.07582368 -0.1912391 0.07518227 -0.035418574 0.0063129393 0.06983631 0.22870675 0.36253983
0.07138803 0.13938415 -0.112682134 -0.29510784 -0.18036605 0.18120556 -0.057321332 -0.21295507
0.19873561 -0.23201117 0.22894573 -0.07389131 -0.17488594 0.27850065 -0.27235615 0.25413343
-0.18181947 -0.1311788 -0.07484825 0.22502515 -0.048243027 -0.078304134 -0.004544546 -0.19645771
0.2388202 0.23081888 -0.19935401 -0.15657236 -0.06940129 0.248121 0.24827108 0.100755654
-0.0827298 0.13190155 -0.16034856 -0.042572748 -0.11530363 -0.11603297 0.11044576 0.0983585
-0.1944156 0.21586993 -0.0344569 0.2369708 0.0724719 -0.15138407 -0.21051577 0.2546529
0.095121995 0.2506626 -0.08455834 0.17159371 -0.09042229 -0.038012084 -0.100345165 -0.16115981
-0.017940182 -0.0664216 -0.025726246 0.06232696 -0.14649509 -0.201941 -0.02737918 0.13761023
-0.14428754 0.26807275 0.1848682 -0.2333198 0.10966211 0.006496719 -0.00625384 0.19558509
0.0697234 0.21934764 -0.18966666 -0.24596746 -0.2261348 0.16720341 -0.10493085 -0.006662643
0.20366482 -0.10849085 0.15158994 0.11794887 -0.21312188 0.1938419 0.09178474 0.047906015
-0.13358058 0.15400623 -0.25760147 -0.14793254 0.0025410422 -0.25829962 0.17228195 -0.15372129
0.27256808 0.12249775 -0.1342702 0.018744033 0.036592025 0.20258893 -0.2757456 -0.25375995
0.24521855 -0.25584283 0.012757554 0.33656958 0.19740689 0.010381984 0.21493025 0.2431369
0.07997635 0.1959985 0.101976216 0.04594386 0.23504676 -0.032563772 -0.18075639 -0.15248996
0.12147599 -0.14740716 0.18197455 0.07673609 0.17197685 -0.08516944 -0.28811237 0.170916
-0.12929237 -0.07258344 -0.0059913136 0.09659271 0.25432616 0.21939962 0.07874079 -0.023208683

weight_u f4 [32]
00000000: aefe f4bd 62e5 9f3e ba4b 483d cfa4 58be
00000010: 387e e5bd abe9 16be c73d 2d3e b3b4 133e
00000020: 873c 97bd 9f7e 14bd 448f 6bbe aa8e 1bbe
00000030: c065 5a3d 5da8 26be 7c7e 40be c739 1fbd
00000040: ade7 8dbe a8d3 9dbe de9f babe cfb9 183c
00000050: 0271 2bbd 5bd8 48be af8d 6b3e e464 24be
00000060: 65b3 8cbc fa3b 25be 6d40 393e c236 17be
00000070: 84f9 0a3e 2773 063e e194 a6bb f29f 853e
-0.11962639 0.31229693 0.048900343 -0.2115662 -0.11205715 -0.14737575 0.16918097 0.144244
-0.073845915 -0.036253568 -0.2300387 -0.15191141 0.053319693 -0.16275163 -0.1879825 -0.03887346
-0.27715817 -0.30825543 -0.36450094 0.009321644 -0.04185582 -0.19613783 0.23003267 -0.16054112
-0.017175386 -0.1613616 0.18090983 -0.14766982 0.13571745 0.13129865 -0.0050836657 0.2609859

weight_v f4 [12]
00000000: 8839 3fbd f3ce abbe 5380 5d3d d0c4 47be
00000010: 6235 da3e 7ff3 9abe b043 143f 51fd fb3c
00000020: af60 00be 2d21 bc3e 444f 36be f4fa 69be
-0.046685725 -0.33556327 0.054077458 -0.19508672 0.42618853 -0.30263898 0.5791578 0.03076044
-0.12536882 0.3674406 -0.17803675 -0.22849637

weight f4 [32, 12, 1]
00000000: dcb2 bf3b bbaf 123d be4f ca3d d2c2 e53d
00000010: 7d51 533c f84b 3a3e 2120 60be 82b6 3cbe
00000020: 5719 e73c 037b 0c3e 44f6 aebd c37f 02be
00000030: 8398 08be 0793 06be 02d3 ac3d 13af 54be
00000040: 68fa 45bd 56f9 89bd dc36 5d3e 630f 06bd
00000050: d1a3 2f3e 449b 2e3e d212 44be e114 9fbd
00000060: 0c19 523e 3d03 513c d641 b3bd 71ef 23be
00000070: bca4 fe3d 4387 df3c cf6b 583e 1cbe 8a3c
00000080: c888 2e3e ddae 3dbe da24 5c3e c94e 843c
00000090: e2f0 0cbd c0df 293e 6d8a 23be 53d4 733d
000000a0: 13ed 34be 7994 13be 19e9 e8bd 1746 6d3d
000000b0: 2186 673b 4366 cebd 7bad c9bd 971c c13d
000000c0: 28e3 01be 562d 20be 8faa 38be 779f 063e
000000d0: 8832 1a3e f356 2c3e 3456 2fbe f7d5 c93d
000000e0: e818 3fbe 04ba 3bbb 4783 fc3d 8494 6b3e
000000f0: 61cc f73d 04cc b8bd 8523 5a3e 6dd2 c0ba
00000100: 0bb2 5ebe 7a2f 1bbe 9922 5ebc 2574 063d
00000110: e218 fa3d a70a 46be e4fa 0bbc 72ff 4a3e
00000120: c8cf 103e 6f11 4ebe 29ee 9ebc b18e b63d
00000130: f1b9 db3c 5763 60be 8ada 1d3e 5dc0 43be
00000140: f305 803d 2d8c 5cbd 0f8c 843d 712c a8bc
00000150: d0c5 81bd 2cf2 abbd c031 47be 1148 74be
00000160: 925f 483e e50f 003e acb7 173d 61e4 47be
00000170: 5fbc c0bd 8380 fe3d 5264 c63d 0e24 d83d
00000180: 1ee7 e0bd b6a1 9cbd 2b62 2e3e cd34 afbd
00000190: 5d64 f13d 80db 253e e0f9 b8bd 9c3d 4dbb
000001a0: ac17 0f3e 0458 cdbc c583 5a3c 3427 613e
000001b0: 32c3 b9bd 27ea 18bc 6ee0 0ebe b324 873d
000001c0: 0fea 6abd 621f 14be 56ed 683d 1777 dbbc
000001d0: df77 9c3b 4c5d 583d 9124 313e ab66 8c3e
000001e0: 032c 5d3d e6ea d73d cf8d aebd bf92 64be
000001f0: 73b3 0bbe e859 0c3e 4a97 31bd 48f1 24be
00000200: cfed 193e c6b3 33be f453 313e 71ed 64bd
00000210: d674 07be d4b5 573e 7bf3 52be 3cd6 443e
00000220: a2d3 0cbe f134 cbbd 6be4 67bd 914a 2e3e
00000230: 0277 15bd 6299 72bd ad46 61bb 252a 18be
00000240: e3f9 383e 5dc7 323e 6e68 1abe 258b f2bd
00000250: 4404 57bd 122e 403e d54b 403e 2f14 9c3d
00000260: c227 80bd 8f53 cc3d a864 f8bd bde5 03bd
00000270: 679d b2bd a3be b3bd f116 ab3d 8e5d 983d
00000280: 3a95 16be 4033 273e a181 d5bc 2f8b 373e
00000290: aa87 603d a681 eabd 9c0d 23be 3c3d 453e
000002a0: 125a 933d 0726 423e e4fc 82bd 0be8 043e
000002b0: 5412 8cbd 1389 ebbc 6671 9bbd 5ea6 f9bd
000002c0: 9c53 5ebc fcc8 4dbd 8868 9fbc 6719 413d
000002d0: d9ee e2bd 6269 1cbe 84a6 a9bc 6c2b d53d
000002e0: 6a83 dfbd 29a2 4f3e 2530 0f3e 41b7 34be
000002f0: 2ce0 a93d f605 a13b e200 9bbb 1e7d 173e
00000300: be03 583d d1e4 293e 98e7 12be 1083 3ebe
00000310: 9826 2fbe 8681 013e eb8b a2bd c122 a5bb
00000320: 30bf 1d3e b10f a8bd 4bd3 ea3d 6ab6 b63d
00000330: 5b12 25be 7923 163e a12e 8e3d b76b 143d
00000340: 68ed cebd 8191 ee3d e385 47be e528 e5bd
00000350: 16ec fb3a 5110 48be 8370 053e 8220 eebd
00000360: 811d 533e 57c2 bd3d e3fe cfbd d849 683c
00000370: 7ebc e23c dbe9 1c3e 8d93 55be 2e8c 44be
00000380: 91ee 3d3e 2e29 46be 9d19 1e3c f157 823e
00000390: 59e6 183e 11a9 003c ed78 263e d051 3c3e
000003a0: abc7 773d 17cf 173e 37f8 9d3d 7857 0e3d
000003b0: ae0d 363e a2c6 c9bc d800 0cbe 3538 ecbd
000003c0: 252d bc3d 8b58 e4bd 62f2 0c3e b9bd 6d3d
000003d0: 0434 053e 3cef 83bd aa27 5fbe ab61 043e
000003e0: da48 c8bd 20e0 60bd 247f 94bb 4ea1 953d
000003f0: 73fc 443e 1fef 293e b6f3 733d 06cf 8fbc
0.005850179 0.03581212 0.09878491 0.112188 0.012897846 0.18193042 -0.21887256 -0.18428996
0.028210325 0.137188 -0.08543065 -0.1274405 -0.13339429 -0.13142024 0.08438684 -0.2076991
-0.04833451 -0.0673701 0.21602958 -0.032729518 0.17152335 0.17051417 -0.19147804 -0.07767654
0.20517367 0.01275712 -0.087527916 -0.16009308 0.12433764 0.027286178 0.21134876 0.016936354
0.17044365 -0.18523736 0.21498433 0.016150849 -0.03440941 0.1658926 -0.15970774 0.05952866
-0.17668562 -0.14412107 -0.11372585 0.05792817 0.003532775 -0.100780986 -0.09847542 0.09429281
-0.1268431 -0.15642294 -0.18033813 0.13146769 0.15058339 0.16830043 -0.17122728 0.09855264
-0.18661845 -0.002864481 0.12329727 0.23005873 0.12099529 -0.09023288 0.21302612 -0.0014711149
-0.21747606 -0.1515483 -0.013558053 0.032825608 0.12211777 -0.19340001 -0.008543704 0.19824007
0.14141762 -0.20123838 -0.019400673 0.08913935 0.026822062 -0.21912895 0.15415397 -0.1911635
0.06251135 -0.05384462 0.064720266 -0.020529004 -0.06336558 -0.083958 -0.19452572 -0.23855616
0.19567707 0.12506063 0.037040398 -0.19520713 -0.09410929 0.124268554 0.09687103 0.10553752
-0.10981582 -0.076480314 0.17029636 -0.08554993 0.11786721 0.16197014 -0.09032035 -0.003131724
0.13973874 -0.025066383 0.01333708 0.21987611 -0.09070434 -0.00933317 -0.139528 0.06598797
-0.057352122 -0.14465097 0.056866966 -0.026790185 0.004775032 0.05282335 0.17299105 0.2742208
0.05399705 0.1054285 -0.085231416 -0.22321604 -0.13642673 0.13706172 -0.04335717 -0.16107666
0.15032123 -0.17549047 0.17317182 -0.055890504 -0.13228163 0.21065456 -0.20600693 0.19222349
-0.13752607 -0.09922207 -0.05661432 0.17020632 -0.036490448 -0.05922831 -0.0034374401 -0.14859827
0.18064074 0.17458864 -0.150789 -0.11842946 -0.052494302 0.18767574 0.18778928 0.07621037
-0.06257583 0.09976875 -0.12128574 -0.032201517 -0.08721428 -0.087765954 0.08353985 0.07439719
-0.14705363 0.16328144 -0.026062788 0.17924188 0.05481688 -0.1145051 -0.1592316 0.1926164
0.07194914 0.18959819 -0.06395891 0.12979142 -0.06839433 -0.028751886 -0.075899884 -0.12189935
-0.013569739 -0.0502405 -0.019459024 0.047143366 -0.11080713 -0.15274575 -0.020709284 0.10408673
-0.10913737 0.20276703 0.1398321 -0.17648031 0.082947105 0.0049140407 -0.00473033 0.14793822
0.052737944 0.16591193 -0.14346159 -0.18604684 -0.17104566 0.12647066 -0.079368435 -0.0050395434
0.15404963 -0.08206118 0.11466082 0.089215115 -0.16120283 0.14661969 0.069424875 0.036235537
-0.101038754 0.116488464 -0.19484667 -0.11189441 0.0019220139 -0.19537474 0.13031201 -0.11627294
0.20616724 0.09265583 -0.10156038 0.014177762 0.02767777 0.15323584 -0.20857067 -0.191941
0.18548037 -0.19351646 0.009649661 0.2545772 0.1493162 0.007852809 0.16257067 0.18390584
0.060493153 0.14825092 0.07713359 0.034751385 0.17778656 -0.024630848 -0.13672197 -0.11534158
0.09188298 -0.11149701 0.13764337 0.05804226 0.13008124 -0.06442115 -0.21792474 0.12927882
-0.0977952 -0.054901242 -0.004531758 0.07306157 0.19236927 0.16595124 0.059558593 -0.017554771

bias f4 [32]
00000000: 3661 ee3d 1065 133c 028e a13d c277 bbbd
00000010: 4929 273e c865 1cbe 99a8 bebd 2f28 bbbd
00000020: 187b b83c c089 88bc 22ee db3d d879 b53c
00000030: 36eb bb3d 1011 583c 22c1 7cbd 8475 0b3d
00000040: c905 1f3e 0048 e439 830d 0f3e 68a6 21be
00000050: 1023 4ebd c400 65bd b939 b0bd 4da1 a8bd
00000060: ec68 0fbd cd89 33be 8b30 143e cc82 56bd
00000070: fda0 29be 00ce 943d a539 cbbd 004f 4dba
0.11639635 0.008996263 0.07888414 -0.09153701 0.16324343 -0.15273201 -0.09309501 -0.09138524
0.022519633 -0.016667247 0.107387796 0.022152826 0.09175722 0.013187662 -0.061707623 0.03404762
0.1552955 0.00043541193 0.13969998 -0.15786135 -0.050326407 -0.055908933 -0.0860476 -0.08233891
-0.03501217 -0.17533036 0.14471643 -0.05237083 -0.16565318 0.07265854 -0.09923104 -0.00078319013

weight_orig f4 [32, 32, 1]
00000000: dc38 09be 23ad b8bd f0c7 dcbc 2787 c9bd
00000010: 20a9 883d 40b7 bc3c c017 6ebc 7b1e 033e
00000020: f01f f1bd 6e94 95bd 6e3a b93d 4055 3dbc
00000030: c0c5 aa3c ed37 0cbe a219 e63d b832 3dbd
00000040: 7dbe 0c3e 220f a5bd ca46 ea3d 42ce cc3d
00000050: 349c 323d 5068 9bbd ae35 fb3d b81b b93c
00000060: 643d 503d b026 0cbc d89d 2ebe fec3 1ebe
00000070: c0da 13be 2543 103e 5087 9dbc b41d 5b3d
00000080: 3222 fd3d 5533 193e b6f8 d03d 3dfd 20be
00000090: cade f83d 901d e63c 03ac 2d3e 83a3 21be
000000a0: 03cd 023e 0150 fabd b099 1c3d b06b dcbc
000000b0: 9025 0dbe d02c c43c 2de2 15be 7aa2 c83d
000000c0: 648a 083d 2dd6 153e 8902 0b3e 0a58 1fbe
000000d0: 3069 7c3d 3d52 31be efe0 2cbe 8074 293c
000000e0: d18f 04be d3bc 083e b3de dabd 807a fe3c
000000f0: 730f 07be 4271 0bbe 89a5 33be a6a5 c73d
00000100: b9b9 203e 34b9 28be b635 cf3d 9cfd 07bd
00000110: 93aa 193e 109f 99bc 4422 b6bd fb0c 323e
00000120: 14b6 5f3d 70c6 613d 14d1 863d 9ebf db3d
00000130: 5c1b 34bd 0c30 5c3d 891b 1d3e 52b0 9d3d
00000140: 16a3 22be 0ed2 89bd ce0d 19be 0419 70bd
00000150: 6e43 973d 3a5e a3bd f6ff c8bd dca5 3dbd
00000160: f29c 8b3d cc35 05bd 7085 30bc 20d1 a9bb
00000170: 84f4 11be 62ee e43d 729b fd3d 8835 fabd
00000180: b085 f13c 525a c33d 7a79 983d 1bdf 343e
00000190: 8809 5a3d a03c 22be 270d 1c3e 20c9 47bc
000001a0: 209c cb3c 208f 853b c07c 3c3d 4839 d1bd
000001b0: b216 983d 278c 82bd 57f1 8cbd 3c1f 65bd
000001c0: b644 0cbe 7c83 4abd 8e0a f73d ece1 6b3d
000001d0: 1816 5bbd aacb e13d a147 073e 486b c3bc
000001e0: 30de 99bd 241e 08bd e8f1 ccbd 180d 993c
000001f0: a2d8 933d 2ca5 e8bd a878 55bd f271 58bd
00000200: 8255 d53d 2dde 14be d1ff 043e e4a3 24bd
00000210: db60 e7bd 723c b03d 5525 b9bd 4815 74bd
00000220: 837c 2a3e 51e1 e9bd 105c 8ebd c12f 013e
00000230: c82b f53c 8ada adbd 6a78 a13d 4c20 19be
00000240: ec93 b2bd 9021 f23c ff18 013e f983 cabd
00000250: eca5 08be 6281 d33d 9302 24be 9622 d8bd
00000260: 807b d03b 462e e43d 776f 2f3e 1c3d 163d
00000270: eec7 cbbd 2512 31be 294f d3bd 8f5e 273e
00000280: c084 723c 00e8 b2bd db54 163e 881e c13c
00000290: 66f1 d7bd 9478 103d c67f 89bd b0ed 14bd
000002a0: 1b43 323e 9fb5 283e 95bd 193e 87e0 223e
000002b0: 3a01 32be 548b 22be 5aad 78bd 3671 31be
000002c0: a61f 8cbd a249 cdbd 4e0a 72bd 2413 6bbd
000002d0: 9947 e5bd a0db 69bc a0e0 f93c 36d5 98bd
000002e0: 80ef fcbb 44ff 0ebe 606f c03b af10 8dbd
000002f0: 6de3 acbd fc01 613d 6c13 0fbd a6b5 10be
00000300: e532 013e a831 f93c 60fb 76bc 3005 37bc
00000310: 202c c53b bb40 233e ef6e 033e e0dd 2bbe
00000320: 8964 333e 0043 3bbc 060d f13d 8053 d8bb
00000330: dc9f 0cbd ce7a ad3d 142d 413d 1836 89bc
00000340: 3c34 00bd 3e95 be3d 86bf c23d f8cd cb3c
00000350: f04d fa3c 716a 113e ecb5 50bd e0ef e13b
00000360: c5b6 273e b81b 363d b136 323e 2d62 013e
00000370: 6eb1 d63d 7ac7 fe3d 58d9 febc 8c95 583d
00000380: d1af 0dbe ae3c a23d c935 083e acf6 80bd
00000390: 401a a63b 80de 26be a3cc 1e3e b775 cbbd
000003a0: 1399 223e 1ce6 f4bd 7000 82bc 04c8 86bd
000003b0: 106f 22bc f0e9 463c 3366 2d3e 3a87 e13d
000003c0: a18f 143e b855 dcbd 4215 e93d 2b33 00be
000003d0: b6f7 e93d be6b 963d 3a90 993d 236f 2c3e
000003e0: aeb0 d2bd 8883 713d bade 9b3d 0ab9 ca3d
000003f0: e811 14be de50 09be af75 1dbe 90b3 4ebc
-0.13400596 -0.09017398 -0.026950806 -0.098402314 0.06672883 0.0230366 -0.01453203 0.12804596
-0.1177367 -0.07303701 0.09044348 -0.01155597 0.020846248 -0.13693209 0.11235358 -0.046190947
0.1374454 -0.08059527 0.11439283 0.10000278 0.043606 -0.075882554 0.12266098 0.022596225
0.050839797 -0.008554146 -0.170524 -0.15504453 -0.14438915 0.14088114 -0.019229561 0.053495124
0.12360038 0.14960988 0.10203688 -0.15721603 0.12151869 0.028090268 0.16960149 -0.15785031
0.12773518 -0.12222291 0.038232505 -0.026906818 -0.1378386 0.02394715 -0.1463706 0.09796615
0.033335105 0.14632483 0.13575186 -0.15560928 0.061623752 -0.17316528 -0.1688268 0.010342717
-0.12945487 0.1335328 -0.10687008 0.031064272 -0.13189487 -0.13617423 -0.17543615 0.09748392
0.15695848 -0.164769 0.101176664 -0.033200845 0.15006475 -0.018752605 -0.088932544 0.17387764
0.054617003 0.055120885 0.06582847 0.107299075 -0.043971404 0.05375676 0.15342535 0.07699646
-0.15882525 -0.06729518 -0.14946672 -0.058617607 0.07385908 -0.07976957 -0.09814446 -0.046300754
0.06817044 -0.032522008 -0.0107740015 -0.0051824003 -0.14253432 0.111782804 0.123831645 -0.122172415
0.029482692 0.095387116 0.07445045 0.17663233 0.053231746 -0.15843439 0.15239392 -0.012193948
0.02485472 0.0040758997 0.04601741 -0.10216004 0.07426204 -0.06374388 -0.068819694 -0.05593799
-0.13698086 -0.0494418 0.1206256 0.057588503 -0.053487867 0.11025174 0.13210918 -0.023854867
-0.07513082 -0.03323187 -0.100070775 0.018683001 0.07219054 -0.11359629 -0.05211702 -0.05284304
0.104167 -0.14537878 0.12988211 -0.04019536 -0.112977706 0.08605279 -0.09040324 -0.059590608
0.1664906 -0.11419929 -0.06951153 0.12615873 0.029928103 -0.08488949 0.07884295 -0.14953727
-0.0871962 0.02955702 0.12607192 -0.09888453 -0.13344544 0.10327412 -0.16016607 -0.10553472
0.0063623786 0.111416385 0.17132364 0.036679372 -0.09950243 -0.17292078 -0.10317833 0.16344665
0.014802158 -0.08735657 0.14680807 0.023574129 -0.1054409 0.035271242 -0.06713824 -0.03635949
0.17408411 0.16475533 0.15013726 0.15905963 -0.1738328 -0.15873462 -0.060712196 -0.17328343
-0.06841974 -0.1002381 -0.05909186 -0.0573913 -0.11195297 -0.014273554 0.030502617 -0.07462542
-0.0077189803 -0.13964564 0.005872652 -0.06887948 -0.084418155 0.054933533 -0.03493063 -0.14131793
0.12617071 0.030419186 -0.015074581 -0.01117067 0.006017223 0.15942661 0.12835287 -0.16783857
0.1751882 -0.011429548 0.11770062 -0.006601751 -0.03433214 0.08470689 0.04716213 -0.016749427
-0.031299815 0.093058094 0.095091864 0.024878487 0.030554742 0.1420076 -0.050954744 0.0068950504
0.16378315 0.04446003 0.17403676 0.12635107 0.10483061 0.12440391 -0.031109497 0.052876994
-0.138366 0.0792173 0.13301767 -0.06297049 0.005069047 -0.16295815 0.1550775 -0.09934562
0.15878706 -0.119579524 -0.01586935 -0.06581119 -0.009914175 0.012140736 0.16933517 0.110121205
0.14507915 -0.10758537 0.11381008 -0.12519519 0.114242 0.07344769 0.07498212 0.1683927
-0.10287605 0.05896333 0.07610841 0.09898575 -0.14459956 -0.13409755 -0.15376924 -0.012616053

weight_u f4 [32]
00000000: 027b e1bb 51f4 f53d 5b5e af3d a38f 55be
00000010: 9d12 0ebe 06e0 953e 25ba f1b9 e974 fdbd
00000020: f4cf 85be 7c01 3bbe 7f93 b73d c38e a3ba
00000030: f338 dabd c78f dc3e 4c3d 273c 6801 283e
00000040: 786d 833c b923 6ebd b6ea 9b3e e60a 843e
00000050: 0ef1 96be 251a 443d 423e 87bd 0939 083e
00000060: 7369 653d d11e bfbd 6f61 783e 9d83 23bc
00000070: 3c8b 3ebc c73c a3be 5910 3dbe 1158 28bb
-0.0068811188 0.1200949 0.08562919 -0.20855574 -0.13874288 0.2927248 -0.0004610579 -0.123758145
-0.26135218 -0.18262285 0.089636795 -0.0012478459 -0.106553935 0.43078443 0.010207485 0.16406786
0.01604341 -0.058139537 0.30452508 0.25789565 -0.29480785 0.047876496 -0.066036716 0.13303007
0.056008767 -0.0933205 0.24255918 -0.0099801095 -0.011629876 -0.31882307 -0.18463267 -0.0025687257

weight_v f4 [32]
00000000: beae e53c 74fb edbd f46a 9dbe 7fb3 7d3e
00000010: fb46 2b3e 0293 f0bd 061d 2a3e cdde 843c
00000020: 965d 793e bde5 743d e152 a43e a7b5 89bc
00000030: ce6e 673d 2d89 10be 0551 9cbe 27f7 81bd
00000040: 237c 943d 294d a43e 5f88 6b3e ec7d 273e
00000050: e27d b1bc 6463 1bbe e3a9 613d b30d 4c3e
00000060: 467a 85be 1cc1 303e 75be 643e 3092 083e
00000070: 891d 063e 5764 ddbd 8711 22be 15b9 57bc
0.028037425 -0.116202265 -0.3074566 0.24775504 0.16726296 -0.117467895 0.16612634 0.016219521
0.24352106 0.059789408 0.32094482 -0.016810251 0.056502156 -0.14114828 -0.30530563 -0.06345969
0.0725024 0.3209012 0.2300124 0.16356629 -0.02166647 -0.15174633 0.055093657 0.19927101
-0.2606985 0.17261165 0.22338279 0.13337016 0.13097204 -0.10810154 -0.15826999 -0.013166686

weight f4 [32, 32, 1]
00000000: dc38 09be 23ad b8bd f0c7 dcbc 2787 c9bd
00000010: 20a9 883d 40b7 bc3c c017 6ebc 7b1e 033e
00000020: f01f f1bd 6e94 95bd 6e3a b93d 4055 3dbc
00000030: c0c5 aa3c ed37 0cbe a219 e63d b832 3dbd
00000040: 7dbe 0c3e 220f a5bd ca46 ea3d 42ce cc3d
00000050: 349c 323d 5068 9bbd ae35 fb3d b81b b93c
00000060: 643d 503d b026 0cbc d89d 2ebe fec3 1ebe
00000070: c0da 13be 2543 103e 5087 9dbc b41d 5b3d
00000080: 3222 fd3d 5533 193e b6f8 d03d 3dfd 20be
00000090: cade f83d 901d e63c 03ac 2d3e 83a3 21be
000000a0: 03cd 023e 0150 fabd b099 1c3d b06b dcbc
000000b0: 9025 0dbe d02c c43c 2de2 15be 7aa2 c83d
000000c0: 648a 083d 2dd6 153e 8902 0b3e 0a58 1fbe
000000d0: 3069 7c3d 3d52 31be efe0 2cbe 8074 293c
000000e0: d18f 04be d3bc 083e b3de dabd 807a fe3c
000000f0: 730f 07be 4271 0bbe 89a5 33be a6a5 c73d
00000100: b9b9 203e 34b9 28be b635 cf3d 9cfd 07bd
00000110: 93aa 193e 109f 99bc 4422 b6bd fb0c 323e
00000120: 14b6 5f3d 70c6 613d 14d1 863d 9ebf db3d
00000130: 5c1b 34bd 0c30 5c3d 891b 1d3e 52b0 9d3d
00000140: 16a3 22be 0ed2 89bd ce0d 19be 0419 70bd
00000150: 6e43 973d 3a5e a3bd f6ff c8bd dca5 3dbd
00000160: f29c 8b3d cc35 05bd 7085 30bc 20d1 a9bb
00000170: 84f4 11be 62ee e43d 729b fd3d 8835 fabd
00000180: b085 f13c 525a c33d 7a79 983d 1bdf 343e
00000190: 8809 5a3d a03c 22be 270d 1c3e 20c9 47bc
000001a0: 209c cb3c 208f 853b c07c 3c3d 4839 d1bd
000001b0: b216 983d 278c 82bd 57f1 8cbd 3c1f 65bd
000001c0: b644 0cbe 7c83 4abd 8e0a f73d ece1 6b3d
000001d0: 1816 5bbd aacb e13d a147 073e 486b c3bc
000001e0: 30de 99bd 241e 08bd e8f1 ccbd 180d 993c
000001f0: a2d8 933d 2ca5 e8bd a878 55bd f271 58bd
00000200: 8255 d53d 2dde 14be d1ff 043e e4a3 24bd
00000210: db60 e7bd 723c b03d 5525 b9bd 4815 74bd
00000220: 837c 2a3e 51e1 e9bd 105c 8ebd c12f 013e
00000230: c82b f53c 8ada adbd 6a78 a13d 4c20 19be
00000240: ec93 b2bd 9021 f23c ff18 013e f983 cabd
00000250: eca5 08be 6281 d33d 9302 24be 9622 d8bd
00000260: 807b d03b 462e e43d 776f 2f3e 1c3d 163d
00000270: eec7 cbbd 2512 31be 294f d3bd 8f5e 273e
00000280: c084 723c 00e8 b2bd db54 163e 881e c13c
00000290: 66f1 d7bd 9478 103d c67f 89bd b0ed 14bd
000002a0: 1b43 323e 9fb5 283e 95bd 193e 87e0 223e
000002b0: 3a01 32be 548b 22be 5aad 78bd 3671 31be
000002c0: a61f 8cbd a249 cdbd 4e0a 72bd 2413 6bbd
000002d0: 9947 e5bd a0db 69bc a0e0 f93c 36d5 98bd
000002e0: 80ef fcbb 44ff 0ebe 606f c03b af10 8dbd
000002f0: 6de3 acbd fc01 613d 6c13 0fbd a6b5 10be
00000300: e532 013e a831 f93c 60fb 76bc 3005 37bc
00000310: 202c c53b bb40 233e ef6e 033e e0dd 2bbe
00000320: 8964 333e 0043 3bbc 060d f13d 8053 d8bb
00000330: dc9f 0cbd ce7a ad3d 142d 413d 1836 89bc
00000340: 3c34 00bd 3e95 be3d 86bf c23d f8cd cb3c
00000350: f04d fa3c 716a 113e ecb5 50bd e0ef e13b
00000360: c5b6 273e b81b 363d b136 323e 2d62 013e
00000370: 6eb1 d63d 7ac7 fe3d 58d9 febc 8c95 583d
00000380: d1af 0dbe ae3c a23d c935 083e acf6 80bd
00000390: 401a a63b 80de 26be a3cc 1e3e b775 cbbd
000003a0: 1399 223e 1ce6 f4bd 7000 82bc 04c8 86bd
000003b0: 106f 22bc f0e9 463c 3366 2d3e 3a87 e13d
000003c0: a18f 143e b855 dcbd 4215 e93d 2b33 00be
000003d0: b6f7 e93d be6b 963d 3a90 993d 236f 2c3e
000003e0: aeb0 d2bd 8883 713d bade 9b3d 0ab9 ca3d
000003f0: e811 14be de50 09be af75 1dbe 90b3 4ebc
-0.13400596 -0.09017398 -0.026950806 -0.098402314 0.06672883 0.0230366 -0.01453203 0.12804596
-0.1177367 -0.07303701 0.09044348 -0.01155597 0.020846248 -0.13693209 0.11235358 -0.046190947
0.1374454 -0.08059527 0.11439283 0.10000278 0.043606 -0.075882554 0.12266098 0.022596225
0.050839797 -0.008554146 -0.170524 -0.15504453 -0.14438915 0.14088114 -0.019229561 0.053495124
0.12360038 0.14960988 0.10203688 -0.15721603 0.12151869 0.028090268 0.16960149 -0.15785031
0.12773518 -0.12222291 0.038232505 -0.026906818 -0.1378386 0.02394715 -0.1463706 0.09796615
0.033335105 0.14632483 0.13575186 -0.15560928 0.061623752 -0.17316528 -0.1688268 0.010342717
-0.12945487 0.1335328 -0.10687008 0.031064272 -0.13189487 -0.13617423 -0.17543615 0.09748392
0.15695848 -0.164769 0.101176664 -0.033200845 0.15006475 -0.018752605 -0.088932544 0.17387764
0.054617003 0.055120885 0.06582847 0.107299075 -0.043971404 0.05375676 0.15342535 0.07699646
-0.15882525 -0.06729518 -0.14946672 -0.058617607 0.07385908 -0.07976957 -0.09814446 -0.046300754
0.06817044 -0.032522008 -0.0107740015 -0.0051824003 -0.14253432 0.111782804 0.123831645 -0.122172415
0.029482692 0.095387116 0.07445045 0.17663233 0.053231746 -0.15843439 0.15239392 -0.012193948
0.02485472 0.0040758997 0.04601741 -0.10216004 0.07426204 -0.06374388 -0.068819694 -0.05593799
-0.13698086 -0.0494418 0.1206256 0.057588503 -0.053487867 0.11025174 0.13210918 -0.023854867
-0.07513082 -0.03323187 -0.100070775 0.018683001 0.07219054 -0.11359629 -0.05211702 -0.05284304
0.104167 -0.14537878 0.12988211 -0.04019536 -0.112977706 0.08605279 -0.09040324 -0.059590608
0.1664906 -0.11419929 -0.06951153 0.12615873 0.029928103 -0.08488949 0.07884295 -0.14953727
-0.0871962 0.02955702 0.12607192 -0.09888453 -0.13344544 0.10327412 -0.16016607 -0.10553472
0.0063623786 0.111416385 0.17132364 0.036679372 -0.09950243 -0.17292078 -0.10317833 0.16344665
0.014802158 -0.08735657 0.14680807 0.023574129 -0.1054409 0.035271242 -0.06713824 -0.03635949
0.17408411 0.16475533 0.15013726 0.15905963 -0.1738328 -0.15873462 -0.060712196 -0.17328343
-0.06841974 -0.1002381 -0.05909186 -0.0573913 -0.11195297 -0.014273554 0.030502617 -0.07462542
-0.0077189803 -0.13964564 0.005872652 -0.06887948 -0.084418155 0.054933533 -0.03493063 -0.14131793
0.12617071 0.030419186 -0.015074581 -0.01117067 0.006017223 0.15942661 0.12835287 -0.16783857
0.1751882 -0.011429548 0.11770062 -0.006601751 -0.03433214 0.08470689 0.04716213 -0.016749427
-0.031299815 0.093058094 0.095091864 0.024878487 0.030554742 0.1420076 -0.050954744 0.0068950504
0.16378315 0.04446003 0.17403676 0.12635107 0.10483061 0.12440391 -0.031109497 0.052876994
-0.138366 0.0792173 0.13301767 -0.06297049 0.005069047 -0.16295815 0.1550775 -0.09934562
0.15878706 -0.119579524 -0.01586935 -0.06581119 -0.009914175 0.012140736 0.16933517 0.110121205
0.14507915 -0.10758537 0.11381008 -0.12519519 0.114242 0.07344769 0.07498212 0.1683927
-0.10287605 0.05896333 0.07610841 0.09898575 -0.14459956 -0.13409755 -0.15376924 -0.012616053

weight f4 [1, 32, 1]
00000000: c429 2dbd 88f6 c1bc 15b6 17be fa2c d63d
00000010: e811 c0bd 10d8 543c fc15 06be ca73 853d
00000020: a88d 273d 4c6f 703d b824 4a3d 0020 b3b7
00000030: 426a 71bd 4015 643b a679 f63d 1ac2 04be
00000040: dc52 393d 1105 0d3e 329c f8bd 4f10 0ebe
00000050: 0ddb 01be 7eb6 af3d 5abc 2dbe bfd4 8ebd
00000060: 687a 763d 10bd 4f3d 5999 efbd 48b5 e43c
00000070: 68f6 803c 28ac 21bd 9db2 183e d6c3 b63d
-0.04227616 -0.023677126 -0.14815553 0.10457797 -0.09378415 0.012990966 -0.13094324 0.06516226
0.04090658 0.05869989 0.049351424 -2.1353364e-05 -0.058939226 0.0034802705 0.12034921 -0.12964669
0.045245036 0.13771464 -0.12139167 -0.13873409 -0.12681217 0.085797295 -0.16966382 -0.06974172
0.06017533 0.050717413 -0.116991706 0.027918473 0.015742496 -0.03947082 0.14911886 0.089240715

weight f4 [1, 32, 1]
00000000: d008 f0bc 802c ea3a e678 c53d 8c97 6abd
00000010: a2f4 2abe 4c54 8e3d 5990 233e 2183 2b3e
00000020: a630 e03d 1c8e 1e3d 1094 483d 7119 1d3e
00000030: 322a dc3d 3c53 69bd 110f 333e f9be 1ebe
00000040: cc1d 2abd d6f8 963d 5335 0cbe 5b84 0d3e
00000050: 5359 87bd 90e5 133c 40dd 253c c01d 283d
00000060: 190c 173e 250e 1f3e a9da 263e 722d e83d
00000070: ce5e d63d dd00 80bd e9c1 263e 62a0 01be
-0.029301077 0.0017866045 0.096422 -0.057273433 -0.16694883 0.06949672 0.15973033 0.1674924
0.10946779 0.038709745 0.04896933 0.15341736 0.107502356 -0.056964144 0.17486216 -0.15502538
-0.041532323 0.073716804 -0.13692217 0.13820021 -0.06608834 0.0090269 0.010123551 0.041043997
0.14750709 0.1553274 0.1629435 0.11336793 0.10467301 -0.06250165 0.16284908 -0.12658837

weight f4 [1, 32, 1]
00000000: 20c6 a13c 1a7e a23d c93d 28be a08b cabb
00000010: d8da dfbc bc8a 16be a252 de3d 7a82 eb3d
00000020: 8b8b 193e 5db2 adbd c3c9 c1bd 8c17 0b3d
00000030: 7655 e03d 5b52 0e3e b588 bdbd 3395 0ebe
00000040: 84da 473d f04d 563d 08dd 22bd e526 acbd
00000050: cf7b 103e e60c eb3d 516e 2c3e fca2 683d
00000060: e8b9 7cbd 1a13 09be e0ee d73c a033 4e3c
00000070: 843c 33be 25e2 15be 12b5 a63d 0053 59bc
0.019747794 0.07934208 -0.16429819 -0.0061811954 -0.027326033 -0.1470136 0.10855605 0.11499496
0.14994638 -0.08481286 -0.09462311 0.033958003 0.109538004 0.13898604 -0.092545904 -0.13924102
0.048792377 0.05232042 -0.039761573 -0.08405856 0.14109729 0.114770696 0.16838957 0.05679606
-0.06170073 -0.13386193 0.026359022 0.012585551 -0.17503554 -0.14637049 0.08140005 -0.013264418

bias f4 [32]
00000000: 7811 be3c a4c2 5d3d 9093 0f3c 3e91 68bd
00000010: 3720 103e 2cd8 03bd 52ca d13d a66b eb3d
00000020: 23db 9cbd 8339 99bd 2ba1 28be 0065 0fbe
00000030: 26ec 25be 79ce 08be 4075 53bc 3b6d 183e
00000040: b863 923d 6cfd 25bd 0037 f1bc 5b89 333e
00000050: 00b3 09ba 2d45 2c3e 54f2 26be 25be 2d3e
00000060: 865b 8e3d 6687 9c3d 3039 15bc 4739 fcbd
00000070: 6271 973d fc59 49bd 9985 98bd bf8c 303e
0.02320169 0.054140702 0.008763209 -0.05677914 0.14074789 -0.03218858 0.10243668 0.11495142
-0.076589845 -0.074816726 -0.1646773 -0.14003372 -0.16203365 -0.13360013 -0.012906373 0.14885418
0.07147926 -0.040524885 -0.029445171 0.17532866 -0.00052528083 0.16823263 -0.16303378 0.16967066
0.069510505 0.07643013 -0.009107873 -0.12315612 0.07394673 -0.04915808 -0.07447357 0.1724119

weight_orig f4 [32, 32, 1]
00000000: c01c b33c 395e 26be 9072 553d c0ea 1dbb
00000010: c89c f8bd d6b6 f23d 7ea9 00be 0cda 2fbd
00000020: bd46 c9bd 0899 c9bc b4e8 4a3d f683 a43d
00000030: d0f0 30be 1cb7 22be ce2d 9b3d 1448 7dbd
00000040: 14b5 8d3d 42e0 b83d 1bfe 053e 00d9 39ba
00000050: 8d9d 2e3e ca07 be3d e871 d1bc 0a17 03be
00000060: fa9c eebd 2654 b0bd d48a c5bd 0062 c13a
00000070: e890 d4bc e59f 303e 743a 7c3d e291 d23d
00000080: 86ed 5abd 7fda 2a3e 4f42 283e 9b65 153e
00000090: ceb8 cdbd 8c9d 02bd 731f 043e f6f4 d23d
000000a0: 62fd d73d 18c4 0a3d a8a5 c13c aa3b 2dbe
000000b0: ded3 33be 1fc2 2fbe c87e 06be d9d9 233e
000000c0: bc45 46bd 04fa 2ebe 3684 f23d 229a cb3d
000000d0: e084 053d 00e7 9f3c 22a4 f73d 100d 663d
000000e0: 0b49 00be c0d0 8ebc 0c32 0fbd 8e3c fa3d
000000f0: bcda 813d 8025 e3bd a6d0 15be b472 363d
00000100: ef72 e4bd f063 043d d040 c13c fade 0cbe
00000110: 0894 d6bc 445d 18bd e788 a8bd 6f51 e0bd
00000120: 73da 94bd e488 fdbd 24b7 0cbd 525e ba3d
00000130: 8eb1 fd3d e1d1 11be 68ac 133d a60d 2abe
00000140: 2811 07be 407a 0ebe d67c c73d 00e7 dbba
00000150: ef76 e4bd 5b1d a2bd da4c e53d a0e1 6a3c
00000160: ac17 6ebd 6c66 5bbd c00c 1d3d 04ad 8c3d
00000170: 47ba 2dbe 8abf 963d 5feb 163e c03e 60bc
00000180: 962a 06be 6eb5 13be 688b 073d 90f7 98bc
00000190: 7418 f6bd 784c 7e3d 52e9 c6bd 52ae 64bd
000001a0: 6c70 3abd 00e9 c9bb 37b3 123e e458 5d3d
000001b0: c290 09be 3503 113e 3b36 2c3e e292 a83d
000001c0: a2ff e83d a083 f1bd 19e6 193e 4c7d cfbd
000001d0: ae45 d63d 0d47 1b3e 779e b6bd 08b3 c73c
000001e0: 90c5 663d fe97 fa3d 5c91 20bd f001 1cbd
000001f0: 40d1 983c 0f29 b0bd 414f 253e 22d2 873d
00000200: 0ad2 c0bd 954c c7bd c0a8 67bc 3fac 203e
00000210: 9d76 083e 1683 bd3d 46c9 f43d 5c41 833d
00000220: 5115 123e b084 483d eefb 0bbe ff39 86bd
00000230: 9f71 81bd d91e 8dbd 1c8f 12bd 6099 7cbc
00000240: edec 033e bf05 d4bd 712d 34be 1e9b f03d
00000250: da8c 2fbe b627 903d c469 abbd bf94 223e
00000260: 1838 9ebc 8e05 cfbd c682 15be 91dd b3bd
00000270: 6071 09be 6535 1dbe 00d6 183d e27c db3d
00000280: 2eb5 ca3d 9064 7cbd a01f 33bc e540 2d3e
00000290: b0ac 1fbe 74ab 0f3d f8d5 20bd b0c8 27bd
000002a0: b977 143e 0e1c 913d 3f09 abbd d048 e5bc
000002b0: 80c0 f0bc 0617 ca3d dd9e 123e 9e24 f53d
000002c0: 364d ff3d f4d4 423d 2a41 eebd a0a4 b8bb
000002d0: a0f7 a7bd 3a8c 873d 5881 89bd 345a 453d
000002e0: c07c aabb c40c 073d 721c 893d e0bc dfbd
000002f0: 72f1 6ebd ddcb d1bd 81f8 8fbd 2783 0a3e
00000300: 5f18 c6bd 3dc9 13be efa4 e3bd 4772 223e
00000310: 81fc 8dbd 712a 023e 4d34 babd 7e43 a83d
00000320: 3898 bcbc f394 86bd bc38 32bd 15ff a3bd
00000330: be79 89bd 34cc 03be f85c 15bd 08b3 56bd
00000340: bf8f 1cbe 76de 993d 082b d9bc c476 1ebe
00000350: 60bb 8d3b 54c4 13be fade 863d 6fdb 1a3e
00000360: 80c9 03bc 7477 7e3d ca6e cc3d 00d6 0ebd
00000370: 80ce fd3c 3a98 0ebe f589 0c3e f433 f3bd
00000380: b49a f6bd 3580 cebd 2e5c 5cbd 0fba 95bd
00000390: a28b 2dbe 401e 913d 72c5 02be 4e55 eb3d
000003a0: 6315 233e d897 f83c f620 5cbd 5918 203e
000003b0: a093 b9bc 6232 ad3d 70ec 933d f770 07be
000003c0: 7c8a 17be a03b 533c b062 e1bc a08c cf3c
000003d0: 0a22 d7bd 10e9 193c 4ee1 c93d e4e4 623d
000003e0: 0064 6d3d 00a5 c7bc 284c 223d 40a9 50bb
000003f0: da17 973d dac8 10be 7b9d 24be 80f0 163b
0.021864295 -0.1624688 0.05211121 -0.002409622 -0.12139279 0.118512794 -0.12564656 -0.042932555
-0.098279454 -0.024609104 0.04953833 0.08032982 -0.17279363 -0.15890163 0.07577096 -0.061836317
0.069193035 0.09027149 0.13085215 -0.00070895255 0.17052288 0.092788294 -0.02556701 -0.12801757
-0.11651035 -0.086098 -0.0964562 0.0014753938 -0.025948003 0.17248495 0.061579183 0.10281731
-0.053449176 0.16684912 0.16431545 0.1458954 -0.10045014 -0.03188853 0.12902622 0.10300629
0.10546376 0.033878416 0.023638561 -0.16917291 -0.1756129 -0.17163895 -0.131343 0.16001071
-0.048406348 -0.17087561 0.118416235 0.09941508 0.032597423 0.01951933 0.12091853 0.0561648
-0.12527864 -0.017433524 -0.034959838 0.12218581 0.063405484 -0.11091137 -0.14630374 0.044542983
-0.11154734 0.03232187 0.023590475 -0.13756934 -0.026193634 -0.03719832 -0.08229237 -0.10953032
-0.072682284 -0.123796254 -0.034354344 0.091000214 0.123873815 -0.14240219 0.03605309 -0.16606769
-0.13190138 -0.13913822 0.097406074 -0.0016777217 -0.11155497 -0.07915755 0.11196299 0.01433602
-0.058128044 -0.053564474 0.038342237 0.068689376 -0.1696559 0.07360752 0.14738224 -0.013686836
-0.13102183 -0.14424679 0.033091933 -0.018672734 -0.12016383 0.062084645 -0.09712471 -0.055830307
-0.04551737 -0.006161809 0.14326178 0.05403985 -0.13434127 0.1416138 0.16817562 0.08231141
0.11376883 -0.117926836 0.15029182 -0.1013132 0.10462509 0.15163822 -0.089169435 0.024377361
0.056340754 0.122360215 -0.039201126 -0.038087785 0.018654466 -0.08601581 0.16143514 0.066318765
-0.09415062 -0.09731404 -0.014139354 0.15690707 0.13326497 0.09253518 0.11952452 0.06408951
0.14265944 0.048954666 -0.13670322 -0.065540306 -0.063205 -0.06890649 -0.03578101 -0.015417427
0.12883349 -0.103526585 -0.1759546 0.11748336 -0.17143574 0.07038824 -0.083697826 0.15877055
-0.019313857 -0.10108481 -0.14600667 -0.08782495 -0.13422155 -0.153524 0.03731346 0.10717179
0.098978385 -0.06161934 -0.010932833 0.16919287 -0.15593219 0.03507562 -0.039266557 -0.040962875
0.14498796 0.07085429 -0.08351373 -0.027988821 -0.029388666 0.098676726 0.14318414 0.11969875
0.12465899 0.04756637 -0.11633523 -0.005634859 -0.082015276 0.06618543 -0.067141235 0.048181728
-0.0052028596 0.03297116 0.06694879 -0.10924697 -0.05833573 -0.10243962 -0.0702982 0.13526593
-0.09672617 -0.14432235 -0.11115443 0.15863906 -0.06932927 0.12711503 -0.09092007 0.08215998
-0.023021802 -0.065713786 -0.043511137 -0.080076374 -0.067126736 -0.12870866 -0.036465615 -0.05241683
-0.1528921 0.07513134 -0.026509777 -0.15474993 0.0043253154 -0.14430362 0.06585498 0.1512277
-0.008043647 0.062125638 0.09982069 -0.034872055 0.030982256 -0.13925257 0.13724501 -0.11875144
-0.12041226 -0.10083047 -0.053798847 -0.073108785 -0.16947797 0.07085848 -0.12770632 0.1149088
0.15926127 0.030345842 -0.05374237 0.15634288 -0.0226534 0.084568754 0.07222831 -0.13226686
-0.14798921 0.012892634 -0.027512878 0.02533561 -0.10504539 0.009393945 0.098574266 0.05539407
0.057956696 -0.02437067 0.03962341 -0.0031839162 0.07377596 -0.14139119 -0.16075699 0.0023031533

weight_u f4 [32]
00000000: 9056 8f3e 1540 4e3e 434b dcbe 2401 763e
00000010: 1384 9c3e 0c6d 98be 38cd cbbd d504 75bd
00000020: 4ebf 153e dbc5 cf3d d7d7 863e e449 3e3d
00000030: ea4f a9bb c55b 92bd 65ba afbd 3986 593e
00000040: 60a4 25bd e200 e3bc 6999 853c 3e08 f93d
00000050: f52e e73c b187 7abd ae1d 13bd 54c5 f7bc
00000060: 9104 1e3e f9df 94be 9699 843e 7f91 bebd
00000070: 224b 803e b63c a3b9 909c 79bd baea ab3d
0.2799573 0.20141633 -0.4302617 0.24023873 0.30569515 -0.29770696 -0.09951252 -0.05981906
0.14623758 0.1014516 0.26336548 0.046457186 -0.005166997 -0.0714641 -0.08580474 0.21242608
-0.040439963 -0.027710382 0.016308503 0.12159775 0.028220633 -0.06116456 -0.035916977 -0.03024546
0.1543143 -0.29077128 0.25898427 -0.09305095 0.25057322 -0.00031135016 -0.060940325 0.0839438

weight_v f4 [32]
00000000: 447d 9b3d a813 c0bd fde5 8f3e 4082 d5be
00000010: 6326 a53d 307e c7ba b071 f4bd bbc0 7f3a
00000020: 6095 ea3e 7b64 49be 74f8 013e 713c 08be
00000030: 59af c73d 780b 99bd 0dd3 75bc 80f6 2cbe
00000040: 5021 49be 947e 38be 7a69 3b3d 368f 8c3e
00000050: efb4 debd 2ee7 313e 8e89 303d 39b7 26be
00000060: b47e 013e 5134 843e bd78 32bd 4fa4 4ebd
00000070: 40f5 63bd 4cb7 783d d2ba 86be 9c67 733d
0.07592252 -0.09378749 0.28105155 -0.41700935 0.08063962 -0.0015220102 -0.11935747 0.0009756197
0.4581709 -0.19667237 0.12692434 -0.13304307 0.09750242 -0.074728906 -0.015003932 -0.16890907
-0.19641614 -0.18017036 0.045754887 0.2745301 -0.10874354 0.17373344 0.043099932 -0.16280831
0.1264599 0.25821164 -0.043572176 -0.050449666 -0.05565381 0.06072168 -0.26314408 0.05942498
