Models/M4/wo_sa_fade/wo_sa_fade_generator.pt (torch, 149351 bytes, 70 tensors)

bias f4 [32]
00000000: 686e 5cbe 15ed 5a3e cc85 893c abe2 0239
00000010: fbfe 43be 098d 18be c18b 673e d6f9 3abd
00000020: 9213 4cbe 4a3f a1bd 1072 93be 6479 033e
00000030: 7e6b 57be 7a07 31be cdaa 41be 6bc7 86bc
00000040: bf4e 8d3e 68cd c03b 37d2 ecbd 777b 3b3d
00000050: 7be2 5d3d e5bc 74be 4a4e 723e 9db7 87be
00000060: 1d6c 68be 6847 94bd 15d1 b93c 7fe9 113e
00000070: d086 263e 1401 ff3d cc80 27be d967 4bbc
-0.21526492 0.21379502 0.016787432 0.00012482207 -0.19140236 -0.1489755 0.22611906 -0.04564842
-0.1992934 -0.078733996 -0.2879796 0.12839276 -0.21037099 -0.17288008 -0.18912812 -0.016452512
0.2759914 0.0058838613 -0.11563533 0.045772042 0.054171067 -0.23900183 0.23662677 -0.26507273
-0.22697492 -0.07240182 0.022682706 0.14249228 0.16262364 0.124513775 -0.16357726 -0.012414896

weight_orig f4 [32, 12, 1]
00000000: f564 48be c4b7 50be 62ce cfbc 0027 ae3d
00000010: 8aa7 e13d 42f6 393d 1f9e 083e 9184 2b3e
00000020: 8886 98bc 3e4e e43d c31c 913d aaa2 10be
00000030: 0cfe 203e 3b02 4cbd 1f42 343d c1c7 18be
00000040: 20d0 723e dd60 9c3d b761 b33d 9b88 2cbe
00000050: 38cb 01be e2d9 103e 1029 a33d 2651 c5bd
00000060: 374d 313e e851 31be 01cc 17be b26d 093d
00000070: 6d2f 0c3e b9c8 08bd e059 d73b 92b1 efbd
00000080: ee34 133e 1a4e fbbd f8a6 36bd 7d1d a8bd
00000090: 1570 033d abcf 8c3c a1b0 6cbe 733f 71be
000000a0: 14f6 8c3e 0354 d3bd 192d 453b 2654 693e
000000b0: c730 f13d f74e 783d c185 883e 023b 1dbe
000000c0: 3584 85be 83c4 6bbe e91f ca3d defb 123e
000000d0: 6b1f 563e e698 593c 69a2 a83b 9624 4cbe
000000e0: ce82 57be 86af 473b cefe 24be 1280 523e
000000f0: 46a1 30be d3b7 1dbe 9a0e 953e be3c 38bd
00000100: 060e 0e3e f557 f9bd 450f 283e d4e6 94bd
00000110: b31b 473e 5a57 363e 6307 93be 52d1 ef3c
00000120: 09fc 61be 6f08 743e 7169 753e f650 19bd
00000130: 1ee7 e33d f18e 453e 042b 093e a4c8 14be
00000140: 473a eb3d 3ac9 703e d3ae d9bd d5a4 09bd
00000150: 410b 483e 0d88 b63d 64bf 20bd e83d 153e
00000160: 0c2d 5d3d 5f2c 653d b7a2 103e 7857 a73d
00000170: 584e 6e3e 54d6 46bb d238 8c3e 08ba 1bbe
00000180: 7af4 c33d 1ff6 093e 6392 88be 8916 7a3e
00000190: 40a7 8b3e 8d65 bd3d eb86 8a3e 7006 1e3e
000001a0: e241 e23c 12bb a8bd 6c04 56bd 9321 7bbd
000001b0: 4616 e43d 8a0a 683e 70a0 74be d100 01bd
000001c0: 2a7b a8bc d9e0 46be d1bd 21bd e5d0 82be
000001d0: f202 f03d a9be 073e 78d6 af3d 9c08 1f3e
000001e0: ab07 22bd 9a65 2f3e 94c0 783e a2dc 993c
000001f0: 57c2 42be 2d4f 49bd ee5c 1abe bff7 53be
00000200: 13bd 7ebe b103 21be 7c66 e13d 301a efbb
00000210: c594 0b3d 927e 5c3d 1371 ab3d 5d81 5fbd
00000220: cf50 953d 985a 00be 04bb 5fbe ac14 c8bd
00000230: b997 1a3e 14e2 9b3b 2bb4 fc3d 3b81 86bd
00000240: e8e0 8b3c 40cb 983e 29b7 95be 6f77 633e
00000250: 4b05 283e 94c4 25be d648 bfbc 3cb4 20be
00000260: 7615 d13d 2edd 913e 6995 96be 336f e53d
00000270: dff9 0ebd 4453 e7bc ab8a 4cbe dba9 793e
00000280: 257c 653e 46a4 b23d 37c3 1abe c86b b5bd
00000290: cf96 693e d2e4 8fbc 98dc 8a3d 9ea6 66be
000002a0: a3db 8f3e 6f88 47be df5d 87be 1e10 61be
000002b0: 5ab1 273e 81bc e03d 6fca 06be 902e 8fbe
000002c0: e224 ec3d 05ac e0bd a443 cfbd 5cc4 22be
000002d0: eeb0 dd3d 0561 1bbd 207c 02be e868 2dbe
000002e0: d718 cc3d c740 5abe 0e6e 6e3d 26eb d43d
000002f0: 1c18 6e3d af2f 233e abc1 61bc 1f44 803e
00000300: 4bb7 4f3e db2a ad3d 04cd 17bd dbd2 0a3d
00000310: ef8b 2dbe 88aa 4a3e a887 a3bd 65a3 73bd
00000320: 8d1c 1dbe 446b 5a3e 1b25 10bd e7e9 1b3d
00000330: 6bae 183e 1426 243d 07b6 083e 594c 7b3e
00000340: de15 5c3d d2b3 2d3d 8c51 e53d 1401 66bc
00000350: 9329 c93d 112b 42be f0c8 71be 700b 4bbe
00000360: a74a f33d 8382 1cbe b5a2 553e add9 41be
00000370: 97c9 853d 17b9 483c b5bc 253e 5f7d 05be
00000380: 2790 013d eb94 f1bd 5d74 723e d79e f63d
00000390: 9d01 9dbd 7063 253e 36af 133e 1b7c 583e
000003a0: 3f40 7d3d 8f52 21be 41f8 0e3d b407 4bbe
000003b0: 2307 15be e54f d8bd 7ee2 523e fc45 943d
000003c0: 137c 6fbe 1fa8 f2bb dcf8 47be 3eab 1f3e
000003d0: c644 573e eda9 453a f01d e5bd 4db8 c0bc
000003e0: 82ab 13bd ae0c 69be 9248 97be e2fc 30be
000003f0: 8d91 2fbe 17aa 1d3d ab51 edbb 48e9 8a3e
-0.19569762 -0.20382601 -0.025366966 0.085035324 0.11018284 0.045400865 0.13341568 0.16749789
-0.018618837 0.11147736 0.07085564 -0.14124551 0.15721911 -0.049806815 0.04400837 -0.1491995
0.23712206 0.07635663 0.08758872 -0.16848986 -0.12675178 0.14145616 0.079668164 -0.096346185
0.17314611 -0.17316401 -0.14823915 0.03355188 0.13689966 -0.03339455 0.006571993 -0.11703791
0.1437566 -0.12270756 -0.044592828 -0.082087494 0.03208931 0.017188868 -0.23114254 -0.2355936
0.27531493 -0.10318758 0.0030086695 0.22786006 0.11776882 0.06062218 0.26664546 -0.15354541
-0.26077428 -0.23024182 0.09869368 0.14353892 0.20910423 0.013281083 0.005146314 -0.19935831
-0.21045992 0.003046961 -0.16112825 0.20556667 -0.17249021 -0.15402155 0.29112703 -0.044979803
0.13872537 -0.121749796 0.16412075 -0.072705895 0.1944416 0.1780676 -0.28716573 0.029274616
-0.220688 0.23831342 0.23966004 -0.037430726 0.111280665 0.19292809 0.13395315 -0.14529663
0.11485725 0.23514262 -0.10629048 -0.03360446 0.19535543 0.089126684 -0.039245024 0.14574397
0.05399804 0.05595052 0.14124571 0.0817098 0.23272073 -0.0030340152 0.273871 -0.15207684
0.095681146 0.13472794 -0.26674184 0.24422659 0.2727604 0.09247885 0.2705606 0.15432143
0.027619306 -0.08238806 -0.05225031 -0.061311316 0.11137061 0.2266027 -0.23889327 -0.03149492
-0.020566542 -0.1942171 -0.039487664 -0.2555 0.11719312 0.13256325 0.085858285 0.15530628
-0.039558094 0.17128602 0.24292213 0.018781964 -0.19019447 -0.049147774 -0.15074512 -0.20699976
-0.24876814 -0.15724064 0.110058755 -0.007296823 0.034077425 0.053831644 0.083711766 -0.05456673
0.07290804 -0.12534559 -0.21848685 -0.09769568 0.1509694 0.004757175 0.12339052 -0.065676175
0.017075017 0.29842567 -0.29241303 0.22213529 0.16408269 -0.1618827 -0.02335016 -0.15693754
0.102091715 0.2848906 -0.29410866 0.1120285 -0.034906264 -0.028237946 -0.19974773 0.24381201
0.22410639 0.08722739 -0.15113531 -0.08858448 0.22811435 -0.017565165 0.06780356 -0.22524497
0.28097257 -0.19485639 -0.26438805 -0.21978804 0.16376248 0.10973454 -0.1316316 -0.27965212
0.11530472 -0.1097031 -0.10120323 -0.15895218 0.10824762 -0.037934322 -0.12742662 -0.1693455
0.09965675 -0.21313773 0.058210425 0.103964135 0.05812846 0.15936159 -0.013779084 0.25051972
0.20284764 0.0845544 -0.037060753 0.033892494 -0.16947912 0.19791615 -0.07984859 -0.059481997
-0.15342923 0.21329981 -0.035191637 0.038064864 0.14910285 0.040075377 0.13350688 0.24540843
0.05373179 0.04240782 0.111971945 -0.014038343 0.09822383 -0.18961741 -0.23611808 -0.19828582
0.11879473 -0.15284161 0.20862849 -0.18930693 0.06532591 0.01225116 0.16185267 -0.13036107
0.031631615 -0.11795982 0.23677202 0.12042015 -0.07666323 0.16151214 0.14422306 0.21141092
0.061828848 -0.1575415 0.034904722 -0.19827157 -0.14553504 -0.10562114 0.20594212 0.07239911
-0.23387174 -0.0074052955 -0.19528526 0.15592667 0.21022329 0.00075402745 -0.11187351 -0.023525381
-0.036052234 -0.22758743 -0.29547554 -0.17283967 -0.17145367 0.03849229 -0.0072424016 0.27131104

weight_u f4 [32]
00000000: 5aa3 26be 69e9 0ebe 9847 35be fe60 75be
00000010: 7ce4 41bd 8389 2b3c 7fec dcbb 7160 d3bd
00000020: 0610 83be bf43 5a3d 0738 633e 412c 0e3b
00000030: da57 84bd 4d52 97be 89ad 89be 0c99 1e3d
00000040: 90a9 c53d 90cd 88bd e50b 2c3d 9584 b33d
00000050: 2393 7dbe 9657 84be bca9 743e b699 68bd
00000060: 5093 83bd 1651 b03e e892 e73c 62c0 d33d
00000070: 3c71 863e 2a52 6bbb 4c5a 96be 88b9 85be
-0.16273251 -0.13956226 -0.17703092 -0.23962781 -0.04733704 0.010469797 -0.0067420597 -0.10321129
-0.25598162 0.053287264 0.22189341 0.0021693858 -0.06462069 -0.29554978 -0.2689021 0.038720176
0.09651482 -0.06679833 0.04200353 0.087655224 -0.2476316 -0.25848073 0.23892874 -0.056787215
-0.06424582 0.34436864 0.028268293 0.103394285 0.26258266 -0.0035907128 -0.29365766 -0.26118112

weight_v f4 [12]
00000000: c3c8 ab3d 05b5 5c3e 39ed e83e 1578 c6bc
00000010: 3790 2abf 05f3 80be d946 98bd 7dd6 223d
00000020: c0de d4bd 11fd 673d 73f6 c8bb bbe2 ea3e
0.08387902 0.21553428 0.45493487 -0.024227181 -0.66626304 -0.2518541 -0.07435388 0.039755333
-0.10394049 0.056637827 -0.0061328947 0.45876107

weight f4 [32, 12, 1]
00000000: 68de 14be 530b 1bbe b46e 9abc a359 813d
00000010: 93a7 a73d 352d 0a3d c3f9 ca3d 71d0 fe3d
00000020: 3cb3 62bc f497 a93d 3296 573d 9eea d6bd
00000030: 603a ef3d 2b98 17bd cbdd 053d 7801 e3bd
00000040: 0864 343e 735c 683d bd46 853d 3829 00be
00000050: 1fdc c0bd 5230 d73d 7e64 723d 5f9b 92bd
00000060: 32b4 033e 67bd 03be 7b8f e1bd bd44 cc3c
00000070: 9a4e d03d f12f cbbc 5f95 9f3b ff0d b2bd
00000080: dbbc da3d 51ae babd 4da7 07bd 76d3 79bd
00000090: b832 c33c 5a03 513c d4d7 2fbe cf34 33be
000000a0: b971 513e 3701 9dbd a645 123b d558 2d3e
000000b0: 0828 b33d 8a76 383d 24d9 4a3e 83a1 e9bd
000000c0: 0362 46be 5b25 2fbe 5828 963d 9067 da3d
000000d0: 3314 1f3e c977 213c 5feb 7a3b 36a5 17be
000000e0: 9917 20be cfb0 143b 3520 f5bd 235d 1c3e
000000f0: 2339 03be e657 eabd 3379 5d3e d9e9 08bd
00000100: 040b d33d 7e35 b9bd 06b7 f93d 212f 5dbd
00000110: bbe6 133e fe71 073e 9f74 5abe b846 b23c
00000120: 54de 27be 8d46 353e d552 363e 9ae3 e3bc
00000130: cb54 a93d 64c5 123e f7cb cb3d f707 ddbd
00000140: f1c4 ae3d d8dc 323e a4ba a1bd 8387 ccbc
00000150: b19d 143e 73a0 873d 76ee eebc d9c3 dd3d
00000160: be5b 243d 3634 2a3d 86de d63d db9f 783d
00000170: b207 313e dbd8 12bb f958 503e aa65 e7bd
00000180: 8a96 913d 32f4 cc3d 85eb 4abe 9ec6 393e
00000190: 7980 4f3e 08ba 8c3d a2cf 4d3e c3c1 ea3d
000001a0: 1130 a83c d0bc 7abd 0405 1fbd 419b 3abd
000001b0: f176 a93d ed5d 2c3e 52b7 35be c8ac bfbc
000001c0: d189 7abc 0dbc 13be b249 f0bc af59 42be
000001d0: bd4b b23d 49a8 c93d fe9b 823d 9d4f ec3d
000001e0: f0c1 f0bc 324e 023e 04ce 383e 7191 643c
000001f0: 0ab2 10be 9899 15bd 5d53 e5bd 0474 1dbe
00000200: 9d3a 3dbe 863b efbd 5f6e a73d c93f b1bb
00000210: 8180 cf3c 1cda 233d b0c1 7e3d d20d 26bd
00000220: 41e6 5d3d 37bd bebd a931 26be ae9c 94bd
00000230: 44a9 e53d 2dde 663b 1fb9 bb3d f7d2 47bd
00000240: 85f1 4f3c d900 633e 4b6e 5ebe bef8 283e
00000250: 719e f93d 0844 f6bd e9fc 8dbc 16be eebd
00000260: f24b 9b3d dfb4 583e 7bbd 5fbe 586c aa3d
00000270: 5482 d4bc 3adf abbc 26f6 17be 077c 393e
00000280: 6b7d 2a3e d3ba 843d 28f5 e5bd a6c5 86bd
00000290: df86 2d3e 7ef1 55bc bf59 4e3d bd5b 2bbe
000002a0: 71ba 553e c937 14be f41c 49be dc2e 27be
000002b0: 362d f93d 76f3 a63d 433d c8bd eab8 54be
000002c0: 4f72 af3d 20e5 a6bd 36fd 99bd 3fdb f1bd
000002d0: 26b5 a43d 12c2 e6bc ecdb c1bd 71d4 00be
000002e0: 61a5 973d 2f24 22be 602d 313d be27 9e3d
000002f0: 4fed 303d c979 f23d 9b91 27bc 8995 3e3e
00000300: e351 1a3e 0fa6 803d 1573 e1bc 0e61 ce3c
00000310: 51ea 00be ce8c 163e 53ff 72bd 67f2 34bd
00000320: f868 e9bd 7944 223e 853a d6bc 27c1 e73c
00000330: 3be0 e23d 03cf f33c d518 cb3d 73b2 3a3e
00000340: d28b 233d 6b04 013d 025d aa3d 24ae 2abc
00000350: 126f 953d 8f39 10be ff9b 33be ddd9 16be
00000360: 43c2 b43d b983 e8bd d9b6 1e3e a705 10be
00000370: a4bb 463d 0802 153c 7445 f63d 105c c6bd
00000380: 9e90 c03c c97d b3bd 771f 343e 833b b73d
00000390: 6340 69bd feb6 f53d 3e71 db3d 3bd0 203e
000003a0: 5a1a 3c3d 3daf efbd 2b56 d43c 03d1 16be
000003b0: fa66 ddbd 31ad a0bd b1a7 1c3e 8c5b 5c3d
000003c0: 61e7 31be db65 b4bb 518a 14be 353e ed3d
000003d0: d0ed 1f3e 6470 143a c730 aabd 3f17 8fbc
000003e0: 954d dbbc 1925 2dbe c9c7 60be 367e 03be
000003f0: 736a 02be 0928 ea3c a948 b0bb 1e61 4e3e
-0.14537966 -0.15141039 -0.018851615 0.06315925 0.08186259 0.03373452 0.099109195 0.12442101
-0.013836678 0.08280936 0.05263347 -0.104939684 0.11681056 -0.037010353 0.03268222 -0.110842645
0.17616284 0.05672879 0.06507633 -0.12515724 -0.09416985 0.10507263 0.059177868 -0.07158541
0.12861708 -0.1286522 -0.11013695 0.02493512 0.10171242 -0.024803134 0.0048701013 -0.08694076
0.106805526 -0.091152795 -0.033118535 -0.06099268 0.023827896 0.012757147 -0.17172176 -0.17500614
0.20453538 -0.07666247 0.0022319346 0.16928418 0.0874787 0.045034923 0.19809395 -0.11407759
-0.19373326 -0.17104094 0.07331914 0.10664284 0.15535049 0.009855219 0.0038287265 -0.14809117
-0.15634002 0.0022688394 -0.11969034 0.15269904 -0.12814765 -0.114425465 0.21628265 -0.03342614
0.103048354 -0.09043406 0.12193112 -0.054000024 0.14443485 0.13227078 -0.2133355 0.021762237
-0.16393405 0.17702694 0.17805035 -0.02781849 0.08268126 0.14333111 0.099510126 -0.10792535
0.08533657 0.17467058 -0.07896927 -0.02496696 0.1451328 0.066224 -0.029166441 0.108283706
0.040126555 0.0415537 0.10491662 0.060699325 0.17288092 -0.0022407088 0.2034644 -0.11298688
0.07108791 0.10007514 -0.19816406 0.18142173 0.20263852 0.0687142 0.20098737 0.11462738
0.020530732 -0.061215222 -0.038823143 -0.045558218 0.082746394 0.16832705 -0.17745712 -0.023397818
-0.015291647 -0.14427204 -0.029332016 -0.18979524 0.08705852 0.09846551 0.063774094 0.115386225
-0.029389352 0.12725142 0.18047339 0.013950692 -0.14130417 -0.03652343 -0.11197541 -0.15376288
-0.1847939 -0.11681275 0.081753485 -0.005409215 0.02532983 0.040002927 0.062196434 -0.040540524
0.054174665 -0.093134336 -0.16229881 -0.07256447 0.112139255 0.0035227642 0.091661684 -0.048785176
0.01269186 0.22168292 -0.21721761 0.16501138 0.121884234 -0.12024695 -0.017332511 -0.1165735
0.07582845 0.21162747 -0.21849625 0.08321446 -0.025941052 -0.020980466 -0.14839992 0.18113719
0.16649406 0.064809464 -0.112284005 -0.06580667 0.1694598 -0.0130580645 0.050378557 -0.16734214
0.20871903 -0.14474405 -0.19639951 -0.16326469 0.121668264 0.08151905 -0.0977731 -0.20773664
0.085667245 -0.08149171 -0.07518999 -0.11809396 0.08042364 -0.028168712 -0.09465775 -0.1258104
0.074045904 -0.15834115 0.043256164 0.07722424 0.043195065 0.11839635 -0.010227586 0.1861173
0.150703 0.06281673 -0.027520696 0.025192764 -0.12589385 0.1470215 -0.059325527 -0.044176485
-0.11396974 0.15846433 -0.026150951 0.028290344 0.11077925 0.029761797 0.09916846 0.18232135
0.039928265 0.031498354 0.08318521 -0.010417495 0.072965756 -0.14084457 -0.17539977 -0.14731546
0.08826115 -0.11353249 0.15499438 -0.14064656 0.04851879 0.009094723 0.12024966 -0.09685528
0.023506459 -0.08764226 0.17590128 0.08946898 -0.05694617 0.119977936 0.107149586 0.15704434
0.04592357 -0.11703346 0.025919994 -0.14728169 -0.10810657 -0.07845534 0.15298344 0.053798243
-0.1737342 -0.005505306 -0.14505889 0.11584131 0.15618062 0.00056624995 -0.08310085 -0.01746714
-0.026770392 -0.16908683 -0.21951212 -0.12841114 -0.1273592 0.028583543 -0.0053797555 0.20154235

weight f4 [1, 32, 1]
00000000: d778 d4bd eb28 0dbe 0759 0bbe df3b 173e
00000010: a8c4 bd3c 8697 67bd c1ac 0a3e 8eba 7abd
00000020: 1435 2cbd 0026 61ba dbf6 0f3e 59c1 1cbe
00000030: 8551 09be bad6 bd3d a272 c3bd 575b 1c3e
00000040: f562 203e d074 3c3c 908b 04bd 5241 a33d
00000050: 4dbc 303e 60f6 b9bb ffc8 283e 3ce4 0b3d
00000060: 72bb a7bd bee7 eabd 36db d23d 184d 2cbd
00000070: 5da7 bdbd 7888 07bd 9ff9 063e fa6f d63d
-0.10374611 -0.1378514 -0.1360818 0.14768933 0.023165062 -0.05654099 0.13542463 -0.06121307
-0.042042807 -0.0008588731 0.14059012 -0.15308131 -0.13410003 0.092694715 -0.09543349 0.15269218
0.15662749 0.01150246 -0.03235966 0.07971443 0.17259331 -0.005675122 0.16482924 0.034153208
-0.08190049 -0.114699826 0.102957174 -0.04206571 -0.09260438 -0.03308913 0.1318116 0.104705766

weight f4 [1, 32, 1]
00000000: 20b3 0fbc 66cb d03d 2e01 1ebe 3885 183d
00000010: 06be 9ebd 304d 233c 1082 693d b64c 22be
00000020: 2357 243e b5a6 11be ee1c b73d 8041 d7ba
00000030: 2a2a e43d 22ce ee3d f4ac 193d aba4 2b3e
00000040: 7278 a63d ce7d 8ebd 5558 85bd 28a8 f5bd
00000050: bb83 2f3e ae39 16be 0d5f 043e f18d 1a3e
00000060: 978a 113e 58a5 f5bc eb5c e5bd bca9 0d3d
00000070: a0d7 71bc 44f3 cebd 1bbb 013e 31ab 1b3e
-0.008770734 0.10195045 -0.15430138 0.037236422 -0.07751088 0.009967133 0.057008803 -0.15849575
0.16048865 -0.1422375 0.08941065 -0.0016422719 0.11140855 0.116604105 0.037518457 0.16762035
0.08128442 -0.06957589 -0.065109886 -0.11994964 0.17140095 -0.1467044 0.12926884 0.15093209
0.14213024 -0.029986069 -0.11199363 0.0345857 -0.014760882 -0.10104993 0.12669031 0.15202023

weight f4 [1, 32, 1]
00000000: f7fd fcbd e8d9 49bd daf3 ae3d 102f fb3c
00000010: 2e8f c03d 2983 9dbd 624e a23d 37d1 313e
00000020: 4338 113e e157 1abe a055 ffbd 9456 63bd
00000030: ca2a d73d 952c 29be 2342 1a3e 1609 22be
00000040: 008d 5abb 8faa 0b3e 86d0 b93d 5ee5 853d
00000050: 2cad abbd 7003 e7bc cc47 143d 0feb a4bd
00000060: 5e98 9c3d e2ad a63d bd7e a6bd ec27 693d
00000070: a998 acbd c39b 0cbe c39a 0cbe 9953 2ebe
-0.123531274 -0.049280077 0.08542605 0.03066209 0.09402309 -0.076910324 0.079251066 0.17364965
0.14181618 -0.15072586 -0.124675035 -0.05550249 0.10506208 -0.16520913 0.15064292 -0.15823779
-0.0033348203 0.13639282 0.09072976 0.06537889 -0.08382639 -0.028199881 0.036201283 -0.08052646
0.07646249 0.08138634 -0.08129642 0.056922838 -0.08427555 -0.13731293 -0.13730912 -0.17024077

bias f4 [32]
00000000: 6b55 b9bd 1581 e73c e39d 0d3e d29a b0bd
00000010: d50f 4c3d 4ff8 d93d 0d0c b3bd 4429 633c
00000020: 471e a9bd d0b9 463d 75d3 043e 4ddf 0bbe
00000030: 414e f3bd ef2f b03d 7d49 91bd 359c 693d
00000040: 5205 b7bd 108e e03c 4caf 8abd f89c 52bd
00000050: 5d56 bcbb fed1 eabd ec49 adbb 9520 e43c
00000060: f255 f43d 35ee 57bd 3f56 6e3d bb70 d8bc
00000070: 6632 4bbd bc51 213c 3ef4 7e3d 779b adbd
-0.09049495 0.028259793 0.1382976 -0.0862328 0.049819786 0.10643064 -0.08742533 0.013864819
-0.08257728 0.04851705 0.1297129 -0.13659401 -0.1188016 0.086028926 -0.07094095 0.057033736
-0.08936562 0.02741149 -0.067717165 -0.05141923 -0.0057476 -0.11465834 -0.005288353 0.027847568
0.11930455 -0.052717406 0.05818772 -0.026420942 -0.04960861 0.009846147 0.062244646 -0.08476918

weight_orig f4 [32, 43, 1]
00000000: 100c 6dbd 55fb b23d 52e4 0ebd 7ebc a03d
00000010: f1c7 83bd d29b a5bd a590 69bc 4e34 c8bb
00000020: e6e5 673d c740 ba3d 49a4 ca3c b57c 363d
00000030: 1408 173e 835c a23d e980 9abd e257 c83d
00000040: b847 aebd 1d69 6fbd 6247 ff3d 17a1 873d
00000050: 71ee 0ebe ae6b c73d f1df 8e3c 274d ea3a
00000060: e1b0 113d a400 ec3d d48a 4e3d 8681 1f3d
00000070: 2fa2 09be 0c4a 163d 9b82 9cbd f80f a13d
00000080: 11eb 0d3e 79f0 0cbe a556 e8bc ea3d a93b
00000090: c60c 0f3e 6d5a 5d3d cab4 05be 8e1e a2bd
000000a0: 4da9 9ebd ca7e 9e3c 67e6 943d a71c 2abc
000000b0: 4735 84bd bada 74bc 8228 e03c 304c 16bd
000000c0: 51e0 e8bc 6960 66bd 5eea 883c 2a55 1b3d
000000d0: e887 943d 488c e43d 49f1 1fbe e96d 203d
000000e0: b103 763a 79fb 11be 4b95 1abe 24f4 d23d
000000f0: b569 0c3d 4dc2 28bd d992 cb3d d278 0c3e
00000100: 34fe 8abd 40d3 193e 6f75 8f3d a275 69bc
00000110: 84dc 77bc be85 223e 209d 19bd b298 85bd
00000120: b578 a0bd 9a4d dbbd 5587 903d 07b1 ef3d
00000130: 7edd c93d b602 f2bd 853a 9bbd c9c6 493d
00000140: 71ed 87bd 9e57 febd 3d39 14be 7b59 c2bc
00000150: 2e8c 063e 213e b4bb 8d2d 82bc feba 0bbe
00000160: 7fba edbc e4ab bbbd fdcf c2bc c144 42bd
00000170: d23b 003d 3681 0e3e ec8c 7cbd 3a2e ac3a
00000180: 94fc 12be 72ec 32bd cbde 0dbe a7d2 013e
00000190: 09fb 11be fff7 473d 79ee 993d 4c7b dcbc
000001a0: 8a03 46bc e631 b0bc 5db3 fc3d 7aeb b33c
000001b0: abb7 87bc 7c3b c43d f1a2 113e 5132 2ebc
000001c0: 6be6 e2bd a808 99bd fd07 9cbd 218b 1ebe
000001d0: f7a8 7b3b d100 77bd 1f0b 3ebd e2e3 08be
000001e0: 48d1 d1bc 972a 1b3e 3b13 f3bd 354c ddbd
000001f0: 2dd2 053e bef9 fabd 3d95 e23c e9b7 ab3d
00000200: 1696 35be fe54 3d3b f810 863d 968d 883b
00000210: 0ad2 fb3c bb02 0dbe 8d66 60bd c99e d63d
00000220: a4b8 883d b247 19bc edbc 633d 5122 b33d
00000230: fb06 f73d e368 94bd b206 88bd 20e2 b13d
00000240: 7e6c b43b 1e10 2ebd 02c8 da3c 10e6 66bd
00000250: b696 9abd 7fc6 10bc cb1b 153e 0a68 94bd
00000260: 7661 b03d f584 53bc 0487 193e d78f f5bd
00000270: f37c 9b3d 6d52 063e 385d b5bd 26d3 63bc
00000280: 5b10 13be 16e6 053e 8da5 c13d 72b5 ea3d
00000290: 5cb7 003e 4426 0cbe ebb5 1e3e fe8e 673d
000002a0: 0955 333d 675b fcbd fec2 c73d 1bcd 4abd
000002b0: 21d1 1b3d 6f44 aebd 52ba bc3c b228 3c3d
000002c0: e9de f9bd 21db 103e 8a62 e13d 72e7 343c
000002d0: f984 bcbd 3947 993d 383a c03d 01f6 15be
000002e0: 0197 9fbd 5c8e 00bd 8eaf f63c 6e07 eebd
000002f0: d0c8 09bd 0994 ba3d e437 18be 483b b13d
00000300: 5a2d 15be 04fe e1bd db34 133d f58e bb3d
00000310: 68cb 28be d37e d23c 16be 0bbe c20e 3d3d
00000320: 76d6 12be 3292 92bd e1c3 83b9 328f cdbd
00000330: 499c 93bd 97f4 13be 8636 0f3e 8cf2 a63c
00000340: 019b 0f3e 914b 9f3c 50d2 a23d 519f 613c
00000350: 0c4f a93d 8faf cb3d 18e0 8b3d 0fd5 41bd
00000360: 2ce4 f43d 9e60 0bbd 10dd b5bc 3dc7 4bbd
00000370: 7776 9e3d 666f 173e 5fcf ab3d 1137 0d3e
00000380: 7892 1b3d c34e e93c f8e1 a53d e72a 003e
00000390: 7ff1 423d 9fbc 893d 385b 5cbd 4a8e 58bc
000003a0: ff63 323c 9183 32bd ca33 b0bc 90fe 0d3e
000003b0: f7c2 053e ab06 463d d95d d6bd b641 edbc
000003c0: 44bd 233e ea8e adbd 7e1b 683d 61d8 04be
000003d0: e732 8cbc 5878 59bd c956 0dbe 2cb3 b93d
000003e0: ac67 b13d 3ef0 063e 691d d1bb c94c fdbd
000003f0: 699b 08be 8762 bdbd 97a4 c1bd 049b 1c3d
-0.05787283 0.08739344 -0.034885712 0.07848452 -0.0643462 -0.08086361 -0.014255677 -0.006109751
0.056615733 0.090943865 0.02473654 0.044552524 0.14749175 0.079278015 -0.07544119 0.09782387
-0.08509773 -0.058449853 0.12464787 0.06622522 -0.13958146 0.09737335 0.017440768 0.0017875776
0.035569075 0.1152356 0.050425366 0.038941883 -0.13440774 0.03669171 -0.076420985 0.07864374
0.13859202 -0.13763608 -0.028361628 0.0051648514 0.13969716 0.054041315 -0.13057247 -0.07915984
-0.07747135 0.019347567 0.07270508 -0.010382808 -0.06455474 -0.014944727 0.027363066 -0.03669375
-0.028427275 -0.056244288 0.016713317 0.037923016 0.072524846 0.11159569 -0.15619387 0.03916732
0.00093847053 -0.14256085 -0.15096013 0.103004724 0.034280498 -0.041200925 0.09940118 0.13717964
-0.06786767 0.15021992 0.070048206 -0.014249237 -0.015128259 0.15871331 -0.03750336 -0.06523265
-0.07835523 -0.10708161 0.070570625 0.11703687 0.098566994 -0.11816923 -0.07579521 0.049261842
-0.06637085 -0.124190554 -0.1447496 -0.023724308 0.13139412 -0.0055005704 -0.01589086 -0.1364555
-0.029019592 -0.09163645 -0.023780817 -0.04742885 0.03130705 0.13916478 -0.06165783 0.0013136335
-0.14354163 -0.043682523 -0.1385452 0.12678014 -0.14255919 0.048820492 0.07516188 -0.026914261
-0.012085805 -0.021508168 0.12338898 0.02196287 -0.016567072 0.09581658 0.14222313 -0.010632114
-0.11079105 -0.07472354 -0.07618711 -0.15482761 0.0038400271 -0.060303513 -0.046397325 -0.1336818
-0.025612488 0.15152965 -0.11868902 -0.10805551 0.13068457 -0.12254666 0.027659053 0.083846875
-0.17733034 0.002888977 0.06546205 0.004167269 0.030739803 -0.13770573 -0.0547853 0.104795046
0.066758424 -0.009355472 0.055600096 0.0874678 0.12061878 -0.07246568 -0.06641902 0.08685708
0.0055060973 -0.04249584 0.0267067 -0.05637175 -0.07548277 -0.008836388 0.14561383 -0.072464064
0.08612339 -0.012910117 0.1499291 -0.11990326 0.075921915 0.1311738 -0.08855671 -0.013905322
-0.14361708 0.13076052 0.094554044 0.11460389 0.12569946 -0.13686472 0.15499084 0.056532852
0.043782268 -0.12322121 0.09753989 -0.04951201 0.038041238 -0.085091464 0.023038063 0.045937248
-0.1220072 0.14146091 0.11005123 0.011041509 -0.0920505 0.07484288 0.09386104 -0.14644624
-0.077924736 -0.031385764 0.030113008 -0.11622511 -0.033638775 0.09110267 -0.1486507 0.08653885
-0.14568081 -0.11034778 0.03593908 0.09158126 -0.16483843 0.02569524 -0.13646731 0.046156652
-0.14339623 -0.07156791 -0.00025132208 -0.10037078 -0.072075434 -0.14448772 0.13985643 0.020379327
0.14023973 0.019445213 0.0795027 0.013770894 0.0826703 0.099455945 0.06829852 -0.04732233
0.11957583 -0.03402769 -0.022200137 -0.049750555 0.07737439 0.14788589 0.08389162 0.13790537
0.03798148 0.02847994 0.08099741 0.12516366 0.04759359 0.0672543 -0.05379793 -0.013217518
0.010888099 -0.043582503 -0.02150907 0.13866639 0.13062654 0.048346203 -0.10467119 -0.028961997
0.15990168 -0.08474524 0.056666844 -0.12973167 -0.017114116 -0.053093284 -0.13802637 0.090673774
0.08662352 0.13177583 -0.00638168 -0.12368161 -0.13340534 -0.09247308 -0.09455221 0.038233772

weight_u f4 [32]
00000000: 3aa6 9dbd 0d97 5a3e 3d7e 0e3e 24ee 24bd
00000010: a4e5 1ebe 9781 45bc 4b3f bdbe ef8a e2bd
00000020: 9c41 b63b 6554 113e 576b fb3c 31c4 09bd
00000030: b47f 54be b76b a0bb 5ef4 40be 1254 6e3e
00000040: b327 3f3e 5705 673e 6e98 e93d d4de edbd
00000050: fc01 493e b848 a8bd fbd5 c4be 43c0 27bc
00000060: ff4e a1bd 5f26 6d3e ddcf 8d3e a65d 86bd
00000070: 05a1 babe 2fa2 5b3d 1e17 77bd 8d34 f03d
-0.07697721 0.21346684 0.13915344 -0.04026617 -0.15517288 -0.012054822 -0.3696235 -0.11061656
0.0055620205 0.1419235 0.030690832 -0.03363437 -0.2075184 -0.004895653 -0.18843219 0.23274258
0.18667488 0.2256063 0.11406027 -0.11614767 0.19629663 -0.08216995 -0.38444504 -0.01023871
-0.078763954 0.23159169 0.2769765 -0.06560831 -0.36450973 0.053621467 -0.06032478 0.11728773

weight_v f4 [43]
00000000: cc87 a23d 822c ae3d 5975 cbbc 7a2a f93d
00000010: 40d2 a9bd 7e4d ccbd e476 2abe 8254 51be
00000020: ce9f 26be ba6c 203e 8e4e 25bd 50dc bebd
00000030: c28b 1abe 3c7b fc3c 97cd 2abe e2e3 79bb
00000040: 50c4 df3d 7c39 a4bd 5e5d edbc 5d05 08be
00000050: aae8 4b3e fdfe ddbd b379 883e 3d4c 3d3d
00000060: e325 ac3e 9b45 663d 20e8 393e 2713 5e3a
00000070: 7a51 59be dbcc 383c fc6c 303e db6a c7bd
00000080: f8f9 163e 76d9 9a3e 82b6 8cbe c170 05be
00000090: f318 a1be 55a0 8abd 66df 4a3e cc54 e2bd
000000a0: e46c a53d 5578 c83d f28a 1d3b
0.079360574 0.08504583 -0.02483623 0.12166305 -0.08292055 -0.09975718 -0.16646916 -0.20442393
-0.16271898 0.15666476 -0.04035812 -0.09319365 -0.15092376 0.030820481 -0.16679989 -0.0038130214
0.109261155 -0.08018777 -0.028975185 -0.13283296 0.19912973 -0.10839651 0.2665535 0.046215285
0.33622655 0.056218725 0.18154955 0.0008471482 -0.21222487 0.01127931 0.17229074 -0.09737178
0.14743793 0.30244035 -0.27482992 -0.13031293 -0.31464347 -0.06768862 0.19811782 -0.1105133
0.0807741 0.097885765 0.0024039117

weight f4 [32, 43, 1]
00000000: c841 72bd 35d5 b63d d90e 12bd c131 a43d
00000010: 23ab 86bd 3f3e a9bd 23ec 6ebc 4e14 cdbb
00000020: 73e6 6c3d e143 be3d 3328 cf3c 8a61 3a3d
00000030: 864b 1a3e 9adb a53d c0e4 9dbd 6ea8 cc3d
00000040: a519 b2bd 99ac 74bd fb64 023e 788a 8a3d
00000050: a60c 12be eeb9 cb3d 95d9 913c f943 ed3a
00000060: ebc9 143d c717 f13d a1f6 523d 36e5 223d
00000070: 5ca4 0cbe 717b 193d eaef 9fbd e886 a43d
00000080: c9fb 103e 3a04 10be b452 edbc fe8c ac3b
00000090: dc23 123e 423d 623d 4698 08be 7299 a5bd
000000a0: b223 a2bd 05ca a13c 4b1c 983d 108b 2dbc
000000b0: c31c 87bd aa11 7abc c2d8 e43c 25a0 19bd
000000c0: cb0c eebc b972 6bbd 4ec4 8b3c 7ca3 1e3d
000000d0: c3c8 973d e77b e93d 616b 23be 67d8 233d
000000e0: 1b2a 7f3a 482a 15be 57f5 1dbe ad8e d73d
000000f0: f465 0f3d 537b 2cbd 2af6 cf3d 9f87 0f3e
00000100: 2a0b 8ebd 4d2e 1d3e 7686 923d 0a47 6ebc
00000110: 2e1a 7dbc 5b10 263e f0f3 1cbd fd86 88bd
00000120: 82ec a3bd 5a14 e0bd 01a3 933d 41ee f43d
00000130: 9539 ce3d c73b f7bd e892 9ebd 6317 4e3d
00000140: 24e5 8abd 8cf3 01be d175 17be 3e6d c6bc
00000150: 787b 093e 6e71 b8bb 7121 85bc 06c8 0ebe
00000160: 4204 f3bc 79ca bfbd 432a c7bc 588c 46bd
00000170: 53f5 023d 7495 113e 100d 81bd e54d b03a
00000180: 4631 16be 9add 36bd c3f7 10be 5ca0 043e
00000190: 8b2a 15be 5e3d 4c3d 463e 9d3d 7363 e1bc
000001a0: c78f 4abc ca23 b4bc 8615 013e cdb5 b73c
000001b0: a1b6 8abc 2884 c83d d6d0 143e d83a 32bc
000001c0: 6dcd e7bd 7163 9cbd 8273 9fbd a800 22be
000001d0: 2515 803b c86d 7cbd 2721 42bd edd8 0bbe
000001e0: 5b3e d6bc 4985 1e3e cb64 f8bd 6911 e2bd
000001f0: 65b5 083e 4b33 00be 8680 e73c ea72 af3d
00000200: 808a 39be db71 403b 5ff1 883d 2f08 8b3b
00000210: 3095 003d d011 10be 2750 65bd ee3e db3d
00000220: 44ad 8b3d afea 1cbc d99c 683d ecfc b63d
00000230: 3f5a fc3d 89ab 97bd c801 8bbd c5b4 b53d
00000240: adc3 b73b c0e9 31bd 4571 df3c fafa 6bbd
00000250: 46fb 9dbd 5a2c 14bc 9655 183e 4ba9 97bd
00000260: 202f b43d 334c 58bc 34d8 1c3e aeec fabd
00000270: 6bd4 9e3d 8438 093e e855 b9bd a607 69bc
00000280: b141 16be c3cc 083e 34d3 c53d 40cf ef3d
00000290: 5a86 033e ef2c 0fbe e524 223e 7d86 6c3d
000002a0: d64c 373d 8de6 00be d410 cc3d 1e40 4fbd
000002b0: 7a1f 1f3d 6804 b2bd 1af6 c03c 5032 403d
000002c0: b542 ffbd 6c04 143e f94f e63d 4e19 393c
000002d0: 9a94 c0bd db93 9c3d 6a6f c43d ad33 19be
000002e0: 5405 a3bd 2740 03bd 6c2a fc3c af29 f3bd
000002f0: 00cb 0cbd 94aa be3d 6e82 1bbe 1b1e b53d
00000300: d26e 18be eadd e6bd 4c58 163d fca2 bf3d
00000310: e479 2cbe 3936 d73c a7ca 0ebe 5637 413d
00000320: fe02 16be 56b8 95bd 9d51 8eb9 37fd d1bd
00000330: 59d6 96bd 7e2e 17be f556 123e 76b8 aa3c
00000340: ebbd 123e c294 a23c 955b a63d 8428 663c
00000350: fff8 ac3d a225 d03d 8aef 8e3d 9b1a 46bd
00000360: 1c32 fa3d 2269 0ebd cbd8 b9bc ef38 50bd
00000370: fae9 a13d 3ab6 1a3e 3c8b af3d 1d45 103e
00000380: 85e2 1e3d a03c ee3c fc7c a93d 2fef 023e
00000390: 4f1e 473d deb6 8c3d 7628 61bd a380 5dbc
000003a0: 495e 363c 3e5c 36bd 4c0c b4bc a310 113e
000003b0: 94a6 083e d156 4a3d adfb dabd 536b f2bc
000003c0: 764c 273e da51 b1bd 5d19 6d3d f9b8 07be
000003d0: 3d33 8fbc 6242 5ebd 2b67 10be c2c5 bd3d
000003e0: 793a b53d 25e3 093e 402a d5bb b261 01be
000003f0: 3e95 0bbe eb84 c1bd b9cf c5bd bcfe 1f3d
-0.059144765 0.08927385 -0.03565869 0.08017302 -0.065756105 -0.082638256 -0.014582667 -0.006258524
0.05783696 0.092902906 0.025287723 0.045503177 0.15067872 0.08098526 -0.07709646 0.09993063
-0.086962976 -0.059734914 0.12733833 0.06764692 -0.14262637 0.09947573 0.017803947 0.0018101922
0.036325376 0.11772113 0.051504735 0.039769374 -0.13734573 0.03747124 -0.07809432 0.08033544
0.14158548 -0.14064112 -0.0289701 0.005265831 0.14271492 0.0552342 -0.13339338 -0.08085908
-0.079169646 0.01974965 0.074272715 -0.010592237 -0.06597283 -0.0152630005 0.02793539 -0.03750624
-0.029058835 -0.057482455 0.017061379 0.03873013 0.07411339 0.114005856 -0.1595893 0.0400013
0.0009733752 -0.1456691 -0.15425621 0.1052526 0.03500934 -0.0421098 0.10154374 0.14016579
-0.06935723 0.15349694 0.07154553 -0.014543304 -0.015448136 0.16217177 -0.038318574 -0.06666372
-0.08004095 -0.10941382 0.07208825 0.11959506 0.10069577 -0.120719485 -0.07742864 0.050315272
-0.06781986 -0.12690562 -0.14791037 -0.024222013 0.13426006 -0.0056287562 -0.016251298 -0.1394349
-0.029665116 -0.093647905 -0.024312144 -0.048473686 0.03197224 0.14217168 -0.063013196 0.0013450949
-0.14667234 -0.04464493 -0.14157014 0.12951797 -0.1456701 0.04986321 0.07677893 -0.027513241
-0.012363381 -0.021989722 0.12605867 0.022425557 -0.016932787 0.09790832 0.1453279 -0.010878287
-0.11318479 -0.076361544 -0.07785703 -0.15820563 0.0039087706 -0.061628133 -0.047394898 -0.1365697
-0.02615278 0.15480532 -0.121286 -0.11038477 0.13350447 -0.12519567 0.028259527 0.0856684
-0.1811924 0.0029364738 0.06686663 0.004242919 0.031392276 -0.14069295 -0.055984642 0.10705362
0.06820157 -0.009577437 0.056790207 0.0893496 0.123219006 -0.074057646 -0.06787449 0.0887237
0.005608043 -0.043435812 0.02727569 -0.057612397 -0.07713942 -0.009043777 0.14876398 -0.07405337
0.08798051 -0.013201761 0.1531685 -0.12252174 0.07755359 0.13400465 -0.090495884 -0.014223015
-0.14673497 0.1335936 0.096594244 0.11709452 0.1284422 -0.13981985 0.15834387 0.057745446
0.04475101 -0.12587948 0.09964147 -0.050598256 0.038848378 -0.08692247 0.02355485 0.04692298
-0.12463895 0.14454812 0.11245722 0.011297537 -0.094033435 0.07645389 0.09591563 -0.14961119
-0.07960001 -0.032043602 0.030781947 -0.11873185 -0.034373283 0.09309879 -0.15186474 0.08843633
-0.14886025 -0.112727955 0.0367053 0.09357259 -0.16843373 0.026270973 -0.13944493 0.047171913
-0.14649579 -0.0731055 -0.00027145157 -0.10253375 -0.07365102 -0.14763829 0.14290984 0.020839911
0.1433026 0.019846324 0.08122937 0.014047746 0.0844593 0.10163428 0.06979282 -0.048365217
0.12216589 -0.03476823 -0.022686383 -0.050835546 0.079059556 0.15108576 0.08571479 0.14088865
0.038790245 0.029081643 0.08275792 0.12786554 0.04861289 0.06870817 -0.054970227 -0.013519439
0.011130878 -0.044521563 -0.02197852 0.14166503 0.13344795 0.0493992 -0.106925346 -0.029592192
0.16337761 -0.0865819 0.057885516 -0.13254155 -0.017480487 -0.054262526 -0.14101855 0.09266235
0.088490434 0.13465555 -0.0065052807 -0.12634924 -0.1363115 -0.0944918 -0.096587606 0.039061293

weight f4 [1, 32, 1]
00000000: f433 5f3d d0b5 06be c0bd 30bd 7001 01bd
00000010: 2825 7abd e7ae 8ebd a824 c13c b06f 123c
00000020: 0493 bfbd f45f f9bd b0a1 933d f06d 57bc
00000030: 69a0 98bd 6bd0 103e 8176 02be 472c 27be
00000040: cb55 e9bd 4f54 18be 4e0b 19be 899b f1bd
00000050: 6a6b eb3d 519e 253e d888 fabc 322d d03d
00000060: b0a3 36bc f85b ed3c 263b 953d c02c 71bc
00000070: 54be 113d c206 f33d 2a20 e03d 426a d43d
0.054492906 -0.13155293 -0.04314971 -0.03149551 -0.06107059 -0.06966954 0.02357705 0.008937761
-0.09354213 -0.12176505 0.07208574 -0.01314877 -0.07452471 0.14142005 -0.12740518 -0.16325484
-0.11393317 -0.14875911 -0.14945719 -0.11797244 0.11495097 0.16173674 -0.03058283 0.1016487
-0.011147425 0.028974518 0.07286672 -0.014720142 0.0355819 0.11866523 0.10943635 0.103718296

weight f4 [1, 32, 1]
00000000: 2956 efbd 6a80 15be 9113 0d3e 1063 e63c
00000010: f49b c5bd 57b6 323e e273 d63d ca38 813d
00000020: 09fc abbd ed48 003e 4653 833d e043 7e3d
00000030: 9c0c 6c3d c6d1 dd3d 2739 20be 2897 ca3c
00000040: e061 2d3c e72e 1e3e f2e2 ae3d 44f5 1dbd
00000050: 0e9d 9c3d df43 183e 709d b03c a054 03bd
00000060: 20b5 8abc c69f 2abe d489 453d 520f df3d
00000070: 8060 25bb 65e5 9fbd ef26 dfbd 9081 2dbe
-0.116863556 -0.14599767 0.13776995 0.028123409 -0.09648886 0.1745237 0.10471322 0.0630966
-0.08397681 0.12527819 0.064123675 0.06207645 0.057629213 0.10831027 -0.15646802 0.02473028
0.010582417 0.1544758 0.0853938 -0.03856398 0.07647143 0.14869641 0.021559447 -0.032063127
-0.01693207 -0.16662511 0.048227146 0.10891594 -0.002523452 -0.078074254 -0.10896098 -0.16943955

weight f4 [1, 32, 1]
00000000: 1b50 bfbd e89f 123d 3c85 593d 003f 8fbc
00000010: 5533 213e 988f d4bc 0082 693c 6ee6 56bd
00000020: 353b 33be 5b1b 253e 184d 8dbc 1545 2f3e
00000030: 1263 9d3d 1653 fabd 7581 16be d078 703c
00000040: e8d0 473d 54a8 b2bd 860b 7bbd f557 2c3e
00000050: 146a 003d 121a a93d 588d 07be 9ae9 2fbe
00000060: b7d2 abbd 408a d7bd cc2f 49bd ff68 113e
00000070: 31a6 023e 5cb4 723d 3ffe 013e e6ae f53d
-0.09341451 0.03579703 0.053105578 -0.017486095 0.15742238 -0.025947377 0.014252186 -0.05246585
-0.17503054 0.16123717 -0.017248675 0.17116196 0.07684912 -0.12222879 -0.14697821 0.014677241
0.048783213 -0.08723512 -0.061290286 0.16830428 0.031351164 0.08256926 -0.13237512 -0.17178956
-0.083898 -0.10524416 -0.04911785 0.14200209 0.1275871 0.059254035 0.12694643 0.1199625

bias f4 [32]
00000000: b05d 86bd 467a fcbd a329 ebbd 1735 90bd
00000010: 098d bebc 2d9d 0cbe 5f93 27bd 3044 243e
00000020: 6fe5 04be 1933 e9bc 04b7 eebd 7eea 913d
00000030: a286 a93c d8a8 bd3c fffe 7fbd d116 fc3d
00000040: 6e50 3f3d e418 13be 0790 ccbc f2a9 f13d
00000050: 3b42 e93d 7412 31bd c024 f33d 0bfd a13d
00000060: 7153 d9bd 0b70 213e 6ac3 eebd 4cba 0d3e
00000070: 7ad2 babd a819 423d 3e46 eb3b 86f2 fbbb
-0.06560838 -0.12328009 -0.11482551 -0.07041376 -0.02326061 -0.13731833 -0.04091203 0.16041636
-0.12978147 -0.028466748 -0.11656001 0.07124804 0.02069408 0.0231518 -0.062499043 0.123090394
0.046707563 -0.14364964 -0.024971021 0.117999926 0.113895856 -0.04323049 0.11872244 0.07909592
-0.10611618 0.15765397 -0.11658366 0.13840598 -0.091221765 0.04738775 0.0071800044 -0.007688823

weight_orig f4 [32, 43, 1]
00000000: cc33 133d 9deb 6f3a fc41 713d e9c5 f8bc
00000010: cf08 98bd a951 fb3d 63cf b13b 34ad 16bd
00000020: 71ac 0a3d 38f6 8b3d b43d cd3d 0f8d 6abc
00000030: 9ac8 e13d 5708 d8b9 11e2 5ebd 7812 69bd
00000040: a197 b73d 9f41 243c ba01 093e 1a21 0abd
00000050: c22d cc3d ff57 003e 0d52 493d 0d2b 243c
00000060: e0cd a53c 37d4 e9bd d7e9 003b 2ca7 99bd
00000070: 7046 ed3d 827c cbbd 3f84 46bd fd0b e7bd
00000080: 3f24 0a3e 163c a5bd 05a9 ecbd b9c5 11bc
00000090: c54f 3dbd 7b87 013e b78f d53d cf4b ec3d
000000a0: 8c17 81bc 7016 d2bd 1b7a 803b 006c efbc
000000b0: 9d0d 01be 7ffc d73d a8b7 933d cd26 25bb
000000c0: d12d f2bd 2e04 5e3b 73ec eb3d eb04 213e
000000d0: f57c 423d 9cd1 24be 548c f03c 0ea2 07be
000000e0: cf25 983d 4686 813d 0087 19bd c1a4 11be
000000f0: 279d e7bd 3d3d c93d 2698 04be 9799 70bd
00000100: 53cf a43d b775 2abd 47b1 863d d265 a9bb
00000110: bb01 ac3d 3804 0cbe 8091 10be d476 c03d
00000120: 1253 b93d 46ab f33d 0a4d bebd 4d84 6abd
00000130: ba40 803c 634a 0ebd cfa9 783c b1d0 183c
00000140: b115 ea3b b772 ee3d 5e50 cc3d a4b1 133e
00000150: 9a65 fdbc 9b1c 523d 5959 403b 6235 673d
00000160: e041 84bd df0c 15bd 3f33 9b3b 1334 a23d
00000170: 70bc 0c3c 39d4 08be 5ff4 c93d 67c5 c13d
00000180: 5e9c ddbd f826 7a3d 575a 273d 2efe 5ebd
00000190: 898b 153e 175b 793d f419 bb3c 2503 bb3d
000001a0: 04ee 55bd be54 bcbd 2ee7 8cbd d8e1 1d3e
000001b0: 5ab3 80bc 5fad 59bb 9795 393c 2417 d4bd
000001c0: dc08 af3c b7ba edbc e228 3d3d 7601 cfbd
000001d0: 4be1 b0bd 5e30 a23d d9aa a53d 2db8 3d3d
000001e0: c94a d33c d577 133e 364b 003e b61f 283e
000001f0: d137 a33d dcce 9a3d 6185 863d 3df8 883d
00000200: a2df 233e 25a0 f13d e074 20be b6c3 253e
00000210: 2740 543d 8f90 15be ada4 153d 0949 9bbd
00000220: 8fd0 de3d dd81 d43d dc90 d03b f6dd d7bc
00000230: 1821 22bc 87c9 733d d6f1 17be 0def 08be
00000240: a457 0b3e 46cd 0ebd 7301 9e3c ab6b d8bd
00000250: e370 81bd 41d0 f9bd 4953 afbc 717b 15bd
00000260: c922 023e e146 cfbd a96c b13d 8056 9b3d
00000270: a180 bfbd f823 b2bd 6c79 07bd 5165 50bd
00000280: 55fb d73d 682f 46bd c805 a1bd 2767 1c3d
00000290: 6ff2 10be b63d ff3c 6e81 cd3d fcc2 0bbe
000002a0: 5e8e de3d b373 5abd 7b97 e03b c58a fe3c
000002b0: 7060 dabd 56b4 c93c c757 913d 021a a73c
000002c0: c027 08bc 12b7 b23d 4981 063e f1d1 ab3d
000002d0: 9503 6abd e985 02bc f926 b03d 4997 e2bb
000002e0: 535e c23d 2190 aa3d 00f2 0abd a578 0f3d
000002f0: a70d e53c b53b e7bd f5db 09be 3613 9c3c
00000300: 2567 c53d c160 103d 07a1 78bd 223a c53c
00000310: 6031 063e 6c7f d53d f95c 76bd 7362 acbd
00000320: dfa5 07be 9c97 6e3b f767 bdbc a3f4 c4bb
00000330: 7b39 53bd 3ad3 f33d 38e6 57bd f62b cfbc
00000340: c010 0abe ddc4 143d 1c82 adbd 82db cebd
00000350: 4a8e eebd 4b15 cc3c 774e 893c 3afe d63c
00000360: bdd1 c53d 38d2 443c 0258 0e3d 3cc9 14bd
00000370: 1e0e e73c 60b5 903d ba52 8b3d aa6d 99bd
00000380: 4622 a83c 4ae7 433d 18cc ac3d 2a87 d0bc
00000390: d82a 80bd d1e2 9e3d 4c3d bc3d 333e 833c
000003a0: 1b28 933d cebe 483d df0c 643d 1afd 9d3d
000003b0: 4ab0 08be 16ed 0a3e 02e5 05be f136 db3d
000003c0: 98f5 a5bd 78fe 41bd fa40 953d 73f6 063d
000003d0: 9dd9 ccbd 09e2 80bc 5567 1d3e 3f6d 8cbb
000003e0: 83ad 6d3d 670c d73d 3918 c2bd 2b86 2bbd
000003f0: 4341 03bd e56b d63d 991e 9e3c 0086 19be
0.03593807 0.00091522356 0.05890082 -0.030367808 -0.07423555 0.12271435 0.0054263338 -0.036786273
0.03385586 0.06834072 0.100215346 -0.014315858 0.1102459 -0.00041204944 -0.054414812 -0.05690238
0.08964468 0.010025411 0.13379565 -0.033722974 0.09969665 0.12533568 0.049150515 0.01002003
0.02023977 -0.1141743 0.001967063 -0.07502589 0.115857005 -0.09935857 -0.048465963 -0.112815835
0.1349039 -0.08068101 -0.115556754 -0.008897238 -0.046218652 0.12649338 0.10427802 0.11537897
-0.015758298 -0.10258186 0.003920806 -0.029226303 -0.1260285 0.10546207 0.07212764 -0.002520013
-0.11825145 0.0033877003 0.115197085 0.15724532 0.04748245 -0.16095585 0.029363789 -0.13245413
0.074290864 0.06324439 -0.03748226 -0.14223005 -0.11309271 0.098261334 -0.12948665 -0.058740225
0.080473565 -0.041616168 0.06576782 -0.0051696086 0.083987676 -0.13673484 -0.14118004 0.09397665
0.090490475 0.11897902 -0.09292038 -0.057255078 0.015655864 -0.03473891 0.015177204 0.0093271
0.007143699 0.11642974 0.09976266 0.14423233 -0.030932236 0.05129681 0.002935013 0.056447394
-0.06457877 -0.036389228 0.0047363336 0.079200886 0.008589849 -0.13362207 0.09861063 0.0946148
-0.1082084 0.06107232 0.04085764 -0.054441623 0.1460401 0.060877886 0.022839524 0.09131459
-0.052228943 -0.09195851 -0.068800315 0.15418184 -0.015710521 -0.003321491 0.011327169 -0.10355976
0.02136653 -0.029019697 0.046181567 -0.101077005 -0.08636721 0.079193816 0.08089227 0.04631822
0.025792496 0.14401181 0.1252869 0.16418347 0.079696305 0.075589865 0.06568409 0.06687973
0.16003278 0.11798123 -0.15669584 0.16187939 0.051818993 -0.14605926 0.036534 -0.0758229
0.10879623 0.10376332 0.006364925 -0.026350956 -0.0098955855 0.059518363 -0.14838347 -0.1337244
0.13607651 -0.034863733 0.0192878 -0.10567411 -0.063203596 -0.121979244 -0.021402018 -0.036494676
0.12708582 -0.10120941 0.086633034 0.07584858 -0.09350706 -0.08698267 -0.03307478 -0.050877873
0.10545985 -0.048385054 -0.07862431 0.03818431 -0.14154981 0.031157356 0.100344524 -0.136486
0.10866998 -0.053332996 0.0068539954 0.03107203 -0.10662925 0.024622124 0.0709682 0.020398144
-0.008310258 0.08726324 0.13135256 0.083896525 -0.057132322 -0.007966497 0.086011834 -0.0069150073
0.09490647 0.08328272 -0.033922195 0.035027165 0.027960612 -0.11290685 -0.13462813 0.01905213
0.09638814 0.03524852 -0.060700443 0.024075571 0.13104773 0.104246944 -0.06014726 -0.08417215
-0.13246869 0.0036406284 -0.023120863 -0.0060106083 -0.05156849 0.11905523 -0.052709788 -0.025289517
-0.13482952 0.036320556 -0.08472082 -0.101004615 -0.11648233 0.024912497 0.016761048 0.026244272
0.09659145 0.012013011 0.0347519 -0.036324725 0.028204974 0.070658445 0.06802888 -0.0749162
0.020524155 0.047827996 0.08437365 -0.025455076 -0.06258172 0.077581055 0.09191379 0.01602087
0.07185384 0.04901009 0.055676337 0.07714291 -0.13348499 0.13567004 -0.13075641 0.107038386
-0.08103484 -0.04736182 0.07287784 0.032949876 -0.10002444 -0.015732782 0.1537145 -0.004285484
0.0580268 0.105004124 -0.09477276 -0.041876 -0.03204466 0.10469798 0.0193017 -0.14992523

weight_u f4 [32]
00000000: 85bc 953d 8bae 00be ae89 5fbe 9e9a 0abe
00000010: e7e0 013e 6ec7 38bd 184e 28bc 6d53 37be
00000020: db68 f3bc eaf5 8f3d f1cf a03e 45b2 d53d
00000030: f99a c23e 39e5 35be 10f7 923d 0940 ccbd
00000040: 07e0 82bd 5020 ccbe 6b9e e2bd b932 f1bc
00000050: f723 9f3d ef3e 5cbe abb9 5f3e 5fab 133e
00000060: b8a4 62bd ac47 e0bc 9cac 023e e76f 0b3e
00000070: 4681 c83e 57b5 7cbe 5ade 78bd 5769 4fbd
0.07311348 -0.12566583 -0.21829864 -0.13535544 0.1268345 -0.045112066 -0.010272525 -0.17902918
-0.029713085 0.07029326 0.31408647 0.10434393 0.3800886 -0.17763223 0.0717603 -0.09973151
-0.06390386 -0.39868402 -0.11065372 -0.029443132 0.077705316 -0.21508382 0.2184817 0.14420842
-0.05533287 -0.027377926 0.12761158 0.13616906 0.39161128 -0.2467855 -0.060758926 -0.05063757

weight_v f4 [43]
00000000: d720 9e3d 1776 8c3c 139c 003e f49a c7bb
00000010: 9d0f 843d 203c 293e 111a 043e 0c28 11be
00000020: 2e78 31be 334d bb3d 1f01 3b3e 0266 49be
00000030: 4dd2 c33c 09f5 07bc e045 05be ace7 9dbd
00000040: ce1f 8e3e c2ae 84be ae45 ad3d a66a 223e
00000050: 6e3f 9cbd 71ee 553d 6acb 223e 0fad e6bd
00000060: 79e6 293d a62e 873e bbef 88bd 7c20 b93e
00000070: c8d4 eb3d d83e db3d 1fc4 393e 1520 92be
00000080: 90ee 19bd a2e2 44bd 0211 47be 2123 133d
00000090: 5e3e 2dbe 9279 db3d a1bd 58be 0860 76be
000000a0: eaa1 12bd 5b16 a2bd 4d1f f1bd
0.077211075 0.017146153 0.12559538 -0.00609147 0.064482905 0.16526842 0.12900569 -0.14175433
-0.17331001 0.09145584 0.18262146 -0.19667819 0.02390399 -0.008298167 -0.13014936 -0.077102035
0.2775864 -0.2591458 0.08460556 0.15860996 -0.07629286 0.05222935 0.15897909 -0.11263477
0.04147956 0.26402777 -0.0668635 0.36157596 0.11515194 0.10705346 0.1814122 -0.28540102
-0.037581027 -0.048067696 -0.19440082 0.035922173 -0.16918322 0.10716547 -0.21166088 -0.2406007
-0.035798945 -0.0791442 -0.11773548

weight f4 [32, 43, 1]
00000000: 704a 163d bcf0 783a eb72 763d cf1f febc
00000010: cd41 9bbd 0a55 003e 5d2e b63b 7feb 19bd
00000020: 058b 0d3d 9ff5 8e3d ca9e d13d 74c3 6fbc
00000030: 2a91 e63d f818 e0b9 7aa8 63bd e513 6ebd
00000040: 2a81 bb3d 047c 273c 40ed 0b3e 91f9 0cbd
00000050: cd78 d03d cd0d 033e e78d 4d3d 7167 273c
00000060: e333 a93c 61be eebd 31ce 023b 62df 9cbd
00000070: fc53 f23d a0c5 cfbd ffa6 4abd 7af7 ebbd
00000080: a50e 0d3e 2cb7 a8bd c4b3 f1bd b895 14bc
00000090: 1658 41bd 0245 043e a917 da3d 1c42 f13d
000000a0: 17d5 83bc 0880 d6bd 25c3 823b 4a9c f4bc
000000b0: 77cc 03be 5e87 dc3d cdcd 963d 24aa 29bb
000000c0: 5755 f7bd 7cc4 613b 7cee f03d 4a71 243e
000000d0: 1c8c 463d 6652 28be a0bd f53c 6284 0abe
000000e0: 3b56 9b3d 634c 843d 60b7 1cbd 85bd 14be
000000f0: c27c ecbd 8877 cd3d 456a 07be b5a1 75bd
00000100: f343 a83d 8d1f 2ebd 0490 893d 007c adbb
00000110: fa9d af3d 26f7 0ebe 65a4 13be 8882 c43d
00000120: d837 bd3d 7fcb f83d 924c c2bd d977 6fbd
00000130: f70d 833c 9f40 11bd 6b2e 7e3c 5b36 1c3c
00000140: f887 ee3b 7c7a f33d 0fa7 d03d 1dcd 163e
00000150: 865b 01bd cb9d 563d da6e 433b 6608 6c3d
00000160: 2417 87bd 5a38 18bd 7af8 9d3b e99a a53d
00000170: 0c72 0f3c ebb5 0bbe 9c42 ce3d e5d6 c53d
00000180: 3455 e2bd b981 7f3d 3ddc 2a3d c5a7 63bd
00000190: c9b9 183e 07a5 7e3d f4ef be3c 5700 bf3d
000001a0: e386 5abd 6759 c0bd a2d9 8fbd d434 213e
000001b0: 828f 83bc 685f 5dbb e33e 3d3c ca9c d8bd
000001c0: 5ad7 b23c 93e3 f2bc f618 413d ae6b d3bd
000001d0: 2ca8 b4bd bda6 a53d fa32 a93d 5eaa 413d
000001e0: a9e5 d73c d692 163e 10fd 023e f1a9 2b3e
000001f0: cbb4 a63d 6f1d 9e3d a755 893d 69e7 8b3d
00000200: 765b 273e 93b9 f63d 48d5 23be 9841 293e
00000210: 10c9 583d 29be 18be 31cd 183d fb99 9ebd
00000220: b290 e33d a309 d93d 4572 d43b 948f dcbc
00000230: 5f48 25bc c6e4 783d 1125 1bbe e6d0 0bbe
00000240: 014c 0e3e a0df 11bd 137a a13c e207 ddbd
00000250: dc35 84bd 1411 ffbd 7d27 b3bc 7faf 18bd
00000260: 68e8 043e 8ba0 d3bd 9b25 b53d 49a7 9e3d
00000270: 0f96 c3bd 32f1 b5bd a567 0abd 0ede 54bd
00000280: fc95 dc3d 3e55 4abd 0c69 a4bd a7c8 1f3d
00000290: 8008 14be 884e 023d 90d4 d13d 93bc 0ebe
000002a0: a94c e33d 9800 5fbd 12e4 e53b 4306 023d
000002b0: eff6 debd 521d ce3c 2674 943d 80c5 aa3c
000002c0: 0bc4 0abc e287 b63d 5c5e 093e f56c af3d
000002d0: f308 6fbd 0405 05bc 29ea b33d 14e6 e7bb
000002e0: 0683 c63d e234 ae3d a4f2 0dbd 0591 123d
000002f0: 5e07 ea3c c827 ecbd 6cc2 0cbe 6b82 9f3c
00000300: e89c c93d 1181 133d b8d4 7dbd 788f c93c
00000310: 0c0d 093e 830c da3d cb80 7bbd 94ff afbd
00000320: 8780 0abe f8c9 743b a746 c1bc 52a1 c8bb
00000330: 7ebc 57bd 5b06 f93d 1e88 5cbd 90b9 d3bc
00000340: 7900 0dbe e5f2 173d 7735 b1bd b845 d3bd
00000350: 8aa2 f3bd b066 d03c a62a 8c3c 1468 db3c
00000360: 90f8 c93d 4bba 483c 9e4f 113d ddff 17bd
00000370: 0ad1 eb3c 86bc 933d 3c3d 8e3d 00b5 9cbd
00000380: 4a90 ab3c eefb 473d 537e b03d d911 d5bc
00000390: 06ea 82bd 6d39 a23d c530 c03d 3fe2 853c
000003a0: 3050 963d e8ee 4c3d 65d0 683d cf4c a13d
000003b0: 5599 0bbe a6d9 0d3e 0abe 08be 21d2 df3d
000003c0: 0281 a9bd 2e28 46bd 6262 983d 53c1 093d
000003d0: 6637 d1bd bebe 83bc 25b8 203e ef24 90bb
000003e0: 3ec6 723d 73a2 db3d 652a c6bd 5813 2fbd
000003f0: 2a19 06bd f5ef da3d 0a76 a13c abc1 1cbe
0.036692083 0.00094963214 0.060168188 -0.031021027 -0.0758091 0.1253244 0.005559726 -0.037578102
0.034556407 0.06980442 0.10235365 -0.014634002 0.112581566 -0.00042743213 -0.055580594 -0.05812444
0.091554955 0.010222439 0.13664722 -0.034417693 0.10179291 0.12798233 0.050184157 0.010217533
0.020654624 -0.11657406 0.0019959325 -0.076597944 0.11832425 -0.10145116 -0.049475666 -0.11521812
0.13775118 -0.08238062 -0.11801866 -0.009068899 -0.047203146 0.1291695 0.10649044 0.117801875
-0.01609282 -0.10473639 0.003990548 -0.02985968 -0.12870966 0.10768007 0.07363472 -0.0025888765
-0.12076824 0.003444939 0.11764237 0.16058841 0.048473462 -0.16437683 0.029997647 -0.13527063
0.075848065 0.06459882 -0.038260818 -0.14525421 -0.11547233 0.100325644 -0.13224132 -0.05996867
0.08216085 -0.042510558 0.06716922 -0.005294323 0.085750535 -0.13961467 -0.1441818 0.09595209
0.09239167 0.12148189 -0.09487261 -0.058463905 0.01599787 -0.035462018 0.015513997 0.009534444
0.0072793923 0.118885964 0.10188114 0.14726682 -0.031581424 0.052396577 0.0029820711 0.057625197
-0.065962106 -0.037163116 0.0048208805 0.080861874 0.008755218 -0.13643615 0.100712985 0.096601285
-0.110514075 0.062379573 0.04171394 -0.05557992 0.14914621 0.0621691 0.023307778 0.09326237
-0.053351294 -0.09392052 -0.07023932 0.15742809 -0.01605964 -0.003377879 0.011550638 -0.1057678
0.021831203 -0.029649531 0.047142945 -0.10323273 -0.08821139 0.080884434 0.08261676 0.047281615
0.026354628 0.14704451 0.12791848 0.16764046 0.08139952 0.07720458 0.0670579 0.06831247
0.16343483 0.12047114 -0.15999329 0.16528928 0.052926123 -0.1491629 0.03730506 -0.07744213
0.11111583 0.10597541 0.0064833486 -0.026923932 -0.010088055 0.06076505 -0.15150858 -0.13653907
0.1389618 -0.035613656 0.01971153 -0.10792519 -0.06455585 -0.12454429 -0.021869415 -0.03727674
0.12979281 -0.103333555 0.08845063 0.07746751 -0.09550106 -0.08883895 -0.03379025 -0.05196958
0.10770795 -0.0493977 -0.080278486 0.039009716 -0.14456367 0.031813174 0.10245621 -0.13939123
0.11098606 -0.054443926 0.0070157135 0.031744253 -0.108869426 0.025160465 0.07248716 0.020846128
-0.008469592 0.08912636 0.13414901 0.08565704 -0.058358144 -0.008118872 0.08784897 -0.007076988
0.096929595 0.0850618 -0.03465523 0.035782833 0.028567966 -0.11531025 -0.13746041 0.019471368
0.098443806 0.03601176 -0.061970443 0.024604544 0.13383883 0.10646918 -0.061402123 -0.085936695
-0.13525592 0.0037351828 -0.02359326 -0.0061227465 -0.052669995 0.12159415 -0.05384075 -0.025845319
-0.13769712 0.037096877 -0.08652776 -0.10316032 -0.11896236 0.02543959 0.01711018 0.026783027
0.09861863 0.012251447 0.03547632 -0.037109245 0.028786201 0.07213692 0.06945273 -0.076517105
0.020942826 0.048824243 0.086178444 -0.026009487 -0.06392293 0.07921109 0.09384302 0.016343234
0.07339513 0.050032526 0.056839366 0.07875978 -0.1363271 0.13852558 -0.13353744 0.10928751
-0.082765594 -0.048378162 0.0744064 0.033631634 -0.102156445 -0.016082164 0.15695246 -0.004398934
0.05927109 0.10724344 -0.09676055 -0.042743057 -0.032738842 0.106902994 0.019709606 -0.15308253

weight f4 [1, 32, 1]
00000000: 62d7 d8bd 4b85 213e c8fe f1bd 74d1 4abd
00000010: c458 8f3d 80b0 5c3b d01f 0ebe d092 fcbc
00000020: 0013 3cbb 088c debc e96d 30be eecc b83d
00000030: e6d3 d23d a2cc ebbd 8ccf 0cbe c8ba 1dbe
00000040: 4a84 09be 0281 d63d 8875 f8bc ed7d 2f3e
00000050: c085 15be 8125 a3bd 3f09 083e aef4 b5bd
00000060: 9826 eebd 10a2 95bd 80d2 333d e100 83bd
00000070: 3f68 e9bd 3647 16be e424 193d 300d c0bd
-0.10587956 0.15773503 -0.11816174 -0.049516156 0.069993526 0.0033674538 -0.13879323 -0.030831724
-0.0028697848 -0.027166381 -0.17229427 0.09023462 0.10294323 -0.1151364 -0.13751048 -0.15403283
-0.1342937 0.10473825 -0.03032948 0.1713788 -0.14601803 -0.07966138 0.13284777 -0.088845596
-0.11628455 -0.073063016 0.04390192 -0.06396652 -0.113968365 -0.14675602 0.037388697 -0.09377515
