Models/M4/2fade/2fade_generator.pt (torch, 157929 bytes, 70 tensors)

bias f4 [32]
0	0x3e780a78	0.24222744
1	0x3d9d8e9c	0.07693216
2	0x3d66b189	0.056321654
3	0x3d959773	0.07304277
4	0xbd8a6603	-0.067577384
5	0x3e1fbff1	0.15600564
6	0xbd33816f	-0.04382461
7	0xbe47171a	-0.19442406
8	0x3e7b660d	0.24550648
9	0x3e162e78	0.14666164
10	0x3e516267	0.20447694
11	0x3e62f2a3	0.22162871
12	0xbe386ad6	-0.18009505
13	0x3e404d7d	0.1877956
14	0xbe76e7b1	-0.24111821
15	0xbe733728	-0.23751509
16	0x3bf0998e	0.007342524
17	0xbd8ef65d	-0.06980584
18	0xbd8714fc	-0.06595799
19	0x3e788ffe	0.24273679
20	0xbcc4d90c	-0.024029277
21	0x3e4da836	0.20083699
22	0x3e187823	0.14889579
23	0xbcd78b55	-0.026311556
24	0x3e926d9f	0.2859926
25	0xbdd7a9d9	-0.10530443
26	0xbe6df99b	-0.23239748
27	0xbe16c9b1	-0.14725377
28	0xbe3741f9	-0.1789626
29	0xbd533679	-0.05156562
30	0x3cf37d58	0.029722854
31	0xbdb823f0	-0.089912295

weight_orig f4 [32, 12, 1]
0	0xbcc4d9ca	-0.024029631
1	0x3e6d9321	0.23200656
2	0xbe3c866b	-0.18410651
3	0xbc9c75b2	-0.01909909
4	0xbe8319ec	-0.25605714
5	0x3dce0c50	0.10060942
6	0x3e696dc3	0.22795777
7	0x3db61654	0.088909775
8	0xbe5a76d7	-0.21334396
9	0x3dc55760	0.09635806
10	0x3d0545ea	0.03253738
11	0x3d825258	0.06363362
12	0xbe925e59	-0.28587607
13	0x3d792cfa	0.06083391
14	0x3e86ab91	0.2630277
15	0xbdc63009	-0.09677131
16	0x3df3fcbb	0.11913439
17	0xbd627f76	-0.055297337
18	0x3dcd10b4	0.100129515
19	0x3e611667	0.21981202
20	0x3e66c744	0.22536951
21	0xbd0f1c47	-0.034939077
22	0x3e59f8c9	0.2128631
23	0xbcae8079	-0.021301495
24	0x3d812523	0.063059114
25	0x3c925ce1	0.017866554
26	0xbe84731b	-0.25869069
27	0xbe143dfb	-0.14476769
28	0xbe4777ce	-0.19479296
29	0xbde02b46	-0.10945754
30	0x3e0b0ff8	0.1358031
31	0x3d08475a	0.03327117
32	0xbe89303f	-0.2679462
33	0xbdaf0fc3	-0.08547928
34	0x3c20581b	0.009786631
35	0x3c29f568	0.010373451
36	0x3dbcaf2a	0.092130974
37	0x3df4f3cd	0.11960564
38	0x3e44a587	0.19203769
39	0x3e8c69fb	0.27424607
40	0xbe304cd6	-0.1721681
41	0xbd77a257	-0.060457554
42	0xbd20bdb2	-0.039243408
43	0x3cefe096	0.029281896
44	0xbded85c2	-0.11597778
45	0x3cedd596	0.02903251
46	0x3e8e01ff	0.27735898
47	0x3e1fcc0c	0.15605181
48	0xbdf82b09	-0.12117583
49	0xbe689fd8	-0.22717226
50	0xbdf856be	-0.1212592
51	0x3e010dff	0.12602995
52	0x3e09642f	0.13417123
53	0x3e38f68d	0.18062802
54	0xbdf3383a	-0.11875959
55	0x3e104e78	0.14092433
56	0xbcb240a7	-0.021759344
57	0x3e4e2843	0.20132546
58	0x3e34a74a	0.1764194
59	0x3da8ac8a	0.08236034
60	0xbdf44c8a	-0.11928661
61	0x3e86e13f	0.26343724
62	0x3e40f85a	0.18844739
63	0xbd0a4efb	-0.033766728
64	0xbe66a529	-0.22523941
65	0x3e3d5d78	0.18492687
66	0x3d96d004	0.073638946
67	0xbe81f981	-0.2538567
68	0x3de7eb6b	0.11324199
69	0x3e9118e8	0.28339314
70	0x3e2d70e7	0.169376
71	0xbe95ee59	-0.29283407
72	0x3d11f3c4	0.035632864
73	0xbe88047b	-0.26565918
74	0x3deda033	0.11602821
75	0xbe4f105e	-0.20221087
76	0xbca2ff45	-0.019897113
77	0xbb07b531	-0.0020707364
78	0xbe8956f2	-0.26824147
79	0xbd2d56a1	-0.042318944
80	0x3dbcfaae	0.09227501
81	0x3e00d166	0.12579879
82	0x3d1a1408	0.03761676
83	0x3d115ccd	0.035488892
84	0xbd91edd3	-0.071254395
85	0xbe7db2a7	-0.24775182
86	0xbe4c0bf8	-0.1992644
87	0x3e702a65	0.23453672
88	0xbe8905ec	-0.2676233
89	0xbdf684a2	-0.120370165
90	0xbe633f38	-0.22192085
91	0x3e031bb8	0.12803543
92	0xbe5d17f9	-0.21591176
93	0xbe369082	-0.17828563
94	0xbe819ddb	-0.25315747
95	0x3ae0010c	0.0017090156
96	0x3e0e8d4a	0.13921085
97	0x3c23cb52	0.009997206
98	0x3d55e6d1	0.052222077
99	0xbe53fdc0	-0.20702267
100	0x3dc5c93a	0.096575215
101	0x3e75b207	0.23993693
102	0xbd19b851	-0.037529293
103	0xbe00e874	-0.12588674
104	0x3e7c38ba	0.24631014
105	0x3ace79f8	0.0015752902
106	0xbe75b88a	-0.23996177
107	0xbe3f4341	-0.18677999
108	0xbe50a2b5	-0.20374568
109	0x3c06df16	0.008231899
110	0xbe45d04f	-0.19317745
111	0x3e37957b	0.17928116
112	0xbe529e94	-0.20568305
113	0xbe051881	-0.12997629
114	0xbdc7660d	-0.097362615
115	0xbe8c5463	-0.27408132
116	0x3e549b50	0.20762372
117	0xbda0958b	-0.07841023
118	0xbdca0869	-0.09864885
119	0xbe2861b1	-0.16443516
120	0x3dd68a5a	0.10475607
121	0xbd4e3117	-0.050339784
122	0x3cfff28a	0.031243581
123	0xbd7b2cac	-0.0613219
124	0x3df89b8d	0.12139044
125	0x3e667c3b	0.22508328
126	0xbe8bde41	-0.27318004
127	0x3d792137	0.06082269
128	0xbd72b250	-0.059252083
129	0x3e03a2e4	0.12855107
130	0x3e3ec18d	0.18628521
131	0xbd60aab6	-0.054850303
132	0xbd9400ac	-0.07226691
133	0x3e8b039d	0.27151194
134	0x3de0f075	0.109833635
135	0xbe8b9812	-0.27264458
136	0xbe823611	-0.25431874
137	0x3e1b7c04	0.15184027
138	0x3e28a326	0.16468486
139	0x3caa213b	0.020767799
140	0xbe83cb8c	-0.2574123
141	0x3e221c1c	0.15831035
142	0xbe3c7b8b	-0.18406503
143	0x3e8412ae	0.257955
144	0x3d65caef	0.056101736
145	0xbdbdd1d2	-0.09268536
146	0xbe3cac21	-0.18425037
147	0x3c612474	0.013741601
148	0xbe61aaec	-0.22037858
149	0x3e72e43e	0.2371988
150	0x3e710bc4	0.23539644
151	0x3e07d8eb	0.13266341
152	0xbe3f1f92	-0.18664387
153	0x3e11dcbe	0.14244363
154	0x3dcb0cdc	0.09914562
155	0x3cfcff5e	0.030883487
156	0x3d91a30f	0.07111179
157	0x3e60925d	0.21930833
158	0xbd6c588f	-0.057701644
159	0xbde77510	-0.11301625
160	0xbe4e328a	-0.20136467
161	0xbe8d62de	-0.27614492
162	0xbe21962c	-0.15779942
163	0x3d1dcdb9	0.03852627
164	0xbe873694	-0.26408827
165	0x3e01a558	0.1266073
166	0x3d9b23ea	0.075752094
167	0x3e44a3c5	0.19203098
168	0x3e5390d6	0.2066072
169	0x3e05bdc7	0.13060676
170	0xbb7d1380	-0.003861636
171	0xbe2d65bd	-0.16933341
172	0xbdd63edf	-0.104612105
173	0x3dcb0b54	0.0991427
174	0xbe8faad2	-0.28060013
175	0xbd813636	-0.06309168
176	0xbc1e1ff9	-0.009651178
177	0x3e0b541e	0.13606307
178	0x3da84101	0.082155235
179	0xbe3b558a	-0.1829435
180	0x3e3dcd4d	0.18535347
181	0xbe4d4f2c	-0.20049733
182	0x3c992ee1	0.018699111
183	0x3e555c96	0.208361
184	0x3e7bd774	0.24593908
185	0x3e5984be	0.21242043
186	0x3e01eda9	0.12688316
187	0xbe2bf799	-0.1679367
188	0x3c0578c4	0.008146469
189	0xbd3efe08	-0.04662898
190	0xbe94e7bb	-0.29083046
191	0xbdb26bbc	-0.08711955
192	0xbdc5e7d4	-0.09663358
193	0xbe68bdbf	-0.22728632
194	0xbe101754	-0.14071399
195	0x3e3318f3	0.17489986
196	0x3e48493c	0.19559187
197	0x3e001b13	0.12510328
198	0xbd52ccfb	-0.051465016
199	0xbe12ae31	-0.14324261
200	0xbddd7fa4	-0.10815361
201	0x3e0eaa0a	0.13932052
202	0xbe568789	-0.2095014
203	0xbe3f3221	-0.18671466
204	0xbdd07fcf	-0.101806276
205	0x3e067e8c	0.13134211
206	0x3dbfa4a4	0.093575746
207	0x3db0fe19	0.08642215
208	0xbd62471e	-0.055243604
209	0xbd08717d	-0.033311356
210	0xbe7435e0	-0.23848677
211	0xbd6126d1	-0.05496866
212	0xbe73e023	-0.2381597
213	0x3dfb533d	0.12271736
214	0xbe5b6a26	-0.21427211
215	0x3c94cee5	0.018165061
216	0xbd5fbc70	-0.054623067
217	0xbe366565	-0.17812116
218	0x3dcc17dc	0.09965488
219	0xbe603e6d	-0.21898814
220	0x3e8640e7	0.26221392
221	0x3dbafc85	0.091301955
222	0xbc9eda3f	-0.019391177
223	0x3bea8d76	0.0071579767
224	0x3d864b1c	0.06557295
225	0x3d30f6c5	0.043204088
226	0xbdfc2a5c	-0.12312767
227	0xbe96f50a	-0.29483825
228	0x3e8e1c43	0.27755937
229	0x3d6a9ef7	0.057280507
230	0x3d975a76	0.07390301
231	0xbe3dcf6d	-0.18536158
232	0x3e5fc9c3	0.2185431
233	0xbe64450c	-0.22291964
234	0x3e997457	0.29971573
235	0x3d64441f	0.055729028
236	0xbe6e8d4f	-0.23296092
237	0x3e4da0ea	0.20080915
238	0xbde0637c	-0.10956475
239	0x3e228475	0.15870841
240	0xbdaee004	-0.08538821
241	0x3e88ce8b	0.2672008
242	0x3ce852cc	0.028359793
243	0xbe5dc306	-0.21656427
244	0xbe79e1b6	-0.24402508
245	0xbe870d74	-0.2637745
246	0x3d58a4c1	0.052891497
247	0x3e46b666	0.19405517
248	0xbe472e88	-0.19451344
249	0x3c576506	0.013146644
250	0xbde63c84	-0.11242011
251	0x3e9682ce	0.2939667
252	0x3cf847b4	0.030307628
253	0x3e076b1a	0.1322445
254	0x3e2046a4	0.15651947
255	0x3e6813a4	0.22663742

weight_u f4 [32]
0	0xbe6a5851	-0.22885253
1	0xbcc93994	-0.024563588
2	0xbe573a7b	-0.21018402
3	0xbdbd02a4	-0.09229019
4	0x3dff580c	0.124679655
5	0x3d3628b9	0.04447243
6	0x3dd2acef	0.10286891
7	0xbd45a29e	-0.048250787
8	0x3e41e061	0.1893325
9	0x3cef476f	0.029208867
10	0x3e1e005d	0.15429826
11	0xbe8a7473	-0.2704197
12	0xbdadeea2	-0.08492781
13	0xbe8a631a	-0.27028733
14	0x3d71ee21	0.059064988
15	0x3e85f6ef	0.26164958
16	0x3e6f4033	0.23364334
17	0xbca9533b	-0.02066957
18	0x3e5b010e	0.21387121
19	0xbe09766d	-0.13424082
20	0xbec6e6a2	-0.38847834
21	0x3d9975a2	0.0749314
22	0x3d930b50	0.07179892
23	0x3d64900f	0.055801447
24	0xbeb99fcc	-0.36254728
25	0x3d35dbc6	0.044399045
26	0xbe0150f8	-0.12628543
27	0x3e7e3d24	0.24828011
28	0x3e13d150	0.14435315
29	0xbe4a62d7	-0.19764267
30	0x3e175448	0.14778244
31	0x3d2a0e2e	0.04151743

weight_v f4 [12]
0	0x3de9adcc	0.11410102
1	0xbec79f12	-0.3898855
2	0x3e11be71	0.14232804
3	0x3e81a998	0.25324702
4	0x3ef182b8	0.47170043
5	0x3ed042d9	0.40676
6	0xbe8d52dc	-0.2760228
7	0xbe65d040	-0.22442722
8	0x3e6e028a	0.23243156
9	0x3d9bce78	0.0760774
10	0xbd465361	-0.04841936
11	0xbed5847d	-0.41702643

weight f4 [32, 12, 1]
0	0xbc7c31db	-0.015392746
1	0x3e182750	0.14858747
2	0xbdf17faf	-0.11791932
3	0xbc48c1a0	-0.012253195
4	0xbe27f235	-0.16400988
5	0x3d83ffd0	0.06445277
6	0x3e157805	0.14596565
7	0x3d694b11	0.056956355
8	0xbe0be419	-0.13661231
9	0x3d7cbeae	0.061705284
10	0x3caae31c	0.020860247
11	0x3d26dfb8	0.0407407
12	0xbe3b7bb8	-0.18308914
13	0x3d1f9c68	0.03896752
14	0x3e2c807b	0.16845886
15	0xbd7dbd1c	-0.061947927
16	0x3d9c3f37	0.07629245
17	0xbd110246	-0.03540256
18	0x3d8350ea	0.064119175
19	0x3e1023d2	0.14076164
20	0x3e13cb19	0.14432944
21	0xbcb75c5f	-0.022382913
22	0x3e0b9535	0.13631137
23	0xbc5f8d5c	-0.013644543
24	0x3d25695a	0.040383674
25	0x3c3b5676	0.011434188
26	0xbe29a49d	-0.16566701
27	0xbdbdd920	-0.09269929
28	0xbdffa019	-0.12481708
29	0xbd8f7f6e	-0.07006727
30	0x3db21a68	0.08696443
31	0x3cae8e59	0.021308111
32	0xbe2fb4e2	-0.17158845
33	0xbd6034e6	-0.054737948
34	0x3bcd614f	0.0062677036
35	0x3bd94b6d	0.006631306
36	0x3d71aacc	0.059000775
37	0x3d9cdae9	0.07658941
38	0x3dfbdcd0	0.12297976
39	0x3e33dcf3	0.17564754
40	0xbde1cda1	-0.11025549
41	0xbd1e9890	-0.038719714
42	0xbccddf65	-0.025130937
43	0x3c998ed3	0.018744862
44	0xbd981d0c	-0.07427415
45	0x3c988231	0.018616768
46	0x3e35e47b	0.1776294
47	0x3dcca590	0.09992516
48	0xbd9ef78e	-0.07762061
49	0xbe14f867	-0.14547883
50	0xbd9f0b80	-0.07765865
51	0x3da55835	0.08073465
52	0x3daff733	0.085920714
53	0x3decf34e	0.11569844
54	0xbd9bbd03	-0.076044105
55	0x3db8d19a	0.09024353
56	0xbc648474	-0.013947595
57	0x3e040661	0.12893058
58	0x3de76a0f	0.11299526
59	0x3d5813c1	0.052753214
60	0xbd9c6fbe	-0.07638501
61	0x3e2cb2a2	0.16865018
62	0x3df7298d	0.12068472
63	0xbcb0d112	-0.021584067
64	0xbe13b7cf	-0.14425586
65	0x3df29b69	0.118460484
66	0x3d4137bf	0.047172304
67	0xbe267d5f	-0.16258763
68	0x3d949228	0.072544396
69	0x3e39da90	0.18149781
70	0x3dde2c0e	0.108482465
71	0xbe40090b	-0.1875345
72	0x3cbaa71e	0.022784766
73	0xbe2e3489	-0.17012228
74	0x3d981d1a	0.07427426
75	0xbe04a185	-0.1295224
76	0xbc50ed5a	-0.0127519015
77	0xbaab7cc6	-0.001308345
78	0xbe2fea67	-0.17179261
79	0xbcddefcb	-0.027091881
80	0x3d7221a7	0.059114125
81	0x3da5006d	0.08056722
82	0x3cc5644e	0.02409568
83	0x3cba4a6f	0.02274057
84	0xbd3aef18	-0.045638174
85	0xbe227a7f	-0.15867041
86	0xbe02ac06	-0.12760934
87	0x3e19d55e	0.150228
88	0xbe2f7e6c	-0.1713807
89	0xbd9dd9a6	-0.07707529
90	0xbe11849a	-0.1421074
91	0x3da7dc8c	0.08196363
92	0xbe0d99b8	-0.1382817
93	0xbde9cfe5	-0.11416606
94	0xbe260297	-0.16211925
95	0x3a8db524	0.001081143
96	0x3db6931b	0.08914777
97	0x3bd334fe	0.006445526
98	0x3d08fd16	0.033444487
99	0xbe07c1ff	-0.13257597
100	0x3d7d85a1	0.061895017
101	0x3e1d5643	0.15364937
102	0xbcc4e5fb	-0.024035444
103	0xbda526c0	-0.080640316
104	0x3e21875f	0.15774296
105	0x3a845fbe	0.0010099334
106	0xbe1d5d0a	-0.15367523
107	0xbdf4f4a1	-0.11960722
108	0xbe05a1e6	-0.1305004
109	0x3bab8067	0.0052338126
110	0xbdfd5630	-0.123699546
111	0x3deb2525	0.11481694
112	0xbe06e1a3	-0.13172011
113	0xbdaa7cd9	-0.08324594
114	0xbd7f6ed2	-0.062361546
115	0xbe33c092	-0.17553928
116	0x3e08218f	0.13294052
117	0xbd4db430	-0.05022067
118	0xbd816103	-0.06317332
119	0xbdd7aaab	-0.10530599
120	0x3d896679	0.06708998
121	0xbd03ea20	-0.0322057
122	0x3ca3f1de	0.020012792
123	0xbd20c3fb	-0.0392494
124	0x3d9f2eab	0.07772573
125	0x3e13a13a	0.14416972
126	0xbe33267f	-0.17495154
127	0x3d1f6cc7	0.038922098
128	0xbd1b54fd	-0.037922848
129	0x3da8a393	0.08234324
130	0x3df45f4b	0.11932238
131	0xbd0fd61e	-0.035116307
132	0xbd3d7976	-0.046258412
133	0x3e320dd6	0.1738809
134	0x3d90097e	0.070330605
135	0xbe32cc97	-0.17460857
136	0xbe26c62c	-0.16286534
137	0x3dc720ad	0.09723029
138	0x3dd7f235	0.10544244
139	0x3c59dafa	0.013296837
140	0xbe28c846	-0.16482648
141	0x3dcfa26d	0.10138402
142	0xbdf17286	-0.11789422
143	0x3e292630	0.16518474
144	0x3d131967	0.035912897
145	0xbd732e0c	-0.059370086
146	0xbdf1a991	-0.1179992
147	0x3c10806c	0.008819681
148	0xbe10811f	-0.14111756
149	0x3e1b8a54	0.15189487
150	0x3e1a5dae	0.15074798
151	0x3dadf65d	0.08494256
152	0xbdf4cf80	-0.1195364
153	0x3dbad7e0	0.09123206
154	0x3d8206c0	0.06348944
155	0x3ca1e17d	0.019760842
156	0x3d3a88aa	0.04554049
157	0x3e0fc6f5	0.1404074
158	0xbd174ccc	-0.036938474
159	0xbd943359	-0.07236356
160	0xbe040573	-0.12892704
161	0xbe3514ed	-0.17683764
162	0xbdcef2e1	-0.10104919
163	0x3cc9ee64	0.024649806
164	0xbe2d337d	-0.16914172
165	0x3da60209	0.08105857
166	0x3d469028	0.048477322
167	0x3dfbd254	0.12295976
168	0x3e07750b	0.13228242
169	0x3dab49a2	0.08363654
170	0xbb222584	-0.00247416
171	0xbdde1696	-0.10844152
172	0xbd8935e6	-0.066997334
173	0x3d820723	0.063490175
174	0xbe3801b5	-0.17969401
175	0xbd258b05	-0.040415782
176	0xbbca1973	-0.0061675846
177	0x3db26ab9	0.08711762
178	0x3d577baa	0.05260817
179	0xbdefed0b	-0.11715134
180	0x3df31e6a	0.118710354
181	0xbe03792e	-0.12839195
182	0x3c444ad3	0.01198073
183	0x3e08a207	0.13343059
184	0x3e214824	0.15750176
185	0x3e0b4c4e	0.13603327
186	0x3da66be1	0.08126045
187	0xbddc3b94	-0.10753551
188	0x3bab1011	0.005220421
189	0xbcf4c6e3	-0.029879993
190	0xbe3eb7c7	-0.18624793
191	0xbd6478db	-0.05577932
192	0xbd7d7587	-0.06187966
193	0xbe15052a	-0.14552751
194	0xbdb89015	-0.090118565
195	0x3de5672c	0.11201319
196	0x3e004805	0.12527473
197	0x3da41271	0.0801133
198	0xbd071f48	-0.032988816
199	0xbdbbe497	-0.091744594
200	0xbd8dd24b	-0.06924876
201	0x3db6bb75	0.08922473
202	0xbe096311	-0.13416697
203	0xbdf4dd51	-0.11956275
204	0xbd859080	-0.06521702
205	0x3dac48ba	0.08412309
206	0x3d75741f	0.059925195
207	0x3d6297ac	0.055320427
208	0xbd10dc2e	-0.03536623
209	0xbcaeb037	-0.02132426
210	0xbe1c6f0f	-0.1527674
211	0xbd1030d1	-0.035202805
212	0xbe1c2c2e	-0.15251228
213	0x3da0f803	0.078598045
214	0xbe0c82d7	-0.13721786
215	0x3c3ebf3f	0.011642276
216	0xbd0f52f2	-0.034991212
217	0xbde9a0b7	-0.11407607
218	0x3d82b2e3	0.06381776
219	0xbe0f9a76	-0.14023766
220	0x3e2bf35c	0.16792053
221	0x3d6f8001	0.058471683
222	0xbc4b8270	-0.012421235
223	0x3b95ceb7	0.0045717615
224	0x3d2c0b1c	0.042002782
225	0x3ce2b256	0.027672928
226	0xbda17b65	-0.07884864
227	0xbe415726	-0.188809
228	0x3e360a19	0.1777729
229	0x3d1620de	0.03665244
230	0x3d41befc	0.047301278
231	0xbdf310ee	-0.118684635
232	0x3e0f5530	0.1399734
233	0xbe122c48	-0.14274704
234	0x3e4492df	0.19196652
235	0x3d12414d	0.035706807
236	0xbe18c02c	-0.14917058
237	0x3e03b003	0.12860112
238	0xbd8fb79f	-0.07017445
239	0x3dd0217e	0.10162638
240	0xbd6008e1	-0.054695968
241	0x3e2f360f	0.17110465
242	0x3c94e2d4	0.018174566
243	0xbe0e06c7	-0.13869773
244	0xbe2001c3	-0.15625672
245	0xbe2cfc94	-0.16893226
246	0x3d0ab841	0.033867124
247	0x3dfe7b48	0.12425858
248	0xbdff2054	-0.12457338
249	0x3c09ec7a	0.008418197
250	0xbd9375c2	-0.07200195
251	0x3e40c3b0	0.18824649
252	0x3c9f112d	0.01941737
253	0x3dad6f26	0.084684655
254	0x3dcd4966	0.10023765
255	0x3e149a97	0.14512096

weight f4 [1, 32, 1]
0	0x3dee44b4	0.11634198
1	0x3db5c5f8	0.0887565
2	0x3bb152c3	0.0054114773
3	0xbe211e78	-0.15734279
4	0xbd7a1f30	-0.0610649
5	0x3d70ea57	0.058817234
6	0xbd9e7a3b	-0.07738157
7	0x3e0ba953	0.13638811
8	0xbd2ba003	-0.041900646
9	0xbd433547	-0.04765823
10	0x3ddd6554	0.108103424
11	0x3e2585a0	0.16164255
12	0x3dd28204	0.10278705
13	0xbd457357	-0.0482057
14	0x3d44c69f	0.048040982
15	0xbe296a6e	-0.16544506
16	0xbcda8077	-0.026672585
17	0x3e333981	0.17502405
18	0x3e090e8d	0.13384457
19	0x3e06b71d	0.1315579
20	0x3df585e0	0.11988425
21	0xbe1333da	-0.14375249
22	0xbe1448e8	-0.14480937
23	0x3de6a420	0.11261773
24	0xbd2be8ce	-0.041970067
25	0x3d447cd8	0.047970623
26	0x3d9158b4	0.07096997
27	0x3dd8151a	0.105509
28	0xbcf7ba58	-0.030240223
29	0x3a537294	0.00080660847
30	0x3bf7279f	0.007542565
31	0x3c065075	0.008197893

weight f4 [1, 32, 1]
0	0x3dee7866	0.11644058
1	0xbd67f800	-0.056632996
2	0xbdd80973	-0.10548677
3	0x3e1e01c2	0.15430358
4	0xbdd4e345	-0.10394911
5	0x3c033453	0.008008081
6	0xbe1f88c4	-0.15579516
7	0xbe0c8393	-0.13722067
8	0x3ddfd819	0.10929889
9	0x3cca8ffc	0.02472686
10	0x3cb97c1f	0.022642193
11	0x3dabf8fe	0.08397101
12	0xbde45191	-0.1114837
13	0x3d1255c9	0.035726342
14	0x3d4124ec	0.047154352
15	0xbda898b4	-0.08232251
16	0x3e26467b	0.16237824
17	0x3e148e78	0.14507473
18	0xbe31778e	-0.17330763
19	0x3df69a67	0.12041169
20	0x3dc901f6	0.09814827
21	0xbdc0d23e	-0.094151005
22	0x3e1a2d34	0.15056306
23	0x3bc9687b	0.0061464882
24	0xbc85d83e	-0.016338464
25	0x3dadd2b4	0.08487454
26	0xbd72b218	-0.059251875
27	0x3db33047	0.087494425
28	0x3dc3b4bf	0.09555959
29	0x3e055140	0.13019276
30	0x3d0d63ec	0.03451912
31	0x3d0923e6	0.0334815

weight f4 [1, 32, 1]
0	0xbd94e263	-0.07269742
1	0x3db9b6cc	0.09068069
2	0xbdca5ac8	-0.098805964
3	0x3d96571a	0.07340832
4	0x3e32b625	0.17452295
5	0xbc20ff52	-0.009826498
6	0x3e1325ec	0.14369935
7	0x3e259a0d	0.16172047
8	0xbc8ba059	-0.017044233
9	0x3db37cc0	0.087640285
10	0x3dc5376d	0.09629712
11	0x3d80177b	0.062544785
12	0x3c13d835	0.009023716
13	0xbdd7a96e	-0.10530363
14	0xbe1e8c57	-0.15483223
15	0xbdbae581	-0.09125806
16	0xbd1fb760	-0.03899324
17	0x3e41f654	0.18941623
18	0xbdaa199a	-0.08305664
19	0x3cfdc068	0.030975536
20	0x3ddd9520	0.10819459
21	0xbd1cb690	-0.038260043
22	0xbe0b7dc6	-0.13622198
23	0xbcb5be90	-0.022185594
24	0x3daf82b0	0.085698485
25	0xbd2c2d30	-0.04203528
26	0xbe1b53cb	-0.15168683
27	0xbd5cec63	-0.053936373
28	0x3d493079	0.049118493
29	0x3e264563	0.16237406
30	0x3dd14ccb	0.10219725
31	0xbdc8f4a9	-0.0981229

bias f4 [32]
0	0x3c8587ff	0.0163002
1	0xbde8d779	-0.11369223
2	0xbcea7ca0	-0.028623879
3	0x3d63d485	0.055622596
4	0xbca5f6ca	-0.02025928
5	0xbdb71361	-0.08939243
6	0xbe01e0cf	-0.12683414
7	0x3dd382f9	0.103277154
8	0x3c9d6f59	0.019218134
9	0x3d16e97c	0.03684376
10	0xbcc8204f	-0.024429468
11	0x3e0e5b95	0.13902123
12	0xbde613cd	-0.112342454
13	0xbcb6f351	-0.02233282
14	0x3b582e99	0.0032986759
15	0x3e1b9350	0.15192914
16	0x3d299c61	0.0414089
17	0x3e07a7a9	0.13247551
18	0x3b9abf83	0.004722537
19	0xbe206c65	-0.15666349
20	0x3dd217c1	0.10258437
21	0xbdd95e5c	-0.10613701
22	0xbd9b94e9	-0.07596762
23	0x3cefdcf5	0.029280165
24	0xbe07f63f	-0.13277529
25	0xbd0bd0a2	-0.034134515
26	0xbd292074	-0.041290715
27	0xbe14f4bf	-0.14546488
28	0x3d311cc5	0.043240327
29	0xbd9ffe31	-0.07812155
30	0xbc15279f	-0.009103685
31	0x3ccbaab9	0.02486168

weight_orig f4 [32, 43, 1]
0	0xbdc3bb21	-0.095571764
1	0xbd31d7d4	-0.04341872
2	0xbd5da943	-0.0541165
3	0xbdf84f98	-0.12124556
4	0xbe1eb6f1	-0.15499474
5	0xbdcc1fa0	-0.099669695
6	0x3d852ece	0.06503068
7	0x3d02aecc	0.03190498
8	0x3d5908d9	0.052986953
9	0x3cddf69b	0.02709513
10	0x3d24e263	0.04025496
11	0x3df5d7bc	0.12004039
12	0xbd3a86f0	-0.045538843
13	0xbe094f0e	-0.13409063
14	0x3d93d55a	0.07218428
15	0x3e2aaf84	0.16668516
16	0xbdbfcc58	-0.09365147
17	0x3d8714c5	0.06595758
18	0xbd401958	-0.04689917
19	0xbd5b1697	-0.05348834
20	0x3d1d1e70	0.038359106
21	0xbd431506	-0.04762747
22	0xbb6ae995	-0.0035844792
23	0xbdcb56e7	-0.09928685
24	0xbdc27eed	-0.094968654
25	0x3c844d57	0.01615016
26	0x3ce540dd	0.02798503
27	0x3d181a17	0.037134256
28	0x3dce391e	0.10069488
29	0xbdf08a6a	-0.117451504
30	0x3deaeebe	0.11471318
31	0x3e0f9cea	0.14024702
32	0xbe25b50a	-0.16182342
33	0xbd249e05	-0.04018976
34	0x3d8f5e43	0.07000401
35	0x3da629fb	0.08113476
36	0xbda8f9a8	-0.08250743
37	0xbcf2d943	-0.029644614
38	0xbdf2e722	-0.11860491
39	0x3dfdfb90	0.12401497
40	0xbdc368a1	-0.09541441
41	0xbceef5f7	-0.02917002
42	0x3e1a124a	0.15046039
43	0xbdb12d8a	-0.08651264
44	0x3deb8cd9	0.11501474
45	0xbdf6e55e	-0.12055467
46	0xbd5df4f8	-0.0541887
47	0x3e1d8d2a	0.15385881
48	0x3dabe0c2	0.083924785
49	0xbe177b6c	-0.14793175
50	0xbca3f0b5	-0.020012239
51	0x3cada30b	0.021195909
52	0xbda02101	-0.07818795
53	0xbdd6ec32	-0.104942694
54	0xbdbfd67c	-0.093670815
55	0x3dd1b7c4	0.10240129
56	0xbe07f52e	-0.13277122
57	0x3e115df3	0.14195995
58	0xbc703698	-0.014661454
59	0xbda93f25	-0.08263997
60	0x3d378989	0.044808898
61	0x3e03c29d	0.12867208
62	0x3b88222c	0.004154464
63	0xbd8f113d	-0.0698571
64	0xbcc9e61c	-0.024645858
65	0x3d903a3e	0.07042359
66	0x3d372315	0.04471119
67	0xbd4f9373	-0.050677728
68	0x3dc4b2a4	0.096043855
69	0xbcfd3cbc	-0.03091275
70	0x3e08848d	0.13331814
71	0x3e1306d1	0.14358069
72	0x3e0421be	0.12903497
73	0x3d45e2fe	0.04831218
74	0x3e05d2a7	0.13068639
75	0x3de1f1f1	0.11032475
76	0xbd9662de	-0.07343076
77	0x3d79a8e1	0.06095207
78	0xbdaeee3c	-0.08541533
79	0x3d1afb1a	0.037837125
80	0x3bb40ffb	0.005495069
81	0x3dffadb8	0.12484306
82	0x3d9eb6bc	0.077496976
83	0x3de8d310	0.11368382
84	0x3d028547	0.031865384
85	0x3e0adee2	0.13561586
86	0x3e04d1c5	0.12970646
87	0x3de5d7f5	0.11222831
88	0x3bb3a355	0.005482117
89	0xbddd70a6	-0.108125016
90	0x3df314bb	0.118691884
91	0xbe11e306	-0.14246759
92	0xbc646506	-0.0139401015
93	0xbd89c1d2	-0.067264214
94	0x3de2fef6	0.11083786
95	0xbc8747fc	-0.016513817
96	0x3d095fd9	0.033538673
97	0xbd8f1ec2	-0.069882885
98	0xbd5bf22d	-0.053697754
99	0x3db88fdd	0.09011815
100	0xbd572851	-0.052528683
101	0xbdb3f8ea	-0.08787711
102	0x3cfed373	0.031106686
103	0x3c46ad35	0.012126257
104	0x3d84a313	0.064764164
105	0xbdddd4fe	-0.10831641
106	0xbd694b5f	-0.056956645
107	0xbd77a860	-0.06046331
108	0x3d963755	0.073347725
109	0x3e1e6cb6	0.15471157
110	0xbca7ca13	-0.020482099
111	0xbe176076	-0.1478289
112	0xbcaffbdd	-0.021482402
113	0xbda93cee	-0.082635745
114	0x3cc7c287	0.02438475
115	0xbe18ec44	-0.14933878
116	0x3dee1659	0.11625356
117	0x3dcf2ace	0.10115586
118	0xbcce04ab	-0.02514871
119	0xbcefed6a	-0.029288013
120	0xbca596b4	-0.020213462
121	0x3e136fb8	0.14398086
122	0xbda3976a	-0.07987864
123	0xba07a169	-0.00051738933
124	0x3b8d2b2d	0.0043081255
125	0x3d443b1d	0.047907937
126	0x3bcd6ee0	0.006269321
127	0x3d7937b5	0.060844142
128	0xbdf6ba6f	-0.12047278
129	0x3d3ef524	0.046620503
130	0x39ed6fb0	0.00045287376
131	0xbdfb0eeb	-0.12258705
132	0xbe1f55d4	-0.15560085
133	0x3d88105a	0.06643744
134	0xbddc56b4	-0.10758725
135	0x3e0eec86	0.13957414
136	0xbde6f6c5	-0.11277536
137	0x3da4f4da	0.08054514
138	0x3d50a905	0.05094244
139	0x3d657e49	0.056028638
140	0x3d592d15	0.05302151
141	0x3c5e0b74	0.013552535
142	0x3d9c2624	0.07624462
143	0xbdbb8e25	-0.09157971
144	0xbc844c69	-0.016149716
145	0xbce95541	-0.028483035
146	0x3e0760de	0.13220546
147	0xbdc396c4	-0.09550241
148	0xbda0e156	-0.078554794
149	0xbcc0efee	-0.023551907
150	0xbe248ee0	-0.16070127
151	0xbd9dafd8	-0.07699555
152	0xbdca5915	-0.09880272
153	0xbcac1db1	-0.021010252
154	0x3e0ba4d4	0.13637096
155	0xbd73c582	-0.05951453
156	0xbde7a72f	-0.113111846
157	0x3db32a49	0.087483
158	0x3da922a8	0.08258563
159	0x3db63dd9	0.08898515
160	0xbd87be7c	-0.06628129
161	0x3d8f84e3	0.07007768
162	0xbdf7f9c9	-0.121081896
163	0xbe0a9e52	-0.13536957
164	0xbd2dafaa	-0.042403854
165	0xbb1578c3	-0.0022807575
166	0x3de38306	0.11108975
167	0x3d6d4548	0.0579274
168	0xbcfba8e0	-0.030720174
169	0xbd9db430	-0.07700384
170	0xbd420b80	-0.04737425
171	0xbd052494	-0.032505587
172	0xbd6e49de	-0.058175914
173	0xbd8fb8e7	-0.07017689
174	0xbe0dc0c2	-0.13843063
175	0x3e06ee8a	0.13176933
176	0xbe0b631f	-0.1361203
177	0xbdbe379d	-0.09287951
178	0xbd840bbc	-0.06447551
179	0xbcef7cbc	-0.029234283
180	0xbe05a61b	-0.13051645
181	0x3decd95f	0.11564898
182	0xbdbebca0	-0.09313321
183	0xbda30014	-0.07958999
184	0x3da363de	0.079780325
185	0x3d18ad55	0.037274677
186	0xbdd698db	-0.104783736
187	0xbdfe7153	-0.12423959
188	0x3dda9b4b	0.10674151
189	0x3e0f36f3	0.13985805
190	0xbcf73f81	-0.030181648
191	0xbdc66f99	-0.09689254
192	0x3dc63585	0.09678177
193	0xbe18e51c	-0.14931148
194	0xbe05528a	-0.13019767
195	0x3e1021e8	0.14075434
196	0x3aa8ded9	0.0012883797
197	0xba94f64f	-0.001136491
198	0xbd2031fd	-0.039110173
199	0xbe0135c2	-0.12618163
200	0xbe04eb0a	-0.12980285
201	0x3d49c474	0.049259618
202	0xbdf11d42	-0.117731586
203	0x3e037683	0.12838177
204	0xbdb95b51	-0.0905062
205	0xbcebfb4e	-0.028806355
206	0xbbe0d3bc	-0.006861178
207	0xbc80ab71	-0.01570675
208	0xbc7996bc	-0.015233692
209	0xbd5a36f5	-0.053275067
210	0x3e07cdf3	0.13262157
211	0x3d88cc4b	0.06679591
212	0xbdb06418	-0.08612841
213	0x3ad3254b	0.0016109137
214	0xbdf0afb5	-0.117522635
215	0xbe1e4fc0	-0.1546011
216	0xbe15e808	-0.14639294
217	0xbd5618aa	-0.052269615
218	0x3cf54c19	0.029943513
219	0xbdd17fb0	-0.102294326
220	0xbd43bebd	-0.047789324
221	0x3d3ee977	0.04660937
222	0xbd320a94	-0.04346712
223	0xbe0d6000	-0.13806152
224	0xbdd2d4e7	-0.10294514
225	0x3d0d9225	0.034563202
226	0xbdcd0da8	-0.1001237
227	0xbd96647e	-0.07343386
228	0x3e0bffbd	0.13671775
229	0x3c08876e	0.00833307
230	0xbcc59404	-0.02411843
231	0xbd1f6711	-0.03891665
232	0xbe0eb130	-0.13934779
233	0xbd99a628	-0.07502395
234	0xbd8e571c	-0.069502085
235	0x3d249c3d	0.040188063
236	0xbbafd338	-0.0053657554
237	0x3dff9b19	0.124807544
238	0xbdfa0c86	-0.1220942
239	0xbc4c3103	-0.012462857
240	0x3e02edb8	0.12785995
241	0xbdfa7914	-0.12230125
242	0xbc962164	-0.018326469
243	0x3cbb7c43	0.022886401
244	0x3d7f54ad	0.062336612
245	0xbda57e88	-0.080807745
246	0xbce357d1	-0.027751835
247	0xbe136fec	-0.14398164
248	0xbc8a7fa1	-0.016906561
249	0xbccac292	-0.024750981
250	0xbd728c99	-0.059216116
251	0x3e1765f4	0.14784986
252	0xbc9b529d	-0.018960292
253	0x3d8ca7a3	0.06867912
254	0x3dea08fe	0.114274964
255	0xbe1f7638	-0.1557244

weight_u f4 [32]
0	0x3e2f823d	0.17139526
1	0xbcb763da	-0.02238648
2	0xbe3266a2	-0.17421964
3	0xbd5c980a	-0.053855933
4	0x3dcd68dd	0.10029767
5	0x3de864f1	0.11347378
6	0xbd8bf546	-0.068338916
7	0xbce29da6	-0.027663063
8	0xbd9f6e07	-0.07784658
9	0x3e8cef53	0.2752634
10	0x3d3f671d	0.046729196
11	0x3e0a436a	0.13502279
12	0x3e5bbdc0	0.21459103
13	0x3db41c8c	0.087945074
14	0xbe662a5e	-0.224771
15	0xbe404a4e	-0.18778345
16	0x3e8d26f7	0.2756879
17	0xbe0c034f	-0.13673137
18	0xbe88b085	-0.26697174
19	0x3d989dc3	0.07451966
20	0x3e346774	0.17617589
21	0x3e74bbf4	0.23899823
22	0xbeeb47a0	-0.45953083
23	0xbd359ae3	-0.044337165
24	0xbd032a43	-0.032022726
25	0x3ce24210	0.027619392
26	0x3e06785d	0.13131852
27	0x3e3702fb	0.1787223
28	0xbe8a9c73	-0.27072486
29	0x3e1594f3	0.14607601
30	0xbe53444a	-0.20631519
31	0xbd9a900c	-0.07547006

weight_v f4 [43]
0	0xbe23e562	-0.16005471
1	0xbd896857	-0.06709354
2	0x3c23a1f8	0.009987347
3	0x3e1c322f	0.15253519
4	0xbeaaa59d	-0.33329478
5	0xbd8159ff	-0.063159935
6	0x3daeac91	0.08529008
7	0x3d8f7687	0.07005029
8	0xbe20fe9d	-0.15722127
9	0x3dcb30e2	0.09921433
10	0xbdb6dc50	-0.0892874
11	0x3e95f0a5	0.2928516
12	0xbe1c4e0b	-0.15264146
13	0xbdc36fc6	-0.095428035
14	0x3e1ff51e	0.15620849
15	0x3df79234	0.12088433
16	0x3e3fc306	0.1872674
17	0x3df91d4d	0.12163792
18	0x3e59740e	0.21235678
19	0xbe80fb42	-0.25191694
20	0x3ea8c194	0.32960188
21	0x3da1bfec	0.07897934
22	0xbbba8714	-0.005692372
23	0xbe36c599	-0.17848815
24	0xbddf0ef7	-0.10891526
25	0x3c59986b	0.013280968
26	0xbe7a2de8	-0.24431574
27	0x3e395215	0.18097718
28	0x3d8cc91b	0.06874295
29	0x3e2fd765	0.1717201
30	0xbe7021f3	-0.2345045
31	0x3e231751	0.15926863
32	0xbbbde112	-0.0057946527
33	0x3da5b871	0.0809182
34	0x3a8520dd	0.0010156889
35	0xbd79e965	-0.061013598
36	0xbd2ca754	-0.042151764
37	0x3dd26f07	0.10275083
38	0xbd8b5052	-0.06802429
39	0x3dc89c3d	0.09795425
40	0xbe439716	-0.19100603
41	0x3c60ff47	0.013732738
42	0x3e1712f2	0.14753321

weight f4 [32, 43, 1]
0	0xbda0bcdf	-0.07848524
1	0xbd1212ee	-0.035662584
2	0xbd36133a	-0.04445193
3	0xbdcbecf6	-0.09957306
4	0xbe025735	-0.1272858
5	0xbda7a33e	-0.08185433
6	0x3d5aacb2	0.05338735
7	0x3cd68b1b	0.026189378
8	0x3d322ba3	0.043498646
9	0x3cb62bdb	0.022237709
10	0x3d075af4	0.033045724
11	0x3dc9de4d	0.09856854
12	0xbd193333	-0.037402343
13	0xbde186cb	-0.11012038
14	0x3d72bb66	0.05926075
15	0x3e0c21f9	0.13684835
16	0xbd9d86f0	-0.07691753
17	0x3d5dd35a	0.05415664
18	0xbd1dcce9	-0.038525496
19	0xbd33f4ed	-0.04393475
20	0x3d00fb69	0.031489763
21	0xbd2041a2	-0.039125092
22	0xbb4193f6	-0.0029537654
23	0xbda6ffec	-0.08154282
24	0xbd9fbef8	-0.07800096
25	0x3c591169	0.01324878
26	0x3cbc3290	0.022973329
27	0x3cf993d7	0.030466003
28	0x3da95480	0.0826807
29	0xbdc58baa	-0.096457794
30	0x3dc0e694	0.09418979
31	0x3debd92f	0.11516034
32	0xbe0815ca	-0.13289562
33	0xbd07233b	-0.032992583
34	0x3d6b712c	0.057480976
35	0x3d886da6	0.06661539
36	0xbd8ac19a	-0.06775208
37	0xbcc7404e	-0.024322655
38	0xbdc77099	-0.09738273
39	0x3dd092d5	0.10184256
40	0xbda078a2	-0.07835509
41	0xbcc46da3	-0.02397806
42	0x3dfd0351	0.12354148
43	0xbd917c7c	-0.07103822
44	0x3dc172fb	0.09445759
45	0xbdcabd11	-0.09899343
46	0xbd364813	-0.04450233
47	0x3e016112	0.12634686
48	0x3d8d243b	0.06891676
49	0xbdf8cea1	-0.12148786
50	0xbc86a756	-0.016437214
51	0x3c8e86bb	0.017398229
52	0xbd837cf7	-0.064203195
53	0xbdb080e6	-0.086183354
54	0xbd9d874b	-0.07691821
55	0x3dac3ac0	0.08409643
56	0xbddf4cb0	-0.10903299
57	0x3deebbac	0.11656889
58	0xbc455819	-0.01204493
59	0xbd8af99d	-0.06785891
60	0x3d16b50b	0.03679375
61	0x3dd86140	0.10565424
62	0x3b5e68c7	0.0033936964
63	0xbd6af30d	-0.057360698
64	0xbca5d4e3	-0.020243114
65	0x3d6cde29	0.057829056
66	0x3d16551f	0.03670227
67	0xbd2a6ff1	-0.041610662
68	0x3da18886	0.07887368
69	0xbccfff23	-0.025390213
70	0x3de0338b	0.10947331
71	0x3df17ad4	0.11791006
72	0x3dd90690	0.10596955
73	0x3d227a9c	0.03966771
74	0x3ddbc207	0.10730367
75	0x3db965e9	0.09052641
76	0xbd76f9d8	-0.060296863
77	0x3d4d0206	0.050050758
78	0xbd8fa541	-0.070139416
79	0x3cfe6c4e	0.031057503
80	0x3b941569	0.004519154
81	0x3dd1f7bc	0.1025233
82	0x3d8254a9	0.06363804
83	0x3dbf2ea6	0.09335069
84	0x3cd65635	0.026164154
85	0x3de4113e	0.11136101
86	0x3dda1e92	0.10650362
87	0x3dbcbf3d	0.09216163
88	0x3b92d1c2	0.0044805715
89	0xbdb5de4b	-0.0888029
90	0x3dc79828	0.097458184
91	0xbdef979d	-0.1169884
92	0xbc3ba1d3	-0.011452156
93	0xbd6251f9	-0.055253956
94	0x3dba606c	0.09100422
95	0xbc5e23aa	-0.013558308
96	0x3ce1856a	0.027529437
97	0xbd6b0c1a	-0.057384588
98	0xbd34c54e	-0.044133477
99	0x3d978b84	0.07399657
100	0xbd30b34e	-0.04313975
101	0xbd93d819	-0.07218952
102	0x3cd12e56	0.02553479
103	0x3c2323b7	0.009957246
104	0x3d59cfe4	0.053176776
105	0xbdb6394d	-0.08897648
106	0xbd3f831e	-0.046755902
107	0xbd4b675d	-0.04965912
108	0x3d76b2f6	0.060229264
109	0x3e020f00	0.12701035
110	0xbc89c1af	-0.016815988
111	0xbdf89a9d	-0.12138865
112	0xbc909420	-0.017648757
113	0xbd8af977	-0.06785863
114	0x3ca429e7	0.020039512
115	0xbdfb1c7d	-0.12261293
116	0x3dc379ec	0.09544739
117	0x3daa1093	0.083039425
118	0xbca9cb13	-0.020726716
119	0xbcc4951c	-0.023996882
120	0xbc880570	-0.016604155
121	0x3df21de0	0.118221045
122	0xbd865a8b	-0.065602385
123	0xb9de6e0f	-0.0004242514
124	0x3b668b7a	0.003517835
125	0x3d21173a	0.03932879
126	0x3ba90447	0.0051579806
127	0x3d4c9d32	0.0499546
128	0xbdca9e23	-0.098934434
129	0x3d1cc558	0.03827414
130	0x39c2a0fc	0.00037122506
131	0xbdce2dce	-0.1006733
132	0xbe02cbf3	-0.12773113
133	0x3d5f68f5	0.054543454
134	0xbdb4ef9b	-0.088347636
135	0x3deabe14	0.11462036
136	0xbdbdada4	-0.09261635
137	0x3d877876	0.06614773
138	0x3d2b426a	0.041811384
139	0x3d3c8228	0.046022564
140	0x3d3252b8	0.043535918
141	0x3c3608c5	0.011110489
142	0x3d8041b4	0.06262532
143	0xbd99fa47	-0.0751844
144	0xbc594c3f	-0.013262807
145	0xbcbfd56d	-0.023417199
146	0x3dde625f	0.108586065
147	0xbda09a70	-0.078419566
148	0xbd841e3f	-0.064510815
149	0xbc9e79e1	-0.019345226
150	0xbe071dee	-0.13195011
151	0xbd817c28	-0.06322509
152	0xbda62111	-0.08111776
153	0xbc8d6839	-0.017261611
154	0x3de54d0b	0.111963354
155	0xbd483140	-0.048875093
156	0xbdbe3780	-0.092879295
157	0x3d931fcf	0.071838014
158	0x3d8ae000	0.06781006
159	0x3d95ad93	0.07308497
160	0xbd5eecb6	-0.054424964
161	0x3d6bcc90	0.057568133
162	0xbdcb9900	-0.09941292
163	0xbde3a0cd	-0.11114655
164	0xbd0ea3a3	-0.034824025
165	0xbaf50e22	-0.0018696229
166	0x3dbad749	0.09123094
167	0x3d42ce6a	0.047560133
168	0xbcce9ab0	-0.025220245
169	0xbd818760	-0.06324649
170	0xbd1f6a5b	-0.038919788
171	0xbcdaae45	-0.026694426
172	0xbd4388c2	-0.047737844
173	0xbd6be466	-0.057590865
174	0xbde8bfd4	-0.11364713
175	0x3ddd9ea8	0.10821277
176	0xbde4e273	-0.11176004
177	0xbd9c2911	-0.0762502
178	0xbd58dd84	-0.05294563
179	0xbcc4a74d	-0.024005556
180	0xbddb7291	-0.10715211
181	0x3dc29337	0.09500735
182	0xbd9c925c	-0.07645103
183	0xbd85d017	-0.065338306
184	0x3d86372a	0.065534905
185	0x3cfadb5c	0.030622177
186	0xbdb03df5	-0.08605567
187	0xbdd0e3da	-0.10199709
188	0x3db39bc1	0.08769942
189	0x3deb38ad	0.114854194
190	0xbccb0240	-0.024781346
191	0xbda2e3e9	-0.07953627
192	0x3da2c891	0.07948411
193	0xbdfb13c7	-0.122596316
194	0xbddae6c6	-0.10688548
195	0x3decbfe0	0.11560035
196	0x3a8eae9a	0.0010885776
197	0xba7209b5	-0.0009233014
198	0xbd03879e	-0.032111757
199	0xbdd43601	-0.10361863
200	0xbdda4826	-0.106582925
201	0x3d25c132	0.04046745
202	0xbdc5f90d	-0.09666643
203	0x3dd7ef69	0.10543711
204	0xbd984855	-0.07435671
205	0xbcc1c1d3	-0.023651993
206	0xbbb862b4	-0.0056270007
207	0xbc532638	-0.01288753
208	0xbc4c4f5f	-0.012470095
209	0xbd333fcd	-0.043762017
210	0x3ddf22df	0.10895323
211	0x3d60a4a4	0.054844514
212	0xbd90e251	-0.070744164
213	0x3aabbf5b	0.0013103293
214	0xbdc5993a	-0.09648366
215	0xbe01fda2	-0.1269441
216	0xbdf62b03	-0.120199226
217	0xbd2fc754	-0.042914703
218	0x3cc968e7	0.024586154
219	0xbdac05c2	-0.08399536
220	0xbd20c115	-0.039246637
221	0x3d1cc7cd	0.038276482
222	0xbd123b7c	-0.03570126
223	0xbde82ac1	-0.1133628
224	0xbdad2501	-0.084543236
225	0x3ce8a119	0.02839713
226	0xbda85ffc	-0.082214326
227	0xbd76fa4c	-0.060297295
228	0x3de5f034	0.11227456
229	0x3bdfcf3c	0.006830124
230	0xbca25b3d	-0.019818896
231	0xbd02ef22	-0.031966336
232	0xbdea5d15	-0.11443535
233	0xbd7c47ce	-0.061591916
234	0xbd69bdd0	-0.057065785
235	0x3d074073	0.033020448
236	0xbb906784	-0.0044068713
237	0x3dd1ea12	0.102497235
238	0xbdcd568f	-0.10026275
239	0xbc278ddd	-0.010226694
240	0x3dd70886	0.104996726
241	0xbdcda6d6	-0.10041587
242	0xbc76aacb	-0.015055369
243	0x3c99c7fd	0.01877212
244	0x3d51bf5a	0.051207878
245	0xbd87e844	-0.06636098
246	0xbcbaa808	-0.022785202
247	0xbdf227be	-0.118239865
248	0xbc636a9f	-0.013880401
249	0xbca67f14	-0.020324267
250	0xbd474658	-0.04865107
251	0x3df8aa5a	0.12141867
252	0xbc7f10da	-0.015567983
253	0x3d6702c7	0.056399133
254	0x3dc04051	0.093872674
255	0xbe02f0c7	-0.12787162

weight f4 [1, 32, 1]
0	0x3da47275	0.080296434
1	0x3d331a33	0.043726157
2	0xbbdde3ac	-0.0067715254
3	0x3d92e0f2	0.07171811
4	0x3e33e0f9	0.17566289
5	0x3c09e9fa	0.008417601
6	0x3e206e2d	0.15667029
7	0xbdf33003	-0.11874392
8	0x3e1fe188	0.15613377
9	0x3dceae25	0.10091809
10	0xbe202207	-0.1563798
11	0xbde7b5c5	-0.11313967
12	0x3bee0bf0	0.0072646067
13	0xbc484b0e	-0.012224926
14	0x3def74bc	0.11692187
15	0xbcad8142	-0.021179799
16	0xbdbc50a2	-0.09195067
17	0x3dd1f967	0.10252648
18	0xbdd218a6	-0.102586076
19	0xbcc3e9de	-0.023915228
20	0xbce6c108	-0.028168216
21	0xbe20a0fd	-0.15686412
22	0xbe1bd0c0	-0.1521635
23	0xbd9cb977	-0.07652562
24	0x3cbde21a	0.023179103
25	0x3e014dca	0.1262733
26	0x3e25d741	0.16195394
27	0x3cfde4cf	0.030992894
28	0x3d773893	0.060356688
29	0x3dbaf94e	0.09129582
30	0x3d779a37	0.060449805
31	0xbd208110	-0.039185584

weight f4 [1, 32, 1]
0	0xbc81dc00	-0.015851974
1	0x3d1f75a3	0.038930546
2	0x3dfbc3bf	0.12293195
3	0x3d7d1a06	0.061792396
4	0xbdc77330	-0.09738767
5	0xbd4d8d73	-0.050183725
6	0xbd6ec32f	-0.05829161
7	0x3e168bf9	0.14701833
8	0x3d448fc9	0.047988687
9	0x3c316a71	0.0108286
10	0xbd5afbb6	-0.053462707
11	0xbc8d51ca	-0.017250914
12	0xbc29a26c	-0.010353666
13	0xbe2905c0	-0.165061
14	0xbc98e2e2	-0.018662874
15	0xbe231910	-0.1592753
16	0xbe305a54	-0.17221957
17	0xbdc07e3f	-0.093990795
18	0x3c2a5a50	0.010397509
19	0x3d103462	0.035206206
20	0x3db4ba80	0.088246346
21	0x3be757ac	0.007060012
22	0x3d76d4fb	0.060261708
23	0x3b3120ae	0.0027027535
24	0x3c241721	0.01001528
25	0xbdb77b6e	-0.08959089
26	0xba2b2efe	-0.00065301347
27	0xbdce8611	-0.10084165
28	0xbe2308dc	-0.15921348
29	0x3d8be03c	0.06829879
30	0x3e24afe0	0.16082716
31	0xbe2cc36e	-0.16871426

weight f4 [1, 32, 1]
0	0x3e0514f1	0.1299627
1	0x3d5960d7	0.05307087
2	0xbcdf107d	-0.027229542
3	0xbd791521	-0.060811166
4	0xbdd9be6c	-0.10632023
5	0xbd36218e	-0.044465594
6	0x3e1e2434	0.15443498
7	0x3d972d0a	0.073816374
8	0xbe0b1ac0	-0.13584423
9	0xbcbe48a9	-0.023228006
10	0xbc304309	-0.01075817
11	0xbc854ca4	-0.016271897
12	0x3deb2c41	0.1148305
13	0xbe1e7d4b	-0.15477483
14	0xbd38fd63	-0.045163523
15	0xbdc2b9ee	-0.095081195
16	0x3d8a501a	0.067535594
17	0xbdf77cf0	-0.12084377
18	0x3d6e327b	0.05815361
19	0xbda5e019	-0.08099384
20	0x3d9f4164	0.07776144
21	0xbe072987	-0.13199435
22	0x3b8926ba	0.004185525
23	0xbd904844	-0.070450336
24	0x3e3d17e9	0.18466152
25	0x3d8ad76c	0.0677937
26	0xbda82171	-0.082095034
27	0x3c3f21d1	0.011665777
28	0x3e18c015	0.14917023
29	0x3d9c8111	0.07641805
30	0xbe0c71a6	-0.13715228
31	0xbdf75c02	-0.12078096

bias f4 [32]
0	0x3d710ffc	0.058853135
1	0x3d0b9dbd	0.034085978
2	0xbd37a474	-0.04483457
3	0x3dfe2c95	0.12410847
4	0xbdcd4065	-0.10022048
5	0xbdc4a871	-0.0960244
6	0x3ceb66fb	0.028735628
7	0xbdb9d7c1	-0.09074355
8	0x3d9e9ced	0.07744775
9	0x3cd7955b	0.026316335
10	0xbd043415	-0.03227623
11	0x3df9ed36	0.122034475
12	0xbc8b5757	-0.01700942
13	0x3dc79c83	0.09746649
14	0xbd94af4b	-0.07259997
15	0x3d20662d	0.039159942
16	0xbd2fafed	-0.042892385
17	0x3dc3e6af	0.09565484
18	0x3d205a1a	0.039148428
19	0xbc84f8cb	-0.016231915
20	0xbdbe784f	-0.09300291
21	0x3b601164	0.0034190053
22	0x3dbaeede	0.091275916
23	0x3e008134	0.12549287
24	0x3d135353	0.035968136
25	0x3c87e016	0.016586345
26	0xbc4082b8	-0.011749916
27	0xbd597b66	-0.053096198
28	0xbd6cc0e3	-0.05780114
29	0x3e009ea5	0.12560518
30	0xbd304610	-0.043035567
31	0x3c1b7823	0.009489092

weight_orig f4 [32, 43, 1]
0	0xbe1bf367	-0.1522957
1	0x3e0b1419	0.13581885
2	0x3cee3acb	0.029080769
3	0xbe159d54	-0.14610797
4	0x3d6b060b	0.05737881
5	0x3d98cc7f	0.074608795
6	0xbd1572e1	-0.03648651
7	0xbccd714b	-0.025078436
8	0xbdc3c9c1	-0.09559966
9	0xbda2cfa4	-0.079497606
10	0x3e00e6e8	0.12588084
11	0xbcabd57e	-0.020975824
12	0x3d3a0537	0.04541513
13	0x3d484f48	0.048903733
14	0x3da8a627	0.08234816
15	0xbdf66d07	-0.12032514
16	0xbcdf7b57	-0.027280493
17	0xba680c85	-0.0008851963
18	0x3daddf44	0.0848985
19	0x3c3935b5	0.011304309
20	0x3dd8cc26	0.10585813
21	0x3d9e9e86	0.0774508
22	0xbd8cff68	-0.068846524
23	0xbe214d06	-0.15752038
24	0x3e03f38f	0.12885879
25	0xbc0b82ca	-0.008515069
26	0xbe1e5258	-0.15461099
27	0x3d4d2815	0.050087053
28	0xbdc59bd2	-0.09648861
29	0x3d8e51e4	0.06949213
30	0xbd397997	-0.045281973
31	0x3a92fb78	0.001121386
32	0xbdf74a65	-0.120747365
33	0x3e099325	0.13435037
34	0x3d10a246	0.035311006
35	0x3df62a30	0.120197654
36	0x3b1d51c0	0.0024005026
37	0x3d99efef	0.07516467
38	0xbdee5f90	-0.11639321
39	0x3d35a826	0.044349812
40	0xbcf2ce74	-0.02963946
41	0xbd65b666	-0.05608215
42	0xbd9be3c6	-0.07611804
43	0x3db2e8ed	0.08735833
44	0x3da014ff	0.07816505
45	0x3e0209fb	0.1269912
46	0x3e12331a	0.14277306
47	0x3d057866	0.032585524
48	0xbc821c40	-0.015882611
49	0x3e1fec1b	0.15617411
50	0x3d9647e6	0.07337932
51	0x3dad9fe7	0.084777646
52	0x3d1f3a72	0.038874097
53	0x3c70270f	0.01465775
54	0xbe05d8b3	-0.13070945
55	0xbddbdea4	-0.10735825
56	0x3d904038	0.07043499
57	0x3e05890a	0.13040558
58	0xbdd7862c	-0.10523638
59	0x3d4f1515	0.050557215
60	0x3c8585c1	0.01629913
61	0xbdd1b7e7	-0.10240155
62	0xbda234f5	-0.07920257
63	0xbd98a7ef	-0.07453906
64	0x3d82b0c0	0.06381369
65	0xbcb04e9e	-0.021521863
66	0xbd2cc4f8	-0.04218003
67	0x3c15d8e4	0.009145949
68	0x3ddea443	0.10871174
69	0xbdc0d4ea	-0.0941561
70	0xbcb4308a	-0.021995801
71	0xbda540b7	-0.08068984
72	0xbcd5aed9	-0.02608435
73	0x3d3bc2c2	0.045840032
74	0xbc5fd10e	-0.013660682
75	0xbe1d6b98	-0.15373075
76	0xbca6b298	-0.020348832
77	0x3dd76449	0.10517175
78	0xbde6c3fa	-0.11267848
79	0x3c830296	0.015992444
80	0x3d02c3a7	0.03192487
81	0xbce80813	-0.028324163
82	0x3d81bf5d	0.06335328
83	0x3dd8528a	0.10562618
84	0xbdc67b1a	-0.096914485
85	0x3daa6705	0.08320431
86	0x3ba49df6	0.005023713
87	0xbdfa07b1	-0.12208498
88	0xbd3dac96	-0.04630717
89	0xbcd26994	-0.02568511
90	0xbe0c954c	-0.13728827
91	0x3d84b2f7	0.06479447
92	0xbbc81fc0	-0.0061073005
93	0x3cb2f13e	0.021843549
94	0x3e1119b4	0.14169961
95	0xba763fd0	-0.0009393664
96	0xbc34ddb7	-0.011039189
97	0xbd02cc82	-0.031933315
98	0x3d80beb7	0.06286376
99	0xbe04559c	-0.12923282
100	0x3d932517	0.07184809
101	0xbd5544ec	-0.052067682
102	0x3db31082	0.08743383
103	0xbe17375a	-0.14767209
104	0xbaa915db	-0.001290019
105	0xbe01a33a	-0.12659922
106	0xbe1c3359	-0.15253963
107	0x3de7813f	0.113039486
108	0x3d801c90	0.06255448
109	0x3decbdfa	0.11559673
110	0xbd287843	-0.041130316
111	0xbd89d83b	-0.06730696
112	0xbddb913b	-0.1072106
113	0xbcd3191e	-0.025768813
114	0x3c5cc5d8	0.013474904
115	0x3d1ced15	0.038312037
116	0x3d136ebc	0.035994276
117	0x3d11ba29	0.035577927
118	0xbd56cbc0	-0.052440405
119	0xbd4a9101	-0.049454693
120	0x3b332659	0.002733609
121	0xbd22f316	-0.039782606
122	0x3c122a77	0.008921257
123	0x3cd07394	0.025445737
124	0x3d5cc9a4	0.053903237
125	0xbe0f6c3c	-0.14006132
126	0x3c372a5b	0.011179532
127	0xbd5c767b	-0.05382393
128	0x3de01af3	0.1094264
129	0x3e1f4c8f	0.15556549
130	0xbe00e704	-0.12588125
131	0xbe02be65	-0.12767942
132	0xbc5cbbb4	-0.013472486
133	0x3e033e79	0.128168
134	0x3e0b903b	0.13629238
135	0xbdb0d382	-0.08634092
136	0x3ddff118	0.10934657
137	0xbdff6c57	-0.12471836
138	0xbe1877bb	-0.14889424
139	0x3e1a3999	0.15061034
140	0x3d9abd9b	0.075556956
141	0xbb18116d	-0.0023203746
142	0xbda636cc	-0.081159204
143	0x3dbd7380	0.092505455
144	0x3de20473	0.11036005
145	0xbda1984a	-0.07890375
146	0xbe114b3f	-0.1418886
147	0x3d1c34e3	0.038136374
148	0xbe0a663b	-0.1351556
149	0xbb9a84b6	-0.0047155274
150	0xbdffb188	-0.12485033
151	0x3dfdf7e0	0.12400794
152	0x3e1c3be9	0.15257229
153	0x3e1e2129	0.15442337
154	0x3d9ee407	0.077583365
155	0xbe1d99dc	-0.15390724
156	0xbd9888fb	-0.07448002
157	0xbe2ad2fd	-0.16682048
158	0xbd4913e7	-0.049091246
159	0x3de37441	0.11106158
160	0x3e051210	0.12995172
161	0xbd88015e	-0.06640886
162	0x3d5d1aa9	0.053980503
163	0xbd42d751	-0.047568623
164	0xbd3cbe69	-0.046080027
165	0x3db0c22e	0.08630787
166	0x3d105882	0.035240658
167	0x3d8e7bbb	0.069571935
168	0x3e01e4df	0.12684964
169	0x3da55a0b	0.08073815
170	0x3d8a2c27	0.06746703
171	0x3e158b44	0.14603907
172	0x3dfc94cc	0.12333068
173	0xbdfdf467	-0.12400132
174	0xbdd023cd	-0.101630785
175	0x3cc53713	0.024074113
176	0xbd750013	-0.059814524
177	0x3c9a0ff0	0.018806428
178	0xbe38d6bb	-0.18050663
179	0x3bc2331b	0.0059265024
180	0xbdc4ebff	-0.09615325
181	0xbdfecb33	-0.12441101
182	0xbe198ed7	-0.14995895
183	0x3de902ef	0.11377513
184	0xbbce0a51	-0.006287851
185	0xbbdb7bb8	-0.006698098
186	0x3e1be1b1	0.15222813
187	0x3c0bda0b	0.008535872
188	0xbe2012b7	-0.15632139
189	0xbdab36fb	-0.08360096
190	0x3dcfbac7	0.10143047
191	0xbdeaaddd	-0.11458943
192	0xbe117df5	-0.14208205
193	0x3d8bb124	0.06820896
194	0xbdc46f64	-0.095915586
195	0xbdb62930	-0.08894575
196	0x3c3b1673	0.0114189265
197	0x3c68dc84	0.014212731
198	0x3d463a93	0.048395704
199	0xbc2d1331	-0.010563658
200	0xbcc5b835	-0.024135688
201	0xbe0ef427	-0.13960324
202	0x3dcc2795	0.09968487
203	0x3dc6cbe2	0.09706856
204	0x3d2655e3	0.04060925
205	0xbd17288d	-0.036903907
206	0xbd40636a	-0.04696981
207	0x3d0e6e4b	0.034773152
208	0xbe0d0dbd	-0.13774772
209	0x3d92975e	0.07157777
210	0x3d540eb2	0.051771827
211	0xbd9375e0	-0.07200217
212	0xb9dc0386	-0.00041964295
213	0x3d825456	0.06363742
214	0xbe16ad89	-0.14714636
215	0xbe28f624	-0.16500145
216	0xbdfeadf9	-0.124355264
217	0xbe164f10	-0.14678597
218	0x3e006a8f	0.12540649
219	0x3d0260dc	0.031830654
220	0xbde980a9	-0.11401493
221	0x3c4a28ff	0.012338876
222	0xbddf8a42	-0.109150425
223	0x3e2195b6	0.15779766
224	0x3de1f428	0.11032897
225	0xbd75a670	-0.05997318
226	0xbe0c7404	-0.13716131
227	0x3e0f577a	0.13998213
228	0xbdccac50	-0.099938035
229	0x3d87f93b	0.06639334
230	0xbdd77d98	-0.10522002
231	0x3e008a12	0.1255267
232	0xbd446d1f	-0.04795563
233	0xbdbaff3c	-0.09130713
234	0x3dc586be	0.09644841
235	0x3e07a4a5	0.132464
236	0xbdbed7de	-0.09318517
237	0x3d6c7881	0.05773211
238	0xbdd96daa	-0.1061662
239	0xbdb4b556	-0.088236496
240	0xbd032f59	-0.032027576
241	0x3dc1af89	0.09457309
242	0x3d082479	0.033237908
243	0xbdf7f000	-0.12106323
244	0xbcf12163	-0.029434865
245	0x3d21a0e8	0.039460093
246	0xbdcb708e	-0.099335775
247	0x3df8d965	0.1215084
248	0x3dfa949f	0.122353785
249	0x3cf321ac	0.029679142
250	0xbc274cbb	-0.010211165
251	0xbd157207	-0.036485698
252	0xbd1f987e	-0.038963787
253	0x3d35ff27	0.044432785
254	0x3c8dd61c	0.01731401
255	0xbbddc164	-0.0067674387

weight_u f4 [32]
0	0xbc333a90	-0.010939255
1	0x3dca8751	0.09889091
2	0xbd1f5330	-0.038897693
3	0x3e4e1b29	0.20127548
4	0xbde58caf	-0.11208474
5	0xbe121158	-0.14264429
6	0xbe5cfdc0	-0.21581173
7	0x3dabf7be	0.083968624
8	0xbea644bf	-0.32474324
9	0xbdfc781e	-0.12327598
10	0xb9b43564	-0.00034372055
11	0xbdc0726b	-0.093968235
12	0x3e40352f	0.18770288
13	0x3e52ea7c	0.20597261
14	0x3cc08ac6	0.023503672
15	0x3d317852	0.043327637
16	0xbe95ca96	-0.29256123
17	0xbe73b886	-0.23800859
18	0x3d6cc862	0.057808287
19	0x3e2de386	0.16981325
20	0x3e55d249	0.20880999
21	0x3d8ad5d1	0.067790635
22	0xbdd12c5f	-0.10213541
23	0xbdb786b0	-0.089612365
24	0xbec279ce	-0.37983555
25	0x3d6d4ee3	0.05793656
26	0xbe443ddb	-0.19164221
27	0xbda05a55	-0.078297295
28	0x3e99bfe7	0.30029222
29	0xbe0bdf18	-0.13659322
30	0xbe4865b7	-0.19570051
31	0xbe8a9715	-0.2706839

weight_v f4 [43]
0	0x3da9d9c9	0.08293492
1	0x3dd6e730	0.10493314
2	0x3e74d96b	0.23911063
3	0x3dfae4eb	0.12250694
4	0xbe0fbe91	-0.14037539
5	0x3db223cb	0.08698233
6	0x3e737c38	0.23777854
7	0x3cad2d85	0.02113987
8	0xbe909ddb	-0.28245434
9	0xbde5bc16	-0.11217515
10	0x3e3010a8	0.17193854
11	0xbd8ec596	-0.0697128
12	0xbe9624fc	-0.29325092
13	0xbe86284b	-0.26202616
14	0xbe5dd966	-0.21664962
15	0x3cd6f61b	0.0262404
16	0x3d818014	0.06323257
17	0x3da41c27	0.08013182
18	0xbcde8103	-0.027161127
19	0xbdf488b4	-0.119401366
20	0xbde528c6	-0.111894175
21	0xbeaab7d0	-0.33343363
22	0x3e2fb78e	0.17159864
23	0x3e14ef7a	0.14544478
24	0x3e731cb4	0.23741418
25	0x3e460615	0.19338258
26	0xbd9b406a	-0.075806454
27	0xbe3fd01d	-0.18731733
28	0xbe3569dc	-0.17716163
29	0xbda8e619	-0.08247013
30	0xbe1831a2	-0.14862683
31	0x3d563bc5	0.052303094
32	0xbca8aba7	-0.020589663
33	0x3db60fe6	0.08889751
34	0x3d9d4600	0.07679367
35	0x3ca8f3ef	0.02062413
36	0x3dc436fb	0.09580799
37	0x3e1fe295	0.15613778
38	0x3b1f9f7e	0.002435654
39	0x3e18b792	0.14913777
40	0x3ce21442	0.02759755
41	0x3d62aafc	0.055338845
42	0x3e21ec84	0.1581288
