Models/M4/2fade/2fade_discriminator.pt (torch, 128321 bytes, 68 tensors)

weight f4 [347, 10]
00000000: 702e f13f 4664 ccbf 711d ef3e e725 a9be
00000010: 1d61 6f3c a811 403f c4b1 643f ebfe c9be
00000020: 4fa8 863f e8de 233e c06a c93e 104f 21bf
00000030: 0900 a9bf eaf0 ae3f 7571 613e 29a8 a33f
00000040: c0eb eb3f aaf1 2f3f fc5a 03bf 6f6a 8a3f
00000050: 8fb7 dfbe fe47 aebe 0beb 1340 c62f 2cbf
00000060: bf02 a53f 547d 963f b576 ec3e 88f1 9dbf
00000070: b197 80bf 4952 5cbf da05 c63f 78bd c9bb
00000080: 4944 c23e 5ddf 78bf 9e04 e5bf 1f9f a83f
00000090: 0f37 4dbf c2a0 c0be d4f4 f73c c03c 1f3f
000000a0: 6d1a 5f3e 5f37 35bf 664f 353f 9ea9 4c3f
000000b0: d1dd 043f 634a 33be e6fa 8b3b c5d9 083f
000000c0: eb9a 5ebe 8bd8 a13f 8053 fabe 8dc9 d43f
000000d0: f364 4bbe fcd6 b2be c3a0 06bf a4ea 373e
000000e0: 7857 9a3f 68f5 69bf 5c1d 1bbf b04b 823d
000000f0: 9ec6 8d3f 8446 0fbf 809b cd3e 71e7 cabe
00000100: 8321 d53e 4fa4 9dbf 7fc9 1dbf 09cf 4c3f
00000110: cc86 84bf b5c0 e3be 80d8 bc3f f52d 363f
00000120: 9f61 89bf dc19 0c3f ba2f 933e 524d 9fbd
00000130: 29bd 473f 67f0 1bc0 629e f33f 52f2 2cbf
00000140: 1902 a6bf bd51 05bf cb8d 04c0 b668 5fbf
00000150: 3615 eabd ff17 67bf d4f1 a23f 1c12 1740
00000160: 7c61 2e3f 1fc3 dfbc aa66 96bf c669 d03f
00000170: b0e7 6bbf a2f4 06c0 8cd1 12bf 4bf2 c93e
00000180: fb87 05bf c0db 383e 27cd 92be 258d 033f
00000190: c479 2abf dd2a 963e a89b 603e 69e8 a83f
000001a0: 6a5e dbbd 360b 673e 523c f0bf 3884 1dbe
000001b0: 2403 0a40 c766 4ebf ca3b 953e a678 b3bd
000001c0: bfa3 a13f 15a6 893f a11a 403f c1a9 b43e
000001d0: 5087 223f 7b1a df3e b6ef 11c0 675d 913f
000001e0: 82ef 5b40 f5b7 62bf a611 97be 41e3 493f
000001f0: 2eab 1cbf 8a60 06be fe66 8dbe c2e7 fc3e
00000200: 3f97 f7be 540e bcbf bf43 963e da3c ff3d
00000210: 681e 17bf 9601 8a3f 6a7d 0040 2072 f3bf
00000220: 59b6 efbe cc38 9bbe 9217 16bf a75c 12c0
00000230: f2d0 0abf c4e0 973f e74e 0a3f 63a1 873f
00000240: 8fa4 be3d e8a9 c23f 2e2e 82bf f3f0 eabe
00000250: 57d6 b43f 6e51 92bf 422f 57bf 12a1 95bf
00000260: 7ca2 20bf 906b b03e 846b 6dbf d0d8 853e
00000270: 6486 40bf 02c3 0ebe 5a3e 01bf ba99 b43f
00000280: e3fd cdbe ad8c 123d 95a0 f13f c8ed 96bf
00000290: 4bf4 70bf a293 923f 47b7 193f 5191 c1be
000002a0: 5a79 76bf c5c6 513e a88b 24be 57e7 b4bf
000002b0: 1acb c8be de20 0040 bcb7 2c3f a6b1 d8bf
000002c0: 73c6 61bf 9552 f2be 38a5 0840 1ad1 473f
000002d0: 6f65 0f3f 996d 233f 04c0 e4bf 439c c23f
000002e0: 9e7b 18c0 6792 fdbf b2c6 c63f 9666 5bbe
000002f0: 3b4e 293e 65ad b2bd f183 10bf 09b1 fbbf
00000300: e342 2dbf 2d35 c0be 82bd cb3f 4209 9bbd
00000310: 81e3 0340 4a3f 0fbf 9110 313f aab7 8abd
00000320: d613 813f c7da 853f f444 763f 7474 163e
00000330: f9cb 3b3f 10b5 743f db91 b33f 45fe 663f
00000340: 3479 0b3f 63ec e23e f75f 27bf 7436 10bf
00000350: 66bb c0bf 7202 c83f 47b1 fa3e 7cf6 d7bf
00000360: 13d2 0e3f 4485 5d3d 136f b2bf 5ece 943f
00000370: 1dd1 2dbf 8e69 bd3f f5d7 d9be 1e59 89bf
00000380: ae6d c13f 9660 3d3f 86ec 15c0 f40c 0bc0
00000390: 032d c73e b9dc 8b3e 3506 98bf e8bb eebf
000003a0: f084 ad3f c02b 5dbf dae3 eb3f da8a 48bf
000003b0: 6e76 0340 a476 2440 d107 c3bf 5c73 92bf
000003c0: b9d9 a13f 46bf 1e3f 4f9b d5bf e125 0340
000003d0: 02ef 6a3f af84 c3bf 0773 883e 9c03 fa3e
000003e0: 436b 523f 41dd ffbe 2cba 563d caba 84bf
000003f0: 2711 e03f cc81 4d3f 13df 87bf a928 4c40
1.8842297 -1.5968101 0.4670215 -0.3303673 0.014610556 0.7502694 0.8933375 -0.394523
1.0520114 0.16003 0.39339256 -0.63011265 -1.3203136 1.3667271 0.22015937 1.2785693
1.843132 0.68728125 -0.51310706 1.0813731 -0.43694732 -0.340393 2.311221 -0.67260396
1.2891463 1.1756997 0.46184316 -1.2339334 -1.0046293 -0.8606306 1.5470536 -0.0061566196
0.37942722 -0.97215825 -1.7892034 1.317356 -0.8016214 -0.37622648 0.03026811 0.6220207
0.21787424 -0.70787615 0.7082428 0.79946315 0.51900965 -0.17508845 0.004271853 0.5345729
-0.21738784 1.2644209 -0.4889183 1.6624008 -0.19862728 -0.34929645 -0.5258905 0.17960602
1.2057943 -0.91390085 -0.60591674 0.063620925 1.1076238 -0.55966973 0.401577 -0.396297
0.4162713 -1.2315768 -0.61635584 0.8000341 -1.0353637 -0.4448296 1.475357 0.71163875
-1.0732917 0.5472696 0.2874735 -0.077784196 0.7802301 -2.436548 1.903271 -0.6755725
-1.296939 -0.5207785 -2.0711544 -0.8726915 -0.11429827 -0.9027099 1.273005 2.3604803
0.681175 -0.02731472 -1.175008 1.628228 -0.921504 -2.1086812 -0.57350993 0.39442667
-0.52160615 0.18052578 -0.28672144 0.51387244 -0.6659205 0.29329577 0.21934378 1.3195926
-0.107113674 0.2256287 -1.8768408 -0.15382469 2.1564417 -0.80625576 0.29147178 -0.08763246
1.2628096 1.0753809 0.7504063 0.35285762 0.6348772 0.4357489 -2.2802558 1.1356629
3.4364934 -0.88561946 -0.29505652 0.78862387 -0.611987 -0.13122764 -0.2761764 0.49395567
-0.4835758 -1.4691873 0.2934856 0.124627784 -0.5903077 1.0781734 2.0076547 -1.9019203
-0.46818808 -0.3031677 -0.58629715 -2.286905 -0.54225075 1.1865468 0.54026645 1.0596126
0.09308731 1.5208101 -1.0170343 -0.45886955 1.4127911 -1.14311 -0.84056485 -1.168978
-0.6274793 0.34457064 -0.9274218 0.26141977 -0.75205064 -0.13941577 -0.50485766 1.4109414
-0.40232763 0.03577869 1.8877131 -1.1791315 -0.9412276 1.1451304 0.60045284 -0.3780618
-0.9627892 0.20485981 -0.160689 -1.4133099 -0.39217454 2.002006 0.67467856 -1.6929214
-0.88193434 -0.4732863 2.1350842 0.7805344 0.5601415 0.6383911 -1.7871099 1.5203937
-2.382545 -1.9810303 1.5529387 -0.21425852 0.16533749 -0.08724479 -0.56451327 -1.9663402
-0.67680186 -0.3754057 1.5917208 -0.07570125 2.0607607 -0.55955946 0.69165903 -0.067733124
1.0084178 1.045739 0.96198964 0.14692861 0.7335811 0.9558878 1.4028887 0.90231735
0.54481816 0.44320974 -0.65380806 -0.5633309 -1.505719 1.5625746 0.48963377 -1.6872096
0.557893 0.05408217 -1.3940147 1.1625478 -0.67897207 1.4797838 -0.42547575 -1.0730321
1.5111597 0.73975503 -2.3425612 -2.1726656 0.3890153 0.27316836 -1.1876894 -1.8651094
1.3556194 -0.8639488 1.842891 -0.7833687 2.0541034 2.5697412 -1.523676 -1.1441455
1.2644569 0.6201061 -1.6688021 2.049187 0.91770947 -1.5274867 0.2665026 0.4883088
0.8219492 -0.4997349 0.05242364 -1.0369503 1.7505234 0.8027618 -1.0614952 3.1899817

bias f4 [32]
00000000: 611e bfbb e053 9c3e 224c e43d 17d3 9b3e
00000010: ac62 85bc d605 d33e 47d7 073e 0a32 403e
00000020: ecd1 5dbd 2399 a8bd 5356 b03e 6e62 19be
00000030: d62d e13d e4b2 743e c7d6 fb3d 68be 94bd
00000040: 2eac ae3e cbef 963e da32 5c3c 7c84 01be
00000050: 1b34 14be fdd0 3d3e ec1a b43e 5bc7 32bc
00000060: 578b 4e3e 2033 8a3e d720 db3d 3b24 d23e
00000070: 885f 11be cae8 14be 9c4a 9b3e 08b5 b63c
-0.005832479 0.30532742 0.11147334 0.30434486 -0.016282402 0.4121539 0.13265716 0.18769088
-0.054155275 -0.082323335 0.3444086 -0.14978954 0.10995071 0.23896366 0.12296825 -0.072628796
0.34115738 0.29479823 0.013439858 -0.12648195 -0.14473002 0.18536754 0.3517679 -0.010911788
0.20170341 0.2699213 0.10699623 0.41043267 -0.14196599 -0.14541927 0.3033036 0.02230312

weight_orig f4 [32, 12, 1]
00000000: 3eb2 923e 075d cd3d 7a47 73be 72ec ea3d
00000010: e5e5 1cbe 836e 523d 9804 fcbd eea0 b5bd
00000020: a057 e53d 7286 8d3d a841 fa3c 037a b03b
00000030: d483 58be f269 a53e affd b73e fa26 553d
00000040: 078b 6a3e 2fbd ad3d f424 85be c62e 613b
00000050: e070 5fbe 543b 78be c039 863e 1cdd 5e3d
00000060: df19 59be 9c4d 3d3e 222d 253d b3af f73d
00000070: 8027 09be a0fa c73d ce4f abbc ff9c 80be
00000080: d01b 9abc 8db9 77be 7cf6 16bc e9c3 ae3e
00000090: b0eb 7d3e 4352 813e 8478 92bd 8534 11bd
000000a0: f5e7 a83e 60ec 2ebe 948f 903e a4f5 913d
000000b0: e883 11be 6420 92bc 5db0 273e a829 3bbe
000000c0: c7de 04be 39a8 f8bd d65a 76be 3b50 823e
000000d0: f1a7 083c e61b abbd 96b5 9abb 105e 763c
000000e0: ab2d 19be f356 96be fc51 f9bd 76c9 643e
000000f0: dd32 88be db6a fdbd d7b1 8e3e 6f62 bc3d
00000100: c680 353e bc65 263e 10e8 873e 282a 7c3c
00000110: f5bf 483e 2c3d 84be 5417 783e 1761 b73e
00000120: da59 f9bd 0ff7 453e 02c7 513e ffd1 5dbc
00000130: 1316 62be b3d5 95bc 997b 913e c992 0dbe
00000140: d381 b2bd 9c92 823e d0e8 09be 40e6 babd
00000150: 5572 b6bd 76dd 90bd 4773 1ebd 9938 53be
00000160: 9f58 e83d da24 14be a3da dcbd b5bd 3ebe
00000170: 096c 5dbe 0fe2 163e 1dc2 bf3d 5c96 c73e
00000180: 0ac4 363d 4b7e 343e 52b4 a0be c779 173e
00000190: 1535 39be 66e4 8e3d 8a69 9bbd 600f 5b3d
000001a0: 15dd b63c 0b8e 333e 29c7 07bd 11af 72be
000001b0: d6dc bd3d 711a 433e a020 86bc cf14 69be
000001c0: da03 4c3e 16d0 ee3d 862b 95be bb19 863e
000001d0: a6cb ae3d 6c2f 44be c452 273e 011c 783e
000001e0: 38d4 313b 27ba 8bbe f211 79be 6797 763e
000001f0: 1693 5c3e baf7 933e f1c8 e0bd 80a0 633d
00000200: b2f5 1fbe a570 fb3c 3fb6 f93d 71e2 803e
00000210: 2076 273d a9a9 83be d497 e13d 7cdd c4bd
00000220: 2032 88bd d81b 78be 0ba0 4c3e 1ed6 c2bd
00000230: 67bc 593e adc2 7bbe 26dd db3d 969a ebbd
00000240: 42e2 67be 03d6 cbbd 7b4a 47be 3d68 7d3d
00000250: c7c5 243d ca5d c1bd 7bae 3dbe ac3c 79be
00000260: 40f5 4f3d 961c 4ebe c595 a53c f02e 18be
00000270: 8104 623e 14bb 423e cc72 223e a440 50bd
00000280: 1b1b d7bd 2835 813d eea1 bebd eefd 953b
00000290: 1d22 a23d 6777 6bbe 2a6a 40be 242d 823e
000002a0: d8b9 773e b1c2 f43c ab62 8cbd 3a11 253e
000002b0: e76d cb3c 29de c3be d143 283e bdda 7bbe
000002c0: a059 a83d 8d3e 9d3c c25e dabd 7754 4abe
000002d0: 3d72 57be 26ca 943d 2050 f7bd dd9b 2d3e
000002e0: 4685 273d 5b3a 223e 7ac3 acbd 4311 c5bd
000002f0: ee74 1bbe 086c 463e 4f10 133e 8c07 8cbd
00000300: fd21 703e d667 c03d 6a59 6f3d 2951 433e
00000310: 32fd 0f3d 7059 4e3e 1cb7 ee3d 76ab 99be
00000320: b19a 513d e36e 2cbe c001 013e 74f2 8cbd
00000330: f8cb d3bd 2ca9 9e3d 3c63 fc3d cb4f a6bd
00000340: be20 08be cbdc 853d 8605 8a3d ffb9 c43d
00000350: 1d75 183d 21d3 153d a3d4 083e 7ec0 3bbe
00000360: 4605 f23d 5def 9c3c 45a0 593e 1d5b 933e
00000370: 5fee 083e e51e 54be 1441 ccbd ee17 503d
00000380: 2c08 323e b9da 563e b51f 493d 6438 913e
00000390: 4699 abbc e03a 973d 9a6a 53bd 9e51 f23d
000003a0: 52e5 ebbd 22d3 0e3d 3c9a 443e b4ab 873d
000003b0: 2696 2d3e 5cf1 b83d 9367 8a3d b431 203e
000003c0: e85d f93d 8429 753e 23f6 29bd 4deb 1fbe
000003d0: a0b2 9dbe 21bd 41be f967 8cbc 1f57 173c
000003e0: e603 69be 8d2d 66be f2ed ec3c ead0 2c3e
000003f0: 95e8 80be e6ed 0cbe f6b0 4b3e ab8e ed3d
0.28651613 0.10027509 -0.23757735 0.114708796 -0.15322073 0.051374923 -0.12305564 -0.088685855
0.11198354 0.06910409 0.030548885 0.0053856387 -0.21144038 0.32307392 0.35935733 0.052039124
0.22904597 0.084833495 -0.26004755 0.0034360155 -0.21820402 -0.24241382 0.26215935 0.054410085
-0.21201275 0.18486637 0.040326245 0.12094059 -0.13393974 0.097646 -0.020912077 -0.2511978
-0.01881209 -0.24191876 -0.00921404 0.34133843 0.24796939 0.25258073 -0.07151893 -0.035450477
0.3298947 -0.17082357 0.2823454 0.0712693 -0.14210474 -0.01783771 0.16375871 -0.1827761
-0.12975608 -0.12141461 -0.24058089 0.25451836 0.008340822 -0.083549306 -0.0047213538 0.015037075
-0.14958827 -0.29363212 -0.121738404 0.22342476 -0.26601306 -0.12373897 0.27870056 0.09198462
0.17724904 0.16249746 0.26544237 0.01539091 0.19604476 -0.2582792 0.24227649 0.3581626
-0.12175341 0.19332527 0.20486072 -0.0135388365 -0.22078733 -0.018290376 0.2841461 -0.13825525
-0.08716168 0.2550248 -0.13467717 -0.09125948 -0.08908526 -0.0707349 -0.038684156 -0.20627059
0.11345028 -0.14467183 -0.10783889 -0.18627055 -0.21623243 0.14734672 0.09363196 0.38981903
0.04462055 0.17626302 -0.31387573 0.14792548 -0.18086655 0.06977157 -0.07588489 0.05348146
0.022322217 0.17534654 -0.03314892 -0.23699595 0.09270637 0.19053055 -0.016372979 -0.22761844
0.19923344 0.11660783 -0.29134768 0.26191506 0.085349366 -0.19158715 0.16340166 0.24229433
0.002713455 -0.2729046 -0.24323252 0.24081193 0.21540484 0.28899938 -0.109758265 0.055572987
-0.15621069 0.030693362 0.12192964 0.2517276 0.040884137 -0.25715378 0.11015287 -0.09612557
-0.066501856 -0.24229372 0.19982927 -0.09513496 0.21263276 -0.24585982 0.1073554 -0.11504094
-0.22644904 -0.09952929 -0.19462006 0.061866987 0.040227678 -0.09441717 -0.1852359 -0.2433955
0.050770998 -0.20128092 0.020213017 -0.14861655 0.2207203 0.19016677 0.15864104 -0.050842896
-0.10503217 0.06308967 -0.093082294 0.00457739 0.07916663 -0.22994767 -0.18790498 0.25425065
0.24191988 0.029877992 -0.06854757 0.16119853 0.024832679 -0.38255432 0.1643212 -0.24595161
0.082202196 0.019194866 -0.10662605 -0.19758783 -0.21039672 0.07265119 -0.120758295 0.16953988
0.040898584 0.15842573 -0.08435722 -0.09622433 -0.15181324 0.19377148 0.1436169 -0.06837377
0.23450466 0.09394805 0.05843488 0.19073929 0.035153575 0.20151305 0.11656019 -0.30013627
0.051172916 -0.16839175 0.12598324 -0.06882182 -0.10341638 0.07747111 0.12323615 -0.08120688
-0.1329374 0.065362535 0.06739335 0.096057884 0.037221063 0.0365783 0.13362364 -0.18335149
0.11817412 0.019157106 0.21252544 0.2878045 0.13372181 -0.2071491 -0.0997335 0.05080407
0.1738593 0.20981874 0.049102504 0.28363335 -0.02094711 0.073842764 -0.051615335 0.118319735
-0.11518349 0.03486932 0.1919946 0.06624547 0.16951808 0.09030411 0.067580365 0.1564396
0.12176114 0.23941618 -0.0414945 -0.15617104 -0.30800343 -0.18919803 -0.017139422 0.00923708
-0.22755393 -0.22478314 0.028922055 0.1687657 -0.25177446 -0.13762626 0.19891724 0.115994774

weight_u f4 [32]
00000000: cdc5 06be 7769 e53e f111 773e 94ae dcbd
00000010: 71f8 a43d dd2c a03e 55df 03be 1d55 213e
00000020: decf 56be d77e 963e 5f39 f53d 2a94 b1bd
00000030: 15ef 8e3c dd01 0d3e 9314 90be cdf5 063d
00000040: a2b1 eebb 8b0e 1dbc 37d9 a53d d8d2 28bd
00000050: f126 813d fc93 62ba 3a98 4dbe e964 2abe
00000060: 1c4f d93d 2660 13be ddf9 b1be a063 c73d
00000070: cc3d 7dbe 7905 b13d b386 563d e71a b33c
-0.13161393 0.44807026 0.24127938 -0.10775486 0.08055199 0.31284228 -0.12878163 0.15755124
-0.20977733 0.29393646 0.11973833 -0.08670838 0.017447988 0.13770242 -0.28140697 0.032949258
-0.007284359 -0.009585987 0.08098071 -0.0412167 0.063062556 -0.0008643267 -0.20077601 -0.16640057
0.10610792 -0.14392146 -0.34760943 0.09735799 -0.24730605 0.08643622 0.052374553 0.021863414

weight_v f4 [12]
00000000: ef11 a8be fd9f 203e 6064 c83e 8d08 1abd
00000010: 77cf 693e 4a02 523e d126 c8be 2872 903d
00000020: b3d4 0fbe 96a5 bdbe 5aea 813e 9eb0 fa3e
-0.32826182 0.1568603 0.3913908 -0.03760581 0.22833048 0.20508686 -0.39092115 0.070530236
-0.14045982 -0.37040395 0.2537411 0.48962873

weight f4 [32, 12, 1]
00000000: 8e23 4c3e aae3 8e3d 4a45 29be fb74 a33d
00000010: de55 dabd 706a 123d d959 afbd fbbf 7cbd
00000020: d392 9f3d 65f1 443d 1820 ae3c 9b94 753b
00000030: 00a6 16be 922f 663e c504 803e 074f 143d
00000040: 3231 233e 5ac5 713d c747 39be eaad 1c3b
00000050: aa77 1bbe 72b7 2cbe f6c8 3a3e d910 1b3d
00000060: 660e 17be fdb6 033e f2da e53c 4b56 ac3d
00000070: 4cdc bebd 9724 8b3d a864 6ebc 9df9 32be
00000080: 2b74 56bc 265d 2cbe 7e13 d2bb f432 733e
00000090: c3ac 303e dbf5 333e 3ad3 4bbd 5c10 cabc
000000a0: a80b 6b3e 446b f3bd d52a 493e 1a1d 4b3d
000000b0: d57e cabd 9858 4bbc 0d5a e93d bb39 02be
000000c0: 20e6 b8bd 3703 adbd 2069 2bbe 4657 353e
000000d0: ca2a be3b 6c1c 6ebd 284a 57bb 5f6b 2b3c
000000e0: c628 d5bd 7d35 51be 5579 adbd e82f 1f3e
000000f0: de87 3dbe 2053 b0bd 0692 463e 5b13 833d
00000100: 3b93 fc3d f58d e73d c61f 3d3e fc73 2f3c
00000110: e4ad 0b3e 3d05 38be 669e 2c3e a12f 7f3e
00000120: ce7e adbd ddbd 093e e4f5 113e ff56 1abc
00000130: d94e 1dbe a181 50bc 4573 4a3e 9102 c5bd
00000140: f767 78bd a5b3 353e 4ee9 bfbd d40a 82bd
00000150: 61e3 7dbd 3697 49bd db7e dcbc 0cf7 12be
00000160: e2a9 a13d 4927 cebd e3aa 99bd 1bb7 04be
00000170: 0d10 1abe 12f7 d13d 4b6c 853d d3de 8a3e
00000180: 1455 fe3c 892b fb3d dba1 5fbe 33ca d23d
00000190: 70dd 00be 61d8 463d 9344 58bd 566b 183d
000001a0: ee77 7e3c 36dd f93d fdf1 bcbc 3fdb 28be
000001b0: a51a 843d 1ec0 073e 00a6 3abc d22c 22be
000001c0: 7ff3 0d3e bc29 a63d d194 4fbe 689c 3a3e
000001d0: b93d 733d d680 08be cdd7 e83d a7a1 2c3e
000001e0: 6176 f73a dc70 42be c64c 2dbe 4493 2b3e
000001f0: 1a79 193e 7ee8 4d3e 0f67 9cbd 4961 1e3d
00000200: 9698 debd e8f2 ae3c 18bf ad3d 405a 333e
00000210: 0209 e93c f737 37be 02f7 9c3d f3f9 88bd
00000220: d786 3dbd 8aa1 2cbe 2c60 0e3e 9490 87bd
00000230: 7c7f 173e fc2b 2fbe 83fa 983d 25ee a3bd
00000240: 8757 21be 99d3 8dbd 07aa 0abe 4d51 303d
00000250: 1f4b e53c bc8a 86bd 64fa 03be 816a 2dbe
00000260: d2b1 103d f368 0fbe 8e6c 663c 4cc6 d3bd
00000270: a042 1d3e c47d 073e 290f e23d 47e6 10bd
00000280: 03ab 95bd 5bcd 333d c8a3 84bd 9cb9 503b
00000290: e29e 613d aad5 23be 39e1 05be 7126 353e
000002a0: 5a5d 2c3e 254d aa3c 5d5b 43bd 1db4 e53d
000002b0: 298b 8d3c 4c48 88be 3e27 ea3d ba3c 2fbe
000002c0: 9745 6a3d 3dd1 5a3c 73f0 97bd 57c7 0cbe
000002d0: a3e7 15be 4f0d 4f3d cc13 acbd fc96 f13d
000002e0: 161e e93c 9ec0 e13d dd69 70bd f91d 89bd
000002f0: 6d54 d8bd 400f 0a3e 75a6 cc3d 90dc 42bd
00000300: d814 273e 9adf 853d 4989 263d 31e6 073e
00000310: 215f c83c 4a93 0f3e 5b18 a63d d3d7 55be
00000320: 0ed7 113d 27f4 efbd d185 b33d 7323 44bd
00000330: 965d 93bd dac9 5c3d b39b af3d 6c6f 67bd
00000340: a66e bdbd 9b47 3a3d 4211 403d 41e1 883d
00000350: f327 d43c 0d7e d03c fc68 be3d aea2 02be
00000360: 1b65 a83d 0b63 5a3c e96b 173e 8e0e 4d3e
00000370: cc8c be3d 4997 13be 181e 8ebd f3c9 103d
00000380: adbe f73d 377e 153e 83f0 0b3d bf15 4a3e
00000390: e4ca 6ebc aa72 523d d719 13bd 3a9a a83d
000003a0: 2522 a4bd 5ac0 c63c 28cb 083e c8cb 3c3d
000003b0: 088f f13d 51ae 803d b499 403d 17ec de3d
000003c0: a181 ad3d b094 2a3e a283 ecbc 1f8a debd
000003d0: c472 5bbe 12cd 06be bf62 43bc f999 d23b
000003e0: 0e21 22be ac27 20be 44da a43c 907c f03d
000003f0: cc62 33be 1d1d c4bd d2b9 0d3e 184a a53d
0.19935438 0.06977017 -0.16530338 0.07981297 -0.10660909 0.035746038 -0.08562059 -0.061706524
0.07791676 0.048081774 0.021255538 0.003747261 -0.14711761 0.22479084 0.2500364 0.03620818
0.15936735 0.0590261 -0.18093787 0.0023907372 -0.15182367 -0.16866854 0.18240723 0.037857864
-0.14751586 0.12862773 0.028058503 0.084148966 -0.09319362 0.06794088 -0.0145503655 -0.17478032
-0.01308922 -0.16832408 -0.006411015 0.23749906 0.17253403 0.17574255 -0.04976199 -0.024666004
0.22953665 -0.11885694 0.19645245 0.0495883 -0.098874725 -0.012411259 0.11394129 -0.12717335
-0.09028268 -0.08447879 -0.16739321 0.17709073 0.0058034407 -0.058132574 -0.0032850597 0.010462611
-0.104081675 -0.2043056 -0.08470408 0.15545619 -0.1850886 -0.08609605 0.19391641 0.06400176
0.123327695 0.11306373 0.18469152 0.010708805 0.13640553 -0.17970748 0.16857299 0.24920513
-0.08471452 0.13451333 0.14253956 -0.009420156 -0.15362109 -0.012726218 0.19770534 -0.0961963
-0.060646024 0.1774431 -0.09370671 -0.063497216 -0.061984424 -0.04921647 -0.026915958 -0.14352053
0.07893731 -0.10066087 -0.07503297 -0.12960474 -0.15045185 0.10252203 0.06514796 0.27123126
0.031046428 0.12264163 -0.21839087 0.10292473 -0.12584472 0.0485462 -0.052799772 0.03721174
0.015531523 0.12200396 -0.023064608 -0.16489886 0.064503945 0.1325688 -0.011392117 -0.1583741
0.13862418 0.08113429 -0.20271613 0.18223727 0.059385035 -0.13330397 0.11369286 0.1685854
0.0018879884 -0.18988365 -0.16923818 0.16755396 0.14987603 0.2010822 -0.07636844 0.038666997
-0.10868947 0.021356061 0.08483714 0.17514896 0.028446678 -0.17892443 0.076643005 -0.06688299
-0.04627117 -0.16858497 0.13903874 -0.06619373 0.14794725 -0.17106622 0.07469656 -0.08004407
-0.15756045 -0.06925125 -0.13541423 0.043046284 0.027989922 -0.0656943 -0.12888485 -0.1693516
0.035325833 -0.14004879 0.014063967 -0.103405565 0.15357447 0.1323157 0.11038048 -0.03537586
-0.073080085 0.043897014 -0.06476551 0.0031848913 0.055083163 -0.15999475 -0.13074197 0.17690445
0.16832486 0.020788739 -0.047694553 0.112159945 0.01727827 -0.26617658 0.11433266 -0.17113009
0.057195272 0.01335555 -0.07418909 -0.13747917 -0.14639144 0.0505498 -0.084022135 0.11796376
0.028456729 0.11023067 -0.05869471 -0.0669517 -0.10562978 0.1348238 0.09992687 -0.047573626
0.16316545 0.06536789 0.04065827 0.13271405 0.024459423 0.1402103 0.08110114 -0.20883112
0.035605483 -0.1171649 0.08765758 -0.04788537 -0.071955845 0.05390344 0.08574619 -0.056502745
-0.0924962 0.045478445 0.04689146 0.06683589 0.025897956 0.02545073 0.09297368 -0.1275737
0.08222409 0.013329278 0.14787258 0.20025083 0.093041986 -0.1441318 -0.06939334 0.035348844
0.120969154 0.14598928 0.034164917 0.19734858 -0.01457474 0.051378883 -0.035913315 0.082325414
-0.08014325 0.024261642 0.13358748 0.04609278 0.11794859 0.06283248 0.047021583 0.10884874
0.084719904 0.16658282 -0.028871361 -0.10866188 -0.21430498 -0.13164166 -0.011925398 0.0064270464
-0.15832922 -0.15640134 0.020123608 0.117425084 -0.17518157 -0.095758654 0.13840416 0.08070773

bias f4 [32]
00000000: e95e 843d 5eeb 88bd 303c 493e 4011 353e
00000010: b8d1 aebd 762c e7bc 6f5d d43d 8577 23be
00000020: f67d 4c3c 20b4 51bd 11c3 1abe bea0 823c
00000030: d757 e73d 29e0 4f3d 5c67 2ebe cf78 143e
00000040: 196f df3d c700 0dbe 19c3 0cbd e859 8fbd
00000050: 6218 cbbd e808 9b3d fa1e 3b3e a97f 443e
00000060: 2c93 663c bd82 a33d a41d 4dbd 5cca ea3d
00000070: 4b35 e03c c2c4 d73d 2b2d 8abd cd29 1f3e
0.06463415 -0.06685518 0.19651866 0.17682362 -0.085360944 -0.028219443 0.103693835 -0.15963562
0.012481203 -0.05119717 -0.15113474 0.015945788 0.11296051 0.050750885 -0.17031616 0.1449921
0.10909862 -0.13769828 -0.034365747 -0.0699957 -0.0991676 0.07570058 0.18273535 0.19189323
0.014073174 0.07983921 -0.050077096 0.11464378 0.027369162 0.105355754 -0.06746896 0.1554329

weight_orig f4 [32, 32, 1]
00000000: 660b 1ebe ec2a 783d 0ae1 143e eaa7 17bd
00000010: 6f79 a43d 9d72 61bd d077 903d 06b0 d13d
00000020: fb38 f33d b7c3 1b3e 4a9d cb3d 2227 d3bd
00000030: 2b87 0d3d fce5 d73d b8aa a73d b58d f73d
00000040: 39e9 d83d faa8 bc3d 2207 35be 1793 02be
00000050: 8264 82bd 025b be3d bad0 babc fa4f 03be
00000060: 6e46 d7bd 0083 25be 18c1 9eba f87e 9ebd
00000070: d46c 2d3e ee0e 8e3d c1d1 d03c cb68 7a3c
00000080: 75e9 afbd 3525 dcbd e547 3a3e 18ab 8f3d
00000090: 88d4 d93d 2ec7 fcbd 3414 a3bd 02ec 153e
000000a0: c531 d3bd 343a 023e 0c58 62bc 6c53 fa3d
000000b0: cb4e 1d3e e5dc 143d 1d9c 163e 98c8 37be
000000c0: 46d1 60bc ab08 06be 871a 3f3d 5194 503d
000000d0: cc6c 0c3e bb60 d3bd f710 cdbd c05b b43b
000000e0: a61e 5dbd 3b06 7f3d 893b 98bd 3b15 95bd
000000f0: f889 98bd 3023 293d e210 f13d 652a cf3d
00000100: 6e75 05be 9643 253e cf54 8cbd 3553 273e
00000110: 94d9 9f3c 970a d13d 0dd5 ab3d 77ca 02be
00000120: 861a 15be 9170 25be 47a4 353e 1c22 383d
00000130: 24a7 ffbd f7f1 2f3d 4e81 1fbe 6d98 073d
00000140: b84b 26be ea16 25be 20c7 053e 69a9 133d
00000150: f661 30be c0ee a1bd b99d 583c 7c44 363e
00000160: c799 373e af4f 013d 3e49 fd3d 4015 3f3e
00000170: 903d b93c cfe9 fabd b3f3 fabd d591 98bd
00000180: ee02 df3d 477e a33d 1714 07be 8657 07be
00000190: 306e 15be 1feb 28be 3e08 05be b20b 15bd
000001a0: 5754 09be 80d1 d1bd dd62 52bd e5be 863c
000001b0: 098a d73c 2756 b83d 8fa9 27be 158c 35be
000001c0: eafb 03bb 35fc 1abc b568 573d 0f2f 423e
000001d0: ce23 2e3e 1acd 903d 58cb 793d 9d9b 32be
000001e0: 223f 9ebd 3582 a3bc 3fba 78bd ff86 38bd
000001f0: b45d a13d e84d df3c 9f8b c3bd 515f 2a3c
00000200: 4011 833d 50db 13be 705c 0abe fc62 113e
00000210: 04f0 a83d 8352 21be 2118 013e 4dc6 0ebe
00000220: e155 29be 2aa0 a4bd 8fb1 99bb c462 153e
00000230: d5f7 2b3e bb14 dc3d 6f23 0fbd 4031 fa3d
00000240: a6aa 2d3e 1993 b8ba a5a9 0b3c 4e9d b53d
00000250: 7b33 203d c2b7 babd 8850 9d3d cc5e 483d
00000260: 2fc6 f5bd 2780 ef3d 8054 e7bc 84f7 27be
00000270: 276c b3bd 377b 65bd 3007 07be 0de2 07be
00000280: ebd5 28bc e31f 353d a16b 23be a6da 15bd
00000290: 9b5e dd3d c9ca 1fbd b374 98bd 294d 03be
000002a0: fd26 3b3d c721 febd 1f16 8a3d 916c 3cbe
000002b0: e9bf f33d 93a0 2b3e 96ce e03d 244c 163e
000002c0: 5431 be3d ca81 d03d f751 1f3e f954 373c
000002d0: b683 a5bd 1eec 8abd bb76 b5bd b03b f43c
000002e0: cefd e73d d38e 4ebd 9a45 b8bd 0563 00be
000002f0: 898b e1bd b1f5 5fbd 661b 9e3d af08 1fbe
00000300: 4970 e33c 8bc5 e63d 3e3b 2d3e d68a 4b3d
00000310: bbe4 7bbd d9ff f4bd a646 b23c 5b70 e03d
00000320: d861 913c 0cd4 bf3d b83d 3a3e 04ba 9e3d
00000330: 5f8b 24be 1bad 863d fdef 863d eec3 ccbd
00000340: c378 843b c53a bd3d b073 42bd df2e 20be
00000350: 95ce 9a3d ac67 dd3d 48bf 9bbd 6248 fd3d
00000360: fa21 98bb bc72 983c d2ae 17be b738 d33d
00000370: 2285 553c c73c 0dbe fd30 043e 836d d7bd
00000380: 6633 c0bd 93a1 b8bd 7570 483c 8117 d93d
00000390: c708 e23d 0cd8 163e 31f3 093e 7498 39be
000003a0: 9d27 c93d 54ff 5b3d 42da 883d bf59 b9bd
000003b0: 1c89 2f3e e3b5 1e3d 0210 85bd 7769 203e
000003c0: fa0c 1cbe fa09 24bd bbaa d13d ac30 9abd
000003d0: f9ed 1d3d 674e 153d 71a6 ec3d 4e34 c2bd
000003e0: 129f 8fbc fc04 25bd 25e1 68bd 90df 00be
000003f0: 0fa1 e5bd 16b8 cfbc 7b13 083e 8597 f13c
-0.15434036 0.06058781 0.1453897 -0.03702537 0.08030974 -0.055040944 0.070541024 0.10238652
0.118761025 0.15211378 0.0994211 -0.10310198 0.034552734 0.10541913 0.08186859 0.12087575
0.10591359 0.09211917 -0.17678502 -0.12751423 -0.063668266 0.09294702 -0.022804607 -0.12823477
-0.1051148 -0.16163254 -0.001211199 -0.07739061 0.16936046 0.06936441 0.025490643 0.015283774
-0.0858945 -0.10749284 0.18191488 0.070150554 0.1063624 -0.12342678 -0.07962838 0.14640811
-0.10312227 0.12717515 -0.013814937 0.12222943 0.15362088 0.036343474 0.1470799 -0.17947614
-0.01372177 -0.13089244 0.046656158 0.050922696 0.13713378 -0.10321184 -0.100130014 0.0055041015
-0.053984307 0.0622618 -0.074332304 -0.0727944 -0.074481905 0.041293323 0.11770798 0.10115508
-0.13033077 0.16139063 -0.068521135 0.16340335 0.019512929 0.10207098 0.083902456 -0.12772547
-0.14560899 -0.16156222 0.17738448 0.044954404 -0.124830514 0.042955365 -0.1557667 0.03310435
-0.16239822 -0.16122022 0.13064241 0.036050234 -0.17224869 -0.07906866 0.013221198 0.17799562
0.17929755 0.031570133 0.123674855 0.1866045 0.022612363 -0.12251627 -0.12253513 -0.0744969
0.10889231 0.0798307 -0.13191257 -0.13216981 -0.14592814 -0.16495942 -0.12991425 -0.036388107
-0.1341108 -0.10245037 -0.051363815 0.016448447 0.026310937 0.09000807 -0.16373275 -0.17729218
-0.0020139166 -0.009459545 0.05259009 0.18963264 0.17005846 0.0707037 0.06098494 -0.17442174
-0.077268854 -0.019959548 -0.060724493 -0.045050617 0.078792006 0.027258828 -0.09548115 0.010398702
0.063997746 -0.1443913 -0.13511825 0.14197916 0.08248904 -0.15754132 0.1260686 -0.13942833
-0.16536666 -0.08038361 -0.004690356 0.14588457 0.16793759 0.107461415 -0.0349459 0.12216425
0.16959628 -0.0014081924 0.008524333 0.08867894 0.039111596 -0.0911708 0.07681376 0.04891853
-0.12000691 0.11694365 -0.028238535 -0.16403013 -0.08760863 -0.05602571 -0.13186336 -0.13269825
-0.010304908 0.044219863 -0.15959026 -0.036585473 0.1080906 -0.03901175 -0.074441336 -0.12822403
0.04569148 -0.12408786 0.067425005 -0.1840079 0.11901838 0.16760473 0.10976903 0.14677483
0.09286752 0.10181005 0.15558611 0.011189693 -0.080817625 -0.06783317 -0.08860537 0.029813617
0.11327706 -0.050429177 -0.089976504 -0.12537773 -0.11012942 -0.05467767 0.077200696 -0.15530656
0.027763503 0.11268147 0.1691713 0.04969295 -0.06149743 -0.119628616 0.021762203 0.1095893
0.01774685 0.093666166 0.18187606 0.077503234 -0.16068791 0.06575986 0.06588743 -0.09998308
0.004042716 0.09239725 -0.04747361 -0.1564288 0.07558934 0.108107895 -0.076048434 0.123673216
-0.004642722 0.018609397 -0.14812782 0.10313552 0.01303223 -0.13792716 0.12909313 -0.105189346
-0.093848035 -0.09015193 0.012233843 0.10600186 0.110368304 0.14730853 0.13471676 -0.18124563
0.09822009 0.053710297 0.066822544 -0.09050321 0.17142147 0.03874768 -0.06497194 0.15665232
-0.15239325 -0.040048577 0.102376424 -0.07528815 0.038557027 0.036451723 0.11555184 -0.094826326
-0.017531905 -0.040287957 -0.05685534 -0.12585282 -0.1121236 -0.025356334 0.13288681 0.029491195

weight_u f4 [32]
00000000: d358 353d c884 9c3e ad2e b9be 9fa2 d63d
00000010: 8d13 1f3e c089 79bd b103 313c 4727 47be
00000020: 9297 01be cf6f 4cbd 51b3 cb3c 071c a83e
00000030: a8da 323e b232 d93d 6771 5b3e d7a5 193d
00000040: 1ecb 273e d83a c93a 6b34 32be aacf 79be
00000050: 37e5 3e3d 69c6 8c3e d0eb c93d d618 2dbe
00000060: dd69 333e 3006 1c3b 8634 c83d 38d7 213e
00000070: 562b 2cbe d526 88be 19d2 a63c 2c10 943e
0.044274163 0.30570054 -0.36168423 0.10480236 0.15534802 -0.060922384 0.010804103 -0.19448577
-0.12655476 -0.049911316 0.024865778 0.32833883 0.17466223 0.106053725 0.21429978 0.037511673
0.16386077 0.001535262 -0.17402808 -0.24395624 0.046605315 0.27495125 0.09859431 -0.16904005
0.17520852 0.00238074 0.09775643 0.15804756 -0.16813406 -0.26592126 0.020363854 0.28918588

weight_v f4 [32]
00000000: e964 e33c f477 98be 41f8 913d 7520 ebbd
00000010: c9b0 1c3d 5357 b2be 3527 22be 3609 ca3e
00000020: b67c a2bd 6657 053e d2b6 4ebe 3212 9b3e
00000030: dedc 8e3e 9bb3 51bd c01a 5b3e f5f2 50be
00000040: a8f0 913e d478 033e d50e d7ba 77ef f93d
00000050: 6752 313d b93f c5bc 26b0 fdbd 48fd 6fbd
00000060: af8e f3bd 7c2b 4c3e 9ec3 49bd fd14 76be
00000070: 9a17 f63d 5b6a cc3c adb5 3abd 82e8 25bb
0.027758079 -0.29779017 0.07127429 -0.114808 0.038254533 -0.34832248 -0.15835269 0.39460152
-0.07933943 0.13021621 -0.20186928 0.3028732 0.27902883 -0.051196676 0.21396923 -0.20405181
0.2850392 0.12839061 -0.0016407619 0.122038774 0.043291476 -0.024078237 -0.12387113 -0.058591157
-0.11892449 0.19938463 -0.04925882 -0.24031444 0.120162204 0.024953058 -0.045583416 -0.0025315587

weight f4 [32, 32, 1]
00000000: a7f4 06be a4e9 533d 2742 fe3d 1980 01bd
00000010: 3872 8c3d 0b83 40bd a3b9 763d de0d b33d
00000020: a4b0 cf3d 3e02 053e 44de ad3d 2d4e b4bd
00000030: 42b4 f13c 8d5b b83d 1b2c 8f3d 6563 d33d
00000040: eb38 b93d 3c19 a13d d494 1abe 67ff debd
00000050: d9af 5ebd dc8b a23d fa85 9fbc fc41 e0bd
00000060: 4ed3 b7bd fd54 0dbe ce8f 87ba 5757 87bd
00000070: dd16 143e 1d9c 723d 1250 b23c add3 553c
00000080: 7c36 96bd f1fb bbbd 2211 1f3e 045c 753d
00000090: d901 ba3d 79d9 d7bd 2d41 8bbd 0b05 003e
000000a0: 4357 b4bd 9967 de3d f546 41bc 6dc1 d53d
000000b0: 9a53 063e 133b fe3c 6c9b 003e 3bef 1cbe
000000c0: 46f9 3fbc cfe7 e4bd 662f 233d 9c1b 323d
000000d0: 05d2 ef3d 5c7f b4bd a51b afbd 7c02 9a3b
000000e0: f1d0 3cbd 84c4 593d 27fe 81bd 499b 7ebd
000000f0: 2141 82bd 946d 103d 33d9 cd3d 8fe6 b03d
00000100: 5aec e3bd d71e 0d3e 0da9 6fbd 61e1 0e3e
00000110: 507f 883c 9a80 b23d a8ba 923d f95d dfbd
00000120: 53a4 febd 3f45 0dbe 041b 1b3e ab3b 1d3d
00000130: eb4d dabd c03d 163d f033 08be 8692 e73c
00000140: 6200 0ebe b1f8 0cbe e077 e43d f22d fc3c
00000150: 629d 16be 9846 8abd 72f8 383c d2a3 1b3e
00000160: 41c7 1c3e 15d7 dc3c 8948 d83d e42a 233e
00000170: b62d 9e3c d841 d6bd 4a4a d6bd d847 82bd
00000180: 796e be3d c19b 8b3d 84b0 e6bd ae23 e7bd
00000190: 3533 ffbd b33d 10be e131 e3bd 008b febc
000001a0: a688 eabd 742a b3bd 95a6 33bd 051f 663c
000001b0: 090d b83c 1b68 9d3d 1e2b 0fbe 5b06 1bbe
000001c0: a067 e1ba e157 04bc 93f0 373d bbd0 253e
000001d0: 1bb3 143e 4c4b 773d 3a4d 553d d183 18be
000001e0: d520 87bd 1c9f 8bbc 0764 54bd d191 1dbd
000001f0: bdca 893d 7fae be3c 60fa a6bd 867b 113c
00000200: dcd6 5f3d 2c83 fcbd ae4b ecbd 454b f83d
00000210: e141 903d 2ec1 09be 3578 dc3d 48d5 f3bd
00000220: dd98 10be 4b93 8cbd 893d 83bb b41f ff3d
00000230: 5bd8 123e dfed bb3d 5574 f4bc 3fa4 d53d
00000240: a74b 143e 269c 9dba bc84 ee3b 1015 9b3d
00000250: 15cc 083d a870 9fbd 1655 863d 1a19 2b3d
00000260: 6bde d1bd 0383 cc3d ef88 c5bc af6d 0fbe
00000270: e435 99bd caf4 43bd 7b9a e6bd 4310 e8bd
00000280: 982b 10bc f8a9 1a3d d58b 0bbe 71ec ffbc
00000290: 8e07 bd3d af72 08bd f82e 82bd 2d3d e0bd
000002a0: a3cf 1f3d 7001 d9bd 97d3 6b3d a6e5 20be
000002b0: dc23 d03d d98d 123e faf6 bf3d 2257 003e
000002c0: 4468 a23d ca0b b23d 830b 083e 808c 1c3c
000002d0: 9855 8dbd 0f41 6dbd 20f4 9abd 8e8d d03c
000002e0: 8119 c63d b761 30bd f959 9dbd e742 dbbd
000002f0: 5398 c0bd c53d 3fbd 5102 873d f0cc 07be
00000300: 4136 c23c dc0e c53d 85ec 133e 82ce 2d3d
00000310: 1b18 57bd 0f35 d1bd 443b 983c 83a6 bf3d
00000320: 5249 783c d1cd a33d 7208 1f3e c389 873d
00000330: 8981 0cbe a300 663d dd72 663d ddd9 aebd
00000340: d73c 623b bb95 a13d 560b 26bd 25c8 08be
00000350: ec30 843d 4c0f bd3d 75fe 84bd cd47 d83d
00000360: 54e8 81bb 4a2d 823c ff85 01be 315d b43d
00000370: a653 363c 3635 f1bd 44c2 e13d aef4 b7bd
00000380: 3d1f a4bd 83a8 9dbd 2e28 2b3c 7060 b93d
00000390: 4503 c13d 99ce 003e f097 eb3d 537b 1ebe
000003a0: 95c4 ab3d 98db 3b3d 27b8 693d c745 9ebd
000003b0: 37e4 153e 3c86 073d 243f 63bd 2efa 083e
000003c0: cd40 05be 0b13 0cbd 5909 b33d 14aa 83bd
000003d0: 87db 063d edfc fe3c e813 ca3d 36d5 a5bd
000003e0: 7b47 75bc 62e9 0cbd a1db 46bd 9a17 dcbd
000003f0: 1b15 c4bd 8d5f b1bc ad64 e83d 2b4c ce3c
-0.13179265 0.05173649 0.12414961 -0.031616304 0.06857723 -0.046999972 0.06023563 0.08742879
0.101411134 0.12989137 0.084896594 -0.08803973 0.029504899 0.09001837 0.06990834 0.103216924
0.09044059 0.07866141 -0.15095836 -0.10888558 -0.05436692 0.07936832 -0.019473065 -0.109500855
-0.0897585 -0.13801952 -0.001034254 -0.06608456 0.14461847 0.059230912 0.021766696 0.013050956
-0.07334611 -0.091789134 0.1553388 0.059902206 0.09082384 -0.105395265 -0.06799541 0.12501924
-0.08805706 0.108596034 -0.011796703 0.10437284 0.13117829 0.031034028 0.12559289 -0.15325634
-0.011717146 -0.111770265 0.039840125 0.04348336 0.1170998 -0.088133544 -0.08550195 0.004700003
-0.0460977 0.053165928 -0.06347304 -0.06215981 -0.063600786 0.03526075 0.10051193 0.086377256
-0.11129065 0.13781296 -0.05851083 0.13953163 0.01666227 0.08715935 0.07164508 -0.10906596
-0.12433686 -0.13795947 0.15147024 0.038386982 -0.10659393 0.036679983 -0.13301063 0.02826811
-0.13867334 -0.13766743 0.11155677 0.030783627 -0.14708474 -0.06751746 0.011289703 0.15199211
0.15310384 0.026958028 0.1056071 0.1593433 0.019308906 -0.104617774 -0.10463388 -0.06361359
0.09298415 0.06816817 -0.112641364 -0.11286102 -0.12460939 -0.14086036 -0.11093498 -0.03107214
-0.11451845 -0.08748332 -0.043860037 0.014045482 0.022467153 0.07685872 -0.13981292 -0.15139143
-0.001719702 -0.008077593 0.044907164 0.16192906 0.14521448 0.060374543 0.052075602 -0.14894034
-0.06598059 -0.017043643 -0.051853206 -0.03846914 0.067281224 0.023276566 -0.08153224 0.008879548
0.054648265 -0.123297065 -0.11537872 0.121237315 0.070438154 -0.13452598 0.10765115 -0.119059145
-0.14120813 -0.068640314 -0.0040051383 0.12457219 0.14340346 0.0917623 -0.029840628 0.10431718
0.14481984 -0.0012024685 0.0072790068 0.07572377 0.033397753 -0.07785159 0.065591976 0.041771986
-0.10247501 0.09985926 -0.024113147 -0.14006685 -0.07480982 -0.04784087 -0.112599336 -0.11331227
-0.008799456 0.03775975 -0.1362756 -0.031240674 0.092299566 -0.033312496 -0.06356615 -0.10949168
0.039016377 -0.10595977 0.057574835 -0.15712604 0.1016309 0.14311923 0.09373279 0.12533239
0.07930043 0.08693655 0.13285641 0.009554982 -0.06901091 -0.057923373 -0.075660944 0.025458124
0.09672833 -0.043061938 -0.076831765 -0.1070612 -0.094040535 -0.046689767 0.06592239 -0.13261771
0.02370751 0.09621975 0.14445694 0.04243327 -0.052513223 -0.10215198 0.018582948 0.093579315
0.0151542 0.07998241 0.15530565 0.06618073 -0.13721289 0.05615295 0.056261886 -0.08537648
0.0034521127 0.07889887 -0.040538155 -0.13357599 0.064546436 0.09231433 -0.06493846 0.1056057
-0.0039644632 0.015890736 -0.12648772 0.08806837 0.011128342 -0.11777727 0.11023381 -0.08982216
-0.08013771 -0.07698157 0.010446591 0.09051597 0.09424452 0.12578811 0.11503589 -0.15476732
0.083871044 0.045863718 0.057060387 -0.07728153 0.14637838 0.033087 -0.055480137 0.13376686
-0.13013001 -0.03419785 0.08742017 -0.06428924 0.0329242 0.031126464 0.09867078 -0.080973074
-0.014970656 -0.03440226 -0.0485493 -0.10746689 -0.09574338 -0.021652007 0.113473274 0.025182804

weight f4 [1, 32, 1]
00000000: 4d7c b8bd d68b 213e 57b0 243d 94c0 113e
00000010: 55d7 223e ef46 f0bd 27bb 8abd 74a1 5fbb
00000020: 87de b03d 05f2 283e 2049 d3bd c098 f2bd
00000030: ded1 033e 10e6 213e 870d da3d 7730 973d
00000040: a642 e7bd 6003 f33d 97b4 25be db3d 50bd
00000050: 10fd 36bd 425c 4cbc f184 303e 383e 36be
00000060: 18be 99bd 4090 803a 5312 14be 940b 1b3e
00000070: c8cd 06bd 10f0 abbd 90b2 293c 6e97 9bbd
-0.090080835 0.15776 0.040207233 0.14233619 0.15902455 -0.117322795 -0.06773978 -0.0034123333
0.08636194 0.16498573 -0.10316682 -0.11845541 0.12873027 0.15810418 0.106471114 0.07382291
-0.11292009 0.11865878 -0.16182171 -0.05084024 -0.044674933 -0.012473168 0.17238213 -0.17797172
-0.07506961 0.0009808615 -0.14460115 0.15141135 -0.032911092 -0.08395398 0.010357514 -0.07597242

weight f4 [1, 32, 1]
00000000: 1c84 083e 57cc 173e 15ec 853b 8b2e 05be
00000010: 7262 98bd 42f6 5fbd cd6a 973d a79d babd
00000020: 9c65 0f3e 3a3c 143e 2620 323e b529 e7bd
00000030: 9b5d 84bd 9bc0 7ebd 0397 86bc 7ab9 0cbe
00000040: d030 bebc 6e1f fabd 4fcc b63d ac2d b4bc
00000050: 960b 1b3e 3dc2 ba3d 8823 07be e60f 583a
00000060: 6eff 38be 9854 e13d c27f 113e eed8 d93d
00000070: 506e 31ba e751 2f3e 05e6 143d eef9 a6bd
0.13331646 0.14824043 0.004086981 -0.13006036 -0.07440652 -0.05467821 0.073934175 -0.09112101
0.14003605 0.144761 0.17395076 -0.11287252 -0.06463166 -0.0621954 -0.01642943 -0.13742629
-0.023216635 -0.12213026 0.089256875 -0.021994434 0.15141138 0.09119079 -0.13197148 0.0008242115
-0.18066189 0.11002463 0.14208892 0.10637079 -0.0006768452 0.17121087 0.036352176 -0.08153139

weight f4 [1, 32, 1]
00000000: 514b eb3d 5ae0 f33d 7ee7 c6bd f34c cebc
00000010: fafe a63d 329f d83d 5af7 003e 1e32 2b3c
00000020: 5953 97bc 8415 e03d 6e8c d2bd 0d01 0e3d
00000030: 9c3b d03c 6bd1 af3d a293 a23d d4fe 5f3d
00000040: d022 89bc 0a2f 573c ce95 01be 9742 4e3d
00000050: b9ea 01be b6a0 ea3d e340 15bd c125 14be
00000060: 38ee fe3d fd07 e7bd 29ed 163e 8047 40bd
00000070: 8483 ee3d 4e9b 713d db71 8a3d 9b51 45bc
0.11488975 0.11908026 -0.097121224 -0.025183177 0.08154102 0.10577239 0.12594357 0.010448961
-0.01847236 0.10941604 -0.10280691 0.03466897 0.025419049 0.08584865 0.07938315 0.054686382
-0.016740233 0.013133774 -0.12654802 0.050356474 -0.12687196 0.114564344 -0.036438834 -0.14467527
0.1244778 -0.112808205 0.14738907 -0.046943188 0.11646178 0.058986 0.067599975 -0.012043382

bias f4 [32]
00000000: fc93 8d3e a53b d4bd c8e0 fc3d 2435 673e
00000010: fe53 123d 8e8e 9a3e bc9b 563d ff4d 403d
00000020: 1ea9 fbbd bc31 bebd 6d90 863e 6670 863e
00000030: 11ef 313e f663 8d3e ee84 793e 352d 853e
00000040: 3d3a 613e 885b 853e 748d 523e 1109 873e
00000050: 0f31 c13d 0105 9b3d 576a 3cbd 11e4 26bd
00000060: c75d 22be 7bbf 3a3e ca00 6b3e 51dc e53d
00000070: 5923 3c3e bc1a bc3c 7ad7 1b3e f8b0 43be
0.27651966 -0.10362939 0.12347561 0.22578865 0.035724632 0.30186886 0.052394614 0.046949383
-0.12288116 -0.0928683 0.26282063 0.26257628 0.17376353 0.27615327 0.24367115 0.26011053
0.21994872 0.26046395 0.20561773 0.26374105 0.09433185 0.07569314 -0.04599985 -0.040744845
-0.15856086 0.18237107 0.2294952 0.11223663 0.18372859 0.022961967 0.15218917 -0.19110477

weight_orig f4 [32, 32, 1]
00000000: 72c4 2ebd 338a f53d 3502 28bd 131e 71bd
00000010: f558 8ebd f638 58bd b607 8e3d f875 d4bd
00000020: 8d90 e73d 74ef e7bb d694 103e b338 983d
00000030: de55 24be fb18 083d bcbb 2ebe 4579 86bc
00000040: 1863 f33d 2ac8 88bc 1882 0a3e 576e 33bd
00000050: 70ed 523d 1f06 1e3e 3e68 debd d3c6 d9bd
00000060: 7dd8 673c 7b73 323e 15ce 023e eb8d 0f3e
00000070: c245 6ebd 75a1 533c 48a7 393e 7321 753c
00000080: 81f4 26bd efc2 80bd 60a1 003d 0831 623c
00000090: 932f afbd 0c20 533c 0a94 80bd e85c 23be
000000a0: d493 493d cdfe cabd 40ad bf3d 7c6e 82bd
000000b0: ec1f 88bd 1881 20be caf8 083e 836f 753d
000000c0: fcc8 233e 29c1 31be 62a9 6dbd 64c8 b2bd
000000d0: 56e8 bbbd 3715 cbbd 9653 2b3e f17c 3bbd
000000e0: 9632 113b f259 833b 4e69 ae3c 5af2 eabd
000000f0: c7e1 fa3d 8cc2 ad3d fdce 8a3d 152d afbd
00000100: b5bf 9ebd e7e3 3fbd 07dc 223e d447 af3d
00000110: d58b debc 9479 1f3e f01d 573e f662 683e
00000120: c8d2 a03d 848c dc3d ed9f a5bd 575d 0abd
00000130: 3c24 83bd 400d 09bd 6b19 153e 7f40 16bd
00000140: c001 7cbd cb65 e2bd 0756 62bc 0ca2 e7bd
00000150: e215 8abc 27c1 d4bc f758 a63d 66af 0b3c
00000160: 86fd 33bd 1614 e23d 1399 e6bc 3872 b0bd
00000170: 55bb 093e dc8a 47bd 1e95 4ebd 2d4a 1d3e
00000180: c357 8b3b cbc7 d73d e84f c4bc 7a4f d13d
00000190: a695 37bd dd9d abbd 4cd0 9dbc a7f7 c53d
000001a0: 54e4 57bd 2a3a 333d fc19 17be 3153 3a3e
000001b0: 3bcc cc3d 5767 4b3e ec0f 9b3d 5b4e b4bd
000001c0: 6c4d 55bd 6ae6 333d c164 a63d fc5f e3bd
000001d0: d5b0 4b3c 5423 f43c 53c7 363e 25a4 d5bd
000001e0: d16b 133e f19a eebc 41f6 6fbd a246 d8bc
000001f0: 0713 4ebc fc13 03bd 9c01 aa3d ff03 3fbe
00000200: abae 8d3c e628 093e 9513 49bd 2810 363e
00000210: 95d3 103e 021e 1abe 6548 ec3d 6fc6 613e
00000220: e2d2 24bd a76e 83bd f648 7b3d da08 8b3d
00000230: 0a08 483e 34ef 1c3e 33d3 afbc c604 063e
00000240: e79f e7bd d567 0fbe fe26 cd3d 4104 533c
00000250: 7437 193e b638 1d3d 0636 51bd 69ff 9c3d
00000260: f790 12be 6bd8 343e 1077 89bd 3381 a33c
00000270: f82b 10be 76be 463e 1402 59bc 41d5 173c
00000280: 1501 c2bd 4398 0dbd 0c89 a53d a5cb 8b3c
00000290: 1a02 2d3d 7413 283e e04b 563d 7f61 b43d
000002a0: 3c17 be3d 18f8 913d ae34 bbbd dd97 b0bd
000002b0: 7232 54bc 598e aebd 3f68 07be 3000 a63c
000002c0: a2ef 793c de88 653d bce1 493e b435 d53d
000002d0: e833 823c 93c3 823e b92d 633d fad3 c93d
000002e0: cebd 1e3e 4320 6b3e 58ef 1bbd 5920 e23d
000002f0: 7e1d 493d 7fb9 313c a181 e9bc 6451 0a3d
00000300: 1a3e 9fbd 26f7 2c3e c643 813d fb65 a0bd
00000310: 5b3f 1f3e 68d8 1dbe 5754 6b3e 2955 263d
00000320: 88dd 4d3e a5fb 6c3e f73d 8e3d 9fef 7dbd
00000330: bb3e 9dbc 307a a6bc b9a5 833d 9eb6 353e
00000340: 9473 53bd 2a2f 583c ea31 e53c 8db4 0d3e
00000350: 3156 b7bb 0bdd 413e 0732 083d e8a9 3a3d
00000360: 4d7f cb3d fe64 eb3d ff9b 683d 87e2 b0bd
00000370: bcd0 013e 18dd d9bd 9ba3 7abd 53bc 34be
00000380: b544 063e 4a43 203b 1aee 5abd 7f1b 6a3d
00000390: 4675 623c b53d 11be b21e 903d bceb 67bc
000003a0: abd9 debb f22b 023e d2fc f2bd 180e 8dbd
000003b0: 2ba7 1739 b695 573e 2533 28be 2fdf 1b3e
000003c0: 65ca c4bd 11b4 923d b5cc edbd 7ed6 d3bd
000003d0: 758f 4d3d 4c42 1c3e aec7 b3bc 3f37 6b3d
000003e0: ac99 87bd 8030 b53d 3d3e 4abd 72cb 4d3e
000003f0: d6ca aa3d 3c0c 08bd cda1 223e c15b 36be
-0.042667814 0.1198925 -0.04101773 -0.05886657 -0.06950561 -0.052788697 0.069350645 -0.10374063
0.11306868 -0.0070781056 0.14119276 0.074326895 -0.1604838 0.03322695 -0.17063802 -0.016415248
0.11884135 -0.016697008 0.1352619 -0.0438064 0.05149597 0.15432023 -0.10859726 -0.10633626
0.014150736 0.17426865 0.12773927 0.14018981 -0.058171995 0.012916912 0.18130219 0.014961588
-0.04076052 -0.06287181 0.0314039 0.013805635 -0.08553996 0.012886059 -0.06278236 -0.1595341
0.049213246 -0.09911881 0.09359217 -0.063687295 -0.066467136 -0.15674245 0.13376155 0.0599208
0.15994638 -0.17358841 -0.058022864 -0.08729628 -0.09175174 -0.09916156 0.16731104 -0.04577345
0.0022155396 0.004008525 0.021290448 -0.11472006 0.12250095 0.084843725 0.06777761 -0.085535206
-0.07751409 -0.046848204 0.15904246 0.08558622 -0.027166286 0.15573722 0.21007514 0.22694
0.07852703 0.10768989 -0.08087144 -0.033780422 -0.064033955 -0.0334599 0.14560477 -0.036682602
-0.061525106 -0.11054572 -0.013814456 -0.11310205 -0.016856138 -0.025971008 0.081224374 0.008525705
-0.04394295 0.11038987 -0.028149163 -0.086155355 0.13450368 -0.04871641 -0.050435178 0.15360327
0.0042524054 0.10536154 -0.023963884 0.10220237 -0.04482045 -0.083797194 -0.019264363 0.096663766
-0.052707985 0.04375664 -0.14756006 0.18195798 0.09999891 0.1986364 0.07571396 -0.088040076
-0.05207579 0.04392091 0.08124686 -0.11102292 0.012432297 0.029802002 0.17849474 -0.10431699
0.14396597 -0.029126616 -0.058584455 -0.026400868 -0.012577779 -0.03200148 0.08301088 -0.18653868
0.017295202 0.13394508 -0.04909094 0.177796 0.14143212 -0.1505051 0.11537246 0.22048353
-0.040240176 -0.0641759 0.061348878 0.06788798 0.19534317 0.15325624 -0.021463012 0.13087758
-0.11309796 -0.14004453 0.10017203 0.012879432 0.1496256 0.038384162 -0.05107691 0.07665903
-0.14313112 0.17660682 -0.067121625 0.019959068 -0.14079273 0.19408593 -0.013245124 0.009267152
-0.09472863 -0.034569036 0.0808278 0.017064879 0.042238332 0.16413671 0.052318454 0.088076584
0.09281775 0.07127398 -0.09140907 -0.086227156 -0.01295148 -0.085232444 -0.1322336 0.020263761
0.015254887 0.05603873 0.19715017 0.10410634 0.015893891 0.25539836 0.055463526 0.098548844
0.15502092 0.22961526 -0.038070053 0.11041326 0.04910039 0.010847448 -0.028504195 0.033769026
-0.07775517 0.16891155 0.06311755 -0.07831951 0.15551512 -0.15414584 0.22981392 0.04060856
0.20104039 0.2314287 0.069454126 -0.0619961 -0.019194951 -0.020321935 0.064280935 0.17745444
-0.051623896 0.013194839 0.027977902 0.13838406 -0.0055949916 0.18931977 0.033250835 0.04557219
0.0993639 0.11493872 0.056789394 -0.08636957 0.12677282 -0.106378734 -0.061191183 -0.17649965
0.13112147 0.002445417 -0.053449728 0.05715513 0.0138219055 -0.14183696 0.07037105 -0.014155325
-0.0068008504 0.12712076 -0.11864628 -0.06887454 0.00014462757 0.21053204 -0.1642576 0.15221857
-0.09608916 0.07163251 -0.116113104 -0.103436455 0.05018564 0.15259665 -0.0219458 0.057425734
-0.066211075 0.08847141 -0.04937576 0.2009714 0.08339469 -0.033214793 0.15882035 -0.17808439

weight_u f4 [32]
00000000: 877b 28bd 50f7 033e bc55 99bd 5fd4 1bbe
00000010: 4002 96be eb04 33be f905 91be 7971 2bbe
00000020: 6f63 efbc bf4b 1cbe d636 5abd 707e 44be
00000030: 3a68 84be 14a0 d9bc 302f 1e3d a417 963c
00000040: e1fc 49be 635b 5bbe b88f 18bc b336 9abe
00000050: bffd 1dbe 7c21 253e 0fb7 5c3e 7194 453e
00000060: dad8 913e 5870 7cbe 3339 0ebc 4859 36be
00000070: 8ef5 9dbd 0172 e53d 145b 8abe 6568 133e
-0.04113343 0.12887311 -0.07487056 -0.15217732 -0.29298592 -0.17482345 -0.2832487 -0.16742505
-0.029222218 -0.1526327 -0.053274952 -0.19188857 -0.2586077 -0.026565589 0.03861922 0.01832182
-0.19725372 -0.2142158 -0.009311609 -0.30119857 -0.15428828 0.16126055 0.21554206 0.19294907
0.28485757 -0.2465223 -0.00868063 -0.17807496 -0.077128515 0.11203385 -0.27022612 0.14395292

weight_v f4 [32]
00000000: 7a46 9e3d c811 21be 0aae 143e 1a87 d8bd
00000010: e2c5 3dbd 02f2 e03d 1ebf 4ebe 8bf1 cfbe
00000020: 777e 89be 9c99 2bbe 0bbc 2ebd 257b b8bd
00000030: ef30 9cbd 8f61 8fbe fcdc afbd 34d0 75be
00000040: e57b 593e fb8d dbbd 1ab5 6dbe 50e9 a6bd
00000050: aa8a b1bd 1946 acbe cd76 08be ac4b 7bbe
00000060: 4452 6cbd ed5c 29be 9eb6 aa3d a9be 633d
00000070: e700 4cbd 3e6d 76be bada 90bd afaa 413e
0.07728286 -0.1572944 0.14519516 -0.105726436 -0.046331294 0.10983659 -0.20190093 -0.4061397
-0.26854298 -0.16757816 -0.0426598 -0.09007863 -0.07626521 -0.2800412 -0.08587071 -0.24005204
0.21238668 -0.1072044 -0.23213616 -0.081499696 -0.08669026 -0.3364723 -0.13326569 -0.24540585
-0.057695642 -0.16539355 0.08335613 0.05560175 -0.049805548 -0.2406511 -0.07072969 0.18912767
