Models/M4/wo_sa_ml_fade/wo_sa_ml_fade_generator.pt (torch, 149785 bytes, 70 tensors)

bias f4 [32]
00000000: 9a38 4a3e 5966 373e 16c6 a9be 67ce 2b3d
00000010: 5f37 e13e 4ae7 213e a13d 2bbe d941 c13e
00000020: c57f 2c3d 5a7e 6a3e 364c 813e 6ac4 583e
00000030: 83d5 0fbe 5bc5 0a3e b0bc dfbc bfc2 fdbd
00000040: a3c0 4abd 155e 3dbe dbbb bd3d cab2 243e
00000050: fd57 803d 45be c33e 4634 bcbd bdd2 843d
00000060: 8e1f c93e 125b b63e 4338 363e 70cc 4b3e
00000070: 0f4f bcbe c6ce ef3d ebb0 e83d 63e1 c03e
0.19748154 0.17910136 -0.3315894 0.041944887 0.43987557 0.15810886 -0.16722728 0.3774555
0.042114038 0.22899762 0.25253457 0.21168676 -0.14046292 0.13551848 -0.027311653 -0.123906605
-0.04950012 -0.1849292 0.09264346 0.16083828 0.062667824 0.38231102 -0.09189658 0.06485508
0.39281887 0.35616356 0.177949 0.19902205 -0.36779067 0.11709361 0.113618694 0.37671956

weight_orig f4 [32, 12, 1]
00000000: 93f3 96be 8630 59be 4ee2 57be 4cee 563e
00000010: 6cd3 873d e1b0 b9bd ac5e 583c 03ce 77be
00000020: 2b95 5f3e 7c50 29be 76d9 383e 7863 a2bc
00000030: 5679 80be 6ec3 28be 20fb c73d d610 7d3e
00000040: fe2a 64be ec9f 81be 43c5 de3d 5ee9 2d3d
00000050: 06a7 053e ffb8 463e 557c 4b3e b77c 12be
00000060: 65c7 063c 487f f5bd c410 08bd 51f2 8ebc
00000070: a132 253e 079a 963d a669 083e 4984 303e
00000080: e7ac ae3c 6792 14bb 2cf5 a2bd e147 cf3d
00000090: f4b0 0e3e 3048 d4bd c339 adbd 6ee9 243e
000000a0: 3f1b b43d 0727 93be 9391 803e b476 813e
000000b0: 23e0 28be f5d6 cb3d b77e ebbc b0d1 cbbc
000000c0: 8971 a3be 27a4 e33d e4d4 5fbd 4e80 4ebe
000000d0: 16b3 9a3e 0d99 bd3d f1c9 f3bd 9579 65be
000000e0: aadd a9be d9a8 993e cbf7 403c 616a 083e
000000f0: 44cd 80be a0e3 f1bd 01f8 0b3e 616f 303e
00000100: 52e0 953d eeec abbd 43e9 903d 9d65 0dbe
00000110: 280c 663e 3c56 403e 6cbd babb a3a7 d63d
00000120: 3884 33be 274f 123e 18db 5c3d 72ca f3bd
00000130: 05c5 5fbd f75b 93be 53d0 3fbe 40f2 233e
00000140: d4f1 53bb bc30 c1bd 73cc 6b3e 6b34 a03d
00000150: 4389 9f3d 9e34 a5be 2bc5 a2bd e20d 003d
00000160: 94bc 3a3e bffb a5be b67f 9e3e 1550 e1bd
00000170: 00b4 833d b659 9fbc a19f 043e 0058 3b3e
00000180: 62c0 e03b 3b83 56be 43cd 4e3e 4854 2d3e
00000190: 297b 0bbe 0e7b fabd 8ecb 31be 4d57 3d3e
000001a0: 11fd 8f3d 47bd 87be 8ba8 8ebd 1523 81bd
000001b0: 9f2d e1bc 071a aebd 7f2e f7bc abfd 8a39
000001c0: 0021 583e 08bd a23d 8dfa a33e 81a7 8fbe
000001d0: a906 993d c07b 3ebd 3722 51bd e829 3fbe
000001e0: 7b0a 88be cb40 71bd af07 34be e941 e8bc
000001f0: 1395 e1bd 48c8 d93d 187e ac3e 4e3f 06be
00000200: 5db1 dfbc 01d3 97be c619 4b3d 7a77 25bd
00000210: 40e4 ea3d 3e59 2d3e 247b 84be 40e7 81be
00000220: f5d7 93be 70b3 0f3d 64e9 4d3e b68e 033e
00000230: 2dfe 83bd 4553 4c3e 7332 a53e 3505 73be
00000240: 4a96 a6bd 3510 02bc c9b5 8d3e 791e 1f3e
00000250: 5428 e93b 7476 763e 2f19 4dbd b6cb 9b3d
00000260: 528d 7a3d 50a5 16be 7aea 52be 344b 2bbd
00000270: 37b9 8fbd 98f7 21be ce84 393e 3c34 853e
00000280: 44cf 893e 723c 3cbe b2fc c63d 45ad 70be
00000290: ac21 71be bf8d 133e 0152 c43d f8d0 523d
000002a0: 6151 0d3e 6abf 46bd 6cf1 1ebe 31b7 dabd
000002b0: e164 8f3d 6b3d 343e 1ec6 ea3c cce1 0bbe
000002c0: 4eda 6bbd bf63 4fbe 24dc 393e f8f1 1abe
000002d0: a32a 40be 9a21 753e 706d 38be df05 febd
000002e0: a7d1 33bd ed00 73bb 268b 383e b82d 1a3e
000002f0: 102e 6dbe ac9e 47be 3814 8dbd 45ff f33d
00000300: f95f 54be 14e8 8bbe c7a0 f6bd 25a1 2abe
00000310: 94ac 82bd 4993 aabd ef06 94bb 2d82 6d3e
00000320: b1ef 42be d994 86be 325e 58bb 98ac f23d
00000330: aa53 4b3e 9c7f ce3d a0b6 45bd 9fc0 49be
00000340: f535 0c3d d647 0cbd 87f8 5abe 265a 993d
00000350: 980e 463d d64b 883e 7bd2 a9bd 65a2 76bd
00000360: 2c63 2a3e cdec 823e ed9e 66be 38c7 973e
00000370: 28e8 733d 9c09 51be 33af 603c b8d8 88be
00000380: 30d5 69be b3bf 5ebe ffea 103e 8205 943d
00000390: bef7 813e 87ed 013d 39ac 7bbe 61c6 ea3d
000003a0: 9620 953e 1bc3 1bbe 9f9d 10be 9173 593e
000003b0: 6fc9 2d3e c792 0e3e 4815 b7bc d997 29be
000003c0: aba8 02be afed 083e 9bb7 873e 2567 7cbe
000003d0: f4db 893e 23e2 58bd 854b 6b3e 5629 3dbd
000003e0: f73f 22be 07f6 4f3e 1816 07bc 05b8 25bd
000003f0: c8f2 833c 47c2 a4be a853 dfbd 38e5 373d
-0.29482707 -0.21209916 -0.21082422 0.2098934 0.066321224 -0.0906694 0.013206165 -0.24199681
0.21834247 -0.16534609 0.18051705 -0.019822821 -0.25092572 -0.164808 0.09764695 0.24713454
-0.22282025 -0.25317323 0.108774684 0.042458884 0.13051996 0.19406508 0.19871648 -0.14305387
0.00822625 -0.119871676 -0.033219114 -0.01744953 0.16132595 0.07353597 0.13321552 0.17237963
0.02132268 -0.002267027 -0.07956919 0.10121132 0.1393469 -0.10365331 -0.08458283 0.16104671
0.08794259 -0.28740713 0.25111064 0.25285876 -0.16491751 0.09953109 -0.028746946 -0.02488026
-0.31922558 0.11115294 -0.054646388 -0.20166132 0.30214757 0.09257708 -0.11903752 -0.22409661
-0.3317693 0.30011633 0.011777828 0.1332183 -0.25156605 -0.11810994 0.13668825 0.17229988
0.07318176 -0.083948 0.07075741 -0.13808294 0.22465575 0.18782896 -0.0056988504 0.10481193
-0.17530906 0.14288007 0.05391988 -0.11903848 -0.05463125 -0.287811 -0.18731813 0.1601038
-0.0032340186 -0.094331235 0.2302721 0.07822498 0.077898525 -0.32266706 -0.07947763 0.03126324
0.18236 -0.3241863 0.3095681 -0.110016026 0.06430817 -0.019451957 0.12951519 0.18295288
0.0068588713 -0.20948498 0.20195489 0.16926682 -0.136212 -0.12230502 -0.17362806 0.18490334
0.070306905 -0.26511595 -0.06965741 -0.063055195 -0.027487574 -0.08501058 -0.030173538 0.00026510408
0.21106339 0.07946211 0.32027093 -0.28057483 0.074719734 -0.046504736 -0.05105802 -0.1866833
-0.26570496 -0.058899682 -0.17581056 -0.02835174 -0.11014762 0.10633904 0.33689952 -0.13110086
-0.027306253 -0.2965317 0.049585126 -0.040397145 0.114693165 0.16928574 -0.258752 -0.25371742
-0.288757 0.035083234 0.20108563 0.12847409 -0.064449646 0.1995364 0.32265052 -0.23732455
-0.08134134 -0.007938434 0.27677754 0.15538968 0.007115403 0.24068624 -0.050072845 0.07607214
0.06116993 -0.14711499 -0.20597258 -0.041819766 -0.07017749 -0.15817106 0.18117067 0.26016414
0.26915944 -0.18382433 0.097161666 -0.23503597 -0.23548001 0.1440954 0.095859535 0.05146882
0.13800575 -0.04852239 -0.15521783 -0.10679472 0.07001663 0.17601554 0.028658923 -0.13660353
-0.05758124 -0.20252894 0.18150383 -0.15131366 -0.18766265 0.23938599 -0.18010497 -0.124034636
-0.043901112 -0.003707941 0.18021831 0.15056503 -0.23162103 -0.19494122 -0.06888622 0.11913923
-0.20739736 -0.273255 -0.120423846 -0.16663034 -0.06380573 -0.08328874 -0.004517428 0.2319419
-0.19036748 -0.26285437 -0.003301513 0.11849326 0.19856134 0.10082933 -0.048269868 -0.19702385
0.034231145 -0.034248196 -0.21383868 0.074878976 0.04835376 0.26620358 -0.08292099 -0.060213465
0.16639394 0.2557129 -0.22521563 0.2964418 0.059547573 -0.20413822 0.013713646 -0.26727843
-0.22835231 -0.21752815 0.14152144 0.07227613 0.25384325 0.031720664 -0.24577416 0.11463619
0.29126424 -0.15211146 -0.14122628 0.21235491 0.16971372 0.13923179 -0.022349015 -0.16561832
-0.12759654 0.13371919 0.26507267 -0.24648722 0.26925623 -0.052950036 0.22978027 -0.046182
-0.15844713 0.20308696 -0.008245014 -0.040458698 0.016106978 -0.32179472 -0.10904628 0.044896334

weight_u f4 [32]
00000000: a52e 38be 2bca 91be 3a37 fdbb 310b 70be
00000010: a7a5 2bbd cb9d 20be 680f afbd f6fa b1be
00000020: 2532 8ebd 97b5 b9bd 7cfb 0ebe a7c8 a63d
00000030: 78f3 af3d ea9f bfbe f584 7f3d 3c3a ecbc
00000040: 8d18 1abe 546c 673e 498c 0ebe 5360 163e
00000050: 6be6 0abe 536e 2bbe dea3 d1bd 2b1d 5fbe
00000060: 38d3 8cbe 56c6 d9bd 6773 b3be 96a7 bcbd
00000070: 0d70 a63d 6240 17be dddd 85bd f334 00be
-0.17986543 -0.28474554 -0.007727531 -0.23441769 -0.041906025 -0.15685193 -0.085478604 -0.3476178
-0.06943158 -0.09067839 -0.13963121 0.0814374 0.0859136 -0.37426692 0.062382657 -0.028836362
-0.15048428 0.22599918 -0.13920702 0.14685182 -0.1356446 -0.16741304 -0.10236333 -0.2178847
-0.27504897 -0.10633533 -0.35048983 -0.09211652 0.08126841 -0.14770654 -0.06536458 -0.12520199

weight_v f4 [12]
00000000: 13fb 8d3e d049 b73e aa1c 61be 5586 78be
00000010: 71c0 4dbd 37c9 0a3f ffe9 d1be ce58 063e
00000020: 0236 b93e 3458 4a3d d75b 83be eba8 a9bd
0.27730617 0.35798502 -0.2198359 -0.24269994 -0.050232355 0.5421328 -0.40998837 0.13119814
0.36174017 0.049400523 -0.25656006 -0.08284172

weight f4 [32, 12, 1]
00000000: 857f 70be c203 2dbe 16f9 2bbe 1c37 2b3e
00000010: 5166 583d 03ed 93bd d85f 2c3c e666 45be
00000020: 001b 323e 6be0 06be cb40 133e 2f5b 81bc
00000030: acaf 4cbe 6b70 06be ec4e 9f3d 4298 493e
00000040: 5ec2 35be 6f85 4ebe 1076 b13d 6889 0a3d
00000050: 46ef d43d bf4d 1e3e 4e19 223e 4362 e9bd
00000060: 2dbe d63b 3690 c3bd ddc7 d8bc 61be 63bc
00000070: d798 033e 4ef0 6f3d 4355 d93d 129d 0c3e
00000080: 3d25 8b3c f1ad ecba 0bd0 81bd f61e a53d
00000090: 9e55 e33d 5f1b a9bd d0fd 89bd 825e 033e
000000a0: 3579 8f3d 1172 6abe 62d6 4c3e 2243 4e3e
000000b0: 1087 06be 1d61 a23d 5a96 bbbc a85b a2bc
000000c0: 3933 82be 2e57 b53d 9c4e 32bd e27f 24be
000000d0: 1478 763e 5c09 973d 4034 c2bd e8cc 36be
000000e0: a950 87be abcf 743e 35b8 193c b556 d93d
000000f0: 7f35 4dbe 54b1 c0bd 4c00 df3d 088d 0c3e
00000100: 2dc9 6e3d 14f6 88bd 1ee0 663d 7a46 e1bd
00000110: 9741 373e 7337 193e 40b5 94bb fbfe aa3d
00000120: 4601 0fbe b719 e93d 76f0 2f3d 3434 c2bd
00000130: 8141 32bd 96c6 6abe b5cc 18be e399 023e
00000140: c7dd 28bb abe5 99bd e2d6 3b3e 9c3d 7f3d
00000150: 4d2a 7e3d 9b9a 83be 20a9 81bd 5905 cc3c
00000160: adc1 143e 2639 84be 9285 7c3e e37a b3bd
00000170: a2d3 513d 63e1 7dbc a04c d33d 5f3d 153e
00000180: 1911 b33b 11e2 2abe 78bd 243e 8813 0a3e
00000190: e938 debd e189 c7bd e6a1 0dbe 5ed4 163e
000001a0: d066 653d d242 58be 2c48 63bd f2bd 4dbd
000001b0: b561 b3bc b1b0 8abd f2e6 c4bc cf1c 5d39
000001c0: 5f2b 2c3e 82a3 813d 37a0 823e e8de 64be
000001d0: c4cc 733d 57bd 17bd 6a98 26bd 2448 18be
000001e0: 15be 58be 2b2f 40bd 5a69 0fbe 5d04 b9bc
000001f0: 07b3 b3bd fa7b ad3d a268 893e 17e2 d5bd
00000200: 2735 b2bc 62e3 71be 52cb 213d 84cf 03bd
00000210: 911d bb3d 3d17 0a3e e211 53be 82f6 4ebe
00000220: 8c8b 6bbe 50f4 e43c 8d07 243e a699 d13d
00000230: fb49 52bd 07c4 223e b298 833e 6297 41be
00000240: 00b4 84bd d834 cfbb 22c6 613e 9682 fd3d
00000250: dcbd b93b 8c55 443e 8362 23bd 6137 783d
00000260: e297 473d bf02 f0bd 6904 28be 6a74 08bd
00000270: 70fd 64bd 6606 01be 2ec9 133e 1639 543e
00000280: 958f 5b3e 73f3 15be ec83 9e3d 4fb9 3fbe
00000290: 5116 40be ff14 eb3d 7464 9c3d 9ef0 273d
000002a0: e125 e13d 0152 1ebd d63a fdbd 553b aebd
000002b0: 7d74 643d 8594 0f3e 8405 bb3c 6edc debd
000002c0: c8e1 3bbd 0435 25be 630e 143e 52dc f6bd
000002d0: a114 19be ba45 433e 62ea 12be 355b cabd
000002e0: 8f3e 0fbd ad9c 41bb 3b02 133e 63a3 f53d
000002f0: 57f0 3cbe 8d04 1fbe 87c4 60bd 935e c23d
00000300: dc2d 29be e6e6 5ebe dd76 c4bd 9cec 07be
00000310: 2b31 50bd fee2 87bd c9ca 6bbb 1b33 3d3e
00000320: ca49 1bbe a86a 56be 9246 2cbb f850 c13d
00000330: e9f8 213e ba7f a43d 7280 1dbd c4b7 20be
00000340: c861 df3c 177d dfbc 246f 2ebe b752 743d
00000350: 89c6 1d3d 1f26 593e 8048 87bd e978 44bd
00000360: efba 073e 2897 503e 72b6 37be 77d0 713e
00000370: 874c 423d 4385 26be d4fc 323c 4a06 5abe
00000380: cc45 3abe 5a71 31be d8e2 e63d 82d4 6b3d
00000390: da10 4f3e 1801 cf3c b97b 48be 8b05 bb3d
000003a0: 3797 6d3e 2929 f8bd 6c67 e6bd 2b39 2d3e
000003b0: 7770 0a3e 6826 e33d b0d9 91bc 5819 07be
000003c0: f62a d0bd 9c27 da3d ac39 583e 9910 49be
000003d0: 8aa3 5b3e e1c4 2cbd cb6f 3b3e 03af 16bd
000003e0: ac3f 01be b4a9 253e cf32 d7bb f002 04bd
000003f0: 7234 523c 4b3f 83be 62e7 b1bd dd7d 123d
-0.23486145 -0.16895965 -0.16794237 0.16720241 0.05283195 -0.07222941 0.010520898 -0.19277534
0.17393112 -0.13171546 0.14380185 -0.01579055 -0.19988889 -0.13128822 0.07778725 0.19686988
-0.17749926 -0.20168088 0.08665097 0.033822447 0.103972 0.15459345 0.15829965 -0.11395695
0.0065534324 -0.095489904 -0.02646249 -0.01390037 0.12851273 0.05857878 0.106119655 0.13731793
0.01698553 -0.001805721 -0.06338509 0.08062546 0.111003146 -0.08257174 -0.06737864 0.1282902
0.0700554 -0.22895075 0.20003656 0.20142797 -0.1313746 0.07928679 -0.022898842 -0.019819096
-0.25429705 0.08854519 -0.043532 -0.16064408 0.24069244 0.07374832 -0.09482622 -0.17851603
-0.26428726 0.23907344 0.009382297 0.10612241 -0.20039938 -0.09408823 0.108887285 0.13725674
0.058297325 -0.06687561 0.05636608 -0.109997705 0.17896114 0.14962558 -0.0045382082 0.08349415
-0.1396533 0.11381858 0.04295393 -0.09482613 -0.0435195 -0.22927317 -0.1492184 0.12754016
-0.0025766955 -0.07514509 0.1834369 0.062314615 0.06205206 -0.25703892 -0.06331086 0.024904894
0.14527006 -0.2582485 0.24660328 -0.08763673 0.05122722 -0.015495631 0.103173494 0.14574192
0.0054646847 -0.166878 0.16087902 0.13484013 -0.108506985 -0.09743095 -0.1383129 0.14729449
0.056006253 -0.2111924 -0.05548875 -0.050229974 -0.021897176 -0.067719825 -0.024035905 0.00021086934
0.1681342 0.06330015 0.2551286 -0.22350657 0.05952145 -0.037045803 -0.040672697 -0.1487127
-0.2116626 -0.046919983 -0.14005032 -0.022585088 -0.08774381 0.08470912 0.2683764 -0.10443514
-0.02175386 -0.23621896 0.039500542 -0.032180324 0.09136499 0.13485427 -0.2061229 -0.20211223
-0.23002452 0.027948529 0.16018505 0.10234384 -0.051340085 0.15895091 0.25702435 -0.18905404
-0.06479645 -0.006323438 0.22048238 0.12378423 0.005668385 0.19173259 -0.03988887 0.06059969
0.04872883 -0.11719274 -0.16407932 -0.033314146 -0.05590576 -0.12600097 0.14432213 0.20724902
0.21441491 -0.1464365 0.07740006 -0.18723033 -0.18758513 0.11478614 0.076363474 0.041000955
0.10993553 -0.038652424 -0.12364738 -0.085074104 0.055775154 0.140215 0.022829778 -0.108818874
-0.04586962 -0.16133505 0.14458613 -0.120537415 -0.14949276 0.19069567 -0.14347222 -0.098806776
-0.03497177 -0.002954285 0.1435632 0.11994054 -0.18451057 -0.1552908 -0.054874923 0.09490695
-0.165214 -0.21767768 -0.09592984 -0.13273853 -0.05082814 -0.06635092 -0.0035979024 0.18476526
-0.15164867 -0.20939124 -0.002628718 0.09439272 0.15817608 0.080321744 -0.038452573 -0.15695101
0.027268305 -0.027281327 -0.17034584 0.059649196 0.038519416 0.21205948 -0.06605625 -0.04796687
0.13254903 0.20370162 -0.17940691 0.2361468 0.047436263 -0.16261773 0.010924537 -0.21291462
-0.18190688 -0.17328396 0.11273736 0.05757571 0.20221272 0.025269076 -0.19578446 0.091319166
0.23202215 -0.12117226 -0.11250195 0.16916339 0.13519464 0.1109131 -0.017803997 -0.13193262
-0.10164444 0.10652086 0.2111575 -0.19635238 0.21449104 -0.042179946 0.18304364 -0.036787998
-0.12621945 0.16178018 -0.006567336 -0.032229364 0.012829887 -0.25634226 -0.08686711 0.035764564

weight f4 [1, 32, 1]
00000000: aa2d 983d 807c ff3b 905a 98bd c801 03bd
00000010: 1359 193e 8eda b33d 643d 023d 60c8 8d3c
00000020: f1f0 2abe c09b 6d3b a881 1ebd f860 113d
00000030: 7c86 84bd d21f 9e3d 2076 533c cce7 5e3d
00000040: 3e2a 1abe a84c 7cbd 18b1 9bbc 0ecd e73d
00000050: 6e80 cf3d 8b86 273e 052a b0bd 18ab dabc
00000060: f8d3 11bd fce7 013d f4dc 6fbd 4211 8b3d
00000070: 7a41 0dbe 7293 b13d ebba 1c3e 5d80 ccbd
0.07430585 0.007796824 -0.074391484 -0.03198412 0.14975385 0.087819204 0.031796828 0.01730746
-0.16693474 0.0036256164 -0.03869787 0.035492867 -0.06470963 0.07720913 0.012906581 0.054420277
-0.15055177 -0.061596543 -0.019005343 0.11318408 0.10131918 0.16359918 -0.086017646 -0.026692912
-0.03560254 0.03171538 -0.058560327 0.06790401 -0.13794509 0.08670701 0.15305679 -0.09985421

weight f4 [1, 32, 1]
00000000: 6c3f 0abd 0781 01be 4054 27bb 6525 bcbd
00000010: e0bf 833c efc0 1abe 7925 e6bd 199c 0d3e
00000020: 4afc d5bd 5151 163e 41ea 00be 68b3 08bd
00000030: 714b e3bd d905 9dbd 4063 10bb c01d b6bc
00000040: 9629 a83d 92b3 c83d 9ad0 ee3d d760 2d3e
00000050: 786d 983c 5cee 2e3d 2014 213d 80f9 16bb
00000060: 41d2 1d3e d0d9 e83c 6880 09be ae1e ab3d
00000070: c12e 223e 7009 50bc 186e 89bc ea09 f5bd
-0.03375189 -0.12646876 -0.0025532395 -0.0918682 0.016082704 -0.15112661 -0.11237616 0.13829078
-0.10448511 0.14679457 -0.12589361 -0.03337422 -0.11098374 -0.07667131 -0.0022031814 -0.022230983
0.08211057 0.09799875 0.11660881 0.16931473 0.018606886 0.042707786 0.039325833 -0.0023036897
0.15412237 0.028424174 -0.1342789 0.08355461 0.15838148 -0.012697563 -0.01677613 -0.119647816

weight f4 [1, 32, 1]
00000000: 0b49 0d3e ad15 8fbd 2e25 99bd fc87 3ebd
00000010: a02f 593c fe07 75bd 56d6 c5bd 06eb 9a3d
00000020: 5e50 ef3d 38cf f9bc 9d8d 173e 30b5 77bc
00000030: 4323 103e 62fe 2abe f6ff a2bd 70d9 24be
00000040: 34a6 213d ea9c b83d 63b8 233e 00f5 603d
00000050: 082c 463d e426 4fbd 34eb 4a3d 560f cd3d
00000060: 0207 9bbd d292 8b3d 40b5 37bc 8a97 94bd
00000070: ebd4 17be 44ee 01be f03d 5abc b86d 23be
0.13797395 -0.06986556 -0.074777946 -0.046516404 0.013255984 -0.059822075 -0.09660022 0.075643584
0.11685251 -0.030494317 0.14800115 -0.015118882 0.14075951 -0.16698602 -0.07958977 -0.16098571
0.039465144 0.09014304 0.15988307 0.05492115 0.048381835 -0.0505742 0.049540713 0.10012691
-0.07569696 0.06815113 -0.011212647 -0.07255466 -0.14827316 -0.12688547 -0.013320431 -0.15959823

bias f4 [32]
00000000: 8aed ea3d ca2b 3d3e dd38 4d3d fe35 833c
00000010: 6860 af3c fb5a 843d 1aba 4a3e 17d9 1f3d
00000020: e902 313e f724 033d efac 4e3e 8622 533e
00000030: c845 bd3d 2ee4 4e3e 8acb 853b 763e 3a3e
00000040: 5219 093c f8d1 913e 5328 3e3d 0ce3 533d
00000050: aa0e 143e f5c2 6d3e bbad fd3d ffba 803e
00000060: 1adf 9e3d 80c5 863c 1dce ff3d ccf3 a83d
00000070: 56da 103e 63b1 243e 1803 403e 5224 723c
0.11471088 0.18473735 0.050103057 0.016016956 0.021408275 0.06462666 0.19797555 0.039025392
0.17286266 0.032017674 0.20183156 0.20618638 0.09241825 0.20204231 0.0040831016 0.1818789
0.008367853 0.28480506 0.046425175 0.0517302 0.14458719 0.23218901 0.12386652 0.25142667
0.07757397 0.016451597 0.12490485 0.082496256 0.14145789 0.16083293 0.1875118 0.014779167

weight_orig f4 [32, 43, 1]
00000000: b513 183d ef99 94bd ed66 003d 9fbc b1bc
00000010: 05a5 e3bc 2f66 da3d 8afd 37bc cf1e 0e3e
00000020: 9f09 b73d aa70 3abd aff9 803b 1d96 213d
00000030: a20e c0bd 1a83 723d 2165 b3bd 24de e53d
00000040: ee86 e3bd 512e afbd 0fb9 7b3d ad3f 033d
00000050: e255 e3bc 2bd9 e53d 3d57 d43d aa86 9cbd
00000060: 000f 5f3c dfb6 4c3d 9174 8ebd f10e 283d
00000070: e239 df3d f60d 623d 7486 a93d f49f cc3c
00000080: 349e 11be 3a6f 173e 7b78 47be af5b 653d
00000090: dca4 bf3d 0ad7 b93d 4a9c b23d a8d0 5e3d
000000a0: 2c7e 96bd 99a2 b23d ca96 ecbc 1741 543c
000000b0: b35e 183d 7666 37bd 697b 743d 8bb3 0abd
000000c0: e127 003c 6c9b db3d e481 013d 2bb7 f93b
000000d0: 14a3 313e d6a1 c33d 71b2 ecba ec45 893b
000000e0: 2bd2 453e 5ede 963b 07c3 773d 8717 d4bd
000000f0: fe68 7f3c c93b 223c 95ea b33d 3c4a a53d
00000100: 6898 ec3d de76 073e 426b 44bd ffbb d4bc
00000110: 2f1c 913c eb17 133e da4e e83c 075c 233d
00000120: 00ec 88bd b5db 57bd 072a 2c3d c990 2e3e
00000130: 0032 a5bd b166 78bd a660 773c 9d5b 1e3e
00000140: 50d2 e2bc ae35 353e 10f5 32be 7a19 313e
00000150: 70f0 723d 9f2a 16bd 02e1 1dbb b1b6 9d3d
00000160: 6c8f 32bd b274 e2bd 7bb1 edbd f72f 1a3c
00000170: 6455 fd3d 3a9d 02bd f202 133d ae9f b9bc
00000180: b9f6 913d abd3 ac3b dbae c9bd bf03 a33d
00000190: 7c76 babc 152a 0f3e 18de 353d 9d54 e03d
000001a0: 311d e7bd 2c88 66bc d2a1 843d aa98 ef3d
000001b0: dbea aa3d a473 f63d d87d 143a 46d8 c1bd
000001c0: 0c64 fe3d c880 a53d 72ec 903c f7d1 2a3d
000001d0: 9de9 d93d 9520 cb3d 7eb7 2ebe df9e fa3d
000001e0: 8f3a b0bd 04b2 ec3d 1439 0b3d bb14 95bd
000001f0: 1524 efbd e582 083e 338f b73d c322 f23c
00000200: 3861 f93c c95c 583d 3df7 c63d cf34 4d3d
00000210: 3fb6 49bc 3a55 e6bd bd3a 87bc 62ea 93bd
00000220: ad4d 17bd dafe 2e3d d7af 90bc 5647 083e
00000230: 3988 d7bd e99a f33d c2ce cf3c 7acd 0ebe
00000240: f888 eebc 04fc c53d 8bd4 03bd 72c6 043d
00000250: b16b ed3c d4b6 26be a8c8 eb3d dae9 f43c
00000260: 9cb0 943c eb0f 3cbd 82f1 c83c e454 413c
00000270: 1832 073e 0529 b6bd 6f3b 07be c011 243e
00000280: 87a1 813d 5592 c0bd f7b0 ad3d 65b5 6abd
00000290: 36ed eebc 8d1d 9fbd 9d3c 8dbd 7ad5 3e3d
000002a0: fb22 25bd 9d5f 9cbd b03f adbc b621 b13c
000002b0: 9b52 fc3c ef13 483d 4816 b63c 04c7 4e3c
000002c0: 7364 0d3e f06e cd3d 459b a53d 20ea 653d
000002d0: 8fdd efbc b74f 89bc 8f95 b6bd 5657 21be
000002e0: 2145 bc3d 2ab6 453d 6ac7 f33d 205f a43b
000002f0: 0ce8 443d 4aa8 cdbd 9ae6 e9bc 3cad 903d
00000300: 1e30 0fbb 7465 afbd e7c2 983d 548c 1dbe
00000310: d2f7 8a3d 4ab2 d83d ef65 45bd 94a7 a43d
00000320: e616 213e 850e 97bd d33c f03c a5ab 303e
00000330: caad fcbd dcf4 19bd 1696 1b3e d6a4 93bc
00000340: 36b6 163e be97 a3bd 9f7e 2dbd dff1 713c
00000350: 2378 e3bc 65eb 40be 7507 d13d ebac 1a3d
00000360: 7187 c93c 9966 2bbd 1cc6 90bd 21c4 bc3d
00000370: 0800 10be 2781 74bb 02e0 4cbc 5ff5 94bb
00000380: b14c 613d f737 cfbd b238 773d be47 e1bc
00000390: 21be ab3d 5950 bfbd a150 01bc 7a2d 263e
000003a0: f6fb a03d 11ed a0bd 1032 8abd a7b2 43bd
000003b0: 6694 093e a294 263c a687 093c 1737 f1bd
000003c0: 44fd 883d 3b0d 06bd bac5 2cbe 59d9 88bd
000003d0: bf19 3a3b c26b 10be 4312 8ebd cd8a 0cbd
000003e0: 0f51 bc3c 5522 09bd 26af 8c3c 2430 78bd
000003f0: 73c0 44bd f0f6 d9bb 0fb7 96bc 2625 3f3d
0.03712817 -0.07255923 0.031348158 -0.021696387 -0.027788648 0.10664021 -0.011229882 0.1387894
0.08937382 -0.0455176 0.0039360146 0.0394498 -0.09377791 0.05920706 -0.08759523 0.112240106
-0.1110972 -0.08553756 0.061455783 0.032043148 -0.027750913 0.11223062 0.10368202 -0.07642873
0.013614416 0.049979087 -0.06955827 0.041029874 0.10899712 0.055189095 0.08277598 0.024978615
-0.14220506 0.14788523 -0.19479553 0.05599564 0.09357616 0.090742186 0.08721216 0.05439821
-0.07348284 0.08722419 -0.028880496 0.012954972 0.037199687 -0.04477545 0.059688006 -0.03386263
0.007822008 0.10723004 0.031618014 0.0076207123 0.17347366 0.09552352 -0.0018058551 0.0041892435
0.19318454 0.004604145 0.060488727 -0.1035605 0.015588997 0.009901949 0.08784977 0.080708
0.11552507 0.13228938 -0.04795385 -0.02596855 0.017713634 0.14364593 0.028357912 0.039882686
-0.066856384 -0.052699763 0.042032268 0.17047419 -0.08066177 -0.06064481 0.015098726 0.15464635
-0.027688175 0.17696258 -0.17476296 0.17294875 0.05931133 -0.03666174 -0.0024090414 0.07700861
-0.04359381 -0.11057414 -0.11606117 0.00941085 0.123698026 -0.031888224 0.03589148 -0.022659149
0.07127137 0.005274256 -0.09847804 0.07959699 -0.022761576 0.13980897 0.04440126 0.10953639
-0.11284865 -0.014070552 0.06476177 0.1169904 0.083455764 0.120337754 0.0005664504 -0.09465079
0.12421426 0.08081204 0.01769087 0.041704144 0.10640261 0.09918324 -0.17062184 0.122373335
-0.08604919 0.11557391 0.03398998 -0.07279345 -0.11676804 0.13331182 0.0896286 0.029557591
0.030441865 0.05282286 0.09715126 0.05009919 -0.012311517 -0.112467244 -0.0165075 -0.07222439
-0.03693931 0.042723514 -0.017661972 0.13308463 -0.10524029 0.11894781 0.025367144 -0.1394557
-0.029118046 0.09667209 -0.03218512 0.032415815 0.028982015 -0.16280681 0.115128815 0.029896665
0.01815062 -0.045913618 0.024529222 0.011800025 0.13202703 -0.088945426 -0.13206266 0.16022396
0.06329637 -0.094029106 0.08481019 -0.057301898 -0.029165845 -0.07769308 -0.06896327 0.046590306
-0.040316563 -0.07635424 -0.021148533 0.02162252 0.030801108 0.048847135 0.022227421 0.012620691
0.1380785 0.10030925 0.08086256 0.056131482 -0.029280452 -0.016761644 -0.08915245 -0.15755972
0.09192873 0.04826943 0.119032696 0.0050162226 0.04807286 -0.10041864 -0.028552342 0.07064292
-0.0021848748 -0.085642725 0.0745905 -0.15385562 0.06785549 0.10580881 -0.048192915 0.080397755
0.15731391 -0.07375816 0.029325878 0.17252977 -0.12337835 -0.03758703 0.15193972 -0.018022936
0.14717945 -0.07987927 -0.042357083 0.014767139 -0.027767247 -0.18839796 0.102065004 0.037762564
0.024600716 -0.04184589 -0.07069036 0.09217096 -0.14062512 -0.0037308426 -0.0125045795 -0.004545852
0.05500478 -0.10118096 0.060356803 -0.02750003 0.083858736 -0.09341497 -0.007892759 0.16228285
0.07860558 -0.07857717 -0.0674783 -0.047777798 0.13435516 0.010167273 0.0083941575 -0.11778086
0.066889316 -0.03272746 -0.16872302 -0.06682081 0.0028396694 -0.14103606 -0.06937077 -0.03431206
0.02298787 -0.033480007 0.017173361 -0.060592785 -0.048035096 -0.0066517517 -0.018397836 0.046666287

weight_u f4 [32]
00000000: 6914 193e 6e54 7f3e 61df 583d 94e5 3f3d
00000010: 0854 753e 8be3 10be 2beb 743e 8011 ce3d
00000020: a55b f83d 7c85 523e cb25 123e 41ad c9bb
00000030: 092a 123e 3248 51be 09ba b3bd c7c9 e53d
00000040: 20e1 5e3e b94f 1abe 4dd3 85be 1ff8 9e3e
00000050: 7f16 aa3d 65ce 853e 034d 193e 0196 093e
00000060: 1cfb 2b3e f06c 8bbe 8856 bdbd c863 d43d
00000070: 514d 11bd 855d f7bd 6d7f 15be 7e27 9f3e
0.14949192 0.24934551 0.052947406 0.046849802 0.23957837 -0.14149301 0.23917834 0.100619316
0.12126855 0.20558733 0.1427223 -0.0061546867 0.14273848 -0.20437697 -0.08775718 0.112201266
0.21765566 -0.15069474 -0.26137772 0.31048676 0.08305072 0.2613403 0.14970784 0.13436128
0.1679501 -0.2723155 -0.0924502 0.10370594 -0.035474125 -0.12078384 -0.1459939 0.31084818

weight_v f4 [43]
00000000: 5c59 dd3d 473f 35bc 6ea9 c63d 93e2 a8bd
00000010: f0ff d0bd fbf5 673d af93 653e 0790 2f3e
00000020: d0fc a5bc ce87 263e 6e01 613e 492b 46be
00000030: e860 3ebd 73b2 f33d 8743 993d 4be4 b73a
00000040: efd0 3cbe 5c5a 3cbd 8ae3 df3d dc74 333e
00000050: 33a4 bc3d b075 90bd a4c6 a13e cb45 7abe
00000060: 3609 703d ce53 a33c 1624 07bd cb5f 273e
00000070: 5fe3 063e 54dd bb3d 19b7 563e e35c 883e
00000080: 3ca0 25bd 8e81 bdbc 49ba e4bd 50bb 863c
00000090: 5a88 a63e b37a 71bb 7d4b 093e d9db 99be
000000a0: d74b 6d3d 5e62 7dbe b7ac 263e
0.108080596 -0.01106245 0.09700285 -0.082463406 -0.10205066 0.05663107 0.22419618 0.17144786
-0.020262152 0.16262743 0.21973202 -0.1935245 -0.046479136 0.11899271 0.07483583 0.0014029829
-0.18439077 -0.04598461 0.109320715 0.17525047 0.09211006 -0.07053697 0.31596863 -0.24440686
0.058602534 0.019937422 -0.0329934 0.16345136 0.13172673 0.09173074 0.20968284 0.26633367
-0.040436015 -0.023133066 -0.111683436 0.01644674 0.32525903 -0.0036846816 0.13407703 -0.30050543
0.057933655 -0.24744555 0.16276823

weight f4 [32, 43, 1]
00000000: b7a6 fb3c e3e2 75bd c179 d43c 270b 93bc
00000010: d555 bcbc d3b1 b43d cf2c 18bc 622b eb3d
00000020: d76f 973d 9b3e 1abd 5088 553b fdaf 053d
00000030: 19e6 9ebd f2a5 483d 476b 94bd 832e be3d
00000040: b63e bcbd bcef 90bd 0645 503d 4731 d93c
00000050: 3e13 bcbc 712a be3d 82af af3d 8380 81bd
00000060: bd92 383c f25f 293d 43b7 6bbd c10c 0b3d
00000070: 26b0 b83d 9507 3b3d e042 8c3d 7d4f a93c
00000080: 2cf4 f0bd ec93 fa3d 2a08 25be 77c3 3d3d
00000090: 738f 9e3d 60c0 993d 6cc6 933d c857 383d
000000a0: 3006 79bd 4bca 933d 03b7 c3bc 0a9f 2f3c
000000b0: 4620 fc3c 5abb 17bd 0d45 4a3d 9481 e5bc
000000c0: 1f15 d43b 17b2 b53d ad4d d63c cc9a ce3b
000000d0: fbf7 123e d8db a13d 1df6 c3ba bf20 633b
000000e0: 01ab 233e a7b2 793b 7cfc 4c3d d779 afbd
000000f0: c44d 533c 673c 063c f2da 943d 3ac1 883d
00000100: 0abf c33d 0828 e03d 0583 22bd 5fff afbc
00000110: fd1e 703c 4465 f33d c134 c03c 2129 073d
00000120: c38f 62bd 0c95 32bd 1672 0e3d ff6c 103e
00000130: cfac 88bd 4e83 4dbd 94a9 4c3c d904 033e
00000140: 43a9 bbbc 83ec 153e 9a0f 14be cc85 123e
00000150: cdfc 483d b875 f8bc 7489 02bb c07c 823d
00000160: f5ba 13bd 945a bbbd c8a6 c4bd eb2d ff3b
00000170: 0799 d13d 341c d8bc 3b44 f33c 4690 99bc
00000180: 5288 713d 8804 8f3b 6fdc a6bd 91df 863d
00000190: cd43 9abc 26e5 ec3d 9478 163d 8199 b93d
000001a0: 4735 bfbd e9b4 3ebc b078 5b3d 9c3b c63d
000001b0: 4e69 8d3d 7de7 cb3d 24b8 f639 8a5f a0bd
000001c0: 4179 d23d a4ee 883d 93cf 6f3c 0055 0d3d
000001d0: fe4a b43d 970f a83d 4e8d 10be 6059 cf3d
000001e0: 1fcd 91bd d5d4 c33d 0560 e63c e2b0 76bd
000001f0: f4d9 c5bd 9de2 e13d 67dd 973d 4b54 c83c
00000200: c755 ce3c 60ff 323d fb9b a43d 2fc7 293d
00000210: 90ec 26bc 5d92 bebd 29ce 5fbc 14c2 74bd
00000220: ab61 fabc b7c6 103d eb71 6fbc 9b7e e13d
00000230: 0253 b2bd e68a c93d a8e9 ab3c e14b ecbd
00000240: 1f5e c5bc 5bcc a33d 5024 dabc 9fae db3c
00000250: 8b6b c43c a8ee 09be 1712 c33d c49f ca3c
00000260: e6fe 753c ef9a 1bbd fa39 a63c 41e9 1f3c
00000270: 52b4 df3d 7db5 96bd 45c5 dfbd 9abd 073e
00000280: 1a7e 563d 2452 9fbd dbb3 8f3d 3e2f 42bd
00000290: 79af c5bc 40a4 83bd 2bb2 69bd f1e1 1d3d
000002a0: 27a0 08bd 985f 81bd 9a54 8fbc c28c 923c
000002b0: 94c7 d03c 118a 253d a6a8 963c 7416 2b3c
000002c0: b6f6 e93d 12f8 a93d 0905 893d 5d3a 3e3d
000002d0: 3672 c6bc c72a 63bc 0f0e 97bd 617c 05be
000002e0: e5c3 9b3d 9795 233d 5db1 c93d ae02 883b
000002f0: 64e8 223d 9a26 aabd 9c7f c1bc fc67 6f3d
00000300: 8cb5 ecba e41c 91bd dcc8 7c3d fc58 02be
00000310: 0af5 653d 5349 b33d fe4f 23bd 153b 883d
00000320: 4a47 053e 96f2 79bd eac9 c63c ab2b 123e
00000330: 0e0e d1bd 57c0 febc 63b9 003e b24a 74bc
00000340: 1763 f93d 9f59 87bd 2e8a 0fbd 7927 483c
00000350: 9b31 bcbc 069d 1fbe 18f2 ac3d 5aed ff3c
00000360: e3b9 a63c 44d1 0dbd bd8d 6fbd d12c 9c3d
00000370: 9f47 eebd 7586 4abb d686 29bc 1e77 76bb
00000380: 4864 3a3d 7a72 abbd e58a 4c3d 8c60 babc
00000390: 6216 8e3d b949 9ebd e1fc d5bb 7f7d 093e
000003a0: 1631 853d 5525 85bd bdad 64bd 45ea 21bd
000003b0: 5da6 e33d 08c5 093c 22a0 e33b 0a92 c7bd
000003c0: 1fac 623d 3cd1 ddbc fef1 0ebe c874 62bd
000003d0: 75d9 193b b9fa eebd 8317 6bbd 4a8d e8bc
000003e0: 74ce 9b3c 47e7 e2bc d3c7 683c f257 4dbd
000003f0: b7c8 22bd 2f65 b4bb c756 79bc cd24 1e3d
0.030719144 -0.06003083 0.025936963 -0.017949654 -0.022990147 0.0882298 -0.009288027 0.11482884
0.07394379 -0.03765736 0.003258247 0.03263854 -0.077587314 0.048986383 -0.07247024 0.09286215
-0.09191649 -0.07076976 0.050847076 0.026512755 -0.022958394 0.09285439 0.08578397 -0.0632334
0.011265454 0.041351266 -0.05754782 0.03394771 0.09017973 0.045661528 0.06848693 0.020667786
-0.11765322 0.12235245 -0.16116396 0.046328988 0.077422045 0.07507396 0.0721558 0.04500559
-0.060796916 0.07216319 -0.023890978 0.01071907 0.030777108 -0.037043907 0.04938226 -0.02801589
0.0064722444 0.088718586 0.026160086 0.0063050743 0.1435241 0.0790326 -0.0014950667 0.003465697
0.15983202 0.003810087 0.050045475 -0.08568161 0.012896959 0.008193112 0.07268323 0.0667748
0.09557922 0.10945135 -0.03967573 -0.021484075 0.014655826 0.11884549 0.023462655 0.032998208
-0.055312883 -0.043599173 0.03477677 0.14104079 -0.066735856 -0.05017405 0.012491602 0.12794818
-0.022907859 0.14641003 -0.14459077 0.14308852 0.049069215 -0.03032957 -0.0019918354 0.063714504
-0.036066968 -0.09148136 -0.096021235 0.0077874563 0.10234266 -0.026380636 0.02969562 -0.018745553
0.058967896 0.004364554 -0.08147513 0.06585611 -0.018831158 0.11567144 0.036736086 0.09062482
-0.09336334 -0.011639812 0.053581893 0.09679338 0.06904851 0.09956262 0.00047057972 -0.07830723
0.102770336 0.06686142 0.014636892 0.03450489 0.08803366 0.082060985 -0.14116403 0.10124469
-0.07119202 0.09562079 0.028121958 -0.060227282 -0.09660712 0.11029551 0.07415276 0.024454257
0.025187386 0.043700576 0.080375634 0.041449722 -0.010188237 -0.0930526 -0.013659992 -0.0597554
-0.03056415 0.03534576 -0.0146145625 0.11010476 -0.08707239 0.09840946 0.02098544 -0.1153791
-0.024092732 0.07997962 -0.026628643 0.026816664 0.023977062 -0.13469946 0.09524935 0.024734385
0.015014386 -0.037989553 0.020291317 0.009760202 0.10923065 -0.07358835 -0.10926298 0.13255921
0.052366354 -0.07779339 0.070167266 -0.047408335 -0.024131523 -0.064278126 -0.05705468 0.038545553
-0.03335586 -0.06317061 -0.017496396 0.017889384 0.025485791 0.040414874 0.018390965 0.010442365
0.114240095 0.08299269 0.066904135 0.04644238 -0.024224382 -0.013865179 -0.07375728 -0.13035728
0.07605723 0.039937582 0.098482825 0.00415071 0.039772406 -0.08308144 -0.02362042 0.058448777
-0.0018059476 -0.070855886 0.061714992 -0.12729257 0.05614189 0.0875422 -0.03987121 0.06651894
0.13015476 -0.061022364 0.024266202 0.1427447 -0.10207759 -0.031097574 0.1257072 -0.014910387
0.12177103 -0.06608891 -0.035043888 0.012216442 -0.022972872 -0.15587243 0.08444613 0.031241108
0.02035231 -0.0346234 -0.05848478 0.076257356 -0.116347544 -0.0030902897 -0.010347089 -0.003760762
0.045505792 -0.08371444 0.049937148 -0.022751115 0.06937863 -0.07728905 -0.0065303897 0.13426779
0.06503503 -0.06501261 -0.055829752 -0.039530057 0.11115716 0.008408792 0.0069465796 -0.097446516
0.05533993 -0.02707731 -0.139595 -0.055287153 0.0023475562 -0.11668915 -0.05739547 -0.028387684
0.019019343 -0.027698172 0.014207798 -0.0501327 -0.039742198 -0.005505226 -0.015218443 0.038609315

weight f4 [1, 32, 1]
00000000: a411 21be 18cc 633d d464 343d e698 b23d
00000010: 2919 1e3e 5774 1dbe 0048 643c 068c b33d
00000020: d271 78bd 2c08 353d 3671 07be 20db 8abb
00000030: 40ab f43c 751d 03be c1d4 193e 4567 98bd
00000040: 28f8 92bd 050c 0abe 5956 093e f011 3bbd
00000050: 86dc c7bd b5c8 2c3e 1483 ddbd 9a2e a43d
00000060: 49c0 203e 76f1 e2bd 71cf 053e d6ed a93d
00000070: b484 0ebd 304b c1bc 4042 cbbb 5596 b4bd
-0.15729386 0.05561456 0.04404147 0.08720569 0.15439285 -0.15376411 0.013933182 0.08766942
-0.060655423 0.044197246 -0.1322678 -0.0042375475 0.029866815 -0.12804206 0.15022565 -0.07441572
-0.07176238 -0.13481148 0.13411845 -0.045671403 -0.097588584 0.16873439 -0.10816017 0.08016701
0.15698351 -0.11081211 0.13067414 0.08297317 -0.034794524 -0.023595423 -0.006202966 -0.08817736

weight f4 [1, 32, 1]
00000000: 1031 b8bd e8a8 24be 0528 a2bd 3b0c 8bbd
00000010: 2021 853c f2be d03d 9c22 52bd 3812 72bd
00000020: ebe2 03be 112b 2c3e 9320 17be a023 ddbb
00000030: 785d b53c 4025 88bc 4805 993c 15af 343e
00000040: 75a9 273e 7afa b23d 22c5 de3d c01e 81bb
00000050: d6ce e4bd 0d9a 0a3e 28ea 103d b8d6 293d
00000060: 11dd 18be 7bbe 1ebe 7b02 0dbe 9481 bfbd
00000070: 6bc9 17be e866 9abc aebe 09be 9869 edbc
-0.08993733 -0.16080058 -0.07917789 -0.06789442 0.016251147 0.1019267 -0.051302537 -0.059099406
-0.12879531 0.16813304 -0.1475852 -0.0067486316 0.022139296 -0.016619325 0.018679276 0.17644913
0.16373236 0.08739181 0.10877444 -0.0039404333 -0.11172263 0.13535328 0.03537956 0.041464537
-0.1492808 -0.1550235 -0.13770477 -0.09350887 -0.14822929 -0.018847898 -0.13451645 -0.028981015

weight f4 [1, 32, 1]
00000000: bba0 17be 626f 883d f808 d5bd dee2 eb3d
00000010: c291 f63d de91 c43d ce7c 5fbd 2d13 123e
00000020: 167c 803d 8801 50bd 00af fc3c d072 283c
00000030: 48b4 6e3d b995 073e 5a81 20be d6eb ad3d
00000040: 9218 b23d e90d 173e d190 97bd d41e 5f3d
00000050: d085 183d 4654 fc3d 901d fc3c bec4 15be
00000060: 24c8 28bd e43f e4bd aa5a bb3d cd3e 0fbe
00000070: f8bd 3e3d c828 cabd 40af a0bd c085 eb3c
-0.14807408 0.066618696 -0.10402101 0.11517881 0.1203952 0.095981345 -0.054562382 0.14265127
0.062736675 -0.05078271 0.030845165 0.01028128 0.0582774 0.13240708 -0.15674344 0.08492248
0.08696093 0.147514 -0.074006684 0.05447276 0.03723699 0.123207614 0.030775815 -0.14625832
-0.041206494 -0.11144999 0.09148152 -0.139888 0.046567887 -0.0987106 -0.07845926 0.0287503

bias f4 [32]
00000000: e468 313e 3747 383e 9e7e e9bb 9c89 d73a
00000010: e4ee 813e b123 97be 4e71 c53c 3b15 bc3c
00000020: e57a 613e ba89 5c3e 4d3b 273e 723c 1b3d
00000030: dacb b53d 0683 b33d cc6f a03d ee77 053d
00000040: ea48 5c3e 97e8 dc3c 0590 4a3d 456c f73d
00000050: 86dc 1b3e 2d81 ab3d 71d7 953e f378 6c3e
00000060: 4fbe f03d 8aff 923e 498e cb3d c512 8d3e
00000070: 2ff0 043e 8622 34bd abc8 b9bb 12c1 723d
0.17325169 0.17995916 -0.0071256896 0.0016444209 0.25377572 -0.29519418 0.02410188 0.022959342
0.22019537 0.21536914 0.16331215 0.037899442 0.08876772 0.08765225 0.078338236 0.032585077
0.2151219 0.026966376 0.049453754 0.12081198 0.15220842 0.08374248 0.2926593 0.23093013
0.117550485 0.28710586 0.09939248 0.27553383 0.12982248 -0.043978237 -0.0056696734 0.059266157

weight_orig f4 [32, 43, 1]
00000000: 0811 0d3e f509 203d 1b49 4b3c 22b2 103e
00000010: 9a72 f73d b5b7 9b3d 6edd 213e ca46 c73d
00000020: 9cd2 183d bcbb b2b8 acd3 693d 4ff6 45bd
00000030: 2f7e 4cbc 7221 983d 42cf babd 6896 89bd
00000040: 7ff7 d43d 6788 debd 8a72 03be 8fd6 3d3d
00000050: 4cec c23d 6dd8 983d 0558 f3bc 1a94 da3c
00000060: 534b 8ebb a0c0 1c3e a99a c73d 226d 923c
00000070: 69e1 9ebd f373 13be 900f e9bd 4067 d03d
00000080: ea25 4c37 587f e83d 6dfb 1ebe 99af 123e
00000090: c5f4 75bd 9173 b3bd e466 eabd 3990 27be
000000a0: 8caf 27bd fd75 97bd 4880 8cbd 1330 bd3c
000000b0: 1092 db3d be29 bd3d a225 9e3d f24d 18be
000000c0: f6cf 8bbd 80d3 ad3d 2e26 ccbc 0fe0 81bd
000000d0: 29e5 413d f511 103d 29f4 ccbc c4a6 b23b
000000e0: f7e8 c2bd 5acf 52bd 526e ed3b c630 d23d
000000f0: d3e4 153e 331a 023e 10ce 113d 25b6 a93d
00000100: f532 ee3d 156c 123e a9ad 2d3d c26f bc3b
00000110: ece2 fbbd 4cc7 8bbc a321 f43d d4e6 013e
00000120: 73f0 8ebd add3 bbbd 286e 343e 65fc 383e
00000130: 6f20 803d de5b 67be 668b 343e b5da 33be
00000140: 67be 143d a0e3 60bd 292e 2cbd 0f8d a93d
00000150: 4eb3 0ebe 5506 1cbd 8ba3 acbd 3d17 3f3d
00000160: fff7 87bd 30e3 903d 6667 ea3d 6635 2dbd
00000170: 0a12 20be 992e 99bb 724e d13c 1433 4f3e
00000180: bab1 d3bd f700 333d 5a17 723e fd05 e23d
00000190: 36c8 18be e27e 2e3d 2b82 de3d b060 4ebd
000001a0: 8996 21bd d919 fabd fce3 76bd 2f3a 31be
000001b0: 731b a3bd 2e68 b5bc 6d45 063e 557d c03d
000001c0: b4fb 203e ecae 3fbd 9e32 a8bd 40fb 693c
000001d0: 143d 35bc 3d29 1fbe e93f abbd 8b3b 0fbe
000001e0: 72c3 59b9 6e2b 35be d0dc ca3d f632 dc3a
000001f0: c9da a4bd 3465 643d eb93 5bbe 7e59 cfbd
00000200: 552c de3d 0bcf e2bd 34db 9c3d a740 0cbd
00000210: 42fd 4abd 2e8f a0bd 72bf bb3d a936 cabd
00000220: 28d9 fe3d 92c3 24bc 36e6 143e 651a b9bd
00000230: 193a 6abd bd12 cc3c a033 2bbd 3518 f7bd
00000240: 242e b73c 43a2 6a3d e86e 0dbd a94f 3e3d
00000250: 52f2 d1bd 0671 d43d a48c 0ebe 7873 bcbc
00000260: 9b65 cabc 78e3 0e3c 2d99 a33d 3c98 52bd
00000270: 7882 8f3d b401 b33d b81e 013e f379 bd3d
00000280: 7597 f4bc f444 dfbd d6f1 a5bd 2e8f 303e
00000290: da64 42be a849 103d 2bd2 a7bd bd7c 3c3e
000002a0: f579 1ebe efeb cdbd a75d 323e ed2c a0bd
000002b0: 8e65 b7bc f1ed ff3c 051c 85bd f65e 12bd
000002c0: a94d f4ba 7d00 193d 4b25 223e 338e 4cbd
000002d0: 68c2 4d3d 980d 83bd 3486 2b3d d9c4 d0bd
000002e0: 5344 e23d a35c 473e c602 6f3d e67c debc
000002f0: e0b1 333e 7d2f 7a3d aade ff3b 8417 8bbd
00000300: 847a a9bd 1a7b 173e 6e0a 343e 7517 c2bd
00000310: 911a 77bb a2e7 b73c 19b2 a33d d73e b1bd
00000320: f79b e8bd 03f9 3bbd dad3 80bd 6db8 60ba
00000330: c2b2 bf3d 3fcb 04be 8bd6 b7bd f5bd 38be
00000340: ddff 363d 9583 07be a3b5 07bd 6116 06be
00000350: 2b5b a33d cf87 1abc a50e 173e 580d 8fbc
00000360: d871 333d e25f 2e3d 8413 983d 1aaa f43c
00000370: c5a7 5b3d 5ab1 9bbd 80a2 bd3d e157 40bd
00000380: accb 363d adc6 8cbd b2ea 3abd 2736 2a3c
00000390: 3a2e 92bd e9fe cebc a650 853d 5737 a7bd
000003a0: 0eb9 ad3d edde 66bd 5ab0 a3bd aadb b93d
000003b0: ea93 be3c 956e cfbd c42a aabd 2e06 bc3c
000003c0: f637 173d ffbc e33d e8c4 363c 6932 f03b
000003d0: 59a1 a1bd 7ef3 a73c aa18 b9bd 4ac8 c1bc
000003e0: 2671 48bd b50f 733d d7b2 8fbd fe60 afbd
000003f0: e433 77bd 63fb dabd c1b0 a5bd fb78 2b3d
0.13776028 0.039071996 0.012407566 0.14130452 0.120824054 0.07603399 0.15807125 0.09730299
0.037310228 -8.52267e-05 0.05708663 -0.0483306 -0.012481256 0.07428254 -0.091215625 -0.06718141
0.10398769 -0.108658604 -0.12836662 0.046347197 0.09517726 0.07463155 -0.029705057 0.026681948
-0.0043424754 0.15307856 0.09746296 0.017874304 -0.07757837 -0.143997 -0.113799214 0.101759434
1.2168175e-05 0.11352414 -0.15525599 0.14324798 -0.060047884 -0.08762277 -0.11445406 -0.1636361
-0.0409389 -0.07395551 -0.06860405 0.023094213 0.107212186 0.09236477 0.07722022 -0.14873484
-0.06826775 0.08487606 -0.02492055 -0.06341564 0.047337685 0.035173375 -0.025018768 0.005452009
-0.09517091 -0.051467277 0.007245817 0.10263209 0.14638071 0.12705307 0.035596907 0.082866944
0.11630813 0.14299043 0.042401943 0.0057506273 -0.12299141 -0.017062806 0.11920478 0.1268571
-0.06979456 -0.09171233 0.17620146 0.18065031 0.06256186 -0.22593638 0.17631301 -0.17563899
0.036314394 -0.05490458 -0.04203621 0.08278858 -0.13935587 -0.038091976 -0.08429631 0.04665302
-0.066390984 0.070745826 0.11445503 -0.042287253 -0.15631881 -0.0046747443 0.025550101 0.20234329
-0.10336633 0.043702092 0.2364172 0.110362984 -0.14920124 0.042601474 0.10864671 -0.050385177
-0.039450202 -0.12211961 -0.060276017 -0.17307352 -0.0796422 -0.022144403 0.13112421 0.09398905
0.15721017 -0.046797678 -0.082127795 0.014281094 -0.011061925 -0.15543075 -0.08361799 -0.13987558
-0.00020767542 -0.17692348 0.09905398 0.0016799856 -0.080495425 0.055760577 -0.21443145 -0.10124491
0.108482994 -0.110746466 0.07658997 -0.034241345 -0.04955793 -0.07839809 0.09167375 -0.09873707
0.12443763 -0.010056393 0.14540944 -0.090382375 -0.057184312 0.024911279 -0.04179728 -0.12065164
0.022360869 0.05728365 -0.034529597 0.04646269 -0.10251297 0.1037312 -0.13920838 -0.023004279
-0.024706652 0.008721225 0.079882 -0.051414713 0.07007307 0.08740559 0.12609375 0.092517756
-0.029857377 -0.10901824 -0.08102767 0.17242119 -0.18983784 0.035226494 -0.08194383 0.18406959
-0.1547621 -0.100547664 0.17418538 -0.07821069 -0.022387292 0.031241389 -0.06499485 -0.035735093
-0.0018638867 0.03735398 0.15834539 -0.0499403 0.05023423 -0.06399077 0.041876033 -0.10193796
0.11048188 0.19468932 0.058352254 -0.027159166 0.17548323 0.061080445 0.007808526 -0.067915946
-0.08275321 0.14793053 0.17582104 -0.0947713 -0.0037705044 0.022449318 0.07992954 -0.08654564
-0.11357873 -0.045891773 -0.062904075 -0.00085724035 0.09360267 -0.12968157 -0.08976468 -0.18041213
0.044677604 -0.13233788 -0.033132207 -0.13094474 0.07976373 -0.009431793 0.1475168 -0.017462417
0.04380974 0.04257191 0.07425597 0.029866267 0.053626794 -0.076021865 0.0925951 -0.046958808
0.04462783 -0.06873832 -0.04563398 0.0103888875 -0.07137723 -0.025268035 0.06509523 -0.08164852
0.08482562 -0.056364942 -0.07992621 0.09075101 0.02326389 -0.10128514 -0.08308938 0.022952165
0.036918603 0.111200325 0.011155345 0.007330228 -0.07892103 0.020501848 -0.090379074 -0.023655076
-0.04893603 0.05934115 -0.07016533 -0.08563422 -0.06035222 -0.106924795 -0.08090354 0.041863423

weight_u f4 [32]
00000000: 1c8d 89bd 39dd 97be b56b b13e 37d5 783e
00000010: f73b 8a3c 1944 b43d 6cbb 153e 2327 7dbe
00000020: d213 703d 7ff0 453e cfc2 c43b 80b7 443e
00000030: 98f4 b5bd 866f 823e ebfa abbd b344 12be
00000040: d94b 863e 3c71 803d 5370 953e 5735 fa3c
00000050: 3caa be3d 96c2 233c 3fce 2fbe 51b0 65bd
00000060: 39ce b33e 1eca 123e 4dde 25be 269e 79bd
00000070: f19e a4bd f936 27be 6eeb 26be 2666 253e
-0.067163676 -0.29660967 0.34652486 0.24300085 0.016874297 0.08802051 0.14622277 -0.2472196
0.058612652 0.19330023 0.0060046683 0.19210625 -0.08884543 0.2547571 -0.08397468 -0.14284019
0.26229742 0.06271598 0.2918726 0.030543013 0.093098134 0.009995123 -0.1716852 -0.05607635
0.35118273 0.14334914 -0.16198082 -0.060941838 -0.08038128 -0.16329564 -0.16300747 0.16152248

weight_v f4 [43]
00000000: 4856 823c 7d9a bfbd 95d1 ddbd 7d7a 9dbc
00000010: fe03 de3d bcb6 493e 32f7 94be 7d70 8dbc
00000020: f1ae 9cbd 5726 f13d 777a fabd e0c3 cabd
00000030: 1c52 283e 6c2b 6f3e 5f00 57be e507 96b9
00000040: 0b1d 08bd e155 053e 0c42 b8bd e3a7 24be
00000050: d066 693c 2686 fcbd 4ff8 1b3d 7772 033d
00000060: 3f04 ee3d ff06 653e 0ef6 5e3d a1d1 2fbd
00000070: 959f 60bd 8048 ea3d 9b7d 153e ac02 5abe
00000080: 8252 a8be 2057 6fbd e957 393e aba5 86be
00000090: 328d 40bc d525 45be 11fa 82bd cec7 813d
000000a0: a587 ccbe cb9c 163e ada1 e33d
0.015910283 -0.09355638 -0.1083099 -0.019223446 0.10840605 0.19698614 -0.29094845 -0.017265553
-0.07650555 0.11774891 -0.122303896 -0.099006414 0.16437572 0.23356408 -0.20996235 -0.0002861611
-0.033230823 0.13021041 -0.089969724 -0.16079669 0.014245704 -0.12330274 0.038078602 0.032091584
0.11621904 0.2236595 0.054433875 -0.042924527 -0.05483969 0.114396095 0.14598696 -0.21290082
-0.32875448 -0.0584327 0.18099941 -0.2629827 -0.011752414 -0.19252713 -0.06395353 0.06336938
-0.3994724 0.1470825 0.111148216

weight f4 [32, 43, 1]
00000000: b978 d33d 24db ef3c 0351 183c 2dea d83d
00000010: 3379 b93d d470 693d 05a6 f23d e85c 953d
00000020: b70d e53c c39c 9db8 393d 2f3d 166c 14bd
00000030: 1272 19bc aa0b 643d 380a 8cbd 4d50 4ebd
00000040: bd9f 9f3d cdd3 a6bd 0813 c5bd ea44 0e3d
00000050: 3219 923d 531c 653d 0e74 b6bc f2c7 a33c
00000060: c105 56bb dffd ea3d 2f9c 953d ec6a 5b3c
00000070: dd35 6ebd 6412 ddbd 91b7 aebd e931 9c3d
00000080: eaa8 3c37 0548 ae3d 2858 eebd 1be8 db3d
00000090: 355c 38bd 2f81 86bd bdb5 afbd e331 fbbd
000000a0: 9a5c fbbc cd0f 63bd 49a5 52bd a1c2 8d3c
000000b0: 6092 a43d 40ca 8d3d 0212 6d3d ee57 e4bd
000000c0: 029e 51bd 2f49 823d 6d13 99bc 5bbb 42bd
000000d0: 8b4c 113d cced d73c d0ae 99bc aaac 853b
000000e0: fe1c 92bd a006 1ebd cfb0 b13b e28b 9d3d
000000f0: ddb4 e03d 4e0a c33d 0687 da3c 2667 7e3d
00000100: 0889 b23d 0981 db3d 4329 023d 0f08 8d3b
00000110: 45d2 bcbd eda3 51bc 4ffd b63d f3bc c23d
00000120: 0750 56bd cacd 8cbd c63d 073e 4eaa 0a3e
00000130: 8819 403d 016d 2dbe 5355 073e d5d0 06be
00000140: f20c df3c 2897 28bd f309 01bd 5e32 7e3d
00000150: 99ee d5bd aeef e9bc e06b 81bd 9838 0f3d
00000160: 75dd 4bbd 7531 593d 36b4 af3d 41d2 01bd
00000170: 54fc efbd 3b05 66bb 19da 9c3c 7351 1b3e
00000180: b3b1 9ebd 3024 063d 5e78 353e a16c a93d
00000190: 1d0f e5bd 93c7 023d b0c7 a63d 41b6 1abd
000001a0: 044c f2bc 747c bbbd 3f14 39bd edda 04be
000001b0: 578b 74bd 0407 88bc 074b c93d 8f4a 903d
000001c0: 0b56 f13d 1fb6 0fbd 752e 7cbd 9f58 2f3c
000001d0: 47e5 07bc a59f eebd 015f 80bd ddba d6bd
000001e0: 7d70 22b9 58ce 07be 3a0f 983d 1d21 a53a
000001f0: cb27 77bd 4032 2b3d d297 24be fd6b 9bbd
00000200: d58b a63d 4a03 aabd e027 6b3d 5045 d2bc
00000210: ba28 18bd 10b4 70bd 4dbd 8c3d f194 97bd
00000220: 6008 bf3d 1003 f7bb f93b df3d dfc0 8abd
00000230: b494 2fbd bffd 983c 1e53 00bd 8439 b9bd
00000240: c851 893c c6e1 2f3d 4007 d4bc 6fa6 0e3d
00000250: 9560 9dbd 013f 9f3d 74b5 d5bd 9542 8dbc
00000260: cab5 97bc d049 d63b 8045 753d b4db 1dbd
00000270: 3c25 573d 6d2e 863d 9493 c13d a208 8e3d
00000280: 805c b7bc 165e a7bd 43c8 78bd 6559 043e
00000290: 3ab8 11be bf52 d83c 7a98 7bbd 004a 0d3e
000002a0: 1496 edbd 835c 9abd e2b3 053e c920 70bd
000002b0: 5286 89bc 45c8 bf3c 1d92 47bd e977 dbbc
000002c0: 1d9c b7ba 375f e53c fe11 f33d 775a 19bd
000002d0: 9536 1a3d 0284 44bd 008c 003d 0482 9cbd
000002e0: 4b99 a93d d36f 153e 9225 333d 98d7 a6bc
000002f0: 56b1 063e dd83 3b3d 54a2 bf3b 458f 50bd
00000300: 5f19 7ebd 6515 e33d fbf3 063e 5f80 91bd
00000310: debf 39bb 37ce 893c 2765 753d cddf 84bd
00000320: 2f5f aebd fceb 0cbd 0d27 41bd 8ac9 2bba
00000330: 95af 8f3d 5414 c7bd e3cc 89bd a07c 0abe
00000340: 232d 093d 7826 cbbd 5c76 cbbc c603 c9bd
00000350: d2e6 743d 7a9e e7bb 1476 e23d 6d75 56bc
00000360: 4982 063d 40b5 023d c9fd 633d 2768 b73c
00000370: 56a9 243d ce6b 69bd 2f26 8e3d 642e 10bd
00000380: 7008 093d 8f0d 53bd 901d 0cbd b738 ff3b
00000390: 2b25 5bbd ea2d 9bbc c5dd 473d 2cb0 7abd
000003a0: 2839 823d 4810 2dbd ba67 75bd 8a51 8b3d
000003b0: afd9 8e3c 3b7d 9bbd 3f1c 7fbd 89f3 8c3c
000003c0: 2db8 e23c 4cb6 aa3d 6fff 083c 4f0b b43b
000003d0: be4f 72bd 1ccf 7b3c 47c0 8abd 5448 91bc
000003e0: b140 16bd cc34 363d 8770 57bd b376 83bd
000003f0: f64e 39bd f025 a4bd aa66 78bd 4286 003d
0.103257604 0.0292793 0.009296658 0.105915405 0.0905632 0.056992367 0.11848072 0.07293111
0.027960641 -7.5155425e-05 0.042782996 -0.03623589 -0.009365575 0.055675186 -0.068378866 -0.05036955
0.077941395 -0.081458665 -0.096227705 0.03473369 0.07133712 0.055935215 -0.022272136 0.019992802
-0.0032657238 0.11474203 0.0730518 0.013392191 -0.058156837 -0.10794523 -0.08531106 0.07626707
1.1245002e-05 0.085098304 -0.11637908 0.1073763 -0.04500981 -0.065676086 -0.08579586 -0.122653745
-0.030683804 -0.05543499 -0.05142716 0.01730472 0.08035731 0.06923342 0.0578785 -0.11149584
-0.05117608 0.06361615 -0.01868602 -0.047541957 0.035473388 0.026358508 -0.018760115 0.004079421
-0.07134436 -0.038580537 0.0054226886 0.07692696 0.10971997 0.0952345 0.026675712 0.06211009
0.08717543 0.10717971 0.03177763 0.004303939 -0.09219793 -0.012795431 0.089350335 0.095086955
-0.052322414 -0.06875189 0.13207158 0.13541529 0.04689935 -0.16936113 0.13216142 -0.131656
0.027227852 -0.04115978 -0.03150363 0.062059753 -0.104458995 -0.028556671 -0.06319404 0.03496608
-0.049771745 0.05302568 0.085792944 -0.031694654 -0.1171805 -0.0035098332 0.019146966 0.15167789
-0.07748737 0.032749355 0.17721698 0.082726724 -0.11184523 0.03192861 0.08143556 -0.037771467
-0.029577263 -0.09154597 -0.045185324 -0.12974139 -0.059703197 -0.016604908 0.098287635 0.07045471
0.117839895 -0.035085794 -0.061567742 0.010702281 -0.00829441 -0.116515435 -0.062681206 -0.1048486
-0.00015491429 -0.13262308 0.07424779 0.001259837 -0.060340684 0.04179597 -0.1607354 -0.075889565
0.081321396 -0.083014086 0.057411075 -0.025667816 -0.037148215 -0.05876547 0.06872044 -0.07401455
0.09327769 -0.007538207 0.10900111 -0.067750685 -0.042866424 0.018675683 -0.031329267 -0.09044173
0.01676263 0.042939924 -0.025882363 0.034826692 -0.07684437 0.07775689 -0.10435 -0.017243663
-0.018519301 0.006539561 0.059880733 -0.038539603 0.052525744 0.06551824 0.094519764 0.0693524
-0.022382975 -0.08172242 -0.06073786 0.12924726 -0.14230433 0.026406644 -0.06142471 0.1379776
-0.11600891 -0.075371765 0.13056901 -0.058625016 -0.016787682 0.023410926 -0.04872333 -0.026790576
-0.0014008317 0.027999504 0.11868666 -0.03743979 0.03764971 -0.047977455 0.031383514 -0.07641986
0.082811914 0.14593439 0.043737 -0.020366475 0.13153586 0.04578005 0.0058482084 -0.050917882
-0.062035915 0.11088065 0.13179009 -0.07104563 -0.0028343122 0.016821964 0.05991092 -0.06487999
-0.085142486 -0.03440474 -0.047156382 -0.0006553164 0.070159115 -0.09720674 -0.06728532 -0.13524103
0.03349031 -0.09919447 -0.024836712 -0.09815173 0.05979044 -0.0070684524 0.11057678 -0.01308952
0.032839093 0.031911135 0.05566195 0.02238853 0.040200554 -0.056987576 0.06940877 -0.03520049
0.033455312 -0.051526602 -0.03420788 0.0077887434 -0.053502243 -0.018942792 0.04879548 -0.061203167
0.06358558 -0.042251855 -0.059913374 0.06802662 0.017437784 -0.07592245 -0.062282797 0.01720597
0.027675712 0.083355516 0.008361681 0.005494512 -0.05915808 0.015369203 -0.06774955 -0.017734684
-0.03668279 0.044483945 -0.05259755 -0.064191245 -0.04524132 -0.080150485 -0.060644783 0.03137804

weight f4 [1, 32, 1]
00000000: 70b9 cdbc fbde 9ebd f34b 2d3e 1502 0e3e
00000010: 9a46 cb3d a2f0 15be 8666 69bd 80ba 263b
00000020: 4e90 f33d cb1d 0fbe 80cd a73a 746d 0fbd
00000030: e093 e13c 80f6 fbba e801 cabc 9fbb d1bd
00000040: 6e01 24be 180c 773d fadd 873d 435a 1e3e
00000050: 6df3 133e e75d 113e 5fb5 2d3e 9e57 e7bd
00000060: 155a c9bd cbb0 94bd 6e6c 813d 7ed8 8a3d
00000070: 8104 12be 3f85 233e 7608 21be d7f5 113e
-0.025112838 -0.07757374 0.16923504 0.13867982 0.099255756 -0.14642575 -0.05698254 0.0025440753
0.11892758 -0.13976209 0.0012802333 -0.035016492 0.027536333 -0.0019223243 -0.024659112 -0.10240864
-0.1601617 0.060314268 0.066341355 0.1546412 0.14448328 0.14195977 0.16963719 -0.112960085
-0.09831635 -0.07260283 0.063195094 0.06779574 -0.1425953 0.15968798 -0.15725884 0.14253937
