Models/M4/wo_sa_ml_fade/wo_sa_ml_fade_discriminator.pt (torch, 120177 bytes, 68 tensors)

weight f4 [121, 10]
00000000: b5d9 8c3f 8a95 33bf 9588 e13e 323f 8d3d
00000010: d0ad 2bbe ac60 ffbe 0db0 91bf f191 b73e
00000020: 3c68 c13f a051 ddbe 2fb6 47be d3e5 0abf
00000030: 81e7 b23f 49a9 76bf c73c 5bbf b5e2 82bf
00000040: 3232 ab3d 3bca 9a3f fc5b 1fbf 70d8 10bf
00000050: 316a 9cbf 93b4 0140 484f 743f bbfd a23d
00000060: e695 7e3f 4952 da3e ef80 59bf 2f8a 6c3f
00000070: 0dd7 a9be e8e3 1d40 df51 7fbf 2473 0540
00000080: 0339 de3e 8d1a 16c0 a050 3c3e 18da a53f
00000090: 5ed3 26c0 8b9d 023f 67c4 9b3e 46b2 c13f
000000a0: 5c37 6b3f f213 823f 3041 ffbe dd3a 6d3e
000000b0: 115a eb3f 3d60 a6bf 96f5 f3bf c088 a2bf
000000c0: 6e58 5b3f 3d06 0a3f 595e 6a3f f5a6 143f
000000d0: 431f f53e c3b4 af3e 6be1 20be 4782 993f
000000e0: cc16 c5bd a9eb 103f 98aa 2dbf 32d4 11be
000000f0: 6a09 9ebd c6d9 743e bebe 1c40 d3ff c93d
00000100: d703 8abe 7500 303f 9497 a93e a99a 5e3e
00000110: f601 573f 030a 14bf 56b0 6bbe 3379 783f
00000120: 112f 823f 795a 0f3f af60 e23f db20 953f
00000130: 7545 c5bf e878 08be d0c5 5cbf 9eac 3b3f
00000140: ce24 583f 7f67 ac3f 5806 8a3f 464b 813f
00000150: 53d2 403f 7930 10bc e5fe c4bf 99ea dd3f
00000160: aaee 3f3f 33c9 0f40 e996 403e 95cb b73f
00000170: 8390 aa3e 7e96 a83e bc63 00c0 e704 043e
00000180: 6ddf 8e3e cd36 5940 ed64 323e 4d69 713f
00000190: 8a22 e73f f910 77bf 701c 4bbf 4fd1 ebbe
000001a0: 6d28 afbe 5ec2 8ebf 84e7 2f3e 4c3e f43f
000001b0: 5eb2 6fbf a81f 37bf b0b6 08bf 62e1 b83f
000001c0: 9fbe 6b3f 20f8 99bf 8fc8 9bbf fc37 59be
000001d0: 8e05 86bf 941d 7b3f 85e4 4dbf e15f 11bf
000001e0: 15ea aa3f 730b 963f 34ec 213e 61f6 943f
000001f0: 700e ca3d 9c3b bc3f cafc 42bf a817 a7be
00000200: 5edb 093f 129c 7f3f 8ebb 80bf 90fd 09bd
00000210: bc31 9a3f a841 843f 770e 44bf bd3f b83f
00000220: cc74 983f c145 a03f c932 9c3f adde c5bf
00000230: 1f13 b03f aacc 27c0 56e2 7c3f ff65 36bd
00000240: 8df0 a23f 3fe2 38be 36ca afbf 7e2c 0d3e
00000250: 7619 8b3f 854c 89bf 16f5 083f 8896 87bf
00000260: f246 92bf 0e95 b13f 49dc 89bf e9a5 2dbf
00000270: 8887 b4bf 90a5 703f 3c09 523f 66ac d4be
00000280: 50f7 3a3f ae06 fe3e e464 ce3f 99e1 1840
00000290: ff17 8bbf 106a b5bd b372 1cbf 9fb0 1c40
000002a0: e06e 4cbf cc0b d13e 0105 acbf b075 cd3e
000002b0: f1f2 923f 5a61 373f 871b 11c0 701e d2bd
000002c0: 8744 01bf eb6e c9bf 375c 80bf b4c2 d83f
000002d0: 1404 5cbe 21bd 62be bb3e 0440 3a83 8dbf
000002e0: 3c27 ddbe ee75 713f 5b2d 1fbf fe0d 37bf
000002f0: 0e85 723e e070 d43e ca44 a63e 2a28 94bf
00000300: 2ec4 f6bc 34f4 953e aa9c b6bf 5735 8b3f
00000310: 9ec4 8b3f 9983 983f 9302 85be 9246 42bf
00000320: cb10 7dbf bf5b e53d aa4a e1bf c080 b73e
00000330: 2563 853f 2200 c4be aa9e 383f dd25 fc3e
00000340: bf2c e0be d577 58bf 70ad 4040 31dc 883d
00000350: d375 46bf 3a7e 523f dfba 48bf 7b5e babd
00000360: 6ad9 2abf deb1 553f 4b5b 203d 72d7 953f
00000370: d495 c0bf cad3 c5be ffab bf3e 3093 3ac0
00000380: 905d 9ebe 3f2f 2f3f 77f0 753e 72d1 7fbd
00000390: 57b1 063f c3f1 00c0 c1b3 89bf 8d79 c1be
000003a0: 07c2 503d 6507 6d3f c8cf 83bf 4313 c4bd
000003b0: d512 f5bd bdf9 973e 8638 583d d5ca d7bf
000003c0: cabc b33f 401e 13be d430 7e3f b96d cc3e
000003d0: 21bf f93f e107 293f be9e fcbe 5155 173f
000003e0: ca5a babf 49fd cf3f 7cd8 b7be c6d9 c23f
000003f0: f15d 593f d8cf a4bf 7624 87bf 3cc1 f73f
1.1003939 -0.70150054 0.44049516 0.06896819 -0.16765523 -0.49878442 -1.1381851 0.35853532
1.5109935 -0.43226337 -0.19503091 -0.54256934 1.3976899 -0.9635206 -0.85639614 -1.0225435
0.08359183 1.2092966 -0.6224973 -0.5658026 -1.2219907 2.0266464 0.95433474 0.079585515
0.99447477 0.42640904 -0.8496236 0.9239835 -0.33171883 2.4670353 -0.997343 2.0851526
0.4340287 -2.3453705 0.18390131 1.2957182 -2.6066508 0.5102164 0.3042328 1.513253
0.91881347 1.0162337 -0.49854422 0.23166986 1.8386861 -1.299812 -1.9059322 -1.2697983
0.8568181 0.5391577 0.91550213 0.58067256 0.47875413 0.34317598 -0.1571099 1.1992882
-0.09623489 0.5660959 -0.6783843 -0.14241102 -0.07716639 0.23911199 2.449142 0.09863248
-0.26956055 0.687507 0.33123457 0.21738686 0.8398737 -0.57827777 -0.23016486 0.97059935
1.0170614 0.55997425 1.7685755 1.1650652 -1.5411822 -0.13327372 -0.8623934 0.7331027
0.8443116 1.3469085 1.0783186 1.0101097 0.7532093 -0.008800619 -1.5390288 1.7337219
0.7497355 2.2466552 0.18807568 1.4359003 0.3331338 0.32927316 -2.0060873 0.12892495
0.27904835 3.3939698 0.17421313 0.943013 1.8057415 -0.96510273 -0.7934027 -0.46058127
-0.3421053 -1.1153066 0.1717816 1.9081511 -0.9363154 -0.7153268 -0.5340376 1.4443781
0.9208774 -1.2028847 -1.2170581 -0.21212763 -1.0470445 0.9809201 -0.8042682 -0.56786925
1.3352686 1.1722244 0.1581276 1.1637689 0.09866035 1.4705691 -0.76166975 -0.32635236
0.5385035 0.9984752 -1.0057237 -0.03368908 1.2046428 1.0332537 -0.7658457 1.4394451
1.1910644 1.2521287 1.2202998 -1.545858 1.3755835 -2.6218667 0.9878286 -0.044530865
1.272966 -0.18055056 -1.3733585 0.13786504 1.0867145 -1.0726477 0.5349897 -1.0592813
-1.1427901 1.3873613 -1.0770351 -0.67831284 -1.4103861 0.9400263 0.8204534 -0.4153778
0.7303362 0.4961447 1.6124539 2.3887694 -1.0866698 -0.088581204 -0.6111252 2.44828
-0.7985668 0.40829313 -1.3439027 0.4012885 1.148039 0.7163292 -2.2673051 -0.10259712
-0.5049519 -1.5736974 -1.0028142 1.6934419 -0.2148593 -0.2214246 2.0663288 -1.1055672
-0.43193996 0.9432057 -0.6217858 -0.71505725 0.23683569 0.41492367 0.32474357 -1.1574757
-0.030122843 0.29287875 -1.426656 1.0875653 1.0919378 1.191516 -0.25978526 -0.7588893
-0.9885375 0.1119914 -1.7600911 0.35840416 1.0420882 -0.3828135 0.721171 0.49247637
-0.4378414 -0.8455785 3.0105858 0.06682623 -0.77523535 0.82223856 -0.7841014 -0.09100052
-0.66738 0.8347453 0.039149564 1.1706374 -1.5045724 -0.38638145 0.3743591 -2.9152336
-0.30930758 0.68431467 0.24017511 -0.062455602 0.5261435 -2.014756 -1.0757982 -0.37788048
0.05096629 0.9258941 -1.0297785 -0.095739864 -0.119664825 0.29682723 0.05278828 -1.6858774
1.4041989 -0.14367008 0.99293256 0.39927462 1.9511453 0.6602765 -0.4933986 0.5911456
-1.4558957 1.6249171 -0.35907352 1.5222709 0.8490897 -1.2875929 -1.0558002 1.9355845

bias f4 [32]
00000000: 3f2b 0b3f fd69 51bd 4367 8d3e 36f4 7c3e
00000010: 1df9 c73e 01e9 9e3e 9ec9 bd3e e2d7 0e3f
00000020: 655f 0c3e ebcc b53d d216 353e 981a ff3e
00000030: 296c 6cbb 92d8 833d 3e5e b23d b247 a63e
00000040: 718c 6a3e 7a9d dcbb 4577 2f3e fe2a a63d
00000050: 1b4e 313e 75d8 ae3e 1f1f cb3e b493 013f
00000060: 260a a63c 6215 ad3e 7c02 713e 99bb c63e
00000070: 7852 923e d8df 413e f7f5 8f3e 9b61 a43d
0.54362863 -0.05112647 0.27617845 0.24702534 0.39057246 0.31037143 0.37067884 0.5579816
0.13708265 0.088769756 0.17684487 0.49824977 -0.003607521 0.06437792 0.087093815 0.32476574
0.22905137 -0.00673264 0.17135341 0.08113669 0.17314951 0.3414952 0.3967218 0.50616
0.020268511 0.33805376 0.23536104 0.38815 0.28578544 0.18933046 0.28117344 0.08026429

weight_orig f4 [32, 12, 1]
00000000: a5e7 b3be 9c4a 7fbd 498b 94bd 454e 503d
00000010: 9d93 77bd 4d47 843e e217 c9bc 17df 1b3e
00000020: e16c c0bd c6fe 903e 4de9 2d3e 0be1 a8bd
00000030: 5fee 863c 0e44 dfbd 02c8 9fbc d6e3 ffbc
00000040: 4e3c a4bd 13cf 213d 087c f7bb e800 37be
00000050: fa2f e53d c8fe 293e c9aa 633e 917f 8f3c
00000060: bd74 703e ec22 5abe 2de2 453e 7c4a c5bd
00000070: b86d c83c 120c 753e a91e 653d cc13 303e
00000080: 7add 70be 2031 883e fa18 ccbd 37ef 813d
00000090: adff ce3d b8a2 d6bb ba4d 73be fff7 1ebe
000000a0: d761 c0bd 4a2f 583e 813b 3dbe 1f8c 1bbc
000000b0: de66 07bd 12e3 b5bc a730 3dbe 7309 10bc
000000c0: ac3d b63d dab4 31bc becb 333e 9b09 56ba
000000d0: cc5e 3dbe 2267 2c3e 6dcb 203e a245 543e
000000e0: df32 9b3e 1fba 363e a5ac 4abe ce32 113e
000000f0: 1d04 a6be d567 68be afc0 583c d5bc 8e3e
00000100: 1827 833e e615 9cbe 77c7 74be 7e31 823d
00000110: 53b2 673d bc62 2ebd 0443 02be dd63 00be
00000120: 8053 41be 1163 733e 59b8 7a3d b031 6cbe
00000130: 6d03 5b3d 846d d03d 45b1 84bd 27cd 983e
00000140: 9657 3dbe d731 c23d 6f22 7d3e 1d49 8ebd
00000150: 5a6a 2b3e 8e15 6cbd df60 4f3d 0043 473e
00000160: 2863 b0bd 5891 18bd eed0 96be bfaa 493e
00000170: 6fde e73c a822 d3bc 8337 943c 314f df3c
00000180: dbbd 27bd fdef 9bbd c456 323e e697 9e3d
00000190: dfe1 44be 4cdc 8cbd 905f ce3d 363e 503e
000001a0: 5776 083e 7a18 d23d 5033 293d 3011 e33d
000001b0: b828 c23d 60c5 fcbc 617b 863d 661d 60be
000001c0: b858 f1bc 476e 3d3e bd87 8bbe b3b7 453e
000001d0: 22ca dfbd fdd3 91be 24a5 023d c174 1f3c
000001e0: 7aac a53d 20c9 a7bd 46bf 543d 5149 543e
000001f0: 394e c53e b2c7 c13d bcec 02be 45fd 04bd
00000200: 8912 eb3d 5441 c5bd 8af2 08be 38d6 023e
00000210: 204e 94be f867 a43e f084 5ebd e165 5d3e
00000220: cd04 21bd cc41 823e 2b70 60bd 4478 833e
00000230: 4b91 b43e e2c4 62be 1dd7 b13c 07ed 133c
00000240: 2f04 3cbe b31b d13d 879f e53d 667b 113d
00000250: bb14 283e 1087 88be 17ee 72be d71d 1f3e
00000260: 1531 23be 1c47 1e3e 53d5 b7bd 10e7 413e
00000270: 4cf2 88be a558 07be 855e adbe f96b 733e
00000280: 8d16 92be a753 263e 88b2 a93c 8827 2a3d
00000290: 1d70 54be 17b3 b53d 0c04 73bd dd26 9ebd
000002a0: b726 033e 4cb6 ea3d 149f 4bbe 8436 3f3e
000002b0: b56c 9ebe 8160 e6b9 3532 adbe d725 97be
000002c0: c942 49bd 8d14 da3c d845 b63d 9baa 863e
000002d0: 9005 873e 87ec 6cbe 9408 e53c ceb0 bb3e
000002e0: 42e4 9dbd e23e 50be 2430 343d 0843 a93e
000002f0: 814c fcbc 5c9e 08be efd4 783e 7302 a3bd
00000300: 54af 42bd 917e 1a3d 6321 963e b41b 7c3d
00000310: 401e 87be c805 c2bc 21f2 fb3d cb4a ccbd
00000320: 657f afbd 9d5b febd 5606 403e 1e9f 373d
00000330: 0d9a aa3d bc71 ec3c 7be6 1fbe 70ac 68be
00000340: 07b9 8b3c d484 b5bd 46a2 5ebe dbfa 2f3e
00000350: 2d28 a73e 1b4c 3f3e bd92 38be c87d 75bd
00000360: 0276 72be 610e 9dbe 8e6e 71bd c90c 22be
00000370: 99b6 88be 6fa0 f83d d590 80be 8c74 2abe
00000380: 96ae 953e dd02 8f3d b6b4 8bbb f2fe d13d
00000390: d76f 65bd 1b10 27be c89e 233d d171 2bbe
000003a0: c02b 6b3e d2af 1c3e 14fb a7be 555a 2cbe
000003b0: 6f0d 483e 5c4e 49bb 6eff 343e 6f6d bf3d
000003c0: 392f cfbd 556b 083e 4af1 703e 5a24 62be
000003d0: c6fb f5bd d5d1 883d 93a8 48be 2511 583e
000003e0: 5f45 41be 83f7 3cbd 743d 15be c6bc c4bc
000003f0: 4f50 67be 3d45 d83d b2ba 9f3e cf6d 9b3e
-0.35137668 -0.062327012 -0.07253129 0.050855894 -0.06044351 0.25835648 -0.024547521 0.15221821
-0.09395767 0.28319377 0.16983528 -0.082460485 0.016471086 -0.10901652 -0.01950455 -0.03123657
-0.08019315 0.039504122 -0.0075526275 -0.1787144 0.111907914 0.16601098 0.22233118 0.017516883
0.23482032 -0.21302384 0.1932456 -0.096333474 0.02446638 0.23930386 0.055937443 0.17195052
-0.23521987 0.2659998 -0.099657014 0.06344455 0.1010736 -0.0065501593 -0.23760119 -0.1552429
-0.093936615 0.2111179 -0.1847973 -0.009493857 -0.033057086 -0.022203002 -0.1847559 -0.008791315
0.08898482 -0.010846341 0.1755819 -0.00081648835 -0.18493193 0.16836217 0.15702601 0.20729688
0.3031225 0.17844437 -0.19792421 0.14179537 -0.32425013 -0.22695859 0.013229533 0.27878442
0.25615764 -0.30485457 -0.23904215 0.06357096 0.056566548 -0.04257463 -0.12720877 -0.12538095
-0.18879509 0.2376826 0.061210964 -0.2306583 0.053470064 0.101771384 -0.06479124 0.2984402
-0.18490443 0.094821624 0.24720167 -0.06947539 0.16739789 -0.057637744 0.050629493 0.19459152
-0.086126626 -0.037247986 -0.29456276 0.1969404 0.028304307 -0.025773361 0.018092876 0.027259441
-0.040952545 -0.076141335 0.17415911 0.07743816 -0.19226788 -0.06877956 0.10076821 0.20336232
0.13326393 0.10258575 0.0413087 0.11087263 0.09480423 -0.030855834 0.065665014 -0.21886215
-0.02946125 0.18499099 -0.27251998 0.19308357 -0.10927226 -0.28482047 0.03189577 0.009732426
0.08089538 -0.081926584 0.051940225 0.20731093 0.38536242 0.09461917 -0.1278562 -0.0324681
0.11478145 -0.09631601 -0.13373771 0.1277703 -0.28965855 0.32110572 -0.054325998 0.21620895
-0.03931122 0.25440824 -0.05479447 0.25677693 0.352671 -0.22145417 0.02170902 0.00902868
-0.18360971 0.10210361 0.11212068 0.035518073 0.16414158 -0.26665545 -0.23723637 0.15538727
-0.15936692 0.15456814 -0.08976235 0.189358 -0.26747358 -0.13217409 -0.33861175 0.23771657
-0.2853283 0.16242848 0.020715013 0.041541606 -0.20745893 0.08872049 -0.05933003 -0.07722256
0.12807737 0.114605516 -0.19884902 0.1867314 -0.30942312 -0.0004394092 -0.33827367 -0.29521057
-0.049135957 0.026621128 0.089000404 0.26302037 0.2637143 -0.23137103 0.027958192 0.3665833
-0.07709552 -0.20336488 0.043991223 0.33058953 -0.030798199 -0.1334166 0.24299978 -0.079594515
-0.047530487 0.03771836 0.29322347 0.061549857 -0.26390266 -0.023684397 0.12302042 -0.09975203
-0.085692205 -0.124198176 0.18752417 0.04482948 0.08330164 0.028862827 -0.15615265 -0.2272203
0.017056001 -0.088632256 -0.2174159 0.17185538 0.3264784 0.18681376 -0.18024726 -0.059934407
-0.23677829 -0.30675033 -0.058943324 -0.1582519 -0.2670181 0.12139975 -0.25110498 -0.16646022
0.2923476 0.06982968 -0.004263486 0.10253705 -0.056014862 -0.16314737 0.039946347 -0.16742636
0.22965908 0.15301445 -0.32808745 -0.16831334 0.19536375 -0.0030716872 0.17675564 0.09347045
-0.10116429 0.13322194 0.23529544 -0.2208418 -0.120109126 0.06680647 -0.19595556 0.2110029
-0.18874119 -0.046134483 -0.14574224 -0.024015795 -0.22589229 0.10560081 0.31197125 0.30357215

weight_u f4 [32]
00000000: e785 64be 02c6 86bc 1810 9fbe 62ca 02bd
00000010: 8fc5 a4be bd0c f43d 8032 3cbe 7728 90be
00000020: 809f 7abe 92ce 24be 8d2e 253d f164 28be
00000030: 70b1 c9bd 8129 8bbd eeb5 c6bd 85b7 40be
00000040: 8abc b6bd 5645 95bd b26a adbd 44dc 5e3c
00000050: 737a 70be 4584 42be e221 10bd beca b2be
00000060: a848 2c3d 9475 55bd 5b69 d83d acf3 8dbe
00000070: 6991 42be bb1e 67bd 8000 88be 7739 d2bd
-0.22316705 -0.01645184 -0.31066966 -0.03193129 -0.32181975 0.11916492 -0.18378639 -0.28155872
-0.24474907 -0.16094425 0.040327597 -0.16444756 -0.09848297 -0.067950256 -0.09702669 -0.18820007
-0.0892268 -0.072886154 -0.08467616 0.01360232 -0.2348421 -0.1899577 -0.035188563 -0.34920305
0.042061478 -0.052114084 0.1056697 -0.2772497 -0.19000782 -0.05642579 -0.2656288 -0.10264867

weight_v f4 [12]
00000000: 5dff 0bbe d75e f5bb 7d6e c1be 25a0 41be
00000010: 1284 c03e 40ff b2be 7ecd a33e 8d74 09bf
00000020: 6e28 f0bb f760 afbe d6dd a7bd 52fb 1fbe
-0.13671632 -0.0074881124 -0.37779608 -0.18908747 0.37600762 -0.34960365 0.31992716 -0.5369347
-0.0073290383 -0.34253666 -0.08196609 -0.15623215

weight f4 [32, 12, 1]
00000000: a0cc abbe 15ca 73bd fbd9 8dbd adeb 463d
00000010: 126c 6cbd 35a3 7c3e 7a08 c0bc 46d9 143e
00000020: 73c1 b7bd 6776 8a3e 6913 263e 3245 a1bd
00000030: 14da 803c e934 d5bd 1895 98bc 685c f4bc
00000040: 04d6 9cbd c684 1a3d 8d55 ecbb 26c2 2ebe
00000050: 89dc da3d 0f56 223e e168 593e 7608 893c
00000060: 539f 653e f14e 50be cbf7 3c3e ef66 bcbd
00000070: fb65 bf3c b401 6a3e ffcb 5a3d ed24 283e
00000080: 5803 66be 4a0e 823e ebe6 c2bd 1c29 783d
00000090: 28ac c53d 1ef7 ccbb 7857 68be 74ce 17be
000000a0: e8b6 b7bd d271 4e3e e7b4 34be 0b8a 14bc
000000b0: 254d 01bd 31b1 adbc 8aaa 34be 218c 09bc
000000c0: b607 ae3d 30b3 29bc fbb1 2b3e e764 4cba
000000d0: 9bd6 34be a4a2 243e d38c 193e 4bb5 4a3e
000000e0: d034 943e 8d7e 2e3e 018b 41be 17a8 0a3e
000000f0: 4a89 9ebe 45ef 5dbe aafc 4e3c 804e 883e
00000100: c37c 7a3e 9c0d 95be 30c0 69be b1a7 783d
00000110: f141 5d3d 6087 26bd 28c9 f8bd 0836 f5bd
00000120: ae9d 38be d96b 683e 8c6c 6f3d 6e8d 61be
00000130: 5425 513d 8409 c73d 986d 7dbd bfea 913e
00000140: b8cf 34be 0172 b93d c9ba 713e ffdf 87bd
00000150: 40b1 233e 9172 61bd f908 463d b848 3e3e
00000160: b570 a8bd a1b1 11bd 6b05 90be b994 403e
00000170: 106c dd3c 6d9f c9bc fb89 8d3c 8c3f d53c
00000180: 212f 20bd 69e9 94bd cf4d 2a3e b072 973d
00000190: 0903 3cbe 9d83 86bd 4213 c53d 57dc 463e
000001a0: 6350 023e 3da1 c83d c293 213d 33d6 d83d
000001b0: 4b69 b93d eb61 f1bc 446c 803d 7604 56be
000001c0: 0879 e6bc 63e5 343e 663e 85be 3bcf 3c3e
000001d0: f3b4 d5bd 0342 8bbe 9184 f93c 9745 183c
000001e0: 9935 9e3d e439 a0bd 7429 4b3d cfb8 4a3e
000001f0: 816a bc3e a40c b93d 4d0d fabd bffe fdbc
00000200: 377b e03d 315e bcbd fec6 02be 4de2 f93d
00000210: 949f 8dbe b6ff 9c3e 687e 54bd 486c 533e
00000220: 9dc3 19bd d5c6 783e 8153 56bd cb17 7b3e
00000230: a16e ac3e 558d 58be e8d3 a93c da42 0d3c
00000240: 9b8b 33be daaf c73d 0f47 db3d 69ed 0a3d
00000250: 1782 203e 5b60 82be 24fc 67be 98f2 173e
00000260: d5d6 1bbe 8925 173e ff8c afbd 982a 393e
00000270: c2c6 82be 903f 01be e28e a5be 5a74 683e
00000280: 9381 8bbe 3ed5 1e3e 3f0d a23c f97c 223d
00000290: dcdd 4abe 5f83 ad3d 1c11 68bd be06 97bd
000002a0: 0a7c fa3d 2223 e03d 8372 42be 1299 363e
000002b0: 7149 97be 57ff dbb9 9164 a5be 8156 90be
000002c0: 7231 40bd 3841 d03c 830f ae3d 5e99 803e
000002d0: 3af0 803e da3f 62be e9b6 da3c fc3b b33e
000002e0: 24c7 96bd fbdc 46be db11 2c3d c5a2 a13e
000002f0: 7fee f0bc 9a76 02be ea9e 6d3e 4daa 9bbd
00000300: d6e9 39bd a288 133d c95d 8f3e e4bf 703d
00000310: cd07 81be ee47 b9bc 3198 f03d 7e16 c3bd
00000320: 3597 a7bd dbe5 f2bd 875f 373e 3b59 2f3d
00000330: 55ea a23d 97ca e13c 32b2 18be c930 5ebe
00000340: 786d 853c 3257 adbd 6b9a 54be 1b0d 283e
00000350: 31a0 9f3e b0ad 363e e041 30be 4a6e 6abd
00000360: 7889 67be e5fa 95be e28d 66bd b4bf 1abe
00000370: c08d 82be c76c ed3d ea8b 75be 85c6 22be
00000380: 28f0 8e3e 6091 883d 5969 85bb db88 c83d
00000390: 8519 5bbd 3589 1fbe 973f 1c3d 61b8 23be
000003a0: 4b93 603e 99a0 153e 9769 a0be 6b96 24be
000003b0: 080a 3f3e 803c 40bb ced7 2c3e 83cd b63d
000003c0: 90d9 c5bd e045 023e 4316 663e 09f4 57be
000003d0: 9be6 eabd c2a7 823d 2f9e 3fbe 0855 4e3e
000003e0: 3090 38be f973 34bd 1f84 0ebe 9cdf bbbc
000003f0: 57e4 5cbe c886 ce3d 6288 983e 186d 943e
-0.33554554 -0.059518892 -0.06926342 0.0485646 -0.05772025 0.24671634 -0.023441542 0.14536008
-0.089724444 0.2704346 0.16218342 -0.07874526 0.015728988 -0.104104824 -0.018625781 -0.029829219
-0.07658008 0.03772428 -0.007212347 -0.17066249 0.10686595 0.15853141 0.21231414 0.016727667
0.22424059 -0.20342614 0.184539 -0.091993205 0.023364058 0.22852212 0.053417202 0.16420336
-0.22462213 0.25401527 -0.095167 0.06058608 0.09651977 -0.0062550446 -0.22689617 -0.1482485
-0.089704335 0.20160607 -0.17647134 -0.009066115 -0.03156771 -0.021202656 -0.1764318 -0.008395226
0.084975645 -0.010357663 0.16767113 -0.0007797018 -0.1765999 0.16077667 0.14995126 0.1979572
0.28946543 0.17040463 -0.18900682 0.13540684 -0.30964118 -0.21673305 0.012633482 0.2662239
0.24461655 -0.29111946 -0.2282722 0.060706798 0.054017965 -0.040656447 -0.121477425 -0.11973196
-0.180289 0.2269739 0.058453128 -0.22026607 0.05106099 0.09718612 -0.061872095 0.2849941
-0.17657363 0.09054948 0.23606409 -0.06634521 0.15985584 -0.0550409 0.0483484 0.18582428
-0.08224622 -0.03556979 -0.28129134 0.18806733 0.027029067 -0.024612153 0.017277708 0.026031278
-0.039107446 -0.07271082 0.16631244 0.07394922 -0.18360533 -0.06568072 0.09622814 0.1941999
0.12725978 0.09796379 0.039447553 0.1058773 0.09053286 -0.029465636 0.0627065 -0.20900139
-0.028133884 0.17665629 -0.2602417 0.18438427 -0.10434904 -0.271988 0.03045872 0.009293935
0.07725067 -0.07823542 0.04960008 0.19797061 0.36800006 0.09035614 -0.12209568 -0.031005261
0.10961001 -0.09197653 -0.12771222 0.122013666 -0.2766081 0.30663842 -0.051878363 0.20646775
-0.037540067 0.24294598 -0.05232573 0.24520795 0.33678153 -0.21147664 0.020730928 0.008621896
-0.17533724 0.09750338 0.10706913 0.03391782 0.15674625 -0.25464138 -0.22654778 0.14838636
-0.1521867 0.14760412 -0.08571815 0.18082654 -0.25542265 -0.12621903 -0.32335573 0.22700635
-0.27247295 0.15511033 0.019781707 0.039669964 -0.19811195 0.08472323 -0.05665694 -0.07374333
0.1223069 0.10944201 -0.18988995 0.17831829 -0.2954822 -0.00041961178 -0.3230329 -0.28190997
-0.046922155 0.025421724 0.084990524 0.2511701 0.25183278 -0.2209467 0.026698546 0.35006702
-0.07362202 -0.19420235 0.042009216 0.31569496 -0.029410599 -0.12740555 0.23205152 -0.07600842
-0.04538902 0.036018975 0.2800124 0.05877675 -0.25201264 -0.022617307 0.11747778 -0.095257744
-0.08183137 -0.11860248 0.17907535 0.042809706 0.079548515 0.027562423 -0.14911726 -0.21698298
0.01628755 -0.08463897 -0.20762031 0.1641125 0.31176904 0.17839694 -0.1721263 -0.057234086
-0.22611034 -0.2929298 -0.056287654 -0.15112191 -0.25498772 0.11593013 -0.23979154 -0.15896042
0.279176 0.06668353 -0.0040713963 0.09791728 -0.053491134 -0.15579684 0.03814658 -0.15988304
0.21931188 0.14612044 -0.3133056 -0.16073005 0.1865617 -0.0029332936 0.16879198 0.08925917
-0.096606374 0.12721968 0.2246943 -0.21089186 -0.11469766 0.063796535 -0.18712686 0.20149624
-0.18023753 -0.044055913 -0.13917588 -0.022933774 -0.2157148 0.10084301 0.29791552 0.28989482

bias f4 [32]
00000000: 68a9 dfbc b516 dabd cafd 20be 688f 16be
00000010: df1e d4bd a89b 2cbd 722e 923d 166f 2dbe
00000020: 10fc 49bc c668 54bd ced6 c53d e87c 6dbd
00000030: 7fe2 303e 5f66 173e 1ef5 e13d 31f2 a3bd
00000040: d46a 1bbe fa3c 0fbe 3225 bb3d 60d5 9b3c
00000050: 16a9 b83d 3421 3b3d 9a75 bc3d df10 1b3e
00000060: 818b 2e3e d063 033d 9594 22be 10f2 86bc
00000070: 1371 b6bd 5042 133d 7627 68bd c944 05be
-0.027302459 -0.10648862 -0.15721813 -0.14703143 -0.10357451 -0.042140633 0.07137765 -0.16936907
-0.012328163 -0.051857732 0.09660111 -0.057980448 0.17273901 0.14785145 0.110330805 -0.08005179
-0.1517747 -0.13988104 0.09137954 0.019022644 0.090166256 0.04568596 0.09202118 0.15143155
0.17045404 0.03207761 -0.15876992 -0.016472846 -0.08908286 0.035951912 -0.056678258 -0.1301452

weight_orig f4 [32, 32, 1]
00000000: 0057 e73b ff2c 1d3e 1607 a83d 7b9b 1c3e
00000010: 8acb f33d 74d4 dbbd a64c 813d 5037 223d
00000020: 551f 193e 603d 943b d918 07be d0af 83bd
00000030: c543 103e cfb7 053e f7d4 23be 68d5 e2bc
00000040: d094 1abd 8cdd 5a3d 9465 023d 175b a5bd
00000050: bb4f 253e e468 3fbd 68e8 a5bc 96e8 02be
00000060: 0064 b2bc d4b5 723d 60b0 b53c ba85 e23d
00000070: b6dd 9f3d 0498 553d 674c 123e e21a a6bd
00000080: ea20 b83d 1053 1abe b8d8 223d e48f 0fbd
00000090: f333 98bd bb6b 1e3e 364f c63d 54bb b5bd
000000a0: 0aaf 2ebe 75a3 0abe 6853 c1bc ba5d f0bd
000000b0: 6237 df3d 8a5a e43d 00aa bcb9 2429 433d
000000c0: 8d41 bbbd 80f1 8dbc 000f 13bb 0055 4c3c
000000d0: d2d0 dc3d f090 a6bc 90e7 923c ff9e 033e
000000e0: 665d 13be 3e2e b33d f823 8c3d f02c 96bc
000000f0: 581e babd 2335 1cbe 8040 bb3b ff97 033e
00000100: e111 97bd 9bb0 22be dda9 1f3e f4bb 8c3d
00000110: 8ad6 c0bd 92d4 ae3d c875 a1bd 24a8 fabd
00000120: 0437 e0bd 0053 453b 58ac 03be 5634 55bd
00000130: 609a ccbb f695 ec3d 2073 303d 5e3d c23d
00000140: 20fd 453d fc57 14be 3e13 60bd 5f6a 2dbe
00000150: 1299 c63d 8e65 9b3d a7e7 ffbd 7698 72bd
00000160: b030 1a3d 2db4 9abd 0060 b63b 868c c13d
00000170: 4093 353c 5818 d23c 0e38 be3d 0875 053d
00000180: b895 e63c 388b cfbd 6b02 89bd dedf b83d
00000190: 60c0 fbbd 40c3 593c 6233 a23d 324d cf3d
000001a0: 58e8 cdbc 207e 4b3c 42b5 e53d 40e0 44bc
000001b0: 0f4a 173e 8342 1a3e 9f32 c4bd 1a37 ca3d
000001c0: 96f5 c33d deb3 ac3d 0f66 82bd b0f0 013d
000001d0: 665f ca3d 3df4 31be 0052 a9bc 1f5f 333e
000001e0: ee0b fbbd 22a6 d5bd 149d 59bd ccc0 0b3d
000001f0: dac6 e23d d600 ad3d 80d2 093b c184 8ebd
00000200: 0e4e 2ebe 4ccf b8bd 53fc 243e 9c16 053d
00000210: 0f5f 233e 90cb cabc 729f fd3d d0a2 af3c
00000220: d4f1 2e3d 008f 023d a06b 893b c273 d63d
00000230: 4c8e 0c3d c4d5 10be 3988 2e3e 6072 a3bb
00000240: 60ec a63c 3cec 00be 0e56 d63d bcf3 29be
00000250: dfdc 343e 2e6f dbbd d625 a63d f9bb 0e3e
00000260: d1f5 1bbe 98ee 8d3c cef5 f33d a060 debc
00000270: 500f 793c 1e9d a5bd c53c e7bd b39a 253e
00000280: ac92 073d 0ef9 f4bd 0af1 903d 5ad1 b83d
00000290: 5fb8 313e 4999 1f3e 1394 2f3e 168e e5bd
000002a0: 85ad 213e f34f 28be 66a3 f73d 81f8 27be
000002b0: 12fc adbd 2160 00be d6f9 d43d 3954 283e
000002c0: fc94 513d 80c1 8b3b 6520 8fbd 5c48 0c3d
000002d0: 4c32 243d aff4 80bd df02 b5bd a05b 1fbe
000002e0: 40bb 1fbe 93ca 233e 14a7 95bd c21d 60bd
000002f0: 1237 e0bd bd80 14be 7800 acbc 9b51 2d3e
00000300: 48e2 d53c a07c debb f78f 04be 0364 1f3e
00000310: 2097 673d 56bd ab3d 7e8d c23d 0889 d1bc
00000320: 6021 07be 6a46 a13d 78b8 bbbd fee0 a93d
00000330: 7773 2c3e 68af d5bc cfdc 1a3e 700d 5f3d
00000340: 5097 883c 1812 673d c084 2f3b e211 b13d
00000350: 54bd 363d fa66 d6bd 6794 06be 9126 85bd
00000360: 4e37 d5bd a66e f93d 39ab 293e 6eaf 20be
00000370: a09e 193d 79d6 263e e06a 943c 92da c23d
00000380: e89e 3fbd 63bd 1abe c1fc 023e 7898 25bd
00000390: 3402 aebd 0218 1dbe c011 a43c acb4 50bd
000003a0: 00b0 9ebc fc5a 1cbe dcb9 793d 269f 12be
000003b0: cfbd 15be 045d 3fbd 708a bcbc 9d49 133e
000003c0: 003c 10ba 9e84 ff3d c8df 23bd c029 38bc
000003d0: a955 e9bd ca8a c53d b7f5 0b3e a360 2f3e
000003e0: 60e8 e6bb 20a2 99bc b524 243e 05cc 2f3e
000003f0: 76f8 0cbe c92a 143e 2f2c 103e 2d61 9dbd
0.0070599318 0.15349196 0.082044765 0.15293686 0.11904056 -0.107338816 0.06313448 0.03960353
0.14953358 0.004523918 -0.13193072 -0.06430018 0.14088352 0.13058399 -0.15999208 -0.02768965
-0.037739575 0.05343394 0.031835154 -0.08074015 0.16143696 -0.04673089 -0.020252421 -0.12784037
-0.0217762 0.059255436 0.022178829 0.110606626 0.0780596 0.052146927 0.14286958 -0.08110596
0.08990653 -0.15070748 0.03975746 -0.035049334 -0.074317835 0.15470783 0.09683077 -0.08873621
-0.1705896 -0.13538916 -0.023599342 -0.11736627 0.10899235 0.111500815 -0.00035984814 0.047646657
-0.09143362 -0.01732707 -0.002243936 0.012471437 0.10782017 -0.020332783 0.017932683 0.12853621
-0.14391097 0.08749054 0.06842798 -0.018331975 -0.09087819 -0.15254645 0.005714476 0.1285095
-0.07376457 -0.15887682 0.15592141 0.06871787 -0.0941592 0.08536638 -0.07883793 -0.122391015
-0.109479934 0.0030109286 -0.12858713 -0.052051865 -0.006243989 0.1155204 0.04307854 0.09484361
0.048337102 -0.14486688 -0.05470585 -0.16935109 0.096971646 0.075877294 -0.12495356 -0.05922743
0.03764409 -0.07553897 0.0055656433 0.09450631 0.01108247 0.025646374 0.09288035 0.032582313
0.028147563 -0.10133976 -0.06689914 0.09027074 -0.12292552 0.01329118 0.07919957 0.10122146
-0.025135204 0.012420207 0.11216213 -0.012016356 0.14774345 0.15064435 -0.09579968 0.09873791
0.09568326 0.084327444 -0.063671224 0.031723678 0.09881477 -0.17378326 -0.020668983 0.17516755
-0.12258135 -0.10432078 -0.053128317 0.034119412 0.11073084 0.08447425 0.0021030009 -0.069589145
-0.17021963 -0.09023914 0.16111879 0.032492265 0.1595423 -0.02475527 0.123839274 0.02143994
0.042711094 0.031874657 0.004193738 0.10471298 0.034315392 -0.14144045 0.17044152 -0.004988
0.020376384 -0.12590116 0.104656324 -0.16596884 0.1766238 -0.10714565 0.081126854 0.13938893
-0.1523049 0.017325684 0.11912118 -0.027145684 0.015201405 -0.08086608 -0.11290888 0.16172294
0.03309886 -0.11961566 0.070772246 0.09024306 0.17355488 0.15585817 0.1714633 -0.11208741
0.15788849 -0.16436748 0.12091713 -0.1640339 -0.08495344 -0.1253667 0.10399215 0.16438378
0.051167473 0.0042650104 -0.06988601 0.034248695 0.04008703 -0.0629667 -0.08838438 -0.15562296
-0.15598774 0.15995245 -0.07307258 -0.05471588 -0.10948004 -0.14502235 -0.020996317 0.16925661
0.026108876 -0.006789759 -0.12945543 0.15565495 0.05654061 0.08385722 0.09499644 -0.025578037
-0.13196325 0.078747585 -0.09166044 0.08294867 0.16840921 -0.026084617 0.15123294 0.054456174
0.016673714 0.05641374 0.0026782006 0.08645989 0.04461415 -0.1046886 -0.13142549 -0.065014966
-0.10410939 0.12179308 0.16569223 -0.15691921 0.037504792 0.16292752 0.018117368 0.09514345
-0.046782404 -0.15111308 0.1279173 -0.04042861 -0.08496514 -0.1534119 0.020027995 -0.050953552
-0.019371033 -0.15269083 0.060968265 -0.14318523 -0.14623187 -0.046719566 -0.02301523 0.1438355
-0.0005502105 0.124764666 -0.040008336 -0.011240423 -0.113932915 0.096456125 0.13667952 0.17126708
-0.007046744 -0.018754065 0.16029628 0.17167671 -0.13766655 0.14469446 0.14079355 -0.076845504

weight_u f4 [32]
00000000: af49 8fbe f73b 633d 1f9d bcbe 7bb7 8dbc
00000010: dda8 913e b4c4 39bd e73f 95bd 5ba4 c1bc
00000020: cd25 9cbe aa52 13be 4907 ecbd 1b8b 2a3e
00000030: a7c1 bcbd 55e8 353e 22a4 833d c529 1cbd
00000040: ee4f 9a3c f2ac 50be 140c be3d 3902 c33e
00000050: 3512 ac3e 39d7 c43c 0d61 ac3d 7cd8 173e
00000060: 11da 5d3d 7cd2 a43d 6f64 82be 85c6 593d
00000070: 7185 23bd 0214 573e b044 033e f865 013e
-0.27985904 0.05547711 -0.36838624 -0.017299404 0.28449145 -0.045353606 -0.07287579 -0.023637941
-0.3049759 -0.14387003 -0.11524827 0.16654627 -0.09216624 0.17764409 0.0642779 -0.038125772
0.018836942 -0.20378473 0.092796475 0.38087633 0.3360764 0.024028407 0.084169485 0.14828676
0.054163042 0.08047959 -0.2546725 0.05316784 -0.03992218 0.21003726 0.12819171 0.12636554

weight_v f4 [32]
00000000: 034b f3bd a813 28be c67e f53d 65c6 84be
00000010: 588d 983d 8ad6 cebd 26f1 973d 5b83 ecbc
00000020: 934f 0e3d 94c6 89be 5090 a4bb 9c39 373d
00000030: 4de5 c6ba 1da7 afbd 82f7 68be 7709 94be
00000040: a6ae f13c 6ee9 023f 349b 2b3e 4b1c 0abe
00000050: 687c f4bd 6d14 6e3d 59ec e5bd a3b3 f73d
00000060: 7426 aebe 7911 5b3d d1b9 123d 5188 8a3e
00000070: 2af6 3d3e 4dfc 613e c1fc a4bc d8e1 a83d
-0.11879542 -0.16413748 0.11987071 -0.25932613 0.07448834 -0.10099514 0.07419042 -0.028871229
0.034743857 -0.26909316 -0.005022086 0.044732675 -0.0015174538 -0.08576796 -0.22750667 -0.2891347
0.029502224 0.51137435 0.16758424 -0.13487355 -0.11937791 0.05812495 -0.1122672 0.1209481
-0.34013712 0.05348346 0.03582174 0.27057126 0.18550935 0.22068901 -0.020140054 0.08246201

weight f4 [32, 32, 1]
00000000: 0057 e73b ff2c 1d3e 1607 a83d 7b9b 1c3e
00000010: 8acb f33d 74d4 dbbd a64c 813d 5037 223d
00000020: 551f 193e 603d 943b d918 07be d0af 83bd
00000030: c543 103e cfb7 053e f7d4 23be 68d5 e2bc
00000040: d094 1abd 8cdd 5a3d 9465 023d 175b a5bd
00000050: bb4f 253e e468 3fbd 68e8 a5bc 96e8 02be
00000060: 0064 b2bc d4b5 723d 60b0 b53c ba85 e23d
00000070: b6dd 9f3d 0498 553d 674c 123e e21a a6bd
00000080: ea20 b83d 1053 1abe b8d8 223d e48f 0fbd
00000090: f333 98bd bb6b 1e3e 364f c63d 54bb b5bd
000000a0: 0aaf 2ebe 75a3 0abe 6853 c1bc ba5d f0bd
000000b0: 6237 df3d 8a5a e43d 00aa bcb9 2429 433d
000000c0: 8d41 bbbd 80f1 8dbc 000f 13bb 0055 4c3c
000000d0: d2d0 dc3d f090 a6bc 90e7 923c ff9e 033e
000000e0: 665d 13be 3e2e b33d f823 8c3d f02c 96bc
000000f0: 581e babd 2335 1cbe 8040 bb3b ff97 033e
00000100: e111 97bd 9bb0 22be dda9 1f3e f4bb 8c3d
00000110: 8ad6 c0bd 92d4 ae3d c875 a1bd 24a8 fabd
00000120: 0437 e0bd 0053 453b 58ac 03be 5634 55bd
00000130: 609a ccbb f695 ec3d 2073 303d 5e3d c23d
00000140: 20fd 453d fc57 14be 3e13 60bd 5f6a 2dbe
00000150: 1299 c63d 8e65 9b3d a7e7 ffbd 7698 72bd
00000160: b030 1a3d 2db4 9abd 0060 b63b 868c c13d
00000170: 4093 353c 5818 d23c 0e38 be3d 0875 053d
00000180: b895 e63c 388b cfbd 6b02 89bd dedf b83d
00000190: 60c0 fbbd 40c3 593c 6233 a23d 324d cf3d
000001a0: 58e8 cdbc 207e 4b3c 42b5 e53d 40e0 44bc
000001b0: 0f4a 173e 8342 1a3e 9f32 c4bd 1a37 ca3d
000001c0: 96f5 c33d deb3 ac3d 0f66 82bd b0f0 013d
000001d0: 665f ca3d 3df4 31be 0052 a9bc 1f5f 333e
000001e0: ee0b fbbd 22a6 d5bd 149d 59bd ccc0 0b3d
000001f0: dac6 e23d d600 ad3d 80d2 093b c184 8ebd
00000200: 0e4e 2ebe 4ccf b8bd 53fc 243e 9c16 053d
00000210: 0f5f 233e 90cb cabc 729f fd3d d0a2 af3c
00000220: d4f1 2e3d 008f 023d a06b 893b c273 d63d
00000230: 4c8e 0c3d c4d5 10be 3988 2e3e 6072 a3bb
00000240: 60ec a63c 3cec 00be 0e56 d63d bcf3 29be
00000250: dfdc 343e 2e6f dbbd d625 a63d f9bb 0e3e
00000260: d1f5 1bbe 98ee 8d3c cef5 f33d a060 debc
00000270: 500f 793c 1e9d a5bd c53c e7bd b39a 253e
00000280: ac92 073d 0ef9 f4bd 0af1 903d 5ad1 b83d
00000290: 5fb8 313e 4999 1f3e 1394 2f3e 168e e5bd
000002a0: 85ad 213e f34f 28be 66a3 f73d 81f8 27be
000002b0: 12fc adbd 2160 00be d6f9 d43d 3954 283e
000002c0: fc94 513d 80c1 8b3b 6520 8fbd 5c48 0c3d
000002d0: 4c32 243d aff4 80bd df02 b5bd a05b 1fbe
000002e0: 40bb 1fbe 93ca 233e 14a7 95bd c21d 60bd
000002f0: 1237 e0bd bd80 14be 7800 acbc 9b51 2d3e
00000300: 48e2 d53c a07c debb f78f 04be 0364 1f3e
00000310: 2097 673d 56bd ab3d 7e8d c23d 0889 d1bc
00000320: 6021 07be 6a46 a13d 78b8 bbbd fee0 a93d
00000330: 7773 2c3e 68af d5bc cfdc 1a3e 700d 5f3d
00000340: 5097 883c 1812 673d c084 2f3b e211 b13d
00000350: 54bd 363d fa66 d6bd 6794 06be 9126 85bd
00000360: 4e37 d5bd a66e f93d 39ab 293e 6eaf 20be
00000370: a09e 193d 79d6 263e e06a 943c 92da c23d
00000380: e89e 3fbd 63bd 1abe c1fc 023e 7898 25bd
00000390: 3402 aebd 0218 1dbe c011 a43c acb4 50bd
000003a0: 00b0 9ebc fc5a 1cbe dcb9 793d 269f 12be
000003b0: cfbd 15be 045d 3fbd 708a bcbc 9d49 133e
000003c0: 003c 10ba 9e84 ff3d c8df 23bd c029 38bc
000003d0: a955 e9bd ca8a c53d b7f5 0b3e a360 2f3e
000003e0: 60e8 e6bb 20a2 99bc b524 243e 05cc 2f3e
000003f0: 76f8 0cbe c92a 143e 2f2c 103e 2d61 9dbd
0.0070599318 0.15349196 0.082044765 0.15293686 0.11904056 -0.107338816 0.06313448 0.03960353
0.14953358 0.004523918 -0.13193072 -0.06430018 0.14088352 0.13058399 -0.15999208 -0.02768965
-0.037739575 0.05343394 0.031835154 -0.08074015 0.16143696 -0.04673089 -0.020252421 -0.12784037
-0.0217762 0.059255436 0.022178829 0.110606626 0.0780596 0.052146927 0.14286958 -0.08110596
0.08990653 -0.15070748 0.03975746 -0.035049334 -0.074317835 0.15470783 0.09683077 -0.08873621
-0.1705896 -0.13538916 -0.023599342 -0.11736627 0.10899235 0.111500815 -0.00035984814 0.047646657
-0.09143362 -0.01732707 -0.002243936 0.012471437 0.10782017 -0.020332783 0.017932683 0.12853621
-0.14391097 0.08749054 0.06842798 -0.018331975 -0.09087819 -0.15254645 0.005714476 0.1285095
-0.07376457 -0.15887682 0.15592141 0.06871787 -0.0941592 0.08536638 -0.07883793 -0.122391015
-0.109479934 0.0030109286 -0.12858713 -0.052051865 -0.006243989 0.1155204 0.04307854 0.09484361
0.048337102 -0.14486688 -0.05470585 -0.16935109 0.096971646 0.075877294 -0.12495356 -0.05922743
0.03764409 -0.07553897 0.0055656433 0.09450631 0.01108247 0.025646374 0.09288035 0.032582313
0.028147563 -0.10133976 -0.06689914 0.09027074 -0.12292552 0.01329118 0.07919957 0.10122146
-0.025135204 0.012420207 0.11216213 -0.012016356 0.14774345 0.15064435 -0.09579968 0.09873791
0.09568326 0.084327444 -0.063671224 0.031723678 0.09881477 -0.17378326 -0.020668983 0.17516755
-0.12258135 -0.10432078 -0.053128317 0.034119412 0.11073084 0.08447425 0.0021030009 -0.069589145
-0.17021963 -0.09023914 0.16111879 0.032492265 0.1595423 -0.02475527 0.123839274 0.02143994
0.042711094 0.031874657 0.004193738 0.10471298 0.034315392 -0.14144045 0.17044152 -0.004988
0.020376384 -0.12590116 0.104656324 -0.16596884 0.1766238 -0.10714565 0.081126854 0.13938893
-0.1523049 0.017325684 0.11912118 -0.027145684 0.015201405 -0.08086608 -0.11290888 0.16172294
0.03309886 -0.11961566 0.070772246 0.09024306 0.17355488 0.15585817 0.1714633 -0.11208741
0.15788849 -0.16436748 0.12091713 -0.1640339 -0.08495344 -0.1253667 0.10399215 0.16438378
0.051167473 0.0042650104 -0.06988601 0.034248695 0.04008703 -0.0629667 -0.08838438 -0.15562296
-0.15598774 0.15995245 -0.07307258 -0.05471588 -0.10948004 -0.14502235 -0.020996317 0.16925661
0.026108876 -0.006789759 -0.12945543 0.15565495 0.05654061 0.08385722 0.09499644 -0.025578037
-0.13196325 0.078747585 -0.09166044 0.08294867 0.16840921 -0.026084617 0.15123294 0.054456174
0.016673714 0.05641374 0.0026782006 0.08645989 0.04461415 -0.1046886 -0.13142549 -0.065014966
-0.10410939 0.12179308 0.16569223 -0.15691921 0.037504792 0.16292752 0.018117368 0.09514345
-0.046782404 -0.15111308 0.1279173 -0.04042861 -0.08496514 -0.1534119 0.020027995 -0.050953552
-0.019371033 -0.15269083 0.060968265 -0.14318523 -0.14623187 -0.046719566 -0.02301523 0.1438355
-0.0005502105 0.124764666 -0.040008336 -0.011240423 -0.113932915 0.096456125 0.13667952 0.17126708
-0.007046744 -0.018754065 0.16029628 0.17167671 -0.13766655 0.14469446 0.14079355 -0.076845504

weight f4 [1, 32, 1]
00000000: ebab 213e 5066 223c 5266 ec3d aadd 9a3d
00000010: a02d fcbb e874 6d3d b05a 10bd a809 b7bd
00000020: 305f 083c 00e4 933a 409f 07bd 7a94 b73d
00000030: 2a1c 6dbd 28ea c33c a291 db3d 0b72 93bd
00000040: 782a 2c3d bc9e 873d 344f 3cbd 15fc 243e
00000050: bed9 57bd 629a aebd 8051 23be 23bb 293e
00000060: 1f00 0abe fefc 77bd 2436 07be 04f6 053d
00000070: 8549 2cbe 9e7c 76bd 8893 e5bc 1bf1 c9bd
0.15788238 0.0099120885 0.115429536 0.0756181 -0.0076958686 0.05797282 -0.035242736 -0.08937389
0.008323476 0.0011283159 -0.033110857 0.089638665 -0.057888187 0.023915365 0.10721137 -0.07199486
0.04203269 0.06622073 -0.04597397 0.16111787 -0.05269789 -0.0852554 -0.15949059 0.16575293
-0.13476609 -0.060544007 -0.13204247 0.032705322 -0.1682492 -0.060177438 -0.02802445 -0.0986044

weight f4 [1, 32, 1]
00000000: 88c3 b03c 69ba 133e e979 163e f8a8 31bd
00000010: 0ac5 fb3d 4c94 8f3d 04b0 053d 0720 0d3e
00000020: 7776 e3bd 1655 58bd 2c6f 5e3d 34fd 08be
00000030: c803 0bbe f23d 7bbd 8adf d53d 2363 323e
00000040: 48c5 2bbe b936 033e 8073 943d 171c 21be
00000050: 624e ea3d f445 1e3d 43a0 2abe 7c53 14bd
00000060: 444f 2f3d fae7 b53d 9309 083e f714 023e
00000070: dba6 2a3e 3ff5 bbbd 9f69 9cbd c699 cc3d
0.021577612 0.14426579 0.14694943 -0.04337403 0.122934416 0.07010707 0.032638565 0.13781749
-0.1110658 -0.05281552 0.05430524 -0.1337784 -0.13575661 -0.061338373 0.10443027 0.1742063
-0.16774476 0.12813844 0.072485924 -0.15733372 0.114407316 0.03864093 -0.16662697 -0.03621243
0.042800203 0.08882137 0.13284902 0.1270331 0.16665213 -0.09177636 -0.07637333 0.099902675

weight f4 [1, 32, 1]
00000000: 1c23 09be cde9 0a3e 1b6d 00be 60db e93b
00000010: 5802 b8bc 19d8 0dbe b1cd f8bd ac58 363d
00000020: b07a ab3c 583a 563d 7e8e 55bd 6033 34bc
00000030: b7ca 90bd 6502 01be ff25 063e cdfe 8bbd
00000040: b2c5 c63d 8562 20be e05e 9d3c d092 323d
00000050: c4b5 c0bd b65e cf3d c08f 343d 56af fa3d
00000060: 2a59 cf3d 48fd 7cbd 9a7a 5abd c994 0e3e
00000070: 2a39 23be acad 4bbd 15ee 1c3e a857 94bd
-0.133923 0.1356575 -0.1254162 0.0071367472 -0.022462055 -0.13851966 -0.121486075 0.044518158
0.020932525 0.052301735 -0.052137844 -0.010998577 -0.07069915 -0.1259857 0.13100432 -0.06835709
0.09705676 -0.15662582 0.019210279 0.043597043 -0.09409669 0.101254866 0.044082403 0.12240474
0.101244286 -0.061764985 -0.05333958 0.13923945 -0.15939775 -0.049726173 0.15325196 -0.072432816

bias f4 [32]
00000000: a080 843c 70a9 d9bc c5cb 2e3e b3d9 233e
00000010: b713 053e 65cd 103e 5116 afbd 13ce 17be
00000020: b5fa 1a3e cc90 31bd d248 f93d 40d5 ef3b
00000030: e8e7 1fbe 6b5f 0d3e df26 043e 5a6a fe3d
00000040: 6081 3b3d 0060 10bc fa93 f6bd 5251 d6bd
00000050: a00a c9bc 3e13 20be 3b05 88bd 74c7 09bd
00000060: f188 e6bd 02b0 a53d 706d 22be 661a a63d
00000070: 593f 263e cc89 06be 4030 eb3b b21b a73d
0.016174614 -0.026570052 0.1706992 0.16001014 0.12995802 0.14140852 -0.085491784 -0.14824705
0.151347 -0.04335098 0.121720925 0.0073191226 -0.15615809 0.1380593 0.12905453 0.12422629
0.04577768 -0.008811951 -0.12039943 -0.10464729 -0.0245412 -0.1563234 -0.06641623 -0.03363748
-0.11256588 0.080902115 -0.1586206 0.08110504 0.16235103 -0.13138503 0.0071773827 0.08159579

weight_orig f4 [32, 32, 1]
00000000: e88d a5bc b03f 023c 20ef 0e3c 8642 1cbe
00000010: 828a ab3d 5226 f53d 4f71 0e3e b4a1 a7bd
00000020: 55a2 00be f71c 083e 2057 85bd eb33 e5bd
00000030: 6c52 b9bd 2dd8 023e 91fd 2c3e 089b 98bc
00000040: e47b 883d d0b2 1bbe 0a87 7bbd e672 0ebe
00000050: bcfa 1fbe 24d1 8abd ab9d 9dbd 2539 dfbd
00000060: f831 acbc bc9d 243d be72 ba3d d02b 863d
00000070: 045c 17bd dc33 2cbe c8bb 3ebd 3779 0d3e
00000080: 3719 203e d42f 2ebd a8d2 27be 68fb ecbc
00000090: ea08 72bd 8796 16be 3ee6 15be 08e2 8fbc
000000a0: cc6f 673d 0d29 183e a22a 77bd e28f de3d
000000b0: d0b1 523d e03a c13b f01e 4c3c 1efe bf3d
000000c0: 4850 2cbd a6b2 75bd 750f b1bd 5af6 cb3d
000000d0: 70bd 25bc 3160 323e 90dc 3e3d 0092 0aba
000000e0: 6211 1dbe 6301 233e 7be7 26be c990 323e
000000f0: 2026 38bd 3e2e debd 5049 1abd 549b 6d3d
00000100: 1ed9 c63d 506e 52bd 50d0 09bd 0016 313b
00000110: b01e 3ebd b219 eabd 8007 6abd 00b6 633a
00000120: 809c 783d 687c 833c f03e cfbd 3e0f 993d
00000130: 81ce 343e 8029 12bd f617 e53d 6534 0e3e
00000140: 6005 6cbc 4ee4 abbd ec00 203d 66d0 c03d
00000150: 8228 22be 849e 47bd 6aa4 f33d 17a1 12be
00000160: c259 e03d 2c4e 03bd 2016 5ebd 265e 883d
00000170: d4b7 20bd 19f0 25be b618 9c3d b866 8e3c
00000180: 9f68 d8bd 8a8f 2dbe e0e0 d53c c06f 2c3d
00000190: 302c fb3c 7fba 27be a032 8a3c 4eaa fb3d
000001a0: 83d6 d4bd 7286 b93d 5024 f5bd 7a99 c83d
000001b0: 34d8 e0bd 3397 a8bd 4021 65bc 86d8 d03d
000001c0: feae 08be a44f 15be 0225 15be f9cc 043e
000001d0: b8f4 723d 5e3e c53d 808c d23a 6a79 f4bd
000001e0: 502d 43bd aa45 d93d f7ac 1fbe 7e56 e9bd
000001f0: 0b19 d3bd 7e0c 1abe 6be7 313e c144 91bd
00000200: 3da7 093e 023e b23d fa23 25be 55d6 263e
00000210: ed3a 113e 8041 c8bc cec0 c73d c01c 07bc
00000220: 1063 0b3d 9ad6 ef3d 3c65 593d cf49 c7bd
00000230: 8081 a8bc 3d9a 283e 3019 9dbc f8d3 ea3c
00000240: ef5e 213e c044 013c 4a24 dd3d 4a8d e23d
00000250: cea9 12be 5f6a 21be 40f2 f3bc 4063 3cbd
00000260: 3a64 e33d 1691 07be 6d68 083e 78ef c1bc
00000270: b5af 1e3e 91c8 183e 16a6 a33d 8d4b 23be
00000280: ef0c 24be e566 10be 363f 03be a0b1 17bc
00000290: 005c c3b9 57b8 9fbd 0c2a 14bd 30ed d5bd
000002a0: 688b 12be 5154 113e de70 903d d2a1 d13d
000002b0: 5d99 adbd 3083 a3bc 7124 80bd 1ecb c53d
000002c0: 42f8 cc3d 47e4 29be 4ae3 b43d 0525 90bd
000002d0: 190b 32be 240c 6abd fbef 83bd a492 03bd
000002e0: 1e2b 9f3d 4fa1 1fbe 3240 e43d c06d 4d3c
000002f0: d014 163c c0bb 38bd 708c 4f3d 0523 1c3e
00000300: 843f 153d 8746 293e 687d 023d 601b 6f3c
00000310: a30e 213e f0f2 8d3d 8a64 87bd 50a9 be3c
00000320: 7095 2c3d 0096 5c3a 0c8e 113d 021a e23d
00000330: 4978 ddbd 3e4d 8c3d e95e 1e3e 485a 1cbd
00000340: efbb 183e ec11 0fbd e95e 173e c3bb 2abe
00000350: c447 fbbd b00b 9fbc d19b 33be 580a 1dbe
00000360: 24b8 a9bd 607a 4e3c fcb4 7b3d 7466 04bd
00000370: 141f 0ebd ff6c 99bd cb22 203e c0c7 b73b
00000380: c9ff e1bd b04d 3e3c de07 fcbd 050a 263e
00000390: 2249 03be b017 4e3d dd29 0d3e 8c7e 2d3d
000003a0: 4f20 263e 8ca5 793d 8829 a6bd 90c6 83bd
000003b0: 1011 c7bc 608d 2e3c 5056 d83c 2aed 853d
000003c0: 3211 d8bd 9297 59bd 26d4 a83d defb fcbd
000003d0: 76ba 27be d193 053e 18cc 513d 2754 01be
000003e0: 1c9a 8abd ee37 f53d cdf5 82bd 624d ad3d
000003f0: 5659 0bbe c107 01be e3b0 2e3e 58be fcbc
-0.020209268 0.007949755 0.008724004 -0.15259752 0.08376028 0.119702 0.13910411 -0.08185139
-0.12561925 0.13292299 -0.065107584 -0.11191543 -0.09048924 0.12777777 0.16893603 -0.018628612
0.06664255 -0.1520493 -0.06140808 -0.13911018 -0.15622991 -0.06778172 -0.076960884 -0.10899571
-0.02101992 0.04018949 0.091039166 0.06551325 -0.036952987 -0.16816658 -0.0465658 0.13815771
0.15634619 -0.04252608 -0.16388953 -0.028928474 -0.059090532 -0.14705859 -0.14638612 -0.017563835
0.056503102 0.1485941 -0.060343392 0.10867287 0.051439106 0.005896911 0.012458548 0.09374641
-0.04206875 -0.059984826 -0.08645526 0.09959097 -0.010115966 0.17419507 0.046597064 -0.0005286038
-0.15338662 0.15918498 -0.1629924 0.17438044 -0.044958234 -0.10848664 -0.037667572 0.05800946
0.097093806 -0.051374733 -0.033645928 0.002702117 -0.046415985 -0.11430682 -0.05713606 0.0008686483
0.060696125 0.016050532 -0.10119426 0.0747361 0.176569 -0.03568411 0.11186211 0.13887174
-0.014405578 -0.08393155 0.03906338 0.09414749 -0.15835765 -0.048735157 0.11896594 -0.14319263
0.1095462 -0.032056972 -0.05422032 0.066585824 -0.039237812 -0.16204871 0.07621901 0.017382964
-0.1056683 -0.16949287 0.026108205 0.04209876 0.030660719 -0.16379736 0.016869843 0.122883424
-0.10392477 0.090588465 -0.11969817 0.09794898 -0.109787375 -0.08231964 -0.013984978 0.101975486
-0.13348004 -0.14581162 -0.14564899 0.12968816 0.059315413 0.09631036 0.0016063601 -0.119372204
-0.047650635 0.106089905 -0.15593325 -0.1139345 -0.10307511 -0.15043828 0.17373435 -0.07093192
0.13442703 0.08703233 -0.16127005 0.16292699 0.14182635 -0.024445295 0.097535715 -0.008246601
0.03403002 0.11710854 0.05307506 -0.09730875 -0.020569563 0.16465087 -0.01917705 0.028665528
0.1575887 0.007889926 0.10797937 0.11062105 -0.14322588 -0.15763234 -0.0297786 -0.04599309
0.11103101 -0.1323894 0.13321085 -0.023673758 0.15496714 0.1492026 0.07990663 -0.15946789
-0.16020559 -0.14101751 -0.12817082 -0.009258658 -0.00037261844 -0.07798832 -0.03617291 -0.104456306
-0.14310992 0.1419232 0.07052778 0.10235943 -0.08476517 -0.019960016 -0.06256951 0.09657882
0.10008289 -0.16590987 0.088324144 -0.07038311 -0.17387046 -0.057140484 -0.06442257 -0.03212227
0.07771896 -0.15588878 0.11145057 0.0125383735 0.0091602355 -0.045100927 0.05067104 0.15247734
0.036437526 0.1653081 0.031857878 0.014593929 0.1572824 0.06931102 -0.06610973 0.023274094
0.042134702 0.0008414686 0.035535857 0.11040117 -0.10813958 0.0685067 0.15465893 -0.038172036
0.14915441 -0.0349292 0.14782299 -0.16673188 -0.122695476 -0.019414753 -0.17539908 -0.15335977
-0.08287075 0.012602419 0.061451897 -0.03232427 -0.034697607 -0.074914925 0.15638272 0.005608529
-0.11035115 0.011615202 -0.12306188 0.1621476 -0.12820867 0.05031556 0.13785501 0.042357013
0.16223262 0.060948893 -0.0811339 -0.06434357 -0.024300128 0.010653824 0.026408345 0.06539376
-0.10550155 -0.053123064 0.08243589 -0.12352727 -0.16379723 0.13044669 0.05122003 -0.12629758
-0.06767675 0.11973558 -0.06394539 0.08462025 -0.13608298 -0.12600614 0.17059664 -0.030852482

weight_u f4 [32]
00000000: aae7 a1be 51e4 bfbc 013f 3a3e 4fea 1f3e
00000010: 8cc9 583e 2fa0 a23e af50 493d 09af 7c3d
00000020: fcf6 413e 8f11 e03d c87e 8e3e 5b99 8bbe
00000030: cf29 3a3d d052 7a3e ecd9 4f3d 7778 f73a
00000040: 39ca 60be 2cdc b53e f5c7 873c 8c8b 323e
00000050: bc15 88bd f3a7 5cbe ca18 2b3e 36ed 93bd
00000060: d9a5 8f3d b3f1 f33c b8d1 cc3d 2a6a 823e
00000070: 2da4 f2bd 8bca 7a3d da2d f7bc ed95 46be
-0.31622058 -0.0234243 0.18188097 0.15616725 0.21170634 0.31762835 0.04914921 0.061690364
0.18941873 0.10940849 0.278311 -0.27265438 0.045450028 0.24445653 0.050744936 0.0018880506
-0.21952142 0.3551954 0.01657484 0.17436045 -0.066447705 -0.21548443 0.16708675 -0.07222979
0.07014055 0.029778337 0.10000938 0.25471622 -0.1184772 0.061228316 -0.03017323 -0.1939313

weight_v f4 [32]
00000000: 2be6 e7bc 6ad7 293e e933 04bd 7fda 9f3c
00000010: 74cf 73bd c5a7 583c 8031 b03e 4b7d c53c
00000020: 10d6 09be 22df dbbd 4b28 77bd adc9 b0bd
00000030: 6d13 25be 23a9 cf3d d7a8 d1be 6ff6 533e
00000040: 2979 76bd 9bfa 30be dae5 66bd 592f 803d
00000050: 157a 1cbe d56a ec3d e534 63bc 9e53 2f3e
00000060: 070f 65bc fba9 51bd 4582 793e f540 de3d
00000070: 19c5 a23e d3a9 ad3e 34cd c8be 1bfb c53d
-0.028307995 0.1658608 -0.032276068 0.019513367 -0.059524015 0.013223593 0.34412766 0.024107596
-0.13460565 -0.107359186 -0.06034116 -0.086322166 -0.16120692 0.10139682 -0.40949127 0.20699476
-0.06017414 -0.17283098 -0.056371547 0.06259031 -0.15280946 0.11543814 -0.0138675915 0.17121741
-0.013980634 -0.051187497 0.243661 0.10852233 0.31791 0.33918628 -0.39219058 0.09667035
