Models/M4/wo_ml/wo_ml_generator.pt (torch, 148841 bytes, 70 tensors)

bias f4 [32]
000000 9b 47 db bd d7 40 f1 3c b4 ba c9 3e 0a ae b5 3e
       -0.10707017 0.029449863 0.39400256 0.35484344
000010 d0 5c cf 3e 61 ed 9f 3e 26 35 d6 3e e5 ca 51 be
       0.40500498 0.31235793 0.41837424 -0.20487554
000020 b2 c5 63 3e 1d 63 f2 3d ae 7b 0b 3e 4c 56 5b 3e
       0.22243384 0.118353106 0.13621399 0.21419638
000030 fc 4d db 3d 42 1c a2 3d 01 81 8d bd 81 39 f5 3d
       0.10708234 0.07915546 -0.06909371 0.119738586
000040 2b bd 89 3e a9 99 ba 3e f4 3b f7 3d d6 97 58 be
       0.26902136 0.36445358 0.12071982 -0.21151671
000050 5a 79 55 3e d2 26 05 be 50 10 9c 3d 74 30 2d 3e
       0.20847073 -0.1300309 0.07620299 0.16913015
000060 1c 4f 17 3e 0c e9 e0 bc 70 d6 05 3e b4 7c cd bd
       0.14776272 -0.027454875 0.13070083 -0.10033551
000070 03 27 33 be 7b 9a 7f 3e 0e be 66 3e 2a 2c a4 3e
       -0.1749535 0.24961273 0.22533438 0.32064945

weight_orig f4 [32, 12, 1]
000000 43 72 de bd 73 47 49 3e 31 ed 1d be f5 4c 78 be
       -0.108616374 0.19656162 -0.15422513 -0.24248107
000010 b9 f2 d5 3d a3 05 78 3e 8c dc 00 bd 2d f4 05 be
       0.10446686 0.242209 -0.03146033 -0.13081427
000020 0a d5 3c 3e 62 38 22 3d 90 ad 7a 3c de d4 1c 3e
       0.18440643 0.039604552 0.01530017 0.15315577
000030 5a ae 52 3d 40 37 86 be dc ee 43 3e 8e 27 92 3c
       0.051435806 -0.26214027 0.19134086 0.017841127
000040 a0 e8 60 be 10 13 a6 3d ac b5 b8 3e b8 a0 74 be
       -0.2196374 0.08109105 0.36076105 -0.23889434
000050 70 32 bb bd 26 70 04 3e 34 f0 51 be 71 b2 9e 3e
       -0.091404796 0.12933406 -0.20501786 0.30995515
000060 df 1e a4 bd 52 9d 6e be d8 6e 6b bd 3d 76 69 be
       -0.08013701 -0.233022 -0.057478756 -0.2279901
000070 0c 9e 4b bd 92 8b 89 be 9d 11 25 be 0e ad 55 bd
       -0.049711272 -0.26864296 -0.1612 -0.05216699
000080 c7 59 88 3e e2 25 57 3e 84 cc dd 3c 82 62 e7 bd
       0.26630995 0.21010545 0.02707506 -0.11298086
000090 76 57 ab bd 77 01 7b 3e 55 b6 84 3e c8 07 a0 bc
       -0.08366291 0.24512278 0.25920358 -0.01953496
0000a0 b5 64 27 3d c4 22 72 be 51 f4 42 3d 40 6f 40 be
       0.040867526 -0.23646075 0.04759628 -0.18792439
0000b0 c2 a2 28 3e 39 ae 21 3e 59 7c 45 3d 4d 16 4e bd
       0.16468337 0.15789117 0.04821429 -0.050314236
0000c0 70 eb 7d be 36 51 31 be 26 1f 64 3e c1 b1 da bd
       -0.24796844 -0.17316136 0.22277507 -0.10678435
0000d0 bd 83 d4 bd b3 b6 7c bd b7 ea 8b be 48 eb 0d be
       -0.103766896 -0.061697673 -0.2732751 -0.13859284
0000e0 51 b2 33 be d7 8b ac 3e a2 05 d6 3d 19 5a 96 3e
       -0.17548491 0.3370044 0.10450293 0.29365614
0000f0 0f a1 4b bc f7 47 90 be 8b 76 e2 3d b3 61 9f 3e
       -0.012428536 -0.28179905 0.110577665 0.31129226
000100 c8 aa 1a 3d b4 fb 65 3e 31 ee 3e be a0 06 b2 bd
       0.037760526 0.22459298 -0.1864555 -0.0869267
000110 81 45 42 3e 33 a7 9c 3d 15 d8 bd b9 c5 b7 b7 3d
       0.18971826 0.07649078 -0.00036209883 0.08970598
000120 ff 21 6a be f5 f1 53 be 4b 62 73 bd 05 5c b2 be
       -0.22864531 -0.20697768 -0.05941991 -0.3483583
000130 08 81 78 3e a9 8d a0 3e 29 73 88 3d 2c 32 88 be
       0.24267972 0.31358078 0.0666259 -0.26600778
000140 77 60 60 3b 03 fa cd 3d 0b f5 71 3e 69 41 cb bd
       0.0034237185 0.100574516 0.23628633 -0.09924585
000150 e1 00 2a 3e 0d ed 4d bd 9c 30 be bd d8 a4 67 be
       0.16601898 -0.050274897 -0.09286615 -0.22621477
000160 1f 00 c9 bd c8 f6 7c bd 27 c3 9a be f9 aa 9b be
       -0.09814476 -0.061758786 -0.30227014 -0.3040388
000170 a0 f7 75 be 8e a6 7c bd a7 5b 2d be fe 52 51 3e
       -0.24020243 -0.061682276 -0.16929494 0.20441815
000180 07 6f f8 bd dd c2 57 be da 60 32 be 03 bb 8b 3d
       -0.12130552 -0.21070428 -0.17419758 0.06822779
000190 ca 19 a3 bd 42 cd fe 3d 76 b3 62 be 13 d5 7d 3d
       -0.07963903 0.124414936 -0.22138771 0.06197078
0001a0 25 84 35 be b6 8d 14 3e 34 2b 2d bd 0c dd 67 bd
       -0.1772619 0.14507183 -0.04227753 -0.05660729
0001b0 ab 12 f7 3d 6d db 9d be b1 a7 ff bc a4 e6 81 be
       0.120641075 -0.3083147 -0.031207891 -0.25371277
0001c0 08 28 c9 3c 46 09 23 3e 39 6a f0 3d 54 30 7a 3d
       0.024555221 0.15921506 0.1173901 0.061081246
0001d0 85 45 33 3e 23 1e 66 bd b9 b4 53 be 74 5d 28 3e
       0.17506988 -0.056181084 -0.20674409 0.164419
0001e0 1c f4 26 be b4 c8 ca bd 01 01 ac 3e 20 a6 b5 bd
       -0.16304058 -0.09901562 0.33594516 -0.088695765
0001f0 69 18 08 be 5a f1 1e 3e ab 52 93 be c4 0d 05 be
       -0.13290562 0.15521756 -0.28774008 -0.12993532
000200 3a 3e ff bc 35 82 96 be 88 bd e0 bc bb 5f 46 be
       -0.031157602 -0.29396215 -0.027434126 -0.19372456
000210 10 f6 3d 3e d6 ec 58 3e e8 f0 ae bd 6e 57 bb bd
       0.18550897 0.21184096 -0.08542043 -0.09147535
000220 bd 7c f9 3d 94 c5 5d 3e 5b ce 43 bd e1 a7 92 be
       0.12181995 0.21657401 -0.047804218 -0.28643706
000230 97 40 86 3e b4 e4 8a 3e a6 dd 57 bd 19 68 ea bd
       0.26221153 0.27127612 -0.052701615 -0.11445636
000240 30 dc 85 3e 13 d8 93 be 45 5c 2f be 51 62 29 be
       0.26144552 -0.2887579 -0.17125042 -0.16541411
000250 47 f4 4b 3e a6 76 94 3a ac f2 c1 bd d1 20 be 3b
       0.19917403 0.0011326864 -0.09470114 0.005802252
000260 36 9e 71 3e 15 43 f1 3d 55 83 7f be 0a 28 79 3d
       0.23595509 0.11780373 -0.24952443 0.0608292
000270 3d 07 24 be ef 04 b8 bd 05 6f bc bc 60 04 91 be
       -0.16018386 -0.08985316 -0.023002157 -0.2832365
000280 93 bf 45 3e 51 72 99 be 04 35 ea 3d 54 ee 0b be
       0.19311361 -0.2997003 0.11435893 -0.13665134
000290 94 ce 5c 3d 9f 9f 98 bd f5 4a c4 bd fc 72 17 be
       0.053907946 -0.0745232 -0.095846094 -0.14789957
0002a0 7d fa d0 3d ab 4b f1 3d c8 7e 26 be 4a e0 d9 3d
       0.10204027 0.11782011 -0.162593 0.10638483
0002b0 6a 35 a9 3c 3b de 46 bd 01 05 29 3e 12 b9 af bd
       0.020655353 -0.04855178 0.16505815 -0.08580221
0002c0 65 51 23 bd 0e 69 f8 3d 6c 4e 0c 3d b2 12 17 be
       -0.039872546 0.121294126 0.034254476 -0.14753225
0002d0 9e b3 98 3c f3 8d 28 bc 09 79 99 bd 67 a6 0d be
       0.018640336 -0.01028775 -0.07493789 -0.13833009
0002e0 6b 0f d6 bd a9 34 18 be 05 89 bf be 04 0b c8 3d
       -0.104521595 -0.14863838 -0.37409225 0.09767726
0002f0 e4 b9 63 3e ff 1f 76 bd ba d6 b6 3d a0 3b 43 3e
       0.2223888 -0.060089108 0.089276746 0.19065714
000300 a0 a8 29 be c8 68 a3 be ee 68 9d 3e 41 b2 f1 bd
       -0.16568232 -0.3191588 0.30744117 -0.11801577
000310 1a 8f 9c 3e 5d 73 45 3e 92 6f 63 be 32 3b aa 3d
       0.30577928 0.19282289 -0.2221053 0.08312072
000320 e0 95 11 be e7 fd 0b 3e f1 e4 09 be ae aa 0b bd
       -0.14217329 0.13671075 -0.1346624 -0.03409832
000330 79 7a 1c 3c 71 e2 38 3d eb 06 23 3e 79 60 46 3e
       0.009550684 0.045137826 0.15920608 0.19372739
000340 2e 9c 99 be 67 01 9e 3d 93 7b 03 be 50 43 e6 3c
       -0.30001968 0.07715111 -0.12840109 0.028108269
000350 55 1b 7a 3e 2a c9 8a 3e 96 1c e2 3b 7f 52 04 be
       0.24424489 0.271066 0.0069003804 -0.12922095
000360 5a 8b 1e be ab 65 94 3d 57 ad 02 3e 78 58 a0 bd
       -0.15482846 0.07245954 0.12761436 -0.07829374
000370 bb 40 7f be 35 ea 0d be 42 44 47 bd ad dd 1f be
       -0.24927036 -0.13858874 -0.04864908 -0.15611906
000380 40 40 39 be a9 22 3b 3e 8a f5 08 be 78 ae f6 bd
       -0.18090916 0.1827494 -0.13374916 -0.12044996
000390 b8 dd f8 3d 52 bc 34 be f5 9f 7a bd 1e da ce bc
       0.121516645 -0.17649963 -0.061187703 -0.02525049
0003a0 15 25 04 be 1f b8 2e 3c 35 d8 8b be d3 df 0d 3e
       -0.1290477 0.010664015 -0.2731339 0.13854913
0003b0 3c 2e 04 bd 8c 41 8e 3c 87 44 fb 3d b8 9a d3 3c
       -0.032270655 0.01736524 0.1226893 0.025830612
0003c0 d7 5e f0 3d 95 48 2a 3e 38 03 02 be d3 9d 24 3e
       0.11736839 0.1662925 -0.1269654 0.1607583
0003d0 2a ee 40 3d ca 89 7c 3e 07 05 e1 bd b1 98 bf be
       0.04710213 0.24661937 -0.10987287 -0.37421182
0003e0 d9 89 0a be 9a 97 72 3d 29 0c d6 3d ab 7f 21 be
       -0.13529147 0.05922661 0.10451538 -0.15771358
0003f0 53 42 4c 3e d7 8a 8a 3c 1a fd 8a 3d 36 1c ec 3d
       0.19947176 0.016911907 0.067865565 0.11528818

weight_u f4 [32]
000000 6d 48 f0 3d 15 58 ba 3d ad ed 5c 3e 66 36 c9 bb
       0.11732564 0.090988316 0.21575041 -0.006140518
000010 93 26 ba 3e 65 ae 43 3e 5b 8b 7a 3e 2f 1a 6d 3e
       0.36357555 0.19109495 0.24467222 0.2315452
000020 1a a0 d9 3d 76 ef 2c 3e d9 4c 67 3e b4 67 08 3d
       0.1062624 0.16888222 0.22587909 0.033302024
000030 68 c5 30 3e 10 d8 87 3d d3 86 49 be 3d ee 4c 3e
       0.17262805 0.066330075 -0.19680338 0.20012756
000040 42 22 9e 3e cb f8 4b 3c e8 fc 2b 3d 02 83 e9 3d
       0.30885512 0.012449454 0.041989237 0.11401941
000050 64 d0 43 bd 28 3f 79 3d a9 69 2c 3e 3f e0 6d 3e
       -0.04780616 0.060851246 0.16837181 0.23230074
000060 e4 e8 34 3e 4b 9a 3b 3e 7b fb eb bd 52 9e 2c bd
       0.17666966 0.18320577 -0.115225755 -0.042143174
000070 4d cf 45 bd 16 81 05 3e bc 00 a1 3e 39 6d 5f 3e
       -0.0482934 0.13037524 0.31445873 0.21819009

weight_v f4 [12]
000000 0c 7d 6a be 5f 36 f3 be 48 f4 65 3e 75 49 c6 be
       -0.22899264 -0.4750242 0.22456467 -0.38727918
000010 ab 67 36 3d c7 66 01 3e 72 dc 09 bf c9 b1 92 be
       0.04453246 0.12636863 -0.53852 -0.28651264
000020 1c 2a 20 3e b5 7f bb 3d 2b a9 01 bd 87 f5 9f 3e
       0.15641063 0.091552176 -0.03165547 0.3124201

weight f4 [32, 12, 1]
000000 44 d2 a2 bd c6 53 13 3e b5 30 e7 bd c8 be 35 be
       -0.07950261 0.14387426 -0.11288587 -0.17748559
000010 b9 99 9c 3d 7f 8a 35 3e 26 a4 bc bc c0 18 c4 bd
       0.07646508 0.17728613 -0.02302749 -0.09575033
000020 81 37 0a 3e 44 7a ed 3c b9 7c 37 3c 2c 96 e5 3d
       0.13497736 0.028988965 0.01119917 0.11210284
000030 9d 35 1a 3d bf 7a 44 be fd 69 0f 3e a5 f5 55 3c
       0.037648786 -0.19187449 0.14005275 0.0130590545
000040 7e 9f 24 be 29 1e 73 3d fd 32 87 3e 68 0e 33 be
       -0.16076466 0.059354935 0.26406088 -0.17485964
000050 18 05 89 bd 8b e0 c1 3d 54 aa 19 be 61 51 68 3e
       -0.06690425 0.09466656 -0.15006381 0.22687294
000060 33 42 70 bd ba a7 2e be 68 53 2c bd 41 e2 2a be
       -0.058656882 -0.1705617 -0.04207173 -0.16687872
000070 29 0a 15 bd 8c 5a 49 be 57 a5 f1 bd c2 66 1c bd
       -0.036386643 -0.19663447 -0.11799114 -0.038183935
000080 f6 9a 47 3e a2 7a 1d 3e 11 59 a2 3c 21 5d a9 bd
       0.19492707 0.15378812 0.01981786 -0.08269716
000090 73 d4 7a bd 8c b9 37 3e 67 47 42 3e ed 45 6a bc
       -0.061237764 0.17941874 0.1897255 -0.014298898
0000a0 77 0c f5 3c 83 3b 31 be 8a b2 0e 3d 7e da 0c be
       0.02991317 -0.17307858 0.034838237 -0.13755223
0000b0 20 de f6 3d b1 af ec 3d ff 8c 10 3d aa d8 16 bd
       0.12054086 0.11556948 0.035290714 -0.03682772
0000c0 b2 db 39 be ce c9 01 be 92 f9 26 3e 23 13 a0 bd
       -0.18150213 -0.12674639 0.16306141 -0.0781615
0000d0 2d 8d 9b bd a6 f9 38 bd 58 d3 4c be ba c1 cf bd
       -0.075952865 -0.04515996 -0.20002496 -0.10144372
0000e0 9d 87 03 be b1 97 7c 3e a5 a7 9c 3d f4 19 5c 3e
       -0.12844701 0.2466724 0.07649163 0.21494275
0000f0 c8 0b 15 bc e3 36 53 be b9 c2 a5 3d 06 52 69 3e
       -0.009097047 -0.20626406 0.08093781 0.22785196
000100 1c 6b e2 3c 5a 56 28 3e 9a c0 0b be 88 4e 82 bd
       0.027638964 0.1643919 -0.1364769 -0.06362635
000110 ad 32 0e 3e 76 53 65 3d 0a ec 8a b9 fb 78 86 3d
       0.13886519 0.055987798 -0.00026497274 0.06566044
000120 f5 5f 2b be 65 22 1b be 53 25 32 bd 1b 8d 82 be
       -0.16735823 -0.15149839 -0.043492626 -0.2549828
000130 c3 e4 35 3e 27 09 6b 3e 17 c0 47 3d ee 60 47 be
       0.17763047 0.2295271 0.048767176 -0.1947057
000140 d2 3d 24 3b 23 c4 96 3d 15 1a 31 3e 3e c6 94 bd
       0.0025061262 0.07361629 0.17295106 -0.07264374
000150 c3 de f8 3d 31 ba 16 bd eb 35 8b bd 79 8d 29 be
       0.121518634 -0.03679866 -0.067973934 -0.16557874
000160 96 1f 93 bd 9f 28 39 bd c8 8e 62 be 29 e2 63 be
       -0.07183759 -0.045204755 -0.22124779 -0.22254242
000170 7c 09 34 be f5 ed 38 bd c9 c7 fd bd 2c 37 19 3e
       -0.17581743 -0.04514881 -0.123916216 0.14962453
000180 7d d7 b5 bd 67 ed 1d be a7 90 02 be a0 8d 4c 3d
       -0.08878992 -0.15422593 -0.12750493 0.04993975
000190 c7 c3 6e bd db 80 ba 3d 43 ef 25 be 52 cb 39 3d
       -0.058292177 0.091066085 -0.16204552 0.045359917
0001a0 a0 dc 04 be fb 77 d9 3d cc 80 fd bc 07 b7 29 bd
       -0.12974787 0.106185876 -0.030945204 -0.041434314
0001b0 a9 d8 b4 3d ad 16 67 be ea 20 bb bc ca 29 3e be
       0.08830387 -0.22567244 -0.022842843 -0.18570629
0001c0 b1 3c 93 3c 93 ab ee 3d 24 f9 af 3d 9a 20 37 3d
       0.017973276 0.11653819 0.08592442 0.044708826
0001d0 f7 37 03 3e 76 6f 28 bd 87 f5 1a be 7b 78 f6 3d
       0.12814318 -0.041121922 -0.15132724 0.120346986
0001e0 83 67 f4 bd 9d 6d 94 bd 47 cc 7b 3e 53 f5 84 bd
       -0.11933806 -0.072474696 0.24589644 -0.064921044
0001f0 3b 3b c7 bd 70 ad e8 3d c9 aa 57 be 3f c7 c2 bd
       -0.09728094 0.113612056 -0.21061243 -0.095106594
000200 bd d3 ba bc c7 54 5c be d3 7f a4 bc 7a 33 11 be
       -0.022806043 -0.21516715 -0.020080483 -0.14179793
000210 00 0b 0b 3e 86 c7 1e 3e 87 0c 80 bd 39 20 89 bd
       0.13578415 0.155058 -0.062523894 -0.06695599
000220 0e 9d b6 3d b7 53 22 3e 3e 52 0f bd e0 b0 56 be
       0.089166746 0.15852247 -0.03499054 -0.2096591
000230 8b 88 44 3e da 53 4b 3e fa 00 1e bd 49 93 ab bd
       0.19192712 0.19856206 -0.03857515 -0.08377702
000240 8c f5 43 3e 26 6e 58 be 23 5b 00 be 82 f6 f7 bd
       0.19136637 -0.21135768 -0.12534766 -0.121075645
000250 05 49 15 3e 7f 52 59 3a fa f5 8d bd 2f 2b 8b 3b
       0.14578636 0.0008290186 -0.06931682 0.0042470912
000260 77 da 30 3e de 97 b0 3d 20 06 3b be c1 5e 36 3d
       0.17270838 0.08622716 -0.18264055 0.044523958
000270 66 1f f0 bd 92 b1 86 bd bf ec 89 bc ba 4a 54 be
       -0.11724739 -0.065768376 -0.016836522 -0.20731631
000280 29 be 10 3e c5 a1 60 be db 6d ab 3d a8 d8 cc bd
       0.1413504 -0.2193671 0.08370563 -0.100022614
000290 f0 9e 21 3d 4c 6d 5f bd 6c ad 8f bd 55 b5 dd bd
       0.039458215 -0.054547593 -0.070154995 -0.10825602
0002a0 58 f6 98 3d f2 9d b0 3d ce bb f3 bd 9d 79 9f 3d
       0.07468861 0.08623876 -0.11901055 0.07786868
0002b0 97 b5 77 3c de 8f 11 bd bf 6d f7 3d 1a 9f 80 bd
       0.015118978 -0.035537593 0.12081479 -0.06280346
0002c0 00 15 ef bc 3a d3 b5 3d 14 65 cd 3c 12 28 dd bd
       -0.029184818 0.08878179 0.025072612 -0.107986584
0002d0 79 8c 5f 3c 15 bd f6 bb f0 ab 60 bd a4 5c cf bd
       0.013644331 -0.0075298646 -0.054851472 -0.10125092
0002e0 bb ae 9c bd d4 d0 de bd e5 31 8c be 4b 6c 92 3d
       -0.07650515 -0.108796746 -0.27381817 0.071495615
0002f0 4d af 26 3e 91 27 34 bd 70 d4 85 3d bc e6 0e 3e
       0.1627781 -0.043983046 0.0653466 0.13955206
000300 92 5d f8 bd 73 37 6f be 19 6f 66 3e 43 e9 b0 bd
       -0.12127222 -0.23360996 0.22503318 -0.08638241
000310 2c 30 65 3e 68 86 10 3e 03 79 26 be 0d 34 79 3d
       0.22381657 0.14113772 -0.162571 0.060840655
000320 b4 1f d5 bd 9b ef cc 3d 46 dd c9 bd 41 76 cc bc
       -0.104064375 0.100066386 -0.09856658 -0.024958732
000330 d2 11 e5 3b bf 53 07 3d 31 a8 ee 3d f0 33 11 3e
       0.0069906497 0.03303885 0.11653174 0.14179969
000340 0f df 60 be 56 4e 67 3d 95 7a c0 bd be 8a a8 3c
       -0.2196009 0.05647119 -0.09398381 0.02057397
000350 23 11 37 3e 84 2b 4b 3e 27 81 a5 3b 3e b5 c1 bd
       0.17877631 0.19840819 0.0050507965 -0.09458397
000360 1d 18 e8 bd 99 3d 59 3d ab 4c bf 3d 21 bb 6a bd
       -0.11332724 0.05303726 0.09340795 -0.057307366
000370 66 d5 3a be 2a c0 cf bd 85 da 11 bd 6f 07 ea bd
       -0.18245468 -0.10144074 -0.035608787 -0.11427199
000380 6d 98 07 be 7c f9 08 3e ee 7e c8 bd 5e 8f b4 bd
       -0.1324174 0.1337642 -0.09789835 -0.088164076
000390 b3 28 b6 3d 3c 4a 04 be 6e 72 37 bd 8a 67 97 bc
       0.088944815 -0.12918943 -0.044786863 -0.018481988
0003a0 b5 72 c1 bd c5 c4 ff 3b 29 b8 4c be 01 b1 cf 3d
       -0.09445707 0.007805439 -0.19992127 0.10141183
0003b0 5f 80 c1 bc 93 3e 50 3c ad ea b7 3d b7 e1 9a 3c
       -0.023620782 0.012710231 0.08980308 0.018906457
0003c0 0f f1 af 3d c2 47 f9 3d 90 53 be bd 08 fc f0 3d
       0.085909 0.1217189 -0.09293282 0.11766821
0003d0 68 37 0d 3d ae d8 38 3e 27 b4 a4 bd 65 3d 8c be
       0.034476668 0.18051407 -0.08042174 -0.2739059
0003e0 db ce ca bd 28 90 31 3d 3c ac 9c 3d 38 6b ec bd
       -0.09902736 0.04335037 0.076500386 -0.11543888
0003f0 2e 82 15 3e eb d0 4a 3c 59 77 4b 3d 7a d2 ac 3d
       0.14600441 0.0123789115 0.049674366 0.08438583

weight f4 [1, 32, 1]
000000 dd 56 8b bd da c6 b8 bc 43 80 bf 3d 17 16 a1 3d
       -0.06803677 -0.022555757 0.09350636 0.078655414
000010 0d a3 dc 3d 51 31 cc bd 2b dd c9 3c 74 e8 9f 3d
       0.10773287 -0.09970344 0.024641594 0.07808009
000020 e8 0c 9f 3d a4 a2 cf bc 9d cf 4c be 60 e9 0e 3e
       0.077661335 -0.025346108 -0.20001073 0.13956213
000030 71 72 2e 3d 30 ba ce bb 62 55 fd bd 36 cd 81 3d
       0.04258961 -0.0063088164 -0.12369801 0.06337969
000040 df c4 49 bd 26 39 4c be ec ec cc 3d 74 60 08 3e
       -0.049260017 -0.19943675 0.10006127 0.13318044
000050 ed e4 28 bd 34 61 15 3e ba d0 18 3d 6a b0 13 3e
       -0.041233946 0.14587861 0.037308432 0.14422765
000060 b0 74 08 3e 76 42 02 be 0d 27 d1 3d ae 24 40 be
       0.13325763 -0.12720665 0.102125265 -0.18763992
000070 36 8d f7 3d 3b 60 46 3c c0 08 dd 3d 34 b5 21 3d
       0.12087481 0.012107904 0.107926846 0.03947945

weight f4 [1, 32, 1]
000000 0c f5 fc bc 5d 6d 76 bc ff 3b a8 bd 25 cb f5 bb
       -0.030878566 -0.015040723 -0.08214568 -0.0075010234
000010 a7 46 22 bd 0a f3 28 be 8e fa c8 3c 99 1a 76 3c
       -0.03961816 -0.16498962 0.024533536 0.01502099
000020 02 d9 44 bd a5 21 35 be a2 f6 07 bb 5d 69 e4 ba
       -0.048058517 -0.17688616 -0.002074637 -0.001742642
000030 a9 b4 c7 3d e5 41 82 3d 88 df 11 bd 16 53 99 3d
       0.09751255 0.06360225 -0.035613567 0.074865505
000040 39 5a de bd 77 3a 3f bd ff 63 10 bc e9 9a 33 be
       -0.10857052 -0.046686616 -0.008812903 -0.17539562
000050 e5 69 d2 bd 63 44 e8 3d 39 d2 d1 3d b3 83 5f be
       -0.10274104 0.11341169 0.10245175 -0.21827583
000060 bf f3 65 bd 0c 77 70 bd f3 59 30 bd 19 7c d8 3d
       -0.056140658 -0.058707282 -0.043054532 0.10570545
000070 ab 79 fe bd 60 e0 ff bd d8 d9 83 bb a6 67 fb 3d
       -0.1242555 -0.12493968 -0.0040237717 0.12275629

weight f4 [1, 32, 1]
000000 a2 2c 25 be 31 c2 c1 bd aa b1 5c be 32 12 90 bc
       -0.16130307 -0.09460867 -0.21552148 -0.017586801
000010 de 14 19 be ab 92 7c be a0 b4 9b be 58 24 32 be
       -0.14949366 -0.24665324 -0.30411243 -0.17396677
000020 5c c7 2a 3d ec e8 fa bb b0 0b aa bd cc c0 b0 bd
       0.04169403 -0.007657161 -0.083030105 -0.08630523
000030 ad b9 97 be 4d 5d 85 be 33 38 c9 bd d8 39 23 bd
       -0.29633847 -0.26047745 -0.09825172 -0.039850086
000040 ed 50 ad be ce c8 81 be 30 fb e1 bc 85 2b e9 bd
       -0.33850804 -0.25348514 -0.027585596 -0.11385254
000050 ee bd 66 3d 29 1f 01 be 3a 23 83 bb 1d 97 48 bd
       0.056333475 -0.12609543 -0.004002002 -0.048972238
000060 71 66 86 3c 5f 42 e8 bb c9 e1 7f 3c b0 1d d3 3b
       0.01640627 -0.00708799 0.015617796 0.006442748
000070 ef bf 3d be b0 27 24 bd 32 8e 76 bd 34 7c a3 be
       -0.18530248 -0.04007691 -0.0601942 -0.31930697

bias f4 [32]
000000 c5 81 20 bd 8c 90 82 3d f5 5a 14 3e 8e df 3a 3e
       -0.039186258 0.063752264 0.14487822 0.18249342
000010 bc b9 e7 3d 3f 5d 7e bd 43 59 3d 3e 5f 30 75 3c
       0.11314723 -0.062100645 0.18491082 0.014965146
000020 47 6c fa 3d a7 22 2a ba c0 a5 39 3e 85 f2 05 3e
       0.122276835 -0.0006490149 0.18129635 0.13080795
000030 8b 20 13 3d 61 fa ca bc c6 c7 9a bd 98 4b 56 3d
       0.035919707 -0.024777593 -0.07557635 0.052318186
000040 aa c4 7b bd 1f b0 38 3e db e2 66 bc 7e 68 ff 3d
       -0.06146685 0.18035935 -0.0140921725 0.12471102
000050 ef 8b 34 3e ea 57 d5 3c 94 3b b2 3d 19 7c 61 3e
       0.17631505 0.026042897 0.0870277 0.22019996
000060 c0 12 56 bd 89 ee c9 3d cf 3a 2d 3d 69 b2 ec 3d
       -0.052263975 0.0985995 0.042292412 0.115574665
000070 11 0a 3b 3e 72 4d 8e 3d 2f 2b 15 3e 55 c5 3a 3e
       0.18265559 0.06948365 0.14567254 0.18239339

weight_orig f4 [32, 43, 1]
000000 25 b3 f1 3d 22 57 fd 3d 5a be c5 bd 0b 2c 56 3d
       0.11801747 0.12370135 -0.09655447 0.052288096
000010 ed b5 57 3e e3 40 bb 3d 64 35 a2 3c 47 1e d5 3d
       0.21065493 0.091432355 0.01980085 0.104061656
000020 b4 23 f7 3d 02 04 15 3e f3 5e b1 3d f4 42 1c be
       0.12067357 0.1455231 0.08660688 -0.15259916
000030 c1 de 21 bd 11 3b be bd 29 0c a7 bd 74 2a 56 3d
       -0.039519075 -0.0928861 -0.08156616 0.05228658
000040 e0 93 9f 3c 8e dc d5 3d e7 7f 3a 3e 8c 55 c3 3d
       0.019479692 0.10442458 0.18212853 0.09537801
000050 8b 2a 0e bd fd 3c dd bd de c8 c7 bd b7 e4 0c 3e
       -0.03470854 -0.10802648 -0.09755109 0.13759123
000060 91 4c 43 bd 1b 55 ff bd f7 41 fe bb dc 4f 01 bd
       -0.04768044 -0.124674045 -0.0077593285 -0.0315703
000070 53 f4 24 be c6 29 b5 3d c8 ee e2 bd 0b 24 1c bd
       -0.16108827 0.08845858 -0.110807 -0.03812031
000080 8b 61 12 be ea 59 11 be b3 95 b3 3d 4c 47 2f be
       -0.14295022 -0.14194456 0.08768787 -0.17117041
000090 e5 65 a8 3c bd 00 ba bd ec e9 28 bd e6 92 08 be
       0.0205564 -0.09082172 -0.04123871 -0.13337287
0000a0 bd 44 c4 bd 49 5f ca bd b8 0a 35 bb 8f 96 05 3a
       -0.09583423 -0.098814555 -0.0027624797 0.00050959823
0000b0 44 c2 e9 3d 9b 99 ee 3d b3 25 d6 bb bb 8e 9f 3c
       0.11414006 0.11650392 -0.006535256 0.019477239
0000c0 91 da 10 3e 8c f0 07 3d 35 88 14 be a2 0b b6 bd
       0.14145876 0.033188388 -0.14505084 -0.088889375
0000d0 24 ec 60 3b 41 fa cc 3d 93 a5 ba bd 41 fb 94 bd
       0.0034320438 0.1000867 -0.09113612 -0.072744854
0000e0 b4 86 26 3d 03 c0 07 3e 9a d3 d6 bc bb 1f 33 3d
       0.040655807 0.1325684 -0.026223946 0.043731432
0000f0 9c 57 a5 3b 3b 58 19 3d e9 ed 5e 3d 22 2d c1 bd
       0.0050458442 0.03743766 0.054426108 -0.094324365
000100 60 71 93 bd f1 11 83 bd d1 77 78 bd f7 b9 ea bd
       -0.07199359 -0.063999064 -0.06066114 -0.11461251
000110 1f 04 e2 3c a6 23 1d 3d 86 46 a7 3d d1 de a0 3c
       0.027589856 0.038364075 0.08167748 0.019637497
000120 44 be 28 3d 13 a6 79 3d fd 63 d7 bc 35 e7 09 be
       0.041197076 0.060949396 -0.026292795 -0.13467105
000130 ee 2a d2 bd 43 a1 ab 3d 05 c4 4a be e9 6b 4b be
       -0.102620944 0.083803676 -0.19801338 -0.19865383
000140 4d af b0 bc 0b f3 cd 3c 5f b4 a8 bd cd cc 06 3e
       -0.021567965 0.025140306 -0.08237528 0.13164063
000150 31 6a a4 3c 25 45 03 be 41 43 9b bd e0 e1 ae bd
       0.020070167 -0.12819345 -0.07581187 -0.08539176
000160 da e9 bd bd 18 aa dc 3d 03 55 1e 3e 1b 63 6e bd
       -0.09273119 0.1077463 0.15462117 -0.058199983
000170 2e 60 ff 3c 80 05 bd bd cd ea 21 bd 42 5f 70 bd
       0.031173792 -0.09229565 -0.039530564 -0.058684595
000180 b7 c7 0e be 5a e7 c6 ba 31 e8 fb 3d 27 f6 a8 3d
       -0.13943373 -0.0015175149 0.12300146 0.08250075
000190 f9 c9 b0 bc 93 93 f7 3d ec 5a 18 bb fa c2 08 3d
       -0.021580683 0.120886944 -0.0023247553 0.03338907
0001a0 4d 49 06 bc 43 7e 06 be ff 57 65 bc f9 ba 1d be
       -0.008196187 -0.13134103 -0.013998031 -0.15403356
0001b0 2b 50 a4 bd 57 96 dd 3d 94 17 bf 3d 3b c4 6b 3d
       -0.08023103 0.10819691 0.09330669 0.057560187
0001c0 2a e3 7c bb a5 ca db 3d 46 54 c2 bd 60 45 0c 3d
       -0.0038587549 0.10732011 -0.0948873 0.03424585
0001d0 84 e7 19 3e 11 6d d7 bb 63 0b fa bd de 73 c9 bd
       0.15029722 -0.006574281 -0.12209203 -0.09836553
0001e0 d9 fd 49 bb 68 24 ea 3c 5b d5 43 3b 6d 15 bf 3c
       -0.003082147 0.028581813 0.0029881808 0.023325646
0001f0 ce f5 f7 3c 0f 73 6c bd d6 ac f0 3d 8c a3 95 3d
       0.030268576 -0.057726916 0.11751716 0.07306585
000200 7b bb 50 bd 12 99 04 3e e3 64 8c 3c 06 32 ac 3d
       -0.050960045 0.12949017 0.01713795 0.08407979
000210 ff 03 ea 3d d1 92 4d bd b5 92 17 bd 36 6a 17 bd
       0.114265434 -0.050188843 -0.037005145 -0.036966525
000220 0c 2e 57 3d d0 c9 96 3d c7 98 30 3d 1d 16 ef bd
       0.052534148 0.073627114 0.04311445 -0.1167414
000230 32 b0 63 3d 53 b1 8b 3c e2 c1 68 3d fa 72 82 bd
       0.055587955 0.017052328 0.056825526 -0.06369586
000240 d4 9c be 3d e5 d5 51 bc ce 90 9a bd ae 7e 04 3e
       0.09307256 -0.012807344 -0.075471506 0.1293895
000250 6c 05 d6 bd 3e 6b 91 bd 94 53 96 bd 4e 77 4f 3d
       -0.10450253 -0.07100533 -0.0734016 0.050650887
000260 7d 2a 93 3d cf da c0 3d a2 26 cb bc eb a0 4e 3d
       0.07185838 0.094167344 -0.024798695 0.050446432
000270 af be 4e 3d 1e ca b9 3d 06 2e 22 be 8d 5c b7 3d
       0.05047482 0.09071754 -0.15837869 0.089531995
000280 e7 49 92 bd 9d c1 19 be 6d cd 17 3c 84 34 f8 bd
       -0.07143002 -0.15015264 0.009265286 -0.121193916
000290 f0 dc 10 be 57 10 3c be c4 18 6f 3d 7a c3 09 3e
       -0.14146781 -0.18365608 0.058373228 0.13453475
0002a0 af fd 13 bc 5f 87 06 be 5b 71 a1 3d 53 d1 5c 3c
       -0.009032651 -0.13137577 0.07882949 0.013477641
0002b0 2c b3 da 3d e8 30 b6 3b f9 50 05 3d 8c 57 67 bd
       0.106787056 0.0055600293 0.032547925 -0.056479976
0002c0 a9 3d 7a 3d 45 87 f5 3d 28 f1 09 3e db 24 c5 bd
       0.06109396 0.11988691 0.134709 -0.0962617
0002d0 14 a5 43 bd 0a 47 9a 3d a2 29 14 3d cb 02 2d bd
       -0.047764853 0.07533081 0.036172517 -0.04223899
0002e0 99 ec 88 bd f1 c6 4f bd 83 94 1c bd ec 34 00 3e
       -0.066857524 -0.050726835 -0.03822757 0.12520188
0002f0 4e 03 93 bd ff af 6f 3c db 89 16 3e 8a a2 2b bc
       -0.07178365 0.014629363 0.14701025 -0.010475764
000300 76 15 98 3d 8d 8f 01 be f1 71 2c bc f8 a5 e6 3d
       0.07425968 -0.12652417 -0.010525213 0.11262125
000310 ed 2b 4c be 05 92 12 be 9d 50 10 bc ed 61 13 be
       -0.19938631 -0.14313515 -0.008808282 -0.14392824
000320 0d a7 95 3d 98 10 5b 3d c1 e3 4d bd 65 2a 4e 3e
       0.07307253 0.053482622 -0.05026603 0.2013336
000330 9b c9 35 be 06 cf 8a b9 96 a9 fc 3d 1f 93 0f 3e
       -0.17752688 -0.00026475656 0.123370335 0.14020966
000340 cd 1b 69 be dc 4b 15 bd ac a5 07 bd 93 1e 14 bd
       -0.22764511 -0.0364493 -0.03311698 -0.03616197
000350 29 d7 28 be 36 23 2c 3e 85 f6 b6 bd 64 fc 20 3c
       -0.16488327 0.16810307 -0.089337386 0.0098258
000360 01 a8 18 3c c0 47 f1 3d c1 90 98 3d 99 f3 45 bd
       0.009317399 0.11781263 0.074494846 -0.048328016
000370 43 04 e4 bd 4f b6 2c 3e 27 b6 da 3d 5e 78 0f 3d
       -0.11133625 0.1686642 0.10679274 0.0350269
000380 62 04 18 3e d7 f5 cf bd 8e 0d a0 39 77 7e 89 3c
       0.14845422 -0.10154312 0.00030527677 0.016783936
000390 3a b5 d0 bd 88 84 16 bd c4 d7 97 bc e2 9a 7d 3d
       -0.10190816 -0.036747485 -0.018535502 0.061915286
0003a0 73 fa 7a bd cb 58 a1 3d bc 31 81 bd 0a 9f aa bd
       -0.061274003 0.07878264 -0.06308314 -0.083311155
0003b0 f2 af b7 bd 85 b7 93 bd c1 5b f1 bd 5c 4d cd bd
       -0.08969106 -0.07212738 -0.11785079 -0.10024521
0003c0 66 73 8b 3d 85 14 6f bd 48 90 06 be 00 62 d3 bc
       0.0680912 -0.05836918 -0.13140976 -0.025803566
0003d0 4a 81 0a 3e f3 66 47 3d 1a 13 c3 bd 9b d3 14 3d
       0.13525882 0.048682164 -0.09525128 0.036334615
0003e0 56 3c 54 be 69 4b bb 3d cf 89 89 3d b4 5d 93 3d
       -0.20726141 0.09145243 0.06715738 0.07195607
0003f0 d0 14 d7 3b 7f 8b 08 be aa db 30 3d 5a 24 57 3d
       0.0065637603 -0.13334464 0.043178238 0.052524902

weight_u f4 [32]
000000 a7 ab 9b 3e ca 12 4b 3e 6a 9d b0 3d 9b a0 c0 3d
       0.30404398 0.19831386 0.08623774 0.09405633
000010 87 c0 9e 3e 2a dd 15 3e 7f 57 86 3e aa a9 e6 3b
       0.31006262 0.14635149 0.2623863 0.0070392685
000020 f9 88 06 be 98 1d 48 3e 5a ed 0a 3e 18 f7 43 3e
       -0.13138188 0.19542539 0.13567105 0.19137228
000030 4d f0 6a bd e0 04 7c be a6 a6 5a 3d e0 a5 62 be
       -0.057358075 -0.24611235 0.053381585 -0.22133589
000040 82 ce 30 be 0c 40 f5 3d 42 1b e6 bd 46 fb 28 bd
       -0.17266276 0.119751066 -0.11235668 -0.041255258
000050 4e fd 52 3e c6 6c 25 3e 9f 60 13 3e 2e 69 84 3e
       0.2060444 0.16154775 0.14392327 0.25861496
000060 20 03 a6 3e 97 5c ce 3d 55 a9 53 bc 1f 2a 51 3e
       0.3242426 0.10076254 -0.01291879 0.20426224
000070 7d 4c a6 3d 26 2a 48 3e e3 09 ac bd 6c 16 00 3e
       0.08120058 0.19547328 -0.08400323 0.12508553

weight_v f4 [43]
000000 f0 45 50 3e 7d 6c a4 3d 0f 7d c7 3d 0e 78 4e 3d
       0.20339179 0.08028505 0.0974065 0.05040746
000010 ce 59 98 3e 5a c2 ae bc 13 ab 35 3e 5c 88 ca bd
       0.29756016 -0.021332908 0.17741041 -0.0988929
000020 78 6e 31 3d f9 6f 45 3e b7 42 a4 bd 12 7e ab bd
       0.04331824 0.19280995 -0.08020537 -0.083736554
000030 db 18 74 bc b0 23 bc bd 57 16 88 bd 96 fc 29 bd
       -0.014898504 -0.09186494 -0.06644886 -0.04150065
000040 87 c8 9d 3b 7e 99 ac 3c 0e 8e fb 3d 34 5f 63 3c
       0.0048151645 0.021069285 0.12282954 0.013877679
000050 81 c2 20 be 5d a3 38 be bf 45 64 bb 59 bb a3 3d
       -0.15699197 -0.18031068 -0.003483161 0.07994718
000060 94 3e fb bd 79 81 7b bd 95 fa a0 bd 14 cc 26 bd
       -0.12267795 -0.06140277 -0.07860295 -0.040721968
000070 0a f8 f9 bb d1 6c 11 3d cd 43 3b bd fe b5 80 3e
       -0.0076284455 0.035504166 -0.045718957 0.2513885
000080 fa 5f b8 be 84 ba 8e be 25 2b 10 3e f2 01 84 be
       -0.36010724 -0.27876675 0.14078958 -0.25782734
000090 49 dd 3c be a9 27 39 be ac 1e 76 be e3 89 70 be
       -0.18443789 -0.18081535 -0.24035138 -0.234901
0000a0 82 6f c7 bd 4f 91 8b 3e 5a a8 e8 bd
       -0.09738065 0.272593 -0.113602355

weight f4 [32, 43, 1]
000000 1b 69 ba 3d 79 63 c3 3d b7 82 98 bd 03 2e 25 3d
       0.091020785 0.09540457 -0.07446807 0.040327083
000010 ec 5d 26 3e 8c 6b 90 3d 9d 33 7a 3c 5b 5e a4 3d
       0.16246766 0.07051763 0.015271095 0.080258094
000020 13 9b be 3d 3d db e5 3d 5f cc 88 3d 84 08 f1 bd
       0.09306922 0.11223457 0.06679606 -0.11769202
000030 00 af f9 bc 09 b7 92 bd b8 d5 80 bd 51 2d 25 3d
       -0.030478954 -0.071638174 -0.062907636 0.04032642
000040 a8 26 76 3c d9 f0 a4 3d 78 d6 0f 3e ce a6 96 3d
       0.015023865 0.080537505 0.14046657 0.07356034
000050 08 4a db bc 2c a1 aa bd 72 15 9a bd e9 53 d9 3d
       -0.0267687 -0.08331522 -0.075236216 0.10611708
000060 8a 9f 16 bd c6 ec c4 bd c5 15 c4 bb 11 76 c7 bc
       -0.036773242 -0.096154734 -0.0059840404 -0.02434829
000070 3d 71 fe bd d4 b8 8b 3d 8b 05 af bd ac d9 f0 bc
       -0.12423942 0.068223625 -0.08545979 -0.029400669
000080 e3 ca e1 bd 42 34 e0 bd 30 81 8a 3d fd 2e 07 be
       -0.11025026 -0.109474674 0.06762922 -0.13201518
000090 9e e1 81 3c 4f 74 8f bd 0a 46 02 bd 36 aa d2 bd
       0.015854653 -0.07004606 -0.031805076 -0.102863714
0000a0 24 5f 97 bd a1 14 9c bd 12 99 0b bb 79 9a ce 39
       -0.073911935 -0.07621122 -0.0021300954 0.00039406473
0000b0 b2 49 b4 3d ad 05 b8 3d 47 25 a5 bb 3b 22 76 3c
       0.08803119 0.089854576 -0.005039844 0.01502281
0000c0 38 70 df 3d 7d b1 d1 3c 3c 1c e5 bd da 66 8c bd
       0.10910076 0.025597328 -0.11187026 -0.06855555
0000d0 c4 84 2d 3b 1a 17 9e 3d 66 f3 8f bd 60 cd 65 bd
       0.002647684 0.0771925 -0.070288464 -0.056104064
0000e0 7d 6f 00 3d 4c 65 d1 3d 6b ae a5 bc fe 26 0a 3d
       0.031356324 0.10224399 -0.02022477 0.033728592
0000f0 21 12 7f 3b 63 8a ec 3c dc ef 2b 3d a8 fc 94 bd
       0.0038920718 0.028874582 0.041976795 -0.07274753
000100 fc 6d 63 bd 7d 2c 4a bd 04 a1 3f bd 45 08 b5 bd
       -0.05552481 -0.049358834 -0.046784416 -0.08839468
000110 c8 51 ae 3c fc 63 f2 3c 36 03 81 3d 3a 26 78 3c
       0.02127923 0.029588692 0.062994406 0.015145833
000120 50 25 02 3d 3b 8b 40 3d 2f 1d a6 bc 62 b7 d4 bd
       0.031773865 0.04700778 -0.020277588 -0.1038654
000130 af 17 a2 bd cf 5e 84 3d 3a 62 1c be 91 e3 1c be
       -0.079146735 0.06463396 -0.15271845 -0.15321185
000140 07 44 88 bc a2 d6 9e 3c 21 1d 82 bd 37 ee cf 3d
       -0.016634 0.019389454 -0.06353212 0.10152858
000150 85 9d 7d 3c e5 7b ca bd 0f 7e 6f bd c1 e0 86 bd
       0.01547945 -0.09886912 -0.05846983 -0.06585837
000160 77 78 92 bd 2a 30 aa 3d 76 3a f4 3d 18 db 37 bd
       -0.07151883 0.08309968 0.11925213 -0.04488668
000170 06 f6 c4 3c 60 c8 91 bd 92 c1 f9 bc f4 62 39 bd
       0.024043094 -0.071182966 -0.03048781 -0.045260385
000180 0f 3d dc bd 82 61 99 ba c0 48 c2 3d f1 4f 82 3d
       -0.107538335 -0.0011702033 0.09486532 0.06362904
000190 f9 58 88 bc b6 f1 be 3d b9 f9 ea ba eb f4 d2 3c
       -0.016643988 0.093234465 -0.0017927206 0.025751552
0001a0 46 21 cf bb b2 74 cf bd 2c e1 30 bc 9d 4c f3 bd
       -0.006321105 -0.1012968 -0.010795873 -0.11879847
0001b0 e8 73 7d bd 69 e6 aa 3d 65 61 93 3d 1a d6 35 3d
       -0.061878115 0.083447285 0.07196311 0.044393636
0001c0 98 07 43 bb dd 83 a9 3d 5f e0 95 bd ba 5e d8 3c
       -0.0029759165 0.08277104 -0.07318186 0.026412357
0001d0 f9 65 ed 3d d9 23 a6 bb e7 d8 c0 bd f0 5e 9b bd
       0.11591715 -0.0050701913 -0.09416371 -0.07586467
0001e0 b4 c9 1b bb c8 94 b4 3c e4 09 17 3b 45 60 93 3c
       -0.0023771347 0.0220436 0.0023046667 0.01799024
0001f0 71 3d bf 3c 9d 5c 36 bd 1a 9f b9 3d d3 d1 66 3d
       0.023344727 -0.044521917 0.09063549 0.056352448
000200 04 fc 20 bd 9e 88 cc 3d 64 90 58 3c a2 ce 84 3d
       -0.03930284 0.09986995 0.013218019 0.064847246
000210 56 7c b4 3d cf 8b 1e bd 96 cc e9 bc d2 8d e9 bc
       0.08812778 -0.03870755 -0.028539937 -0.028510008
000220 a2 f5 25 3d dd 97 68 3d c3 33 08 3d 1c 65 b8 bd
       0.040517457 0.056785453 0.03325249 -0.0900366
000230 3a 9b 2f 3d aa 7b 57 3c 1f 84 33 3d 90 37 49 bd
       0.042872645 0.013152042 0.043827172 -0.049125254
000240 dd 02 93 3d a6 d3 21 bc a9 6a 6e bd f3 5f cc 3d
       0.071782805 -0.009877121 -0.058207188 0.09979238
000250 36 10 a5 bd e5 4e 60 bd b5 e0 67 bd ac 02 20 3d
       -0.080597326 -0.05476274 -0.05661078 0.039065048
000260 82 01 63 3d 82 bd 94 3d 52 ad 9c bc 1f 5d 1f 3d
       0.05542136 0.07262708 -0.019125614 0.038907167
000270 35 74 1f 3d 84 4a 8f 3d 7d 29 fa bd 2f 6b 8d 3d
       0.038929183 0.069966346 -0.122149445 0.06905209
000280 0e a6 61 bd 76 2b ed bd 23 27 ea 3b a9 6d bf bd
       -0.055090003 -0.11580555 0.0071457787 -0.09347088
000290 c0 73 df bd 5a 0b 11 be ae 67 38 3d 2e 80 d4 3d
       -0.109107494 -0.14164487 0.04502075 0.10376011
0002a0 a5 46 e4 bb b1 82 cf bd ef 06 79 3d b3 4f 2a 3c
       -0.0069664293 -0.10132349 0.060797628 0.010394978
0002b0 de ab a8 3d 79 7a 8c 3b 02 a2 cd 3c e5 6d 32 bd
       0.08235906 0.004287061 0.025101665 -0.043561835
0002c0 ef fe 40 3d 76 5c bd 3d 38 c6 d4 3d 2e 0c 98 bd
       0.047118124 0.09246151 0.1038937 -0.07424198
0002d0 4c e6 16 bd 83 f8 6d 3d 04 8a e4 3c bb 6f 05 bd
       -0.036840722 0.058098327 0.027897842 -0.032577258
0002e0 59 36 53 bd c9 3f 20 bd 92 86 f1 bc 12 c2 c5 3d
       -0.0515655 -0.03912333 -0.029483113 0.096561566
0002f0 9e c6 62 bd a9 cd 38 3c 49 34 e8 3d da 66 04 bc
       -0.055365197 0.011279502 0.113380976 -0.008081162
000300 1e 97 6a 3d f0 d8 c7 bd a7 09 05 bc aa e2 b1 3d
       0.057273023 -0.097581744 -0.008119977 0.08685811
000310 bb 77 1d be 13 16 e2 bd c7 9b de bb df 56 e3 bd
       -0.15377705 -0.110393666 -0.0067934725 -0.11100554
000320 f0 d5 66 3d d0 f2 28 3d d3 cb 1e bd 3f 01 1f 3e
       0.05635637 0.04124719 -0.0387686 0.15527819
000330 14 34 0c be 9f 9d 55 b9 89 dd c2 3d 22 77 dd 3d
       -0.13691741 -0.00020371981 0.09514911 0.108137384
000340 e4 c8 33 be 9e 49 e6 bc 92 3b d1 bc 88 78 e4 bc
       -0.17557102 -0.028111275 -0.0255411 -0.027889505
000350 ec 37 02 be c1 c2 04 3e 0c 1c 8d bd 8d 52 f8 3b
       -0.12716645 0.12964918 -0.06890115 0.0075782
000360 01 82 eb 3b 19 17 ba 3d 0d 56 6b 3d fa aa 18 bd
       0.0071871285 0.09086437 0.05745511 -0.03727243
000370 69 db af bd c9 34 05 3e ce ae a8 3d 20 4f dd 3c
       -0.08586771 0.13008417 0.08236466 0.027015269
000380 54 7d ea 3d 7a 63 a0 bd 7b 6b 77 39 aa 18 54 3c
       0.11449686 -0.07831474 0.00023595795 0.0129453335
000390 0c f7 a0 bd 86 2b e8 bc 14 35 6a bc c2 98 43 3d
       -0.078596205 -0.028341066 -0.014294881 0.047753103
0003a0 8b 90 41 bd af e2 78 3d 70 47 47 bd 56 97 83 bd
       -0.047256988 0.060763057 -0.048652112 -0.064253494
0003b0 12 ab 8d bd cf d9 63 bd 63 25 ba bd ac 56 9e bd
       -0.06917395 -0.05562764 -0.09089162 -0.07731375
0003c0 29 1b 57 3d a9 63 38 bd 42 90 cf bd 6a 06 a3 bc
       0.052516136 -0.04501692 -0.10134937 -0.01990052
0003d0 5a a5 d5 3d ac ca 19 3d 48 73 96 bd ff 90 e5 3c
       0.10431929 0.0375468 -0.07346207 0.028023241
0003e0 f3 af 23 be 95 73 90 3d 24 27 54 3d 65 50 63 3d
       -0.15985088 0.070532955 0.05179514 0.055496592
0003f0 bb e3 a5 3b 04 9f d2 bd 2a 67 08 3d 45 ee 25 3d
       0.005062548 -0.10284236 0.03330151 0.040510435

weight f4 [1, 32, 1]
000000 d9 53 0b bd 87 52 b6 3d 3a a5 e9 bd 4e dd 60 bd
       -0.03401551 0.089024596 -0.114084676 -0.054898553
000010 d6 bd b7 bc 14 51 aa 3d a5 99 0e 3e 4b b3 d3 3d
       -0.022429388 0.08316246 0.13925798 0.10336932
000020 9a a0 48 3d 93 d6 59 bd 82 02 28 bd d4 e7 1d 3e
       0.048981287 -0.05318315 -0.041018017 0.15420467
000030 81 ff 9f 3d 89 a1 f7 bd 1c 65 17 3e d6 93 17 3d
       0.078124054 -0.12091357 0.14784664 0.03700622
000040 d9 3a 8b 3d 4b a7 2c 3e 9a c0 47 3d 8a e8 e5 bd
       0.06798334 0.16860692 0.048767664 -0.11225994
000050 6c 7f 30 3c 74 67 fb 3d dc 36 f9 bd 69 c5 0a 3e
       0.010772567 0.122755915 -0.12168667 0.13551868
000060 69 9f f8 bd c0 4d b2 3c 87 67 79 3c f8 27 6a bd
       -0.1213978 0.02176559 0.015222437 -0.057167023
000070 af ba 97 3d de e3 0e 3c fd 13 eb bd fa 1e d7 bd
       0.07408654 0.00872132 -0.11478422 -0.10503955

weight f4 [1, 32, 1]
000000 85 fe 7a bc 22 5d 91 3d 14 8e 0e be 58 32 16 3e
       -0.015319471 0.07097842 -0.13921386 0.14667642
000010 17 c4 e4 bd 46 e8 8c 3d 2d 6f 9c bd 7a 35 c1 3d
       -0.11170214 0.0688024 -0.076383926 0.09434028
000020 73 5d d1 3c 17 f2 2a 3e a8 19 12 be 8f 6c b8 3d
       0.025557255 0.16693912 -0.142676 0.09005081
000030 43 de 23 be 7c af 35 3e d0 38 0b be 49 4c 61 bd
       -0.16002755 0.17742723 -0.13595891 -0.05500439
000040 18 da a3 bd ef 3e 02 3e 49 89 17 be 1d f0 af bd
       -0.080005825 0.1271932 -0.14798464 -0.0859072
000050 8d f6 fe 3c cd 65 0a be 80 14 0f be 6c b1 e1 3d
       0.031123424 -0.13515396 -0.13972664 0.11020169
000060 2f fa 38 be 80 b6 24 be 8e 62 32 3e 2a 92 b3 3d
       -0.18064187 -0.16085243 0.17420408 0.08768113
000070 1c b1 36 3d 82 67 2f 3e 81 03 0d 3e e5 4a d9 3c
       0.0446025 0.17129329 0.13770868 0.02652497

weight f4 [1, 32, 1]
000000 40 21 4e bb 15 f7 94 3e 52 23 a3 3e 7f 8f 20 3e
       -0.0031452924 0.2909476 0.31862885 0.1567974
000010 4b 88 88 b9 b3 4b 02 3e 14 c9 3a 3d cb 3a 6d 3e
       -0.00026041488 0.1272419 0.04560192 0.23166959
000020 5a 7c 15 3e 38 ed e4 bc a7 e5 4f 3e 39 c6 8d 3e
       0.14598218 -0.027945146 0.20302449 0.27690294
000030 a9 ac 90 3e 79 86 d9 3d e6 d4 3f 3e fb 2b 54 3e
       0.2825673 0.10621352 0.18733558 0.20719902
000040 ec 13 ea 3b dd 3f 8d 3e 05 54 c5 3d bd 42 54 3d
       0.007143488 0.27587786 0.09635166 0.05182146
000050 ed 52 80 3d 6d 07 4a 3d 66 71 61 3e c3 bc b9 3d
       0.06265817 0.049323488 0.22015914 0.090692066
000060 af 95 74 3e 0f f8 81 3e 23 4a 6a 3e ba 9b c0 3d
       0.23885225 0.25384566 0.22879843 0.094047025
000070 c0 5b a1 3e c7 09 90 3e b1 2b 5d 3e 81 38 80 3e
       0.31515312 0.2813246 0.21598698 0.2504311

bias f4 [32]
000000 30 b0 a1 3d d1 89 4b 3e ef de 11 bd 1f 27 5f 3e
       0.07894933 0.19876792 -0.035612997 0.21792267
000010 db 0d 16 3d bc 71 15 3e 74 34 8c bb 47 f0 2e 3e
       0.036634307 0.14594167 -0.004278714 0.17083846
000020 6e 83 3d 3e de 59 13 bd af b9 94 3d bc 37 c8 3c
       0.18507168 -0.035974376 0.07261979 0.024440639
000030 b5 94 87 3d e1 a1 cf 3d 08 48 d4 bd 33 25 f2 3d
       0.066201605 0.10138298 -0.10365301 0.118235014
000040 25 a8 54 3e 36 d3 43 3d c7 62 1c bd 30 ee fc 3d
       0.20767267 0.04780885 -0.03818014 0.12350118
000050 8b 48 82 bd 60 d4 35 3d 7d 85 ab 3d c0 10 67 3d
       -0.06361493 0.04439199 0.0837507 0.05641246
000060 f7 20 89 bd d6 aa 55 3e 48 4a ed 3d a8 92 24 3e
       -0.06695741 0.2086595 0.11586434 0.1607157
000070 8f 16 08 3e d2 2b d6 bd 3d ef 96 3d 5a 6d 3f 3d
       0.13289855 -0.10457577 0.0736985 0.046735145

weight_orig f4 [32, 43, 1]
000000 c3 ff 35 3b ad 8d 4c ba 37 0d 01 3e b2 f5 2b bd
       0.0027770854 -0.0007803094 0.12602697 -0.04198236
000010 c2 c4 d8 3d 1a bf e8 bc db fc c0 bd 17 60 98 3d
       0.105844036 -0.028411437 -0.09423228 0.07440203
000020 7f 64 07 bc b9 14 88 bd e3 25 09 3e 96 5d d1 3d
       -0.008263706 -0.066445775 0.13393359 0.10222928
000030 15 a4 a9 bd c9 e0 0b 3d c2 69 7b 3d 60 27 52 bd
       -0.08283249 0.03414992 0.061380155 -0.051307082
000040 10 68 91 bd cc d3 ee 3d 3b 0d 98 3d 44 d2 43 bd
       -0.070999265 0.11661491 0.074243985 -0.047807947
000050 38 7c e7 3d 6d 33 0e bd d9 c3 20 be 5f d6 ca bd
       0.1130299 -0.034717012 -0.1569971 -0.09904169
000060 89 c6 9e bd a3 1c 41 bd c7 50 fc bb 07 cc 45 3d
       -0.07752711 -0.04714645 -0.007700059 0.04829028
000070 bc ab 51 3d 38 a7 49 bc 4b 60 46 bd ca b3 fe 3d
       0.05118917 -0.012307934 -0.048431676 0.12436636
000080 64 86 11 bd bf fd ae 3d aa ad 05 3e 17 e8 ac 3b
       -0.035528556 0.08544492 0.13054529 0.0052766907
000090 fc 34 ca bc b8 bc 62 bd 61 74 8f 3d 3b ce 23 bd
       -0.024683468 -0.055355757 0.070046194 -0.0399916
0000a0 47 d3 fe 3d 8a df 8f 3d f3 3c c2 bd f6 06 fc bd
       0.12442642 0.070250586 -0.094842814 -0.12306015
0000b0 f5 d7 01 bd be 96 e8 3c 90 b9 9b 3d 49 08 98 bd
       -0.031700093 0.028392192 0.076037526 -0.07423455
0000c0 5d 6a 71 3d e2 6c af 3d bf d0 2e bd e9 b1 0d 3e
       0.058939327 0.085656896 -0.042679545 0.13837399
0000d0 b9 8f fb 3d b1 53 9c 3d 25 e4 99 3d 1e f7 af 3d
       0.12283272 0.0763315 0.07514218 0.08592056
0000e0 90 a3 f3 3d c7 27 00 bd b9 57 ca bd b4 2d 00 be
       0.118964314 -0.031287935 -0.09880013 -0.12517434
0000f0 74 5e 85 bd 9a 73 ba 3c 68 91 01 be 01 36 56 bd
       -0.06512156 0.022760201 -0.12653124 -0.052297596
000100 d1 1d c1 3d b7 6a bf bc ab 21 c3 3d e4 f8 85 bd
       0.09429515 -0.023366315 0.09527906 -0.06541613
000110 83 8e bf bd ba e2 c9 bd a7 0a a9 3d 49 84 e2 3d
       -0.09353354 -0.09857698 0.08253985 0.11060388
000120 86 88 ad 3d 9e d2 3e 3d 0b 71 fd 3d 86 2d cf bd
       0.084733054 0.04658758 0.12375077 -0.10116105
000130 7e 87 38 bd 7c 4e b4 bd 68 5a b2 bd 12 a6 47 3d
       -0.04505109 -0.08804032 -0.0870865 0.04874236
000140 d4 f5 f3 3c 6b 4c 91 bd 03 60 3b 3d c6 e2 19 3e
       0.029780306 -0.07094654 0.04574586 0.15027913
000150 74 89 81 3c 9c 09 27 3c 79 0a e9 3d 2d 91 9d bd
       0.015812613 0.010195162 0.113789506 -0.07693706
000160 6d 9b 0e 3d 45 63 0f be db 61 56 bc 20 72 0d bd
       0.034816194 -0.14002712 -0.013084854 -0.034532666
000170 07 3b a5 bd 7a e4 ff bc a1 98 05 be 6a 3e e5 3b
       -0.08067899 -0.031236876 -0.13046505 0.0069959657
000180 de eb 44 3d cb d8 ac 3d 97 b1 b8 3c e9 7c af bd
       0.048076503 0.084397875 0.022545619 -0.085687466
000190 8c 5f 90 bd df 5d 51 3d d2 d4 e8 bd 37 3e 53 3c
       -0.07049474 0.051114913 -0.11368717 0.012893251
0001a0 8a 05 26 bd 95 84 60 bc 47 04 3c 3b 94 10 85 3d
       -0.040532626 -0.013703485 0.0028689073 0.06497303
0001b0 52 13 ef 3d 3f a1 14 3c 03 53 4b bd 20 8e 01 3d
       0.11673607 0.009071647 -0.049639713 0.03162968
0001c0 05 2c c2 bc a7 e2 54 3c ea 19 db bc 9a 0b b2 3d
       -0.02370263 0.012993491 -0.026745755 0.08693619
0001d0 f4 80 1b 3d e6 04 c6 bd 2b 05 15 3e 0a 96 cc 3d
       0.037964776 -0.09668903 0.14552753 0.09989555
0001e0 8f 5a 20 3e f6 83 b3 bd 64 5f fa 3b c9 a7 b1 bd
       0.15659545 -0.08765404 0.007640766 -0.086745806
0001f0 22 8e e2 3d 77 7b 41 3e 68 9a 8f bd 3c 7d 6c 3c
       0.11062266 0.18894754 -0.070118725 0.014434155
000200 93 92 12 be 66 23 93 bd 42 0f 92 3d ab ae 34 3e
       -0.14313726 -0.07184486 0.071318164 0.17644756
000210 95 0c 14 3b 32 d6 31 bc d7 a2 08 bc 0e f8 c7 bd
       0.0022590507 -0.010854291 -0.008339605 -0.097641096
000220 94 e0 d1 3d 4a 45 89 bb 70 bc 1d be 01 82 9a 3d
       0.10247913 -0.004189168 -0.15403914 0.075443275
000230 b4 ff f5 3d 4b 9f e2 bd eb 3e a9 bd fc e4 8c bc
       0.12011662 -0.11065539 -0.08263954 -0.017199032
000240 47 19 1c 3e 1c 82 c0 bd 24 48 56 bd a9 97 0d be
       0.15244018 -0.093998164 -0.052314892 -0.13827385
000250 b8 a0 4c 3b 8c 6c 27 3d 68 be b8 3d 87 b5 af 3d
       0.0031223726 0.040875003 0.09020692 0.085795455
000260 9d 43 3c bd 5e d3 6d bd 02 09 4e bd 54 94 25 3e
       -0.04596292 -0.058062904 -0.05030156 0.16169864
000270 94 8c b5 3d ea 6b 83 3d 24 93 14 3d 21 e7 1d 3e
       0.08864704 0.06417067 0.036273137 0.154202
000280 2a 26 c7 ba a4 44 d6 bb 61 c7 fd bc 3e 54 a0 bd
       -0.0015193869 -0.0065389443 -0.03097886 -0.07828568
000290 4e 83 03 be 78 01 bd 3d ab 66 09 3e 42 7c 03 be
       -0.12843058 0.09228796 0.13418071 -0.1284037
0002a0 9e 1f 9b 3d 97 80 2c 3e 4e a9 2f bd a4 a7 14 3e
       0.0757439 0.16845928 -0.04288607 0.14517075
0002b0 ee 04 21 be be 8d 1a 3e 1f 76 5e 3d 3e 23 d6 3d
       -0.15724537 0.15093133 0.054311868 0.10455941
0002c0 ff b2 06 be bd 50 fc bc 82 39 43 bd da 28 8a bd
       -0.13154219 -0.030800218 -0.047662266 -0.06746073
0002d0 68 38 94 3c 22 e6 a0 bd 4e 56 c4 3c e0 73 cd 3c
       0.018093303 -0.07856394 0.023966935 0.025079668
0002e0 37 b2 57 3c c5 d0 b8 3d 74 6a 34 3d 41 7c ca bc
       0.013165048 0.09024195 0.044046834 -0.024717452
0002f0 3e ea ed bd f1 5a cc 3d 20 59 f8 3b 43 5c 7d 3d
       -0.11616944 0.09978283 0.007578984 0.061855566
000300 39 93 4b 3d af a7 de bd ec 69 a0 3d 4e 7e 8d bb
       0.04970095 -0.10871827 0.07832703 -0.004318035
000310 e7 af bc 3d 04 9e 2f 3e 00 38 0b 3d 9f 25 1c 3d
       0.09213238 0.17150122 0.033988953 0.038121816
000320 22 24 f8 3d 35 38 d2 bd c4 68 0a bd 4b f5 fd bc
       0.12116267 -0.10264627 -0.03379132 -0.031000754
000330 71 22 0f be 56 47 06 be 50 4f 23 bd ea de 1d 3d
       -0.13977982 -0.1311315 -0.03987056 0.038542666
000340 5a 49 0e be 66 72 39 bd 57 0c 09 be 01 90 1c be
       -0.13895169 -0.045275114 -0.13383614 -0.15289308
000350 03 12 be 3d 5a dc bb bd 48 2e f4 3a ff 20 25 3d
       0.09280779 -0.09172888 0.0018629516 0.04031467
000360 e6 cf 2d 3e 99 8e b5 3c 3b 2f e6 3d 77 34 e8 bd
       0.16973838 0.022162722 0.11239477 -0.11338132
000370 4f 06 7f bc f5 9b a0 bd e0 d0 f5 bc c1 62 9c bd
       -0.015565469 -0.078422464 -0.030006826 -0.07636023
000380 4f 3d d6 bb 0e 51 e8 3d 6d 18 a0 bd e1 3d 02 bd
       -0.0065380703 0.11343585 -0.07817159 -0.031797294
000390 bb 71 c1 3d f8 d7 8b bd c5 d0 1e bd fc a6 16 bd
       0.094455205 -0.06828302 -0.038773317 -0.036780342
0003a0 73 40 17 3e 62 da ab 3d e3 dd bf 3d ab b2 e4 3d
       0.14770679 0.083912626 0.093684934 0.11166891
0003b0 f3 fc 89 bd 64 11 15 3c fa 63 76 3c 86 26 7d 3d
       -0.06737699 0.0090983845 0.015038485 0.061804317
0003c0 58 21 96 bb 66 a9 a8 bd 7a f2 e6 3d f9 53 85 3d
       -0.0045816116 -0.08235435 0.112767175 0.06510157
0003d0 31 c6 bf bd c3 33 1d 3d c5 b8 02 bc 93 2a 83 3d
       -0.09363974 0.038379442 -0.007978623 0.06404605
0003e0 2b d3 2f be 14 1c 0f bd 32 00 f9 bd 70 e9 bd bd
       -0.17170398 -0.034938887 -0.121582404 -0.0927304
0003f0 9c 79 50 bd 24 f1 e4 3d e0 d6 8d bd ce cf 09 be
       -0.050897226 0.111788064 -0.0692575 -0.13458177

weight_u f4 [32]
000000 5f 21 c1 3c 15 01 bd 3d d2 35 5a 3d 1d 96 ec 3d
       0.023575483 0.09228722 0.053273983 0.11552069
000010 29 02 67 bd 0d 68 67 bd e5 31 c6 bd f4 9d d1 be
       -0.056398544 -0.056495715 -0.096774854 -0.4094082
000020 6c c2 19 bd e4 17 a0 3e 9e e8 41 be a0 8c 0c bd
       -0.03753893 0.31268227 -0.18936393 -0.034313798
000030 f6 b9 00 bb bb a4 a6 39 62 03 c5 bd 6f 1b 3e be
       -0.0019642091 0.0003178472 -0.09619786 -0.18565153
000040 6a 86 fe bd ba 74 24 3d b5 0f 05 be ee 27 0f be
       -0.12427981 0.04015038 -0.12994273 -0.13980076
000050 5f 53 58 be 58 a9 4e be 07 0d 99 be c2 3d 09 3d
       -0.21125554 -0.20181787 -0.29892752 0.033506162
000060 db 4c a7 be e7 49 1e 3e 53 87 8d be 6f 18 b9 bd
       -0.32675824 0.15457879 -0.27642307 -0.090378635
000070 4e 2e 34 be 42 31 c1 3d 6d ec 9c bd c0 35 b2 be
       -0.17595789 0.09433223 -0.07662282 -0.34806633

weight_v f4 [43]
000000 37 18 ed bd f6 2b 03 bd 83 15 a6 3d 36 a6 84 3b
       -0.11576884 -0.032024346 0.08109572 0.004048134
000010 ae d9 f0 bd 1e ce d4 bb 78 19 86 be 61 cb 33 3e
       -0.11760269 -0.0064942976 -0.26191306 0.17558052
000020 ea 57 fc bd dc 75 e5 3d 1f 79 7a 3e 2f a6 88 bd
       -0.12321456 0.112041205 0.24460267 -0.06672322
000030 e6 50 a8 3d 4e 6d 04 3e 0b 50 c7 bd 15 66 a9 3a
       0.08218555 0.12932321 -0.09732064 0.00129241
000040 1f d8 39 be cb 93 83 be 08 7d 96 3d bf 05 bb 3c
       -0.1814885 -0.25698695 0.073480666 0.022829888
000050 b8 bc ce bc 85 41 30 3d d8 5b 08 bd ec f9 0d be
       -0.025236472 0.043031234 -0.033290714 -0.13864869
000060 dd b7 75 be 93 0a 1f be a9 43 36 be 17 8c 35 3d
       -0.2399592 -0.15531377 -0.17799248 0.044323053
000070 b2 ff a2 bd 11 57 3d be e5 da 13 3c d9 f6 1f be
       -0.07958926 -0.18490244 0.0090243565 -0.15621509
000080 1b ef d9 3d ec 24 2b 3e 07 48 8e be 93 73 27 3e
       0.10641309 0.16713303 -0.27789328 0.16352682
000090 31 3a 01 3e e1 6e 38 3e e9 26 cc 3d 18 e0 9b 3e
       0.12619855 0.18011047 0.09968359 0.30444407
0000a0 64 c7 82 3e cc 0f 89 be 5c 6a 1f bd
       0.25542748 -0.26769865 -0.03891979
