Models/M4/wo_ml/wo_ml_discriminator.pt (torch, 119233 bytes, 68 tensors)

weight f4 [121, 10]
00000000: 0f9f 56bf 7672 073f b142 943f 47f3 2dbf
00000010: 1dd3 b43f 4d2c 9d3f 8789 ef3f e4a5 20bd
00000020: 9f20 1e3f c5a9 983f 3ace 03bf f18c 543f
00000030: 8dff 51bd e80a a1bf df01 243f edb3 4b3f
00000040: 4b62 33be 97df a73f 6b69 96be 2579 87bf
00000050: f969 1cbf c5fe a23d c1f2 a2be 611f 7a3f
00000060: cf6d 81bf 228f 3dbf 6b46 fabf 8fb7 80be
00000070: 3f0d 423f 4505 29bf 1c1e 92bf a910 8d3f
00000080: abda c43f 862a 9d3e e631 45bd 4c05 5abf
00000090: 56eb 663f fa76 193f 7648 ecbf 7aa5 5b3c
000000a0: b200 aa3e 05c6 9d3f fc3a 83bf f801 8e3f
000000b0: a855 02bf 3145 d2bf f5c3 363e 8210 8bbf
000000c0: 9907 abbf e7ed 89bf 8acd debe b321 db3e
000000d0: 19c5 c23e e1dd b2bf 997c 86bf 9290 5dbe
000000e0: ab97 893f 61dc 9ebf 99fd f7bf 205a 66bf
000000f0: b190 f0be fece 6c3e 6982 143f 74e4 7a3d
00000100: 1ff6 353f 8d15 773f 3557 893c 5ab6 063f
00000110: 9bea adbe 1ecd 59bf 81dd c53f 8c82 0b3f
00000120: 27d0 ae3f e519 883f 32e7 023f ee52 0f40
00000130: f262 99bf f622 4c3f 83f6 a5bf 9259 f93f
00000140: a59d 783c f7c0 18bf 139f 7d3f ea96 653f
00000150: e8cb 163e f880 b63e cf17 46bf fcb9 a5bf
00000160: 8c04 25c0 5297 ed3e 94f2 103f c78b 8c3f
00000170: 78b9 9e3d e02a 91bf aec8 5b3e 05dd 47be
00000180: edfa 033f dff3 fdbf 61d5 afbf 5864 0f3d
00000190: 935f 37bf 1a04 9cbf f501 5bbf 577b c2bd
000001a0: 92e4 e5be 0964 f8bf d9bf dd3f 2373 1ec0
000001b0: 9281 44be 2362 27c0 c63a 5a3e 12c3 743f
000001c0: f0c7 93bf fd28 fcbf 572d fd3e c9d7 d0bf
000001d0: ca81 913f f5c7 cd3c 2b6b b63f c0f7 32bf
000001e0: fa43 863e e8e0 22bf e199 a4bf 10ee 1c3e
000001f0: 8250 053e 2118 8dbf aafe 613f 2f09 dd3f
00000200: bd50 1abe d4e3 a83d e5bb ac3f 8637 a1bf
00000210: f73c fa3d 9eaf 243f 757b 40c0 6e91 87bf
00000220: 0bce 78bf 2140 93be c052 a83e 5755 99bf
00000230: c8b5 87bf e04d 393e 252b 173e ba8b 433f
00000240: 3457 7bbf bcf7 b9be 21d5 163f 54da f9be
00000250: 9108 0d3f 2523 2bbe dad3 5bbf 3c3d ff3e
00000260: 3b13 63bf 97af 2540 6db1 3f3f c11a bfbf
00000270: 4169 a4bf 7368 673f 4e85 323f cd7e 50bf
00000280: 5e3d 99be 1e07 91bf 6d6e 5abf 45e0 dabe
00000290: 1b46 03bf ccf9 66be c70d 4c3f 3215 923f
000002a0: 5c16 103f bbd6 a63e 55bd 90bf f8e2 cd3f
000002b0: eb8f 7d3f 263d 6cbf 6101 893e 51ea 803f
000002c0: dd68 5bbf 2208 663f 799e 51bf f45c 0fbf
000002d0: 2578 b8bf f763 3dc0 8aee ae3e 0013 183e
000002e0: 4b8a 2ebf 1580 f8be 8fa0 853f 0c55 2b3e
000002f0: ee0c 133e ad54 2ebf 4cde ea3f d177 19bf
00000300: 4a13 c83f 9903 1ebf 0cf5 563d ebbf a2bf
00000310: d1b9 923f abf3 3dbe cd26 ccbf f7f2 c03f
00000320: 3c55 4d3f 78af ab3e e267 f6bf e948 a2bf
00000330: 6545 29bf f033 4d3f f63c d7be df0b 85be
00000340: ccff 46bf ffb8 c8bf ab5f a93f f8cb d9be
00000350: 027f d9be f890 b53e 0623 49bf 250b 1dbc
00000360: c69e e3bd 4bb1 e43f 8184 613f e222 273f
00000370: 70ad 97bf fead 2cbf 15d9 bb3f 627c 953d
00000380: f8eb 03be 83fc 06bf a61f 0240 1b8b 1dbf
00000390: c031 d1bf f483 86bf c449 24c0 c1ef 1ebc
000003a0: 1197 103f ac1d bcbd 53f3 f03d e923 24bf
000003b0: 64c1 9f3f fefe bf3f be30 09bf eefa bc3f
000003c0: ff2a 9c3c a200 603e 9e2c d63e 5b2f c03f
000003d0: 664b a63f c2e1 c63e b87f d9bf 4b09 913f
000003e0: 606c 9fbf bef5 623f 420b 553e 3196 c9bf
000003f0: f7c0 adbf cc7c d53f 0af6 7f3f 0e81 663f
-0.83836454 0.5290903 1.1582853 -0.67949337 1.4126927 1.2279145 1.8713845 -0.039220706
0.61768526 1.192681 -0.5148655 0.8302756 -0.051269103 -1.2581453 0.64065355 0.7957142
-0.17517965 1.3115109 -0.29377303 -1.0583845 -0.610992 0.0795875 -0.31825832 0.9770413
-1.0111636 -0.7404653 -1.955274 -0.25140044 0.7580146 -0.66023666 -1.1415439 1.1020709
1.5379232 0.30696505 -0.04814329 -0.8516433 0.90202844 0.5994717 -1.8459613 0.013406152
0.33203655 1.2326056 -1.0252376 1.1094351 -0.5091195 -1.6427366 0.17848189 -1.0864413
-1.3361694 -1.0775727 -0.4351619 0.42799148 0.38041 -1.3973962 -1.0506774 -0.2163718
1.074941 -1.2411004 -1.9374267 -0.8998127 -0.4698539 0.23125836 0.5801149 0.061253026
0.71078676 0.9651726 0.016765216 0.52621996 -0.33968052 -0.8507861 1.5458223 0.54496074
1.3657273 1.0632902 0.51134026 2.2394366 -1.1983321 0.79740846 -1.2965854 1.948046
0.015174304 -0.5966944 0.99070853 0.896834 0.14726222 0.3564527 -0.7738008 -1.2947383
-2.5784025 0.4640451 0.56620145 1.0980157 0.07750219 -1.134121 0.21463272 -0.19517906
0.5155476 -1.9840049 -1.3736993 0.035007805 -0.7163021 -1.2188752 -0.8554986 -0.094961815
-0.44900948 -1.9405528 1.7324172 -2.4757774 -0.19190052 -2.6153648 0.21311483 0.95610154
-1.1545391 -1.9700009 0.49448654 -1.6315852 1.1367733 0.025119761 1.4251455 -0.69909286
0.26223737 -0.6362443 -1.285946 0.15325189 0.13018993 -1.1022989 0.8827921 1.7268428
-0.15069862 0.0824658 1.3494841 -1.259507 0.12218659 0.6433047 -3.0075352 -1.0591257
-0.97189397 -0.28759864 0.32875633 -1.1979169 -1.060235 0.18096113 0.14762552 0.7638508
-0.98179936 -0.3632182 0.5891896 -0.48799384 0.55091196 -0.16712625 -0.85870135 0.49851406
-0.8870122 2.5888422 0.74880105 -1.493004 -1.2844621 0.9039375 0.69734657 -0.8144348
-0.29929632 -1.1330297 -0.85324746 -0.4274923 -0.5127885 -0.22556227 0.7970852 1.1412718
0.5628412 0.325857 -1.130778 1.608489 0.99047726 -0.92280805 0.26758865 1.0071508
-0.85706884 0.8985616 -0.81882435 -0.5600121 -1.4411665 -2.9592264 0.34166366 0.14850998
-0.6817977 -0.4853522 1.0439624 0.16731662 0.14360401 -0.68097955 1.834909 -0.5994845
1.5630887 -0.6172424 0.05247979 -1.2714819 1.1462957 -0.18549983 -1.5949341 1.5074147
0.8020818 0.3353231 -1.9250453 -1.26785 -0.6612151 0.80157375 -0.42038697 -0.2598562
-0.77734065 -1.5681456 1.323232 -0.42538428 -0.42479712 0.35462165 -0.78569067 -0.009585177
-0.11114268 1.7866606 0.8809281 0.652876 -1.1849804 -0.6745299 1.4675623 0.07299115
-0.12882984 -0.5272905 2.0331817 -0.61540383 -1.6343307 -1.0509019 -2.5670023 -0.0097007165
0.5648051 -0.09185347 0.117651604 -0.64117295 1.2480893 1.4999692 -0.5359 1.4764078
0.01906347 0.21875241 0.41830915 1.5014452 1.299176 0.38844115 -1.6992102 1.1330961
-1.2454948 0.8865622 0.20805076 -1.574896 -1.3574513 1.667871 0.999848 0.9004067

bias f4 [32]
00000000: 97c0 463e e0ff 2a3e ebac 6c3e 6f6f a03d
00000010: e718 bb3e b825 ad3e 86e6 30be 4c6b a93e
00000020: a4d6 513e f3a0 d43e 795c 483e 1f7b ae3e
00000030: be43 37be 26a3 8d3e 38ca 82bd d2a0 1b3e
00000040: d087 3ebe bd0c 18be a83e 7f3e f9d4 b4be
00000050: b88b 653e f0c0 59be 5748 983e e852 eebc
00000060: 3ed4 d03e c516 e03d 0009 743e e1e4 0ebe
00000070: 223b 84bb 581e bc3e 641f c33e 4d1c d43e
0.19409405 0.16699171 0.23112838 0.07833754 0.36542436 0.3381784 -0.17275438 0.33089674
0.20492035 0.41529045 0.19566526 0.3407831 -0.17896935 0.27663535 -0.063862264 0.15198067
-0.18606496 -0.1484861 0.24926245 -0.35318735 0.2241658 -0.21265006 0.2974269 -0.029092267
0.40786928 0.10941843 0.23831558 -0.13954498 -0.0040353695 0.367419 0.38109887 0.41427842

weight_orig f4 [32, 12, 1]
00000000: 59cd 073e c470 07be 7c5f 2d3e 228f 303e
00000010: 8bed fb3d e74d b4be a244 dc3c 6dc3 233e
00000020: e272 803e 655c 85be 4d82 b43c f13f 763c
00000030: 4bcc a5bd 6514 92bb 95c5 08be 4892 163e
00000040: 681f 9ebe 727d b2be 9d8b 6abe f97f 2bbe
00000050: c5a0 2fbe 0d5f 1b3e 6777 9a3d c384 67be
00000060: c49d e6bd a960 893d 005e d8bd ab60 85be
00000070: 7364 043e 18b4 fe3c 2984 743d 6d0a 383e
00000080: c3ca b6bd 666d b53d b057 8a3d 8ad3 63be
00000090: af76 7dbd 8ec0 683e 7c8f 663e fcb5 6bbd
000000a0: ea07 a83e c173 343e 3e04 a9bd d1a7 103e
000000b0: 0b52 e6bc a56d 093e 0eb7 2abe a787 34bd
000000c0: afaf 993d 5a14 4ebe 78ba a73d 7cec 673e
000000d0: aa6a 813e 0e81 3cbe 5e9f 5b3e 12fc 543d
000000e0: 30b6 4abd 8a9a 513e 4b47 d2bc a24e 8abd
000000f0: 3473 3b3e 38b5 633d 55f6 983d 6b0b fe3d
00000100: 4f18 b93d f636 643e 5fc4 923e ecf8 853d
00000110: 35ab 0ebe 1e39 83be e439 75bd 7b1a 883e
00000120: 3db0 95be 501b 933e 0e68 88be 779d 81ba
00000130: 6aa1 123e c81a 4cbe 87e5 493e 1c9a 853d
00000140: 6da2 90be e6a1 1a3d dd3a 04be f010 dcbc
00000150: b6aa 7fbe d6a7 173e 0722 f2bd 4a84 febc
00000160: 8409 8b3d 11f0 dabd 7cf5 293e 1c93 713e
00000170: eee4 47be d028 4abe f4b3 093e 797e 35be
00000180: 5261 c03d 9d47 4fbe d326 00be fbb4 13be
00000190: bdf9 b83e 6f2a 93be c46e 443e 6c18 823e
000001a0: 9031 cdb9 5cb3 953e f436 773e 9dce a03d
000001b0: 0d5e 5e3e 728e 66be 5e18 83be dc49 803e
000001c0: 00e4 7cbd 24c7 903d 8e45 533d 631e 503e
000001d0: 0db3 433e f62a d2bd 7a30 b03c 4658 bebd
000001e0: 40b9 f23d fd6f 703d 5a28 74be 23fa 50be
000001f0: df46 253c 938d 6d3e b4b3 32be 8248 b5bd
00000200: 799b 40be e630 cdbc 612e 5a3e 010f 403e
00000210: 5f2e 9abe bb85 c43c 6cac ebbd 34e4 f3bd
00000220: bff9 b33e 7d84 f03c 4dbe a53c 5a1e eabd
00000230: 062b 0ebe 8981 80be 8f8a e73d daf1 113d
00000240: 2cac fb3d f39f 80bd 9a78 97bc c588 a8bd
00000250: b54f 903a c303 c4bd c16a cdbd 4aac 893d
00000260: 9320 223e b5f3 633d 963a 573e a907 193e
00000270: 5721 fabd ba54 883e b78e 833e fafb 6bbe
00000280: 4f7e 35be 0242 18be 641d b73d be78 b43d
00000290: 3d16 f23d 2ee7 883e 6c6d 3bbc 13b6 873e
000002a0: f7c8 9dbc f1f9 4a3e de40 4cbe 54ea acbd
000002b0: 7d2c eabc f589 fdbd 55a6 d03d aaad 5abe
000002c0: f354 e9bd 0ef7 41be 986b 16bd 712b 113e
000002d0: a98b 963e 8ce3 4e3e b014 07bd 73fc 623e
000002e0: 663d 133d 87ec 0cbe b85a 6f3e 72bd 91be
000002f0: f607 a6be 85d1 44be e8a7 f73d b4c7 7a3d
00000300: 2380 afbe 585a 67be 11b9 1b3e f367 333e
00000310: a9be 813e 6afe d33d dc10 763d f68d 73be
00000320: 1741 7ebe ad14 033e 1ed0 153d 1e90 bc3d
00000330: e4c3 8f3d 30f9 2d3e ebfc 773d 6eda 1abc
00000340: c938 053e c43a 0abd c26e 2fbe 819c ecbc
00000350: 298b f13d 63c4 5d3e 8c70 76be 3243 4bbe
00000360: 5c40 f33d 7bde 8f3e 806e 843e bedf 9d3e
00000370: 32ec 47bb f42e 32be 2e03 4abb 68d3 b2be
00000380: be49 593e a438 ebbd 34fc 0a3d 7184 f93d
00000390: 872a a73c c75d 08be 8536 61be 69d0 7d3d
000003a0: 9686 b9bd 2f81 1ebc a701 273e b0d3 3dbe
000003b0: bdd5 dbbd 2377 513e 01ff e83d a6d1 38be
000003c0: 21b6 64be 75dd cd3d e07e 86be 59bf 3e3d
000003d0: 38bd ff3d 4983 b93c 9c1c f1bd 350c 283e
000003e0: 312c 423e c075 26be 3d7b 843c 272a 92bd
000003f0: b3ec 51be a753 48be 6644 28be 9215 25be
0.13261928 -0.1322661 0.16930956 0.17242101 0.12301167 -0.35215685 0.026888195 0.15992518
0.2508765 -0.26047054 0.022034789 0.015029893 -0.080956064 -0.0044579976 -0.13356622 0.1470424
-0.30883336 -0.34861332 -0.2290482 -0.16748036 -0.17151172 0.15172978 0.075423054 -0.22609238
-0.1126056 0.067078896 -0.10564804 -0.26050314 0.12928943 0.031091735 0.05969635 0.17972727
-0.089253925 0.08858757 0.06755006 -0.22248664 -0.061880764 0.22729704 0.22515672 -0.0575466
0.32818538 0.17622282 -0.08252762 0.14126517 -0.028115293 0.13420732 -0.16671392 -0.04407468
0.07504212 -0.20124951 0.08189863 0.22648805 0.2527669 -0.18408605 0.21447513 0.051998205
-0.049490154 0.20469108 -0.02566876 -0.06753279 0.18305665 0.055592746 0.07468859 0.124045216
0.090378396 0.22286591 0.28665444 0.06541619 -0.13932498 -0.25629514 -0.059869662 0.26582703
-0.29236022 0.28731775 -0.26641887 -0.0009888847 0.14319387 -0.19932091 0.19716464 0.06523535
-0.2824892 0.037752055 -0.1291308 -0.026863545 -0.24967465 0.14810118 -0.118228965 -0.03106894
0.06788924 -0.1069032 0.16597551 0.23591274 -0.19520923 -0.19742131 0.13447553 -0.17724027
0.093935624 -0.20242162 -0.1251481 -0.14424507 0.36128035 -0.28743312 0.19182879 0.25409257
-0.00039137574 0.29238403 0.24142057 0.07851908 0.21715565 -0.22515276 -0.25604528 0.2505635
-0.061740875 0.07069233 0.051580004 0.20324092 0.19111271 -0.102621004 0.02150749 -0.092941806
0.1185174 0.05870055 -0.23843518 -0.2040792 0.010087698 0.23198538 -0.17451364 -0.088517204
-0.18809308 -0.02504773 0.21306755 0.18755724 -0.30113503 0.023989549 -0.11507496 -0.11908761
0.3515148 0.02936005 0.020232344 -0.1143157 -0.138836 -0.25098827 0.11305725 0.03563104
0.122886986 -0.06280508 -0.018490124 -0.08229212 0.0011010083 -0.0957103 -0.10030127 0.06722315
0.15832739 0.05565234 0.21018443 0.14944328 -0.1221339 0.2662714 0.2569482 -0.2304534
-0.17723964 -0.1486893 0.08941153 0.08812092 0.11820648 0.26738876 -0.011439662 0.265061
-0.019260867 0.19821908 -0.1994662 -0.08443132 -0.028585667 -0.12379829 0.10187975 -0.2135531
-0.11393156 -0.189419 -0.036723703 0.14176728 0.29403427 0.2020399 -0.032978714 0.22166614
0.035947226 -0.13762103 0.2337445 -0.28464848 -0.3242795 -0.1922055 0.120925725 0.061225608
-0.34277448 -0.22593057 0.15207316 0.17520122 0.25340775 0.1035126 0.060074672 -0.23784623
-0.24829517 0.12800856 0.03657543 0.09207176 0.07019785 0.16989589 0.060543936 -0.009451492
0.13009943 -0.03374745 -0.17132095 -0.02888322 0.11794121 0.21656947 -0.2406637 -0.19849852
0.1187751 0.28099427 0.25865555 0.30834764 -0.0030505774 -0.17400724 -0.003082465 -0.34926915
0.21219537 -0.11485413 0.033931926 0.12183464 0.02040602 -0.13317023 -0.21993454 0.061966334
-0.09058873 -0.009674354 0.16309224 -0.18537784 -0.10734127 0.20455603 0.11376763 -0.18048725
-0.22335102 0.10052005 -0.26268673 0.046569202 0.124872625 0.02264561 -0.11773035 0.16410907
0.1896217 -0.16255856 0.016172046 -0.07136946 -0.2050045 -0.19563161 -0.16432342 -0.1612151

weight_u f4 [32]
00000000: 323f 9c3e b127 3e3d b34c 8abe 4ac9 07be
00000010: 6981 183d 3990 b13d 0862 6abe 4aef 30be
00000020: 1311 0cbe f501 7d3e 7481 8dbd fcec 13be
00000030: efbf 9f3d a5a3 43be 6587 893c 715b 643e
00000040: aa24 34be dd14 093d 8431 c83e 2d67 64bd
00000050: 4d3f fe3c 9af6 6ebd 73d5 91be aa5c 393e
00000060: b9bb b9bb 4618 7fbe 0617 43bd 1860 5f3e
00000070: 8abb 97be e31a cc3b 7caa 07be 34bb 153d
0.30516964 0.04642457 -0.27011642 -0.1326038 0.03723279 0.086700864 -0.22888958 -0.17278782
-0.13678388 0.24707778 -0.06909457 -0.14445871 0.0780028 -0.19105394 0.016788194 0.22300507
-0.17592111 0.033467162 0.39100277 -0.05576246 0.031036044 -0.058340646 -0.2848316 0.18101755
-0.0056681302 -0.24911603 -0.04762938 0.21814 -0.29635268 0.006228791 -0.13248628 0.036555484

weight_v f4 [12]
00000000: eb09 073f b61f 6a3d 5726 c6bc 4d87 163f
00000010: 48fc f33a 05e5 2cbe 833a 50be 12be 3bbe
00000020: c153 c73e da95 acbe fb91 133d 60ab 3f3d
0.5274951 0.05715915 -0.024188204 0.588002 0.0018614614 -0.16884239 -0.2033482 -0.18334225
0.38931087 -0.33708078 0.03602789 0.046794295

weight f4 [32, 12, 1]
00000000: 9414 df3d 7f7c debd 1566 0e3e 0304 113e
00000010: 59eb ce3d 7d17 94be 6fea b43c 8881 063e
00000020: 4800 533e fa11 5bbe 8742 943c 7141 4a3c
00000030: 572d 88bd 91f6 6fbb 5aac e0bd 7857 f73d
00000040: 7fdf 81be 039a 92be 6da4 40be 3ddc 0cbe
00000050: 3c40 10be f439 ff3d 6dbd 7d3d 0228 3ebe
00000060: 486a bdbd 19ab 613d 36b6 b1bd ff18 5bbe
00000070: ae7a d93d f432 d13c f2d4 483d 2029 173e
00000080: 9222 96bd 9f03 953d e240 633d a81f 3bbe
00000090: 402e 50bd 622b 3f3e 8d5e 3d3e 7e99 41bd
000000a0: d702 8a3e 9436 143e 16d2 8abd ae9f ed3d
000000b0: 162c bdbc 6dc0 e13d 3837 0cbe ec46 14bd
000000c0: 5a75 7c3d 1543 29be 3bc3 893d 337d 3e3e
000000d0: 4f97 543e 9dd3 1abe b262 343e fdee 2e3d
000000e0: f37e 26bd 1728 2c3e fbb5 acbc 0332 63bd
000000f0: f9f5 193e c106 3b3d e144 7b3d 6aa8 d03d
00000100: ca06 983d 5171 3b3e a417 713e 1a13 5c3d
00000110: 315c eabd f98e 57be 356a 49bd 4993 5f3e
00000120: 27e4 75be 75a6 713e b712 60be c2ea 54ba
00000130: 38de f03d d6a3 27be 92d3 253e 5b77 5b3d
00000140: d396 6dbe 3c03 fe3c 5e36 d9bd f9bf b4bc
00000150: 83fd 51be 681f f93d d1df c6bd b10b d1bc
00000160: 0065 643d b6d2 b3bd 3b98 0b3e 6f6a 463e
00000170: 8d2e 24be d50a 26be ec33 e23d a611 15be
00000180: 9b02 9e3d 733f 2abe 5783 d2bd e3a2 f2bd
00000190: afed 973e 4cbf 71be b456 213e bdb4 553e
000001a0: d088 a8b9 47e9 753e 530c 4b3e ed13 843d
000001b0: d7a3 363e b35d 3dbe 2d59 57be e4bc 523e
000001c0: c6b5 4fbd 22d3 6d3d d186 2d3d daef 2a3e
000001d0: 87bc 203e b59e acbd 44b6 903c a656 9cbd
000001e0: 065c c73d 527b 453d 8a89 48be 58a4 2bbe
000001f0: c2bf 073c d41c 433e 93c6 12be 53e5 94bd
00000200: 5e32 1ebe 4488 a8bc a133 333e ffbe 1d3e
00000210: 7645 7dbe 9169 a13c a391 c1bd 9151 c8bd
00000220: 5ed2 933e 298c c53c d921 883c b04a c0bd
00000230: a189 e9bd 5918 53be c52c be3d d3bd ef3c
00000240: a8b5 ce3d 4f4a 53bd d0d1 78bc ac6c 8abd
00000250: f10e 6d3a d1fe a0bd c9b7 a8bd 5527 623d
00000260: 8229 053e 143a 3b3d ddc6 303e 5861 fb3d
00000270: 5d71 cdbd f7f2 5f3e 951b 583e fbd2 41be
00000280: 8311 15be a91c fabd 7066 963d ad3a 943d
00000290: 22d6 c63d 8be3 603e 3af1 19bc 59ee 5e3e
000002a0: 7f98 81bc 99b6 263e 1ec3 27be dc05 8ebd
000002b0: 4c56 c0bc 153e d0bd 835f ab3d 2c9c 33be
000002c0: 44a5 bfbd da4f 1fbe eb17 f7bc e677 ee3d
000002d0: 984c 773e 43ed 293e 3ee5 ddbc fe6e 3a3e
000002e0: 73de f13c 707e e7bd 9797 443e bc67 6fbe
000002f0: 595e 88be d1a7 21be 1969 cb3d 01fa 4d3d
00000300: 6e25 90be 2b05 3ebe d2cd ff3d 9f5a 133e
00000310: 4921 553e a61e ae3d c51a 4a3d bb0a 48be
00000320: 7fd4 50be 1c53 d73d 8518 f63c fddf 9a3d
00000330: 4529 6c3d 54e4 0e3e ecae 4b3d 1960 febb
00000340: 7cd7 da3d 6011 e3bc 2817 10be d456 c2bc
00000350: e763 c63d a125 363e 5d69 4abe c4f2 26be
00000360: feca c73d f254 6c3e 318b 593e 34ab 813e
00000370: 8434 24bb 8b59 12be eceb 25bb 9de0 92be
00000380: d777 323e 8b32 c1bd 224f e43c 7ff0 cc3d
00000390: 014d 893c d501 e0bd 29fa 38be f377 503d
000003a0: 5e61 98bd ce2f 02bc 6e2b 093e c0e9 1bbe
000003b0: 5a8f b4bd 030b 2c3e ad5e bf3d c1cc 17be
000003c0: c4d9 3bbe ff15 a93d 25ef 5cbe 4fab 1c3d
000003d0: b70c d23d a85e 983c 1a09 c6bd 5d06 0a3e
000003e0: 7f7b 1f3e 86b8 08be 1ea0 593c 4f1a 70bd
000003f0: 926b 2cbe 7e89 24be 8434 0abe 4397 07be
0.10892597 -0.108635895 0.13906129 0.14161687 0.10103483 -0.2892417 0.022084443 0.1313535
0.20605576 -0.21393576 0.018098129 0.012344704 -0.06649273 -0.003661547 -0.109703735 0.1207723
-0.25365826 -0.28633127 -0.18812723 -0.13755889 -0.14087003 0.124622256 0.06194823 -0.1856995
-0.09248787 0.055094812 -0.08677332 -0.21396254 0.106191024 0.025536992 0.049031205 0.14761782
-0.073308125 0.07276081 0.0554818 -0.18273795 -0.050825357 0.18668893 0.184931 -0.047265522
0.26955292 0.14473945 -0.06778352 0.11602722 -0.02309231 0.110230304 -0.1369294 -0.03620045
0.061635353 -0.16529496 0.067266904 0.18602447 0.20760845 -0.15119787 0.17615774 0.042708386
-0.040648412 0.16812168 -0.021082869 -0.055467617 0.15035237 0.045660738 0.061344985 0.101883724
0.0742317 0.18304946 0.23544174 0.053729154 -0.11443365 -0.21050633 -0.049173553 0.21833529
-0.24012814 0.23598655 -0.21882139 -0.000812214 0.11761135 -0.16371092 0.16193989 0.053580623
-0.23202066 0.031007402 -0.10606073 -0.022064196 -0.20506863 0.121641934 -0.09710658 -0.02551827
0.055760384 -0.08780424 0.1363229 0.19376539 -0.16033383 -0.1621507 0.110450596 -0.14557514
0.07715341 -0.16625766 -0.10278957 -0.118474744 0.29673526 -0.2360813 0.15755731 0.20869727
-0.0003214539 0.2401477 0.1982892 0.06449113 0.17835937 -0.18492775 -0.21030112 0.20579869
-0.050710462 0.05806268 0.0423649 0.16693059 0.15696917 -0.084287085 0.017665036 -0.076337144
0.09734349 0.04821331 -0.19583717 -0.16761911 0.008285465 0.19053966 -0.14333563 -0.072703026
-0.15448901 -0.020572789 0.17500164 0.1540489 -0.24733528 0.019703658 -0.09451606 -0.097811826
0.28871435 0.024114685 0.016617702 -0.093892455 -0.11403204 -0.20614757 0.09285883 0.02926532
0.10093242 -0.051584538 -0.015186742 -0.06759009 0.0009043059 -0.07861102 -0.08238179 0.05521329
0.13004115 0.045709684 0.1726336 0.12274426 -0.10031388 0.21870027 0.21104272 -0.18928139
-0.14557461 -0.12212498 0.07343757 0.07237754 0.09708811 0.21961801 -0.009395892 0.2177061
-0.015819786 0.16280593 -0.16383025 -0.06934711 -0.02347865 -0.10168091 0.08367827 -0.17540044
-0.09357694 -0.15557805 -0.030162772 0.116439626 0.24150312 0.16594414 -0.02708685 0.18206403
0.029525017 -0.11303413 0.19198452 -0.23379415 -0.26634482 -0.15786673 0.09932155 0.05028725
-0.28153557 -0.18556659 0.12490429 0.14390038 0.20813479 0.085019395 0.049341936 -0.19535343
-0.20393561 0.10513899 0.030040989 0.075622536 0.057656545 0.13954288 0.049727365 -0.0077629206
0.10685632 -0.027718246 -0.14071333 -0.023723044 0.096870236 0.17787792 -0.19766755 -0.16303545
0.097555146 0.23079279 0.21244504 0.2532593 -0.0025055716 -0.1429197 -0.0025317622 -0.2868699
0.17428528 -0.094334684 0.027869765 0.100068085 0.016760351 -0.109378494 -0.18064179 0.050895642
-0.07440446 -0.007945968 0.13395473 -0.15225887 -0.08816405 0.16801076 0.0934423 -0.14824201
-0.1834479 0.082561485 -0.21575601 0.03824931 0.102563314 0.018599823 -0.09669705 0.1347899
0.15574454 -0.1335164 0.013282804 -0.05861884 -0.1683791 -0.16068074 -0.13496596 -0.13241296

bias f4 [32]
00000000: 4cd9 a33d 4818 a33d 8286 623d 8652 d63d
00000010: 7959 1fbe c393 823d bca9 153e f4b3 0a3e
00000020: 5dff 00bb 0fca 073e 5ee6 c2bd 8274 2bbd
00000030: e8c2 ddbc 248d e93d 2a86 dbbd 276a fe3d
00000040: 2045 2e3e e0ab a9bc 761d 85bd 1737 403c
00000050: 8fcc 793b 6ba3 4d3d 9854 ae3d 6c20 2e3e
00000060: 20cb cc3d 5e01 14be 9231 14bc 058f 05be
00000070: 485b ba3b b31c e33c ef14 d33c c5ec 3d3d
0.080004305 0.07963616 0.055304058 0.10464959 -0.15561475 0.063758396 0.1461553 0.13545209
-0.0019683458 0.13260673 -0.09516595 -0.041859157 -0.027070478 0.114038736 -0.10718949 0.12422591
0.17018557 -0.02071184 -0.0649976 0.011731884 0.0038116311 0.050204676 0.08512229 0.17004555
0.099996805 -0.14453647 -0.009045022 -0.13042839 0.005687151 0.027723646 0.025766818 0.04636838

weight_orig f4 [32, 32, 1]
00000000: ab69 99bd de8c 9e3d 3fec 8abd fd2f edbd
00000010: 265b 88bc 88cd b8bc 7c6d 62bd 7021 b83a
00000020: 02a3 55bd 1e6e 31bd 5452 c2bd a92d 0e3e
00000030: 5268 393c adc0 bbbd 8263 2e3e c3ca 383e
00000040: fd5d 5f3e 2115 dbbd 1d43 bf3d 72a5 c8bd
00000050: 419e 05be 4d29 d6bd a065 05be a2a3 b6bd
00000060: 6036 a0bd 5799 063e 439b b8bd 181f d9bd
00000070: 52df 32be 938b 70bd 148d efbb 49a3 183e
00000080: 8997 123d ed68 b03d 753d b2bd f8eb 263e
00000090: 0eb8 c03d 514a 6c3d 52e8 f93d 735d 263d
000000a0: 08fc 2e3e a166 873d d032 273e 7069 113e
000000b0: cac1 a3bd a3c6 c13d 0eb8 2b3e 42aa 13be
000000c0: 8c7e a8bd 2b93 1fbe 66ae a93b 9dc2 8ebd
000000d0: 99d4 0e3e b272 e3bd 98b1 2dbd 9032 1ebd
000000e0: 0b6f b53d 1b86 01be ca58 20be 2a53 4f3d
000000f0: 6ccd 74bd 848c f03d d8a2 fe3c 3474 1fbe
00000100: 97f6 213e 0a88 1b3e d51b 9c3b 570d 053e
00000110: 433b 833d c20a c63c 9248 24bd fd16 3ebe
00000120: bb2f 9a3d 9ab7 04be bee0 4dbd 4dc4 eebd
00000130: a712 80bd fcd3 393e c181 44be 259e 20be
00000140: 3dec 4b3e 0c7d 27bd 8002 c4bd f6ff 51be
00000150: dbe8 71bd 16e3 bb3d c2a8 02be 654e 1e3e
00000160: 4a34 843d 6ac3 093d e97d 863d 4d70 843d
00000170: 961b f1bd 100a 4cbd e7db 103c d937 9c3c
00000180: b101 14be de08 1f3e f027 103e 528f 833c
00000190: aadd 00be 8b15 05be ea6c c0bd b2d1 443d
000001a0: 5065 c63d 5159 3dbe 93d7 f4bd b8f8 43be
000001b0: a08c 35be aa83 433e ee9f 2b3d ea84 13be
000001c0: bb52 313d 45fd 483d 46ae 2c3e 5a32 0e3d
000001d0: 6a03 a7ba 0eb4 00be 2b92 563c e12e 15be
000001e0: 0ebe 0fbe 1d1d 22bd b84b 333c bcf8 42be
000001f0: aabf c83b c2ef fcbd bc9d 73bd d470 95bd
00000200: 73a8 1fbe 77cd bcbd 7bb9 07be ef08 1e3c
00000210: eaee 82bd a8c6 f73d c016 103e 1ac0 03be
00000220: 1daf 61bd d805 633c 2e3a 933d 20e7 96bc
00000230: d487 0abd 593d 403d 24fe f9bd 4077 203d
00000240: fb91 143e 3f87 f43d 883f a5bd b988 a53d
00000250: 6d6c 0abe 2d81 1a3e 1cf3 7dbd 1e50 4a3d
00000260: d8f8 febd 57df 223e c9df f83d 1f53 c5bd
00000270: eac2 9ebd c261 c03d 38ef 74bd 3ca8 d4bd
00000280: 4a77 07be f10d febd ef34 abbc 458e 8c3d
00000290: e1f4 193e 9e27 f03d a7c7 933d 941b b63d
000002a0: a8c5 1f3d 026a 09be ab3f dcbd ea07 20be
000002b0: a3e5 0abe 8648 f0bd a1ee 3a3d 329b 9c3d
000002c0: 8638 8abc 09f5 ba3d 9ef6 1d3d 7772 17be
000002d0: 1fcf 043e c65f 2e3e f691 413e d7d6 92bc
000002e0: 945f c4bd f0e8 993c d664 2d3e 6381 e7bd
000002f0: 93d4 95bd 2601 833d 55ec 18be 565b d13c
00000300: 4eb4 0cbe 9a9c 213e 733c 8cbc 384a f9bd
00000310: 437d 52bd fb92 25be ee89 ec3d 4d24 363d
00000320: 5715 bdbd 6914 14be f0d8 ca3c 3208 093e
00000330: b719 64bd b202 8e3d 6b97 1fbd 8b82 5dbd
00000340: af56 52bd 095d b3bd d935 34bd 27e7 a63d
00000350: 7dbb b0bd 8bba fcbd adb5 733d bd2c 8bbc
00000360: 443a 173d 86d8 803d e998 e33c 26ad b9bd
00000370: 3fea bebd 778c d33d 3ac0 0b3e 897e 2cbc
00000380: ebe3 86bd fc8f 4e3c 8272 3ebe d735 643d
00000390: 162d fcbd c4cf 213e a87f f0bd a73a d0bd
000003a0: 016b 7dbc 9b9d 903d db09 6d3b 0796 c53c
000003b0: 8997 17bd 94f2 153c a27b 51bd 3d25 1b3e
000003c0: 7e16 47bd 9b53 073e d6cd dfbd 0a2e 34bd
000003d0: acf7 323c 5f3e ffbd f526 903d 3d9b 20be
000003e0: 41cb c1bd 9027 943d 0eb4 093e 1ccd 1d3e
000003f0: 3c43 3e3e bbdc dd3a 9fca 73bd 94e2 3b3d
-0.07490858 0.07741712 -0.067833416 -0.11581419 -0.016645025 -0.022558942 -0.055280194 0.0014048051
-0.05215741 -0.043317907 -0.09488359 0.13884605 0.011316376 -0.09167609 0.17030147 0.18046097
0.21813197 -0.106973894 0.09338973 -0.09797181 -0.1304865 -0.10457096 -0.13027048 -0.08917929
-0.07822871 0.13144432 -0.09013989 -0.10601634 -0.17468002 -0.05872686 -0.007310519 0.14906038
0.035789046 0.08613763 -0.08703128 0.16300952 0.09410106 0.05768806 0.12202515 0.040616464
0.1708833 0.06611372 0.16327977 0.14200377 -0.07995947 0.09461715 0.1676943 -0.14420417
-0.08227262 -0.15583484 0.0051782606 -0.06970713 0.13948287 -0.11105861 -0.042405695 -0.03862244
0.088590704 -0.12648813 -0.1565887 0.05061642 -0.059766218 0.11745551 0.03108351 -0.15571672
0.15816723 0.15188614 0.00476406 0.1299337 0.06407788 0.024175052 -0.04010827 -0.18563457
0.07528635 -0.12960663 -0.05026316 -0.11658535 -0.06253558 0.18147272 -0.19190122 -0.15685327
0.19914337 -0.04089074 -0.09570789 -0.20507798 -0.05905996 0.091741726 -0.12759688 0.15459593
0.06455286 0.033633627 0.06566984 0.06466732 -0.1177284 -0.049814284 0.008841491 0.019069599
-0.1445377 0.15530726 0.14077735 0.016059551 -0.12584558 -0.12996499 -0.09395774 0.048051544
0.096872926 -0.18491103 -0.1195518 -0.19137847 -0.17729425 0.19093195 0.041900568 -0.14406171
0.04329179 0.04906966 0.16863355 0.034715988 -0.0012742106 -0.12568685 0.013096373 -0.14568664
-0.14037344 -0.039578546 0.010943346 -0.19040197 0.0061263638 -0.12350418 -0.0594766 -0.07296911
-0.15591602 -0.09218877 -0.13254349 0.009645685 -0.063932255 0.120984375 0.14071178 -0.1286625
-0.05509864 0.013856374 0.07188831 -0.018420756 -0.033820942 0.046933506 -0.122066766 0.039176226
0.14508812 0.11939859 -0.08068758 0.080827184 -0.13517924 0.15088339 -0.061999425 0.049392812
-0.12449807 0.1590551 0.12152059 -0.09634995 -0.07752021 0.09393646 -0.05979845 -0.10383651
-0.13229099 -0.12405003 -0.020899264 0.06863073 0.1503482 0.117263064 0.07215815 0.08891979
0.03900686 -0.13419345 -0.10754331 -0.15628019 -0.13564162 -0.11732583 0.04563773 0.07646789
-0.016872656 0.09128768 0.03856527 -0.14789759 0.12969635 0.17028722 0.18903336 -0.01792471
-0.095885426 0.018787831 0.16932997 -0.113039754 -0.07315936 0.063967034 -0.14933904 0.025556248
-0.13740656 0.15782395 -0.017118668 -0.12172359 -0.05138899 -0.1616935 0.115497455 0.044468213
-0.09232586 -0.14460911 0.024761647 0.13382033 -0.055688586 0.06934108 -0.038962763 -0.054079574
-0.0513522 -0.087579794 -0.043996666 0.081495576 -0.086295106 -0.12340268 0.05949943 -0.016989106
0.0369208 0.062912986 0.027782874 -0.090662286 -0.09322023 0.10329526 0.13647547 -0.010528215
-0.06586441 0.012607571 -0.18598369 0.05571541 -0.12313287 0.15801913 -0.117430985 -0.10167437
-0.015467406 0.07061311 0.0036169204 0.02411939 -0.03700975 0.009152073 -0.051143296 0.15150924
-0.048605435 0.13215487 -0.10927932 -0.04398922 0.010923307 -0.12463068 0.070386805 -0.15684219
-0.09462596 0.072341084 0.13447592 0.15410274 0.18580335 0.0016926745 -0.059519406 0.04587038

weight_u f4 [32]
00000000: 484f 8abd 4ef0 0dbe 1af8 083d c0df 02be
00000010: d69e 6e3e cf74 ae3d bd34 2bbe 3a22 533e
00000020: 27d3 a3be 1fa2 6c3e dabe bd3c a4ed 8cbe
00000030: 6736 813e 8477 ab3e e438 313e ce21 d2bc
00000040: 0700 c7bd 95e2 293e 31e7 39be 7b31 9b3d
00000050: 60da e8bd e602 103e c17a 5d3e 6c36 0fbd
00000060: 2882 25be dbde 9cbe e568 1cbe a99c 0abe
00000070: 86d6 a63d 9aae d83d a376 253e 5ae3 253e
-0.06753403 -0.138612 0.033439733 -0.12780666 0.23302779 0.08518373 -0.16719337 0.20618525
-0.31997034 0.2310872 0.023162294 -0.27525055 0.25236818 0.3348962 0.17306858 -0.025650885
-0.09716802 0.1659034 -0.18154599 0.07577797 -0.11369777 0.14063606 0.21628858 -0.03496401
-0.16162932 -0.30638775 -0.15274389 -0.13536324 0.08146386 0.105801776 0.16158538 0.16200009

weight_v f4 [32]
00000000: a611 4dbd ee5d 10be 94d7 2abe a56f 9c3e
00000010: 86b8 b83b d14f c73e b2ec cb3d 2962 6bbe
00000020: 905a d8bd 93f9 043e 2f6c b2bd edf1 dd3c
00000030: f7c3 a43d b314 d6bc 8d7f 423d 057f abbd
00000040: d91c 383e 5a42 7a3e 7d0a 133d d1a4 483e
00000050: 6e0f 2ebe 6be2 803e a068 04be e1bf bdbc
00000060: a48e 0fbe e930 343d f0de bb3e 34d6 c93d
00000070: 6a97 af3e 8462 8c3d 0686 82bd 6acd 713e
-0.05006566 -0.14098331 -0.16683799 0.30553928 0.0056372313 0.38928083 0.099572554 -0.22986664
-0.105641484 0.1298583 -0.08712041 0.027092898 0.0804519 -0.026132917 0.047484923 -0.083738364
0.17979755 0.24439374 0.035898674 0.19594122 -0.16998073 0.25172743 -0.12930536 -0.023162784
-0.14019257 0.043991957 0.36693525 0.09855309 0.34295207 0.06854728 -0.06373219 0.23613515

weight f4 [32, 32, 1]
00000000: c13f 80bd 3a8b 843d 8c45 68bd 5048 c6bd
00000010: eafa 63bc 867d 9abc 9f49 3dbd a8ed 993a
00000020: 3e98 32bd b253 14bd 9f72 a2bd f9b6 ed3d
00000030: ecfe 1a3c cef4 9cbd ccc8 113e 357b 1a3e
00000040: a3ba 3a3e b125 b7bd e0e3 9f3d 29bc a7bd
00000050: 0e67 dfbd 8208 b3bd 6008 dfbd 7aae 98bd
00000060: f0ee 85bd dc0a e13d 8053 9abd 0182 b5bd
00000070: 5788 15be e716 49bd 2742 c8bb d233 ff3d
00000080: 1018 f53c 5879 933d 0601 95bd cd8a 0b3e
00000090: a51b a13d 5088 453d 85ea d03d a913 0b3d
000000a0: 4e48 123e 1762 623d 06c6 0b3e f91e f33d
000000b0: 83e5 88bd d8fd a13d 738d 0f3e 63e3 f6bd
000000c0: 59db 8cbd 8066 05be 5cd9 8d3b 04b0 6ebd
000000d0: 15ce ee3d fc23 bebd 1134 11bd bb3f 04bd
000000e0: 81ac 973d 9b8e d8bd b50b 06be 7151 2d3d
000000f0: fda5 4cbd b117 c93d 7cde d43c 9e4c 05be
00000100: a265 073e 2905 023e b680 823b c474 de3d
00000110: 8269 5b3d d48e a53c 3056 09bd fae8 1ebe
00000120: 54e5 803d 6be5 ddbd c71b 2cbd 4f9a c7bd
00000130: 8f21 56bd ed58 1b3e 4946 24be b045 06be
00000140: 5f79 2a3e 1504 0cbd e8db a3bd ea8d 2fbe
00000150: e53a 4abd 9211 9d3d 9074 dabd 0057 043e
00000160: df09 5d3d 4355 e63c ffdc 603d 356e 5d3d
00000170: 4b8f c9bd 4d92 2abd 5532 f23b 2298 823c
00000180: 9275 f7bd e3f2 043e 7105 f13d 0df6 5b3c
00000190: fb74 d7bd 7c82 debd d4dc a0bd 1d89 243d
000001a0: 87da a53d 6b4a 1ebe 79ae ccbd bad3 23be
000001b0: 3cc5 17be e071 233e 4879 0f3d f3a4 f6bd
000001c0: cd3c 143d 9405 283d 485b 103e d1be ed3c
000001d0: 679e 8bba 6a2f d7bd 2d60 333c 246d f9bd
000001e0: 6954 f0bd d785 07bd f5e2 153c bbfd 22be
000001f0: 14d2 a73b c472 d3bd 1da8 4bbd 67db 79bd
00000200: 4b78 05be 81d5 9dbd 9dec e2bd ef1c 043c
00000210: dce9 5abd 5c22 cf3d b4e8 f03d 9c47 dcbd
00000220: 79aa 3cbd fdc8 3d3c ff27 763d 354d 7cbc
00000230: a79d e7bc 10b5 203d c3fc d0bd 2c25 063d
00000240: d066 f83d 526b cc3d a424 8abd d361 8a3d
00000250: d76f e7bd 6a29 013e 944b 54bd d920 293d
00000260: 6126 d5bd 3528 083e 600d d03d 50f5 a4bd
00000270: 68b8 84bd 80d3 a03d 3ec2 4cbd 9ac6 b1bd
00000280: f27d e2bd 0262 d4bd d61f 8fbc 7600 6b3d
00000290: 21b4 003e 58c3 c83d 8814 773d be3c 983d
000002a0: b590 053d c7bf e5bd 431f b8bd 19c8 05be
000002b0: 7f3a e8bd dade c8bd 3645 1c3d 2feb 823d
000002c0: 1019 67bc 914a 9c3d 9f0d 043d 2d36 fdbd
000002d0: be0c de3d adc5 113e cfd1 213e e881 75bc
000002e0: b729 a4bd 26aa 803c e6f3 103e 4e88 c1bd
000002f0: 2c82 7abd 5908 5b3d f3ad ffbd 4a04 af3c
00000300: 0e40 ebbd 681a 073e a977 6abc 5a66 d0bd
00000310: a9f6 2fbd 666a 0abe 7ebd c53d 0844 183d
00000320: 9711 9ebd de94 f7bd 3a93 a93c 3d1c e53d
00000330: 9caf 3ebd 236f 6d3d 0e6a 05bd 2d2d 39bd
00000340: 69d6 2fbd 6ff1 95bd afa6 16bd c686 8b3d
00000350: 5ebe 93bd 4746 d3bd 20bc 4b3d 60b1 68bc
00000360: 37d8 fc3c 636c 573d ee43 be3c 7638 9bbd
00000370: 9599 9fbd 61d9 b03d f8a7 e93d 6033 10bc
00000380: 8d87 61bd 46ae 2c3c 7c35 1fbe 1fc7 3e3d
00000390: 06d0 d2bd 2e45 073e f10c c9bd f512 aebd
000003a0: ccd9 53bc 2dca 713d 6f28 463b 3e2d a53c
000003b0: 2874 fdbc 57b4 fa3b 4a1f 2fbd 91b2 013e
000003c0: a56e 26bd 4942 e23d 2418 bbbd 28a0 16bd
000003d0: b29c 153c 8160 d5bd cd03 713d 4243 06be
000003e0: b401 a2bd e3b4 773d 943b e63d ecea 033e
000003f0: f70d 1f3e 9278 b93a a3cd 4bbd 2511 1d3d
-0.0626216 0.06471868 -0.05670695 -0.09681761 -0.013914803 -0.018858682 -0.04621279 0.0011743801
-0.04360222 -0.03621263 -0.079320185 0.11607165 0.009460192 -0.0766388 0.14236754 0.15086062
0.18235259 -0.08942736 0.078071356 -0.081901856 -0.10908328 -0.08741857 -0.10890269 -0.07455154
-0.06539714 0.109883994 -0.075354576 -0.08862687 -0.14602791 -0.049094107 -0.0061114016 0.12461056
0.0299187 0.07200879 -0.07275586 0.13627167 0.07866601 0.0482257 0.10200981 0.033954296
0.14285395 0.055269327 0.13649759 0.11871142 -0.06684401 0.07909745 0.14018802 -0.12055089
-0.06877775 -0.13027382 0.00432889 -0.05827333 0.11660401 -0.09284207 -0.035450045 -0.03228734
0.074059494 -0.10574075 -0.13090403 0.042313997 -0.049962986 0.09818972 0.025984995 -0.13017508
0.13222364 0.12697281 0.0039826287 0.10862115 0.053567417 0.020209707 -0.03352946 -0.15518561
0.06293741 -0.10834774 -0.042018678 -0.09746229 -0.052278098 0.15170641 -0.16042437 -0.13112521
0.16647862 -0.03418358 -0.08000928 -0.1714398 -0.049372572 0.07669367 -0.10666764 0.12923813
0.053964492 0.028116828 0.05489826 0.05406018 -0.09841784 -0.04164343 0.007391254 0.015941683
-0.12082972 0.12983279 0.11768616 0.013425362 -0.10520359 -0.10864732 -0.078546196 0.040169824
0.080983214 -0.15458076 -0.099942155 -0.15998736 -0.14821333 0.15961409 0.035027772 -0.1204318
0.036190797 0.041020945 0.14097321 0.029021652 -0.0010652066 -0.105070904 0.010948223 -0.1217902
-0.1173485 -0.033086624 0.009148349 -0.15917103 0.005121479 -0.10324624 -0.049720872 -0.061000254
-0.1303417 -0.07706738 -0.11080287 0.008063539 -0.053445682 0.101139754 0.117631346 -0.10755846
-0.046061013 0.011583564 0.060096737 -0.015399267 -0.028273417 0.039235175 -0.102044605 0.032750294
0.12128985 0.09981407 -0.0674527 0.0675694 -0.11300629 0.12613454 -0.05182989 0.04129109
-0.10407711 0.13296588 0.10158801 -0.08054602 -0.06480485 0.078528404 -0.04998993 -0.08680458
-0.110591784 -0.10370256 -0.017471235 0.057373486 0.12568714 0.09802884 0.060322315 0.07433461
0.032608707 -0.11218219 -0.08990338 -0.13064612 -0.11339282 -0.098081306 0.038151942 0.06392514
-0.014105096 0.0763141 0.032239553 -0.12363849 0.10842274 0.14235564 0.15802692 -0.014984585
-0.08015769 0.015706133 0.1415554 -0.09449826 -0.061159298 0.053474758 -0.1248435 0.02136435
-0.11486827 0.13193667 -0.014310756 -0.10175772 -0.042959843 -0.1351715 0.096552834 0.037174255
-0.07718199 -0.12088941 0.020700086 0.11187027 -0.046554193 0.057967316 -0.032571845 -0.0452091
-0.042929087 -0.073214404 -0.036780056 0.06812815 -0.07214044 -0.10316139 0.049739957 -0.014202446
0.030864818 0.0525936 0.02322575 -0.075791284 -0.07792965 0.08635212 0.114089906 -0.008801311
-0.055060912 0.010539597 -0.15547746 0.046576615 -0.102935836 0.13209984 -0.098169215 -0.084997095
-0.012930345 0.0590307 0.0030236503 0.020163175 -0.030939177 0.0076508927 -0.04275445 0.12665774
-0.040632863 0.11047799 -0.09135464 -0.03677383 0.009131597 -0.10418797 0.058841515 -0.13111594
-0.07910481 0.06047524 0.112418324 0.12882584 0.15532671 0.0014150313 -0.049756657 0.03834643

weight f4 [1, 32, 1]
00000000: de28 dd3d 6b1c 33be 85c5 3cbd ebb2 c63c
00000010: c0d5 da3c cb54 1c3e f1dd 0e3e e285 4dbd
00000020: a8dc 9d3c 4c1a 013d a1cd 05be b8d3 643d
00000030: 7253 223e e7dd 763d 5b8c a83d 6237 a0bc
00000040: 8d44 1e3e 773f 24be e6c0 083e fc48 02bd
00000050: 1e89 9c3d da0c 6b3d 57ac 30be 00b8 2dbe
00000060: acdd 93bd 6d08 1bbe 9ff4 2abe 1f19 50bd
00000070: cf3e 2bbd e93d a83d 8aed f1bd 0f2e fcbd
0.107988104 -0.1749131 -0.046086807 0.024255237 0.026713252 0.15266721 0.13951851 -0.05017651
0.019270256 0.03151922 -0.13066722 0.055865973 0.15852144 0.060270216 0.08229896 -0.019557659
0.15455838 -0.16039835 0.13354835 -0.031807885 0.076433405 0.057385303 -0.17253242 -0.16964722
-0.07220015 -0.15139933 -0.16694878 -0.050805207 -0.041807946 0.082149334 -0.11812885 -0.123134725

weight f4 [1, 32, 1]
00000000: 3b68 83bd 77f2 53bd 63de 143e 2ff7 273e
00000010: 33a6 15bd 969b acbc 32fd 9a3d d2e3 abbd
00000020: 4035 003e ecc1 883c 08aa d6bd 6908 e23d
00000030: 0e5c 7e3d 2c23 f23d 5b55 0ebe 4104 323e
00000040: 8933 82bd 7873 dfbd cec5 313e 1dfb 753b
00000050: 608c f6bd 5b97 0dbd b623 043e 2a58 1ebe
00000060: e882 f4bd a2d9 1fbe 3768 683c db3c 09be
00000070: 1c4e 27be d537 c1bc 85f9 31bd 7a9d 2c3e
-0.06416365 -0.051744904 0.14537959 0.16402887 -0.036535453 -0.021070283 0.075678244 -0.08393063
0.12520313 0.016694032 -0.1048165 0.1103676 0.06209951 0.11823115 -0.13899748 0.17384435
-0.06357486 -0.10910696 0.17360613 0.0037533708 -0.12038493 -0.034568172 0.12904248 -0.1546332
-0.11939031 -0.15610364 0.014185003 -0.13402121 -0.1633839 -0.023586193 -0.04345085 0.16856948

weight f4 [1, 32, 1]
00000000: 458d c33c 2336 123e 9203 f03d 02f2 703d
00000010: 7b7a 853d 5550 8dbd 1ca8 88bc 9feb 023c
00000020: 6bb0 143e 04bf a3bd 59fd 413d ea5f d83c
00000030: c552 cabc b8aa fc3c 951e 453d 811c 67bd
00000040: 4bcc c43d 875e a1bd d9df 973d 93a7 df3d
00000050: f304 cb3d 3566 c5bd 4deb 22be 2c70 df3c
00000060: a094 d53b 73db 0cbe ee58 033e 1260 19ba
00000070: eeba 0abe 5338 e6bd 46fe 443e 630c 5b3e
0.023871073 0.14278464 0.11719431 0.058824547 0.06517502 -0.06900088 -0.016681723 0.007990747
0.14520423 -0.07995418 0.04736075 0.026412923 -0.02469767 0.030843124 0.04812487 -0.056423668
0.09609278 -0.07879358 0.074157424 0.10920634 0.09913053 -0.09638635 -0.15910073 0.027275167
0.0065179616 -0.13755588 0.12826893 -0.00058508024 -0.1354787 -0.11241212 0.19237623 0.21391444

bias f4 [32]
00000000: ab7a a43e f634 32bc 5249 1d3e d559 183e
00000010: 2271 743d eb39 4a3d b7f4 1e3e 5e5f d03c
00000020: 4bb0 7c3d 63b0 dd3c b7c5 183e 48e8 403e
00000030: b14c 9c3e 7ba0 2f3e 3475 c23d 46bc 013e
00000040: d037 3d3d e770 6d3e 60a8 873e c573 be3d
00000050: 517a 913e 23a5 1f3e 9768 793e be9f fa3c
00000060: 6aec 293e aa99 9e3e 44a2 e93d b458 c9bd
00000070: 4b68 593d 3ac7 71be b3e5 8e3e fbfb cebd
0.32124838 -0.010876885 0.1536 0.14878018 0.059678204 0.04937164 0.15523039 0.0254361
0.061691564 0.027061647 0.14919172 0.18838608 0.3052726 0.17151062 0.09495011 0.12669477
0.046195805 0.231876 0.26495647 0.09299425 0.28413633 0.15590338 0.24356304 0.03059375
0.16594091 0.3097661 0.11407903 -0.09831372 0.053077977 -0.23611155 0.27909622 -0.10106655

weight_orig f4 [32, 32, 1]
00000000: 09fe ee3b 1fe7 d3ba 22bb 483e 4f4c f23d
00000010: c602 eb3d 4d09 44bd 202c a43d 1058 063e
00000020: f1fd 61bb 9352 be3d 2eda 0dbe 6683 183d
00000030: ff39 243c e5ef 5abd f217 14bd c53a 6cbc
00000040: 04bc 833d 1a54 3fbe f11c dbbc c7a9 07bc
00000050: a347 043e f881 2abe 5b4a a2bd 05c0 1c3e
00000060: 74bc 9a3d 15d7 58bc 1a91 e2bd e6c6 31be
00000070: 14ed 8abd 8775 1d3e b25f 0b3e 31bb 00be
00000080: 4f4d 413d 716d 213e a4a9 80bd bb58 443e
00000090: 1364 403e cc8f c23d a359 aa3d a4e3 eb3d
000000a0: 3d01 463e 3b20 bfbd 39a3 17bd 8726 0abe
000000b0: b044 15be 799a 23be aa81 4dbe 9aa7 5b3d
000000c0: b568 40bd e988 193e eddd 393e b1b4 4ebc
000000d0: 01da 45be 49be 7fbe 74fc f6bc 0710 49bc
000000e0: 47a6 e43d 962e e03d 5011 a0bd 9843 3eb8
000000f0: 3ab4 443d 3b13 36bc bcf2 b13d 525e 173e
00000100: 0efd a53d 8832 1c3e b0d7 273c 74ee 343c
00000110: 7929 ee3d 26d8 41be b091 7cbd b371 3c3e
00000120: 3d1d e0bc 00a7 46bd 0d0a 673d a2be a43d
00000130: 59a8 783c f240 343d bd9f b43d 8af6 d7bd
00000140: ca02 14bd 7aba 47bd 9ea2 6c3d 0e53 7abd
00000150: a0f7 8b3b b797 e0bd 0e81 193e 7cbd 933d
00000160: 3c30 b33d 5569 1e3c fd49 cfbd bd98 f6bd
00000170: 0ef3 0bbd f52e 2bbe 8b49 0a3e 95e0 f43d
00000180: 283e e33c e412 323e b192 823d 855a 043e
00000190: 90fb 4b3d f5e8 ed3b 9e02 8f3d 07c6 773e
000001a0: fca5 0dbe 8de9 7e3c 7c2e f1bd d148 693d
000001b0: d6ca 91bd cd98 a2bb 1bcf a7bd 6034 ba3d
000001c0: 4244 4c3d f199 f4bd 210a 0c3e 1fca 29be
000001d0: e438 1a3e 6c96 a13d ed54 2f3d ec95 853d
000001e0: f7c4 43be 7ac9 babb fb29 4dbd 97a1 c03d
000001f0: 9641 edbc f604 82bc d67d 3ebd 147a f43d
00000200: 8be5 63bc 5f02 133e 25cd 063e 8236 f23c
00000210: 669e dd3d 9818 e73c c88b 063e 2eaa a5bb
00000220: 0d06 30bd 3b10 d03d 68e4 8d3d 9af8 593d
00000230: 83fd 07bd c852 aebd f9bc e73d fc23 9dbd
00000240: 27b1 bbbd b14a 0bbd ade5 30be fff2 aebd
00000250: 36f1 0a3e 2494 843d c4a9 733d 67e2 8dbd
00000260: a03a 31bd 85a5 513e 3fe0 15bd 8aa8 313d
00000270: 8a9d 153e 4991 14be 8fd4 cf3d 48ae 9f3d
00000280: 6e41 0e3d 10cf 523e 738d ea3d c7b6 36bd
00000290: 608f 36bd db59 393e a2d0 243e 4c68 6e3b
000002a0: f57b 33bc beb1 90bc b8e4 2fbd 54e4 42bc
000002b0: fcd1 253d 8b70 d63c e534 bc3d e679 a4bd
000002c0: a953 fdbd 6df7 dabd 9edc a73d 2c12 15be
000002d0: 6972 cfbc ef19 d63d ee3e 643e 5088 ff3d
000002e0: d260 0fbd 3fef 77bd 35cb c83d 19c1 74bd
000002f0: ee81 e53d 3e45 083e 923c d93d 7bee 4b3d
00000300: d8ce 7cbd 83a7 eabd a379 9f3c cbb7 c0bd
00000310: 296a 67bd 061b 1d3e 770a 9d3d a724 3e3e
00000320: 25db 2d3d 96dd 4d3e 5194 0dbd 3aa8 02bd
00000330: 74a4 5e3d d444 1dbe f0c7 44be 7c7a 40bd
00000340: 8be4 303d af8f 9b3d bf02 ca3c 1a2c a4bd
00000350: 49d9 5bbd a12f ab3d 06a9 363c efaa babb
00000360: ea02 543d 220a 523d 86f5 aa3d 153b 883c
00000370: 20f4 c0bb de32 4cbd fa2f 6fbc 61a7 163e
00000380: 77c0 cbbd fdf9 743d 2429 0cbe 4042 e6bd
00000390: e127 513e e3b0 c33c c3a7 68bd 0dee b9bc
000003a0: 9d60 17be c7e6 7c3e 61a6 193c 1301 c83c
000003b0: f661 23bd 3e6b cebb e209 b6bd 1732 013e
000003c0: e8c2 2a3d ed28 343e 5b26 ca3d 1403 863c
000003d0: 0293 78be 0d93 81bd cabd 1cbe 14b2 0e3e
000003e0: ce25 073e 595e 17bc fdee f9bd bbc1 bdbd
000003f0: 8768 303d 9724 c5bd 7637 ca3d e2c6 fb3c
0.007293467 -0.0016166902 0.19602636 0.11830961 0.11475138 -0.047860432 0.08016229 0.1311953
-0.0034483636 0.092930935 -0.1385276 0.037234686 0.010023593 -0.053451438 -0.03615565 -0.014418309
0.064323455 -0.18684426 -0.026747199 -0.008280224 0.12917952 -0.16651142 -0.079243384 0.15307625
0.07555476 -0.013234873 -0.11062832 -0.1736103 -0.067835 0.15376864 0.13610724 -0.12571408
0.047192868 0.15764405 -0.062823564 0.19174473 0.18788175 0.09500083 0.08317878 0.115180284
0.1933641 -0.09332319 -0.037020896 -0.1349126 -0.14576983 -0.15976895 -0.20068994 0.053626634
-0.046974856 0.14993633 0.18151064 -0.012616322 -0.19321443 -0.24974932 -0.030149676 -0.012271888
0.111645274 0.109463856 -0.07815802 -4.536248e-05 0.04802344 -0.011112983 0.08688876 0.14782074
0.08104907 0.15253651 0.010244295 0.01104318 0.11629004 -0.1893011 -0.061662376 0.18402748
-0.027357692 -0.048499107 0.05640607 0.08044173 0.015176856 0.04400725 0.0881953 -0.105450705
-0.036135472 -0.048761822 0.05777227 -0.061114363 0.0042714626 -0.10966437 0.14990637 0.07213876
0.08749434 0.009668668 -0.10121534 -0.12040851 -0.034167342 -0.16717131 0.13504617 0.11956898
0.0277396 0.17390019 0.063756354 0.12925155 0.049800456 0.0072604367 0.06982921 0.24196635
-0.1383285 0.0155586125 -0.11776444 0.05695421 -0.07118766 -0.004962063 -0.08193799 0.09092021
0.049869783 -0.119434245 0.13675739 -0.1658101 0.15060765 0.07890019 0.0428056 0.06522736
-0.19118105 -0.0057002874 -0.050088864 0.09405821 -0.028961938 -0.015871506 -0.046506725 0.11937347
-0.013909708 0.14356373 0.13164194 0.029567007 0.10821228 0.02820997 0.1313926 -0.0050556874
-0.04297452 0.10159346 0.06928331 0.0532156 -0.033200752 -0.08511883 0.113153405 -0.07672879
-0.091646485 -0.03400678 -0.17275114 -0.085424416 0.13568577 0.06473568 0.059488073 -0.069279484
-0.0432688 0.20473297 -0.03659081 0.043373622 0.14610878 -0.14508547 0.10147964 0.077969134
0.034730367 0.205868 0.114527605 -0.044607904 -0.044570327 0.18100683 0.16095212 0.0036378084
-0.010954847 -0.01766288 -0.042942733 -0.011895258 0.04048346 0.026176712 0.09189776 -0.08031063
-0.123694725 -0.10691724 0.08196376 -0.14557713 -0.02532311 0.10454165 0.22289631 0.124771714
-0.035004444 -0.060530897 0.09804384 -0.059754465 0.11206423 0.13307664 0.10607256 0.04978798
-0.0617207 -0.114577316 0.01946718 -0.09410056 -0.056497727 0.1534234 0.07668012 0.1856867
0.04244532 0.2010406 -0.034565274 -0.031898715 0.054356053 -0.15358287 -0.19216895 -0.04699181
0.043186706 0.07595765 0.024659513 -0.08016224 -0.053674016 0.08358694 0.011148697 -0.0056966464
0.05176059 0.051279195 0.08347611 0.016629735 -0.005888477 -0.0498532 -0.014598841 0.14712287
-0.09948819 0.05980872 -0.13687569 -0.11243105 0.20425369 0.023888057 -0.056800615 -0.02269652
-0.14782949 0.2469741 0.009378047 0.024414575 -0.039888345 -0.0062994054 -0.08888604 0.12616764
0.041689783 0.17593737 0.09870597 0.01635889 -0.24274829 -0.06326876 -0.15306774 0.13935119
0.13198015 -0.009238803 -0.122037865 -0.09265467 0.043068435 -0.096261196 0.098738596 0.030734483

weight_u f4 [32]
00000000: 0852 273e 6ea9 bf3e b97a 793e b875 293e
00000010: 9c0e 383e f836 4abd 1832 0a3d 46ec 423e
00000020: 352e 303e 03b8 373d 56f8 2ebd d929 c33d
00000030: fc0f 9c3e 8127 5b3e 8486 073e 07c2 1c3e
00000040: c6a3 ad3e 0203 ab3b 53d6 893e 736c 693d
00000050: deea 513e 9ab2 4a3e 3ce9 a33d 6d3b 7c3e
00000060: 71b6 73bc 809f 423e a10d 7f3e 8f7b 90bd
00000070: 9766 173d 3fa6 ad3d f599 ad3c 1322 dabc
0.16339886 0.37433952 0.24363221 0.16548812 0.17974323 -0.04936883 0.03373918 0.19035444
0.17205127 0.04485322 -0.0427173 0.09529466 0.30480945 0.21401788 0.13234907 0.1530839
0.33914012 0.0052188644 0.2692133 0.05698819 0.20499751 0.19794694 0.0800347 0.24632044
-0.01487504 0.19006157 0.24907543 -0.07054817 0.03696307 0.084789746 0.021191576 -0.026627576

weight_v f4 [32]
00000000: 86ca 1c3e 9267 863e 7fcb d23d 8884 333e
00000010: 76ff c43e eaab 04be bfd9 f1ba 9494 423e
00000020: ad5c d13d 3ded 573e bce1 9ebd 633e fd3d
00000030: 9b8e 9cbe b300 4bbd f76a 40be c2e3 d93d
00000040: 9a48 6dbd 132f ca3d 6cdb 723d 6b22 483d
00000050: 5559 f23d e018 85be 10ec 4a3d c73f 6f3d
00000060: cd7e ef3d c7d3 9f3e c8a2 57be f492 40be
00000070: bae9 e33d a9f5 1dbe d956 153d ad2d ab3e
0.15311632 0.26250893 0.1029272 0.17531025 0.3847615 -0.12956205 -0.0018451734 0.1900199
0.102227546 0.21086593 -0.07757899 0.12365415 -0.3057755 -0.049561214 -0.18790804 0.106391445
-0.057930566 0.0987226 0.05929129 0.04886095 0.11833445 -0.2599554 0.049541533 0.058410432
0.11694107 0.3121626 -0.2105819 -0.18806058 0.11128564 -0.15425743 0.036459778 0.33433285
